results/ppo/MoveToGoal/checkpoint.pt (torch, 440939 bytes, 36 tensors)

network_body._body_endoder.seq_layers.0.weight f4 [128, 6]
0.20137338 -0.29100403 0.11152628 0.33598107 0.6411105 -0.65348876 0.32097515 0.34180626
0.64692485 -0.15294236 0.047785204 0.24903959 -1.2480861 1.1139581 -0.34112844 -0.29037222
-0.2609312 -0.8405692 -0.20302962 0.6542396 0.37814572 -0.19495426 -0.5425934 -0.31626388
-0.2012787 0.2706112 0.10099481 0.30727077 -0.05407889 -0.44661376 0.14453189 0.17851704
-0.43821266 -0.27536982 -0.6070293 -0.63975286 -0.28916293 -0.26811907 -0.68826 -0.10413761
-0.04790854 -0.15020397 0.47866225 -0.3221827 -0.41469806 -0.21202101 0.19310704 0.09563899
-0.66139644 0.25069532 0.008666152 0.11009201 -0.22587092 0.53220135 -0.35943773 -0.19857575
-0.21331725 0.12761793 -0.28518334 -0.2296965 -0.10129567 0.39152658 0.48272547 -0.10362038
0.339844 -0.2829526 0.13524602 -0.7022061 -0.6281937 0.5043586 -0.46283782 -0.082485095
-0.20641091 -0.091232814 0.38569766 -0.6605325 0.21025123 -0.13045952 -0.11672153 0.18552797
0.20780335 0.08342407 -0.43992606 -0.03856408 -0.044162206 -0.11545505 -0.44496176 0.2616011
-0.52033955 -0.18871342 -0.1515761 -0.30243906 0.5167891 -0.542822 -0.282101 -0.10906735
0.17315935 -0.41086394 0.5243359 0.65652555 0.23381373 0.12659988 0.8210174 -0.17460904
0.92621857 0.003190588 -0.3437316 0.38376617 -0.022532262 -0.23081422 0.38043067 0.8743064
0.23932965 0.11264057 0.27721506 0.58809894 1.1249709 0.1305044 0.40278053 -1.1619657
-0.9699353 -0.09639948 -0.426529 -0.25030056 -0.29416266 0.5847429 -0.27221683 -0.8544506
0.7505306 0.86570746 -0.14348273 0.55140364 -0.06522359 -0.03456914 0.09428199 -0.21172592
0.28736922 -0.12432231 -0.16242947 0.081303716 -0.2110054 0.18242505 -0.69240797 0.2344159
0.14416857 0.27402854 -1.0303046 -0.04933947 0.11709931 0.32029322 -0.25891426 -0.27625334
-0.11006915 -0.5441325 0.067880705 0.76826286 0.6751015 -0.74003345 -0.39993888 -0.40001768
-0.38988218 0.41574863 0.5184107 0.5685684 -0.23322235 -0.42330563 0.34771004 0.5037043
0.066559054 -0.08503515 1.0340868 -0.7216841 0.52915686 -0.5843268 -0.2380134 -0.26825786
0.3076747 0.40904233 -0.24447407 0.26478967 -0.26786277 0.36346552 -0.40273726 0.57597125
-0.020227425 0.266103 -0.12117516 -0.01637706 -0.021946814 0.6623365 -0.54030806 0.055843316
-0.3306079 0.9036046 0.23581728 0.028462606 1.0151025 0.049042016 0.38470015 -0.16516052
-0.24551976 0.63613385 0.18099795 -0.5328452 0.99887246 0.44332317 -0.2596424 -0.0132248895
0.7147041 0.11178856 -0.18586956 -0.1345584 -0.13689858 0.94840336 0.12211413 0.105858386
0.064748295 0.059954833 -0.033363625 -0.36156598 0.94437504 0.099468574 -0.27167818 0.1802222
-0.2600836 0.44330895 -0.5331243 0.26479518 0.3848951 -0.02178669 0.22328846 -0.8718106
-0.11467141 0.40959343 0.2830043 0.3376461 -0.5526229 -0.010243528 -0.49455205 0.62852657
-0.056014854 0.024555523 0.2664525 -0.33880743 -0.2483294 0.10968599 0.16300231 -0.38828707
-1.0452946 0.4642257 0.2786119 0.18052864 0.24479507 0.21275201 0.21716742 -0.29656544
00000000: d334 4e3e 7bfe 94be e467 e43d b605 ac3e
00000010: d11f 243f 0a4b 27bf db56 a43e 3b01 af3e
00000020: de9c 253f ec9c 1cbe 6bba 433d 3c04 7f3e
00000030: 49c1 9fbf 2e96 8e3f 63a8 aebe abab 94be
00000040: c698 85be 8b2f 57bf ffe6 4fbe 3f7c 273f
00000050: 519c c13e 17a2 47be 67e7 0abf 57ed a1be
00000060: 011c 4ebe 8d8d 8a3e 5ed6 ce3d 9852 9d3e
00000070: d381 5dbd 8faa e4be 2b00 143e 2ccd 363e
00000080: 695d e0be 46fd 8cbe 4666 1bbf d8c6 23bf
00000090: 2a0d 94be e746 89be cf31 30bf 1946 d5bd
000000a0: bf3b 44bd 12cf 19be 3813 f53e 21f5 a4be
000000b0: 4e53 d4be 091c 59be dabd 453e 60de c33d
000000c0: 4751 29bf 235b 803e 7afc 0d3c eb77 e13d
000000d0: b54a 67be 593e 083f 3908 b8be 7157 4bbe
000000e0: d66f 5abe 46ae 023e 8d03 92be 8f35 6bbe
000000f0: 1b74 cfbd 2c76 c83e cb27 f73e ec36 d4bd
00000100: 0800 ae3e 2adf 90be ef7d 0a3e c7c3 33bf
00000110: 4dd1 20bf a51d 013f 14f9 ecbe f2ed a8bd
00000120: 625d 53be 45d8 babd 2a7a c53e a818 29bf
00000130: 194c 573e 2e97 05be b30b efbd 0bfb 3d3e
00000140: 67ca 543e 3dda aa3d fd3d e1be 5ef5 1dbd
00000150: 6ee3 34bd b273 ecbd 07d2 e3be 94f0 853e
00000160: f934 05bf 173e 41be c436 1bbe 4bd9 9abe
00000170: 4a4c 043f 62f6 0abf 8b6f 90be b45e dfbd
00000180: af50 313e c25c d2be e13a 063f 0f12 283f
00000190: de6c 6f3e 66a3 013e 322e 523f b6cc 32be
000001a0: a91c 6d3f 2f19 513b 97fd afbe 007d c43e
000001b0: 9495 b8bc 905a 6cbe cfc7 c23e 8bd2 5f3f
000001c0: d512 753e 19b0 e63d 22ef 8d3e a78d 163f
000001d0: 0cff 8f3f f2a2 053e 4039 ce3e 4bbb 94bf
000001e0: ae4d 78bf 176d c5bd 0262 dabe 6527 80be
000001f0: 7d9c 96be b6b1 153f 0160 8bbe 46bd 5abf
00000200: c622 403f 019f 5d3f 23ed 12be ca28 0d3f
00000210: f293 85bd 5f98 0dbd ea16 c13d aece 58be
00000220: 0f22 933e b29c febd e953 26be 9082 a63d
00000230: cd11 58be a2cd 3a3e a641 31bf b90a 703e
00000240: eda0 133e 784d 8c3e 05e1 83bf 2f18 4abd
00000250: c3d1 ef3d 79fd a33e 6990 84be 1471 8dbe
00000260: ef6b e1bd 444c 0bbf 0a05 8b3d e0ac 443f
00000270: 74d3 2c3f d572 3dbf cac4 ccbe 1ecf ccbe
00000280: a39e c7be 01dd d43e 90b6 043f b38d 113f
00000290: d7d1 6ebe 84bb d8be 0d07 b23e c4f2 003f
000002a0: 1d50 883d e926 aebd f55c 843f 4ac0 38bf
000002b0: d376 073f 7196 15bf c9b9 73be 1859 89be
000002c0: 8a87 9d3e ff6d d13e 6957 7abe 8392 873e
000002d0: 4f25 89be 2718 ba3e 9433 cebe da72 133f
000002e0: fcb3 a5bc a73e 883e af2a f8bd 2f29 86bc
000002f0: cec9 b3bc e38e 293f a151 0abf f6bb 643d
00000300: 7045 a9be a252 673f 167a 713e 692a e93c
00000310: e1ee 813f 48e0 483d 6bf7 c43e d71f 29be
00000320: 8869 7bbe abd9 223f 8757 393e 8b68 08bf
00000330: 1bb6 7f3f 41fb e23e d9ef 84be 35ad 58bc
00000340: d9f6 363f 67f1 e43d 9754 3ebe adc9 09be
00000350: 242f 0cbe 90ca 723f f916 fa3d 48cc d83d
00000360: c19a 843d 3393 753d 4ca8 08bd 2d1f b9be
00000370: 90c2 713f 2eb6 cb3d 6719 8bbe 2b8c 383e
00000380: ad29 85be 64f9 e23e d67a 08bf 3c93 873e
00000390: f810 c53e 007a b2bc bba5 643e fb2e 5fbf
000003a0: d8d8 eabd 3bb6 d13e f1e5 903e f3df ac3e
000003b0: b278 0dbf 78d4 27bc ed35 fdbe 1ee7 203f
000003c0: d56f 65bd aa28 c93c 766c 883e 2b78 adbe
000003d0: 104a 7ebe 0ca3 e03d 14ea 263e 90cd c6be
000003e0: 37cc 85bf feae ed3e 38a6 8e3e 80dc 383e
000003f0: 8fab 7a3e aadb 593e 2361 5e3e 6dd7 97be

network_body._body_endoder.seq_layers.0.bias f4 [128]
-0.01000866 0.02791283 0.007674494 0.0117057115 -0.004087291 0.0075516836 0.02023936 0.0035437625
0.021486387 -0.007210402 0.008349823 0.016199984 0.018171 -0.03033125 -0.012657146 -0.015261698
-0.009680263 -0.006524795 0.0016027013 0.03590812 0.017822877 0.0041500204 0.014463462 0.027384728
0.032070264 0.015714927 -0.012402995 0.028070513 0.011660112 0.013830961 0.047061812 0.025438804
0.011336886 0.008029559 -0.029587796 -0.022492075 0.01186041 0.008407597 0.022637554 0.051282655
-0.0069128615 -0.020035764 0.023565818 0.0031622201 0.01799437 0.018042525 0.014852345 0.036170278
0.033122625 0.030103942 -0.014677015 0.007706617 -0.00067559 0.020500593 0.0026094983 0.002058823
0.00019604155 0.0013802351 -0.01173887 -0.015991718 -0.0017936748 -0.02641303 -0.00614869 0.033868257
0.021611197 -0.008492911 0.004293937 0.0056681163 0.0069470084 0.006760779 0.007545113 0.037741072
0.021714833 0.019494105 0.041600633 -0.008581371 -0.0039364644 0.007205218 -0.006384411 0.056811817
0.041766524 0.010239072 0.0103666475 -0.015553175 -0.012616957 0.0035653147 0.015845275 0.012489352
0.041791216 -0.018271707 0.0050522257 0.0088157775 0.008183831 0.005781137 0.030382289 0.03375325
-0.0052657477 0.0023399142 2.7834214e-05 -0.033476066 0.012120219 0.038639627 0.029179618 0.04651299
0.01747312 0.0025791775 0.021620851 -0.021606484 -0.006824818 0.02635285 0.005639084 0.02408251
0.03303678 0.011939734 0.0078231 0.009279986 0.0063514505 0.021775674 0.017052755 0.016694872
0.039571773 0.023516187 0.01674944 -0.010062348 -0.0046013617 0.007511628 -0.017530726 -0.0023494293
00000000: 5dfb 23bc 72a9 e43c 527a fb3b 50c9 3f3c
00000010: afee 85bb 1d74 f73b 04cd a53c 783e 683b
00000020: 3804 b03c 3c45 ecbb b2cd 083c d4b5 843c
00000030: 59db 943c 3e79 f8bc eb5f 4fbc 330c 7abc
00000040: f799 1ebc f3cd d5bb bb11 d23a 6514 133d
00000050: 4801 923c e5fc 873b 28f8 6c3c f055 e03c
00000060: 1c5c 033d 97bc 803c ee35 4bbc 22f4 e53c
00000070: 0e0a 3f3c 419b 623c e3c3 403d 0a65 d03c
00000080: 59be 393c 698e 033c 1b62 f2bc 4d41 b8bc
00000090: 2a52 423c 05c0 093c 6472 b93c c30d 523d
000000a0: 4985 e2bb 0b22 a4bc 1a0d c13c 403d 4f3b
000000b0: ee68 933c ebcd 933c 4057 733c 4927 143d
000000c0: 97ab 073d 8b9c f63c dd77 70bc ca87 fc3b
000000d0: 141a 31ba dcf0 a73c 1e04 2b3b 51ed 063b
000000e0: 8190 4d39 01e9 b43a 6454 40bc 1001 83bc
000000f0: bd19 ebba 2460 d8bc f37a c9bb 71b9 0a3d
00000100: f709 b13c da25 0bbc 27b4 8c3b 9bbb b93b
00000110: bba3 e33b 8689 dd3b ff3c f73b 6296 1a3d
00000120: 4ee3 b13c 1ab2 9f3c 6d65 2a3d e198 0cbc
00000130: 75fd 80bb c019 ec3b 5234 d1bb 82b3 683d
00000140: 6013 2b3d c8c1 273c dfd8 293c bed2 7ebc
00000150: 5ab7 4ebc 0ea8 693b f3cd 813c 24a0 4c3c
00000160: 442d 2b3d 8cae 95bc 248d a53b 0d70 103c
00000170: 7a15 063c b16f bd3b 47e4 f83c d940 0a3d
00000180: 4b8c acbb 3f59 193b 857d e937 331e 09bd
00000190: e293 463c 9644 1e3d 180a ef3c 6884 3e3d
000001a0: ca23 8f3c 6b07 293b 361e b13c 1500 b1bc
000001b0: b9a2 dfbb efe1 d73c 11c8 b83b af48 c53c
000001c0: 9351 073d e09e 433c 762c 003c 150b 183c
000001d0: d41f d03b e662 b23c 38b2 8b3c afc3 883c
000001e0: 0316 223d 05a5 c03c 1f36 893c 8cdc 24bc
000001f0: 05c7 96bb 1a24 f63b 999c 8fbc e2f8 19bb

network_body._body_endoder.seq_layers.2.weight f4 [128, 128]
-0.10239968 -0.0064911377 -0.023498684 0.012574492 -0.07722608 0.08971173 0.28160754 -0.0041280547
0.2089665 -0.0060241004 -0.008190494 0.06618015 -0.066527665 -0.09810977 -0.017460803 -0.044993423
-0.18150109 0.036493603 0.015524355 0.01515235 0.09676634 0.003803528 -0.22641209 0.15504315
-0.23625162 0.010821482 -0.036612727 -0.09011225 0.042281352 -0.08110486 0.15416928 -0.04089889
0.103672214 0.072008386 -0.05924548 -0.13447182 0.006062005 -0.032568146 0.07449344 0.12688786
-0.0092254 0.08306829 0.008454416 -0.07698635 -0.09063393 -0.059412584 0.0088913115 0.027376734
0.042056724 0.10062311 0.090837024 0.004120526 0.083781675 0.22761214 -0.14515288 0.08342961
0.026732052 -0.16856846 0.10084481 -0.089171305 0.12595047 0.085076176 -0.041117538 0.16937074
0.035851482 0.028184514 -0.051005516 -0.027034944 0.12542512 0.22754607 -0.005610659 -0.123326436
-0.15042505 -0.16500245 0.07972917 -0.034661848 -0.029038968 -0.02556795 0.08508118 0.17060952
0.13939199 -0.076301545 0.09678426 0.011266821 0.020879012 0.10354563 0.034440678 -0.025968906
0.130486 -0.04868575 0.079728775 -0.10054078 -0.08626362 -0.10915591 -0.061713453 -0.17806247
0.031427994 0.042317674 -0.099932514 0.07060322 0.120636046 -0.00290624 -0.17135738 -0.07504582
0.010748529 0.032459978 0.031311534 0.009198152 0.06253919 0.040989593 -0.10241816 0.14848436
0.1418706 -0.027708918 0.055869613 0.019952675 -0.08592389 0.040018186 -0.16782643 0.094978146
-0.06926148 -0.045360193 -0.021150313 0.020707035 0.1102036 0.010827419 -0.056955174 -0.067786224
0.078716785 0.021042239 0.065877736 0.0054847742 -0.034383915 0.07706413 -0.0886802 0.108574115
-0.054607697 0.08409432 0.092526935 0.069091275 0.02634902 0.10438505 0.0056696306 -0.021825425
0.12409728 0.09709809 0.2013755 0.08191043 0.08717135 -0.10026021 0.16968317 0.09402116
0.09379962 0.055652503 0.13952377 -0.054000154 -0.031258292 -0.005943412 0.079621926 -0.072495446
0.057391297 -0.018786514 0.06764291 -0.078835875 -0.07100789 -0.009351763 -0.11255828 0.08366902
-0.13894626 0.022510957 0.009677233 -0.036889788 0.02086359 0.13949822 0.049401354 0.00547788
0.042185612 -0.034480847 -0.036698025 -0.038060218 -0.11126694 -0.07485592 0.07475214 0.0027582832
0.0015638863 -0.04744335 0.012356474 0.16254574 -0.13831069 0.14410666 0.03112227 0.027248096
0.06366847 0.06642258 -0.002553478 0.024471998 -0.058076248 -0.026909672 0.008423242 0.13513029
0.062011 0.0702036 -0.06424841 0.17751572 0.008232935 0.073972724 -0.08067915 -0.09272415
-0.027069848 0.090955555 -0.06973674 0.006400672 -0.06619919 -0.17127319 -0.004624755 0.018198421
-0.12056648 -0.081667095 -0.08435617 0.16200364 0.04088735 -0.054203045 -0.0099681625 -0.111055166
0.043513305 -0.0674828 -0.22443828 -0.05745095 0.14809252 -0.11245467 0.16698985 0.101869
-0.049467392 -0.03324146 -0.03264051 -0.104678385 0.014513892 0.012823558 0.078891456 0.10571393
0.13165297 0.04649355 0.020796 -0.046792597 -0.12856193 -0.0959567 -0.0930032 -0.11232553
-0.11769446 0.12530713 -0.021234294 -0.025107346 0.0035532333 0.03858455 -0.02315373 0.11464094
00000000: ecb6 d1bd 9cb3 d4bb 5080 c0bc 3e05 4e3c
00000010: b528 9ebd c9ba b73d dd2e 903e a244 87bb
00000020: 50fb 553e d165 c5bb 6c31 06bc 7589 873d
00000030: a83f 88bd c6ed c8bd f509 8fbc 064b 38bd
00000040: 6cdb 39be 517a 153d dd59 7e3c 9041 783c
00000050: 6e2d c63d 9c44 793b 92d8 67be a2c3 1e3e
00000060: f2eb 71be 964c 313c 3af7 15bd c58c b8bd
00000070: 362f 2d3d 4e1a a6bd 8dde 1d3e 9885 27bd
00000080: 1952 d43d 2279 933d 63ab 72bd fbb2 09be
00000090: c9a3 c63b 2d66 05bd 0490 983d e4ee 013e
000000a0: 2226 17bc b51f aa3d 6484 0a3c 05ab 9dbd
000000b0: 489e b9bd 9c5a 73bd ddac 113c 2c45 e03c
000000c0: ac43 2c3d 7d13 ce3d c308 ba3d 7a05 873b
000000d0: ba95 ab3d 2813 693e f5a2 14be 25dd aa3d
000000e0: 2dfd da3c 369d 2cbe b987 ce3d 729f b6bd
000000f0: 29f9 003e 6b3c ae3d dd6a 28bd 866f 2d3e
00000100: 01d9 123d 36e3 e63c 29eb 50bd 6378 ddbc
00000110: 716f 003e d601 693e 9ed9 b7bb 9292 fcbd
00000120: 0609 1abe 67f6 28be 0c49 a33d 95f9 0dbd
00000130: 21e3 edbc e173 d1bc 0b3f ae3d 43b4 2e3e
00000140: c6bc 0e3e fc43 9cbd d336 c63d 7998 383c
00000150: 760a ab3c bb0f d43d ab11 0d3d bebc d4bc
00000160: 1f9e 053e b66a 47bd d748 a33d 53e8 cdbd
00000170: fbaa b0bd 228d dfbd 3fc7 7cbd 0256 36be
00000180: a4ba 003d 4c55 2d3d 6ba9 ccbd 6c98 903d
00000190: 0810 f73d 9e76 3ebb 4f78 2fbe 9fb1 99bd
000001a0: 991a 303c c1f4 043d 8640 003d d9b3 163c
000001b0: 8c14 803d b4e4 273d 9dc0 d1bd 490c 183e
000001c0: 8746 113e d0fd e2bc 89d7 643d cb73 a33c
000001d0: ddf8 afbd 1cea 233d b1da 2bbe e783 c23d
000001e0: f6d8 8dbd 9ccb 39bd 6c43 adbc cda1 a93c
000001f0: 6db2 e13d 7d65 313c d449 69bd 81d3 8abd
00000200: 4436 a13d c660 ac3c e8ea 863d 9fb9 b33b
00000210: 26d6 0cbd ccd3 9d3d f79d b5bd 1b5c de3d
00000220: 52ac 5fbd a539 ac3d c37e bd3d ba7f 8d3d
00000230: e6d9 d73c d4c7 d53d 4fc8 b93b 3ccb b2bc
00000240: b726 fe3d 5ddb c63d 6135 4e3e a8c0 a73d
00000250: e586 b23d 3a55 cdbd 6dc1 2d3e 2a8e c03d
00000260: 041a c03d e1f3 633d 52df 0e3e 442f 5dbd
00000270: b208 00bd f4c0 c2bb d210 a33d 7e78 94bd
00000280: 2313 6b3d 2de6 99bc 5e88 8a3d b474 a1bd
00000290: 966c 91bd 2338 19bc f584 e6bd aa5a ab3d
000002a0: ee47 0ebe e668 b83c 428d 1e3c bf19 17bd
000002b0: 1fea aa3c 9fd8 0e3e 1359 4a3d ca7f b33b
000002c0: d2ca 2c3d ca3b 0dbd ab50 16bd 08e5 1bbd
000002d0: ecdf e3bd 104e 99bd a617 993d 50c4 343b
000002e0: 51fb cc3a f553 42bd cf72 4a3c 6472 263e
000002f0: 51a1 0dbe b290 133e 21f4 fe3c 6637 df3c
00000300: 9d64 823d 9008 883d 4158 27bb 8079 c83c
00000310: 5ce1 6dbd ac71 dcbc a301 0a3c 985f 0a3e
00000320: 3fff 7d3d e8c6 8f3d ac94 83bd aec6 353e
00000330: 6fe3 063c 037f 973d 1c3b a5bd 29e6 bdbd
00000340: 96c1 ddbc e846 ba3d 23d2 8ebd babc d13b
00000350: 7193 87bd 3d62 2fbe 428b 97bb db14 953c
00000360: 8feb f6bd 1441 a7bd edc2 acbd 48e4 253e
00000370: 7e79 273d 0304 5ebd 8151 23bc e470 e3bd
00000380: 023b 323d 6c34 8abd 26d3 65be b051 6bbd
00000390: 91a5 173e a24e e6bd 63ff 2a3e b2a0 d03d
000003a0: 529e 4abd 3228 08bd 0eb2 05bd 9f61 d6bd
000003b0: adcb 6d3c e719 523c d891 a13d 8c80 d83d
000003c0: 09d0 063e 0570 3e3d 5f5c aa3c 98a9 3fbd
000003d0: bda5 03be f284 c4bd 7678 bebd ed0a e6bd
000003e0: cb09 f1bd 8350 003e 8bf3 adbc ecad cdbc
000003f0: 5ddd 683b d50a 1e3d e4ac bdbc dfc8 ea3d

network_body._body_endoder.seq_layers.2.bias f4 [128]
0.012033722 0.010634913 0.00075767963 0.021833185 0.032309204 0.014871576 -0.0005351325 -0.0042766044
0.0052347067 0.011821401 -0.0024692 0.013346288 0.02168711 0.011387388 0.050515324 0.0023388856
0.008188687 0.002522608 0.0029828935 0.006596218 0.018370366 0.008924896 0.02378342 0.0031231272
0.016201152 0.008663722 0.026883006 0.018851858 0.0010972695 -0.0031297272 0.015371258 -0.010061032
0.04317727 0.014125786 -0.0012072475 0.021490345 0.0032553333 -0.018798742 0.023804823 -0.0054389955
0.02099337 0.011199749 0.020230075 -0.00811305 -0.0061596585 0.0011505982 -0.00021382928 0.014112731
0.015188153 0.014781902 0.015050234 0.0015526534 0.0052686906 -0.009722515 0.005451998 0.0018946537
0.0036035287 0.017529733 0.013566522 0.02091308 0.013314648 0.021159278 0.004076835 0.0031015184
0.02002569 0.005353889 0.0120812375 0.010083194 -0.008002883 -0.0012782362 0.009501549 -0.0038956217
0.010876926 0.0076252287 -0.0032209745 0.01942263 -0.006770897 0.04598224 0.0147833 0.020106807
0.00036831805 -0.006183926 0.0058391746 -0.0095005445 0.006944081 0.042371295 -0.0040499866 0.017815763
0.0071477015 0.023766218 0.026608402 8.792913e-05 0.012630402 0.008652138 0.020116813 0.0234583
0.032325752 -0.011271948 0.026245562 0.019243367 0.02070324 0.0034875388 -0.03226253 0.0161307
0.0058981827 -0.0027298003 0.014694009 0.009338253 0.00036107792 0.0031878066 0.013485717 -0.004966164
0.0066737193 0.014017634 0.013804052 0.011994304 0.004856203 0.032218654 0.0036554278 -0.010307179
-0.009083009 0.012978733 0.0034370522 0.002763198 0.028918674 0.0075470945 0.0025163442 0.011318584
00000000: 1729 453c 0f3e 2e3c 059f 463a 82db b23c
00000010: a856 043d e9a7 733c 2248 0cba c222 8cbb
00000020: e787 ab3b 8dae 413c 4dd2 21bb 64aa 5a3c
00000030: 2ba9 b13c 2b92 3a3c 28e9 4e3d fd47 193b
00000040: d829 063c 5752 253b a67c 433b 1625 d83b
00000050: 737d 963c ba39 123c 72d5 c23c 61ad 4c3b
00000060: 47b8 843c 49f2 0d3c c039 dc3c 366f 9a3c
00000070: 41d2 8f3a 1c1c 4dbb bbd7 7b3c 07d7 24bc
00000080: a6da 303d d76f 673c 813c 9eba 850c b03c
00000090: 6e57 553b d2ff 99bc 5502 c33c 9a39 b2bb
000000a0: 4afa ab3c 277f 373c 8bb9 a53c 99ec 04bc
000000b0: f6d6 c9bb abcf 963a 5c37 60b9 1639 673c
000000c0: bbd7 783c ca2f 723c 4295 763c 6782 cb3a
000000d0: fba4 ac3b 2f4b 1fbc ada6 b23b 0756 f83a
000000e0: 2e29 6c3b 849a 8f3c 1e46 5e3c e851 ab3c
000000f0: ae25 5a3c 3956 ad3c f896 853b d842 4b3b
00000100: ea0c a43c ad6f af3b 62f0 453c fb33 253c
00000110: 861e 03bc 7d8a a7ba 63ac 1b3c b04d 7fbb
00000120: 2235 323c 0edd f93b fc16 53bb 351c 9f3c
00000130: 67de ddbb e057 3c3d a835 723c 08b7 a43c
00000140: d01a c139 88a2 cabb 8c56 bf3b 2ca8 1bbc
00000150: 2c8b e33b 868d 2d3d c0b5 84bb 5df2 913c
00000160: 4437 ea3b 5fb1 c23c ddf9 d93c 9866 b838
00000170: bfef 4e3c b2c1 0d3c 04cc a43c 9f2b c03c
00000180: 0268 043d faad 38bc ef00 d73c 44a4 9d3c
00000190: d799 a93c 318f 643b b725 04bd 8824 843c
000001a0: 8b45 c13b 73e6 32bb 24bf 703c 79ff 183c
000001b0: 0f4f bd39 85ea 503b 32f3 5c3c 34bb a2bb
000001c0: 37af da3b 38aa 653c 642a 623c c283 443c
000001d0: c920 9f3b b5f7 033d e78f 6f3b 71df 28bc
000001e0: e7d0 14bc c0a4 543c 2b40 613b c516 353b
000001f0: dbe6 ec3c 9e4d f73b 40e9 243b 9571 393c

action_model._continuous_distribution.log_sigma f4 [1, 2]
0.018827775 0.023962915
00000000: b53c 9a3c e04d c43c

action_model._continuous_distribution.mu.weight f4 [2, 128]
0.02815571 -0.031313263 0.0030203925 0.019490248 0.031301685 -0.06416654 0.006790331 -0.0056800228
-0.033869706 -0.00909015 -0.018247046 -0.04180098 0.021704974 0.028338507 0.04163839 0.029565798
0.009903093 0.019038592 -0.02257388 -0.021052565 0.029185427 -0.020941298 -0.032893844 -0.021917753
0.004169852 0.050057016 0.024640266 0.038456514 0.011438438 0.0042172377 -0.033731427 -0.012037114
-0.015987065 0.02051795 0.01826406 0.064185105 -0.010792684 -0.019179082 -0.070083894 0.014381807
0.0322462 -0.037760537 -0.0412243 0.006230989 -0.03340767 -0.0018785134 -0.014071986 0.004773926
0.0289218 0.034442987 0.042623784 0.023781715 -0.023408268 -0.00079321046 0.024720274 0.0238707
0.03147416 -0.04561273 -0.029120428 -0.04272039 0.0036427418 -0.020768981 -0.017191714 -0.030170383
0.0064820447 0.0070023644 0.017955313 0.014434208 -0.0025927003 -0.018748814 0.05475176 0.0025220045
-0.016863083 -0.016599588 0.029221682 0.0009394478 0.005364258 0.053804394 -0.039606057 0.015333305
0.0055893958 0.017588034 -0.04474838 -0.017650073 0.00614885 -0.045208413 0.0003265863 0.05594539
0.008535683 0.016066706 0.074292146 -0.011169137 -0.0026304813 -0.03694747 -0.0100069605 -0.009423677
-0.01160157 0.010506853 0.026415085 -0.037392873 0.031135336 0.003038767 -0.016673066 -0.048067957
-0.025331983 0.03374563 -0.028453626 -0.016711706 -0.030396365 0.00032655278 0.02915409 0.025272466
0.02078019 -0.046837628 -0.0343407 -0.021753822 -0.0057789222 -0.05898838 -0.026791845 -0.022850795
-0.013951106 -0.058842026 0.00888376 -0.015886443 0.011007373 -0.008943596 -0.022180712 0.057711147
0.014592701 0.01070777 0.028051157 -0.048566468 0.07697829 0.009779164 -0.00992947 0.018447936
-0.02621339 -0.031844985 0.003234473 -0.009285683 0.040414613 0.03323702 -0.013263497 -0.0030682506
-0.04537413 0.005924441 0.044481564 0.006270894 -0.030504983 -0.004481784 -0.043639943 -0.009903599
0.06975623 -0.055027816 -0.038605932 -0.0017951804 -0.008801154 0.029526714 0.006873275 0.010259232
0.07010345 -0.023992166 0.014612833 0.026349226 0.017660469 0.011858561 -0.023261089 0.0053886115
-0.008180748 -0.033003934 0.008104599 0.02213778 -0.007334689 0.013362796 0.035907414 -0.058684476
-0.018391216 0.0043094116 0.0177773 0.019549942 0.013015052 0.0029758967 0.016743537 -0.009976132
-0.021945635 -0.0032765646 -0.02111048 0.02843551 0.040216964 -0.03111349 0.036396515 -0.011672828
0.05160485 0.016973 0.0010534107 0.026913185 0.02544572 -0.011052355 -0.010665802 -0.00830189
-0.026602684 -0.003680273 0.010897079 -0.035507478 0.023149572 -8.537408e-05 0.006824367 0.01929009
0.01567315 0.008405762 -0.028435772 0.0023070087 -0.021342656 0.06469851 0.007649589 0.0048781945
-0.016958475 -0.03161719 0.03785863 0.029174719 -0.02986655 -0.028606582 -0.02819977 -0.046510078
0.048402373 0.013571568 -0.04931021 -0.00729756 0.0050103073 0.015006917 -0.004487549 -0.012349483
0.015780324 0.033896197 -0.03987956 0.048913404 0.0038596725 -0.021015763 -0.03315454 0.029171847
-0.011094694 -0.0029709588 0.026246881 -0.022957422 -0.018092887 -0.03239346 0.009810244 0.017614968
0.00599863 -0.010491856 0.026319958 -0.00905971 -0.04334295 -0.01040883 0.033779815 -0.031391334
00000000: cea6 e63c 5642 00bd c7f1 453b 03aa 9f3c
00000010: 3236 003d bf69 83bd 6d81 de3b 7c1f babb
00000020: f6ba 0abd daee 14bc d47a 95bc 8137 2bbd
00000030: a1ce b13c 2826 e83c 048d 2a3d f933 f23c
00000040: 9540 223c d2f6 9b3c dcec b8bc 6e76 acbc
00000050: 4716 ef3c 168d abbc b2bb 06bd dc8c b3bc
00000060: 41a3 883b 9608 4d3d 62da c93c 9484 1d3d
00000070: 4968 3b3c c130 8a3b f729 0abd 5137 45bc
00000080: 4ef7 82bc 4315 a83c 839e 953c 7b73 833d
00000090: ccd3 30bc 731d 9dbc 2588 8fbd aca1 6b3c
000000a0: 9714 043d cbaa 1abd d0da 28bd 532d cc3b
000000b0: 7bd6 08bd 7338 f6ba 308e 66bc 986e 9c3b
000000c0: 69ed ec3c 1714 0d3d 4796 2e3d dfd1 c23c
000000d0: b2c2 bfbc 74ef 4fba 2c82 ca3c 7c8c c33c
000000e0: 0ceb 003d 6ad4 3abd f78d eebc 93fb 2ebd
000000f0: 11bb 6e3b b623 aabc a3d5 8cbc e127 f7bc
00000100: 5567 d43b 1774 e53b 0517 933c 757d 6c3c
00000110: 4bea 29bb 1d97 99bc 6243 603d 3748 253b
00000120: 7324 8abc dcfb 87bc 4f62 ef3c 4645 763a
00000130: a8c6 af3b ff61 5c3d f639 22bd 8b38 7b3c
00000140: 4027 b73b c814 903c 144a 37bd e396 90bc
00000150: 4b7c c93b 752c 39bd ac39 ab39 fe26 653d
00000160: 40d9 0b3c 539e 833c 7b26 983d c2fe 36bc
00000170: 2764 2cbb 3b56 17bd 3cf4 23bc c465 1abc
00000180: 8314 3ebc f024 2c3c 7364 d83c 4529 19bd
00000190: 880f ff3c 0d26 473b f495 88bc e8e2 44bd
000001a0: 0585 cfbc dc38 0a3d 9417 e9bc fde6 88bc
000001b0: cc01 f9bc 2c35 ab39 8fd4 ee3c 3408 cf3c
000001c0: 383b aa3c d0d8 3fbd d5a8 0cbd 1235 b2bc
000001d0: 1d5d bdbb cd9d 71bd 927a dbbc 9731 bbbc
000001e0: 2e93 64bc 5604 71bd 318d 113c 4924 82bc
000001f0: 4558 343c 2988 12bc 53b4 b5bc 8662 6c3d
00000200: 3916 6f3c a46f 2f3c 8acb e53c a2ed 46bd
00000210: cba6 9d3d c938 203c 37af 22bc 2020 973c
00000220: 77bd d6bc e36f 02bd 74f9 533b fa22 18bc
00000230: cb89 253d 8b23 083d 234f 59bc b414 49bb
00000240: 39da 39bd d021 c23b 4d32 363d 127c cd3b
00000250: 96e5 f9bc eedb 92bb ccbf 32bd b442 22bc
00000260: 5bdc 8e3d d964 61bd 4121 1ebd 424c ebba
00000270: b732 10bc 02e2 f13c 3639 e13b 5616 283c
00000280: 6692 8f3d 388b c4bc aa6a 6f3c 55da d73c
00000290: b0ac 903c 694a 423c 0a8e bebc f392 b03b
000002a0: 8b08 06bc 222f 07bd 27c9 043c 4a5a b53c
000002b0: d557 f0bb a1ef 5a3c a713 133d 225f 70bd
000002c0: 2da9 96bc f735 8d3b b3a1 913c 3327 a03c
000002d0: 163d 553c 4307 433b be29 893c ee72 23bc
000002e0: 55c7 b3bc a2bb 56bb e3ef acbc 96f1 e83c
000002f0: 8bba 243d b8e1 febc 8314 153d 643f 3fbc
00000300: 9b5f 533d f60a 8b3c 9912 8a3a 0a79 dc3c
00000310: 8b73 d03c f014 35bc 9ebf 2ebc a704 08bc
00000320: dfed d9bc bc30 71bb a989 323c 4a70 11bd
00000330: 2ca4 bd3c dc0a b3b8 f19e df3b 4006 9e3c
00000340: fa64 803c 52b8 093c 23f2 e8bc 2f31 173b
00000350: cbd6 aebc a780 843d 67a9 fa3b 43d9 9f3b
00000360: 80ec 8abc 0781 01bd a711 1b3d d2ff ee3c
00000370: b2aa f4bc 5a58 eabc 3403 e7bc 5a81 3ebd
00000380: 9141 463d 485b 5e3c 81f9 49bd 5f20 efbb
00000390: 812d a43b 92df 753c 4a0c 93bb 7c55 4abc
000003a0: bd45 813c bdd6 0a3d c058 23bd 6c59 483d
000003b0: 8ff2 7c3b 4029 acbc 0ecd 07bd ccf9 ee3c
000003c0: 85c6 35bc 6bb4 42bb b303 d73c 3411 bcbc
000003d0: 8937 94bc 01af 04bd 25bb 203c 444d 903c
000003e0: 2890 c43b 09e6 2bbc f49c d73c 2e6f 14bc
000003f0: 6188 31bd cc89 2abc b45c 0a3d 3394 00bd

action_model._continuous_distribution.mu.bias f4 [2]
0.00012925007 -0.006291707
00000000: 4d87 0739 aa2a cebb

exp_avg f4 [128, 6]
-6.755301e-05 2.5321715e-05 -3.1882296e-06 -0.0001462503 2.5321715e-05 1.2676255e-05 -1.2854431e-05 -3.419452e-05
-1.8152612e-05 9.261093e-05 -3.419452e-05 -0.00010750942 0.0002397112 -0.00023977921 0.00020790668 1.8971194e-05
-0.00023977921 0.00024003256 0.00016390793 -7.9734935e-05 -0.00016584352 0.00022767014 -7.9734935e-05 -0.00028195378
0.0002159018 -0.0002246253 0.0003465673 9.385549e-06 -0.0002246253 0.00026079558 -0.00022984733 1.6721653e-05
-7.5579126e-05 -0.00028652087 1.6721653e-05 2.3416877e-05 -4.8664813e-05 -0.0001224089 0.00031065874 -0.00020886194
-0.0001224089 0.00017899701 -8.3829946e-05 1.894703e-05 -0.00030558585 0.00011884835 1.894703e-05 -0.0005479816
-2.8335446e-05 -1.959486e-05 0.000563794 -0.00064917863 -1.959486e-05 0.0006413223 0.00015188573 -1.9860052e-05
0.00016006481 0.00014829922 -1.9860052e-05 8.0409045e-05 8.786038e-05 -5.299891e-05 -0.00039329752 0.0002597691
-5.299891e-05 -0.00037953025 -9.585074e-08 -3.8744503e-05 6.474677e-05 -4.542352e-05 -3.8744503e-05 8.977382e-05
-0.000102385 -2.5071044e-05 -7.800864e-05 -4.7812297e-05 -2.5071044e-05 -0.00013318016 0.00029792445 2.1658416e-06
-3.8504273e-05 0.000256588 2.1658416e-06 7.475741e-05 0.00021229242 -5.6763452e-05 0.00032851164 0.00018592748
-5.6763452e-05 0.00011497378 -0.00037628956 0.00012873119 0.00025246124 -0.0004038798 0.00012873119 0.00038104985
0.00011998694 8.319575e-05 1.7518578e-06 0.00017713477 8.319575e-05 0.00010862721 6.825857e-05 -2.6159218e-05
-5.9281505e-05 9.373382e-05 -2.6159218e-05 -6.7145746e-05 -1.6631648e-05 -0.00011952983 -0.0001719497 -4.8728743e-05
-0.00011952983 -0.000313643 0.00027400214 -4.3407188e-05 -0.0004003175 0.00025912694 -4.3407188e-05 -3.410026e-05
0.00011592775 -5.8326077e-05 0.00028172325 1.4250419e-05 -5.8326077e-05 0.00033320574 0.00025442257 -4.8828615e-06
-0.00012645307 0.00030469947 -4.8828615e-06 -2.0568126e-05 -5.945008e-05 3.171331e-05 -0.00042049802 0.0001171027
3.171331e-05 -0.00053004647 -3.901704e-05 -5.430723e-05 0.00012649896 -0.0001234211 -5.430723e-05 8.815307e-05
1.0932701e-05 -0.00018630936 0.00023985356 -6.733471e-05 -0.00018630936 -2.9638684e-05 -0.00032301957 5.024081e-05
0.00043755947 -0.0005648455 5.024081e-05 0.0004976689 2.917504e-06 -2.2798662e-05 -1.259121e-06 3.282403e-05
-2.2798662e-05 -2.7699753e-05 -0.0012764141 -8.5827036e-05 0.00028309802 -0.0010365844 -8.5827036e-05 -0.00012517216
1.1654495e-05 -9.16837e-05 -0.00047938625 0.00041212892 -9.16837e-05 -0.00064731104 0.0004463127 -5.002183e-05
-0.00011764765 0.00020136825 -5.002183e-05 5.1140567e-05 0.00028772134 -0.0006739632 0.0010716148 -0.00057262107
-0.0006739632 0.00072701846 7.635679e-05 2.1879576e-05 1.42233985e-05 3.170413e-05 2.1879576e-05 5.913085e-05
0.00036238116 -0.00026220892 0.000101450634 0.00013398676 -0.00026220892 0.00033800898 -5.1599483e-05 -0.00013252001
0.0003601278 -0.00023538456 -0.00013252001 0.00037484386 -0.00012260344 0.000121236495 -0.000527238 0.00023147577
0.000121236495 -0.0006287562 -2.5827414e-05 0.0001217623 -7.2596245e-05 9.978796e-05 0.0001217623 4.2605116e-06
-0.00071319117 3.211842e-05 1.6316779e-05 -0.000591476 3.211842e-05 1.218541e-07 0.00013381103 -5.2056257e-05
0.00018965152 3.821748e-05 -5.2056257e-05 5.6721994e-05 -0.0009785141 8.956795e-06 -0.00011401844 -0.00076215685
8.956795e-06 -0.00026116736 -0.00039251088 -0.00013636697 0.00032862634 -0.00061479403 -0.00013636697 0.00022367213
-9.078029e-05 6.690229e-05 0.00028096512 -0.00018519627 6.690229e-05 0.00042392113 5.619491e-05 7.528678e-08
6.710067e-05 6.212742e-05 7.528678e-08 2.082076e-05 -0.00012854526 4.3204956e-05 -0.00060976174 -0.00013870143
00000000: 3fab 8db8 f869 d437 5ef5 55b6 c45a 19b9
00000010: f869 d437 1aac 5437 5ca9 57b7 166c 0fb8
00000020: 7046 98b7 1d38 c238 166c 0fb8 ae76 e1b8
00000030: fc5a 7b39 3e6d 7bb9 8601 5a39 5424 9f37
00000040: 3e6d 7bb9 40b1 7b39 b3de 2b39 5e37 a7b8
00000050: 48e6 2db9 bdba 6e39 5e37 a7b8 32d3 93b9
00000060: b363 6239 6589 6bb9 7ab3 b539 a076 1d37
00000070: 6589 6bb9 64bb 8839 2c03 71b9 7a45 8c37
00000080: 3c80 9eb8 2e38 96b9 7a45 8c37 5c6f c437
00000090: 721d 4cb8 e45a 00b9 e9df a239 f301 5bb9
000000a0: e45a 00b9 25b1 3b39 dccd afb8 70f0 9e37
000000b0: 0a37 a0b9 393e f938 70f0 9e37 6ca6 0fba
000000c0: e8b1 edb7 a45f a4b7 93cb 133a a42d 2aba
000000d0: a45f a4b7 691e 283a 8443 1f39 2399 a6b7
000000e0: 12d7 2739 c580 1b39 2399 a6b7 47a1 a838
000000f0: af41 b838 254b 5eb8 8033 ceb9 9e31 8839
00000100: 254b 5eb8 b0fb c6b9 80d6 cdb3 9881 22b8
00000110: a8c8 8738 2285 3eb8 9881 22b8 f444 bc38
00000120: 87b7 d6b8 a84f d2b7 9298 a3b8 108a 48b8
00000130: a84f d2b7 47a6 0bb9 be32 9c39 e058 1136
00000140: a67f 21b8 a986 8639 e058 1136 14c7 9c38
00000150: d09a 5e39 4b15 6eb8 163c ac39 87f5 4239
00000160: 4b15 6eb8 141e f138 bb48 c5b9 04fc 0639
00000170: c65c 8439 d4bf d3b9 04fc 0639 a5c7 c739
00000180: 7fa1 fb38 6179 ae38 6021 eb35 41bd 3939
00000190: 6179 ae38 cace e338 0a26 8f38 7e70 dbb7
000001a0: 08a5 78b8 f692 c438 7e70 dbb7 99d0 8cb8
000001b0: 3184 8bb7 17ac fab8 654d 34b9 1762 4cb8
000001c0: 17ac fab8 7370 a4b9 f2a7 8f39 1d10 36b8
000001d0: b5e1 d1b9 6edb 8739 1d10 36b8 e006 0fb8
000001e0: 3d1e f338 26a3 74b8 41b4 9339 1515 6f37
000001f0: 26a3 74b8 1eb2 ae39 0564 8539 76d7 a3b6
00000200: 7d98 04b9 12c0 9f39 76d7 a3b6 b789 acb7
00000210: 0a5a 79b8 e803 0538 4a76 dcb9 0995 f538
00000220: e803 0538 d1f2 0aba 3aa6 23b8 f2c7 63b8
00000230: cea4 0439 996a 01b9 f2c7 63b8 d2de b838
00000240: 986b 3737 0a5c 43b9 3381 7b39 0c36 8db8
00000250: 0a5c 43b9 97a0 f8b7 f45a a9b9 a9b9 5238
00000260: 3d68 e539 2412 14ba a9b9 5238 ff75 023a
00000270: 56ca 4336 c13f bfb7 11ff a8b5 89ac 0938
00000280: c13f bfb7 c45c e8b7 5a4d a7ba 0afe b3b8
00000290: c66c 9439 00de 87ba 0afe b3b8 a540 03b9
000002a0: ad87 4337 5046 c0b8 2256 fbb9 0213 d839
000002b0: 5046 c0b8 4fb0 29ba 14ff e939 88ce 51b8
000002c0: 9ab9 f6b8 6126 5339 88ce 51b8 c47f 5638
000002d0: 4ed9 9639 e8ac 30ba 6d75 8c3a f31b 16ba
000002e0: e8ac 30ba 6295 3e3a bd21 a038 088a b737
000002f0: 08a1 6e37 0dfa 0438 088a b737 4403 7838
00000300: fafd bd39 1679 89b9 e5c1 d438 cc7e 0c39
00000310: 1679 89b9 cc36 b139 866c 58b8 12f5 0ab9
00000320: 89cf bc39 90d1 76b9 12f5 0ab9 b186 c439
00000330: 1c8f 00b9 5940 fe38 5836 0aba 4eb8 7239
00000340: 5940 fe38 1dd3 24ba f3a7 d8b7 a35a ff38
00000350: d03e 98b8 4145 d138 a35a ff38 84f5 8e36
00000360: 73f5 3aba e4b6 0638 04e0 8837 480d 1bba
00000370: e4b6 0638 00d7 0234 a04f 0c39 fb56 5ab8
00000380: 31dd 4639 b54b 2038 fb56 5ab8 c7e8 6d38
00000390: 7c41 80ba 2445 1637 2f1d efb8 7bcb 47ba
000003a0: 2445 1637 4aed 88b9 ebc9 cdb9 bbfd 0eb9
000003b0: 7b4b ac39 212a 21ba bbfd 0eb9 8889 6a39
000003c0: 4c61 beb8 e54d 8c38 804e 9339 3f31 42b9
000003d0: e54d 8c38 bb41 de39 d3b2 6b38 58ad a133
000003e0: 66b8 8c38 684a 8238 58ad a133 3ea8 ae37
000003f0: 1bca 06b9 f836 3538 6bd8 1fba 6270 11b9

exp_avg_sq f4 [128, 6]
1.1310483e-07 2.7943392e-08 9.82964e-08 8.1020445e-08 2.7943392e-08 2.3228303e-07 7.094491e-08 1.9194815e-08
6.799984e-08 1.02255086e-07 1.9194815e-08 6.4835994e-08 4.045805e-07 7.771153e-08 2.521315e-07 5.870061e-07
7.771153e-08 3.780722e-07 1.3521338e-07 2.6040386e-08 6.8692366e-08 1.9711374e-07 2.6040386e-08 1.1273939e-07
3.3184716e-07 7.904175e-08 3.069708e-07 2.5057295e-07 7.904175e-08 5.348423e-07 2.4456216e-07 6.029488e-08
2.3838605e-07 2.7759603e-07 6.029488e-08 5.074191e-07 9.595492e-08 2.7077938e-08 1.2182086e-07 1.0959087e-07
2.7077938e-08 1.9339788e-07 3.304521e-07 1.2225004e-07 6.773829e-07 3.6163817e-07 1.2225004e-07 1.0719627e-06
1.4194793e-06 2.7527e-07 9.3112953e-07 1.9013755e-06 2.7527e-07 9.685268e-07 3.550159e-07 7.345396e-08
4.306119e-07 3.1621573e-07 7.345396e-08 7.442424e-07 4.34024e-07 9.726646e-08 3.3206197e-07 5.561275e-07
9.726646e-08 5.03671e-07 3.516276e-08 9.103156e-09 4.040739e-08 2.8299555e-08 9.103156e-09 6.693859e-08
1.0099306e-07 1.9527368e-08 5.1106515e-08 1.2614858e-07 1.9527368e-08 8.6895255e-08 7.3272524e-08 1.680536e-08
5.393424e-08 1.1192546e-07 1.680536e-08 6.136305e-08 3.0051987e-07 1.0829949e-07 7.218572e-07 2.643439e-07
1.0829949e-07 1.2443551e-06 5.1774066e-07 7.590137e-08 2.2169999e-07 6.454035e-07 7.590137e-08 3.5938524e-07
4.774674e-08 2.3145267e-08 9.746098e-08 4.9127916e-08 2.3145267e-08 1.15232e-07 6.713282e-08 1.885944e-08
8.466972e-08 6.07544e-08 1.885944e-08 1.0493535e-07 8.685763e-08 2.9530755e-08 9.4264806e-08 6.496231e-08
2.9530755e-08 1.5241953e-07 1.1892844e-06 4.56058e-07 1.5688582e-06 1.251671e-06 4.56058e-07 2.5857262e-06
4.7991415e-07 6.6902636e-08 2.5511463e-07 5.405252e-07 6.6902636e-08 3.8731375e-07 1.0137256e-07 2.8828465e-08
1.8544941e-07 7.934535e-08 2.8828465e-08 1.8322973e-07 2.814513e-07 5.9416177e-08 2.396995e-07 4.121216e-07
5.9416177e-08 3.4046283e-07 1.8572658e-08 5.477008e-09 2.0522826e-08 1.6657816e-08 5.477008e-09 1.7127617e-08
4.5117483e-07 1.2980475e-07 4.7836255e-07 6.076882e-07 1.2980475e-07 6.072686e-07 6.2393696e-07 1.157929e-07
3.5719623e-07 8.97779e-07 1.157929e-07 3.4751378e-07 1.9338337e-08 3.7094854e-09 2.4785571e-08 1.7245094e-08
3.7094854e-09 2.5905873e-08 1.5533235e-06 3.9083528e-07 1.2516565e-06 2.3046064e-06 3.9083528e-07 1.3195789e-06
1.5037173e-06 3.3992657e-07 1.0756542e-06 2.2812605e-06 3.3992657e-07 1.5274951e-06 2.650823e-07 5.97995e-08
2.9395116e-07 1.9895559e-07 5.97995e-08 3.3369554e-07 9.133449e-07 3.5571858e-07 1.1686369e-06 7.8543667e-07
3.5571858e-07 1.6703723e-06 3.1218256e-08 8.169015e-09 2.23994e-08 2.6195178e-08 8.169015e-09 3.414773e-08
5.2665035e-07 1.439793e-07 5.1796917e-07 6.325502e-07 1.439793e-07 8.77288e-07 5.9976266e-08 3.3251567e-08
1.761443e-07 7.081294e-08 3.3251567e-08 2.5147693e-07 8.2461526e-08 4.8760846e-08 1.6946994e-07 9.0948056e-08
4.8760846e-08 2.9114597e-07 1.8616116e-07 3.32556e-08 8.098376e-08 8.0851564e-08 3.32556e-08 1.650541e-07
3.574324e-07 8.170304e-08 2.503222e-07 5.8855807e-07 8.170304e-08 2.9850435e-07 4.122364e-08 1.0213327e-08
5.536704e-08 2.765483e-08 1.0213327e-08 7.210743e-08 9.759366e-07 1.9183535e-07 5.7624584e-07 1.5772146e-06
1.9183535e-07 5.9327584e-07 2.752392e-07 9.047142e-08 2.9901756e-07 3.2573521e-07 9.047142e-08 3.655151e-07
4.0020674e-07 6.1538465e-08 1.800456e-07 6.4006315e-07 6.1538465e-08 2.5067322e-07 5.1078132e-08 1.06427755e-08
5.6530546e-08 3.2726913e-08 1.06427755e-08 7.3618374e-08 1.5836335e-06 4.1509517e-07 1.490846e-06 2.1485318e-06
00000000: 0ae4 f233 2b08 f032 0417 d333 76fd ad33
00000010: 2b08 f032 7969 7934 605a 9833 d8e1 a432
00000020: 4f07 9233 5497 db33 d8e1 a432 f73b 8b33
00000030: 1f35 d934 5ee2 a633 b15c 8734 c192 1d35
00000040: 5ee2 a633 d9f9 ca34 2c2f 1134 6aaf df32
00000050: 0784 9333 36a6 5334 6aaf df32 231b f233
00000060: ba28 b234 a9bd a933 bfcd a434 7c86 8634
00000070: a9bd a933 1592 0f35 5e4c 8334 767b 8133
00000080: 0ff7 7f34 8208 9534 767b 8133 9335 0835
00000090: c60f ce33 0499 e832 ddcd 0234 3858 eb33
000000a0: 0499 e832 cea8 4f34 fe68 b134 d643 0334
000000b0: 66d5 3535 2c27 c234 d643 0334 5ce0 8f35
000000c0: f084 be35 d2c8 9334 bcf2 7935 c432 ff35
000000d0: d2c8 9334 54fe 8135 0499 be34 bebd 9d33
000000e0: d92e e734 5cc4 a934 bebd 9d33 f3c7 4735
000000f0: ce03 e934 cde0 d033 4046 b234 ca48 1535
00000100: cde0 d033 0234 0735 dd05 1733 1a64 1c32
00000110: 658c 2d33 6117 f332 1a64 1c32 e1bf 8f33
00000120: 86e1 d833 23bd a732 3580 5b33 7573 0734
00000130: 23bd a732 2c9b ba33 ff59 9d33 615b 9032
00000140: 53a5 6733 ac5b f033 615b 9032 b2c6 8333
00000150: 2357 a134 4692 e833 a6c5 4135 26eb 8d34
00000160: 4692 e833 b703 a735 defa 0a35 38ff a233
00000170: 6e0c 6e34 ca3f 2d35 38ff a233 88f1 c034
00000180: 1912 4d33 fbd0 c632 be4b d133 b700 5333
00000190: fbd0 c632 7675 f733 a82a 9033 5900 a232
000001a0: acd3 b533 1678 8233 5900 a232 d258 e133
000001b0: 7d86 ba33 d1aa fd32 a06e ca33 6881 8b33
000001c0: d1aa fd32 c3a8 2334 809f 9f35 22d8 f434
000001d0: 8f91 d235 17ff a735 22d8 f434 7086 2d36
000001e0: 73d3 0035 1dac 8f33 b0f6 8834 9c18 1135
000001f0: 1dac 8f33 ffef cf34 27b2 d933 77a2 f732
00000200: f21f 4734 9164 aa33 77a2 f732 cebd 4434
00000210: 5f1a 9734 c730 7f33 0cb0 8034 9041 dd34
00000220: c730 7f33 dbc8 b634 b589 9f32 4630 bc31
00000230: 2c4a b032 ed16 8f32 4630 bc31 0720 9332
00000240: ff38 f234 7560 0b34 d368 0035 0420 2335
00000250: 7560 0b34 2e03 2335 9f7c 2735 d2a9 f833
00000260: adc4 bf34 e7fe 7035 d2a9 f833 ee91 ba34
00000270: 741d a632 f5e9 7e31 0ce8 d432 5d22 9432
00000280: f5e9 7e31 9e87 de32 ca7b d035 fed3 d134
00000290: 97fe a735 d6a8 1a36 fed3 d134 631c b135
000002a0: 55d3 c935 277f b634 325f 9035 c217 1936
000002b0: 277f b634 5504 cd35 a250 8e34 1f6b 8033
000002c0: 57d0 9d34 7fa0 5534 1f6b 8033 c426 b334
000002d0: 952c 7535 97f9 be34 0fda 9c35 ccd6 5235
000002e0: 97f9 be34 8e31 e035 d614 0633 b557 0c32
000002f0: cd68 c032 ce03 e132 b557 0c32 d4a9 1233
00000300: 235f 0d35 bb98 1a34 920a 0b35 85cc 2935
00000310: bb98 1a34 c67e 6b35 4dcc 8033 7cd0 0e33
00000320: 2d22 3d34 d311 9833 7cd0 0e33 ba02 8734
00000330: b415 b133 1e6d 5133 8bf7 3534 394f c333
00000340: 1e6d 5133 cc4e 9c34 97e3 4734 ebd4 0e33
00000350: 4be9 ad33 9ea0 ad33 ebd4 0e33 ba39 3134
00000360: 23e5 bf34 b974 af33 0564 8634 67fd 1d35
00000370: b974 af33 2042 a034 df0d 3133 b076 2f32
00000380: b4cc 6d33 9d8d ed32 b076 2f32 7bd9 9a33
00000390: edfc 8235 4dfb 4d34 50af 1a35 aeb0 d335
000003a0: 4dfb 4d34 9b41 1f35 96c4 9334 3049 c233
000003b0: a988 a034 b5e0 ae34 3049 c233 033c c434
000003c0: ffdb d634 2127 8433 8f52 4134 ced0 2b35
000003d0: 2127 8433 4494 8634 0061 5b33 6cd7 3632
000003e0: fecb 7233 9f8f 0c33 6cd7 3632 2118 9e33
000003f0: 3c8d d435 3fda de34 1419 c835 7f2f 1036

exp_avg f4 [128]
2.5321719e-05 -3.4194523e-05 -0.00023977923 -7.9734935e-05 -0.00022462531 1.672164e-05 -0.00012240889 1.8947045e-05
-1.9594798e-05 -1.986007e-05 -5.299894e-05 -3.8744496e-05 -2.5071018e-05 2.1658416e-06 -5.6763434e-05 0.00012873116
8.319576e-05 -2.6159216e-05 -0.00011952982 -4.3407308e-05 -5.8326063e-05 -4.8828406e-06 3.1713316e-05 -5.4307224e-05
-0.00018630925 5.0240844e-05 -2.279866e-05 -8.582699e-05 -9.1683716e-05 -5.0021816e-05 -0.00067396316 2.1879561e-05
-0.00026220887 -0.00013252001 0.000121236495 0.000121762314 3.211846e-05 -5.205626e-05 8.956769e-06 -0.00013636696
6.6902314e-05 7.528962e-08 4.3204942e-05 3.0396934e-05 -0.00015108507 -3.8221748e-05 -0.00032437468 0.000100009944
0.00010674582 0.00012605562 -0.00011637471 -3.5882833e-05 -5.9846574e-05 -6.319602e-06 0.0003411178 5.648996e-05
-2.6679216e-05 -9.5989686e-05 -0.0001818116 0.00014400412 -0.00032169907 0.00027864965 2.4560454e-06 -6.5355445e-05
-0.00021890273 -4.6984886e-05 -0.00023384194 9.126495e-05 -3.239419e-05 -3.0213996e-06 -0.000107274405 -0.00060301524
2.8954755e-05 -1.646156e-05 -0.000468478 0.00032353908 -4.4667155e-05 -0.00040222384 -0.00014992322 -0.0002937814
4.5018896e-06 0.00013432569 1.6046035e-05 -4.9957453e-05 -4.2344727e-05 -0.00048662076 7.842462e-05 9.2519345e-05
-0.0008790428 -3.5999255e-07 -3.0988416e-05 7.361092e-05 -8.193263e-05 8.139747e-05 -0.00038115756 8.931886e-05
-1.7029815e-06 -2.96248e-05 -0.00025120057 -6.656977e-05 0.00020723778 -0.00010043967 0.0001438879 -0.00017243136
-0.000101732636 6.245718e-05 -0.00047734808 -6.692174e-05 0.00011407458 -0.0004019044 -2.047968e-05 -0.00045302155
-0.0005040403 -5.0189195e-05 -4.6480167e-05 -3.3821867e-05 -0.00031172612 -0.00026115897 -9.3145263e-07 -0.00010782012
-0.00037589384 -0.0001349757 0.0001260098 -0.00010789202 -4.4758883e-05 -0.00024215861 -4.764665e-05 3.6252495e-05
00000000: fa69 d437 176c 0fb8 3f6d 7bb9 5e37 a7b8
00000010: 6689 6bb9 7345 8c37 e35a 00b9 78f0 9e37
00000020: 825f a4b7 2d99 a6b7 2e4b 5eb8 9681 22b8
00000030: 9a4f d2b7 e058 1136 4615 6eb8 02fc 0639
00000040: 6279 ae38 7d70 dbb7 15ac fab8 3e10 36b8
00000050: 22a3 74b8 48d7 a3b6 ea03 0538 f0c7 63b8
00000060: 025c 43b9 b2b9 5238 c03f bfb7 04fe b3b8
00000070: 5246 c0b8 84ce 51b8 e7ac 30ba 008a b737
00000080: 1479 89b9 12f5 0ab9 5940 fe38 a55a ff38
00000090: efb6 0638 fc56 5ab8 0845 1637 bafd 0eb9
000000a0: e84d 8c38 e8ae a133 f436 3538 ebfc fe37
000000b0: 976c 1eb9 4a50 20b8 d510 aab9 6ebc d138
000000c0: badc df38 cc2d 0439 320e f4b8 e680 16b8
000000d0: c503 7bb8 f80c d4b6 0ed8 b239 a2ef 6c38
000000e0: 2ecd dfb7 124e c9b8 aea4 3eb9 d0ff 1639
000000f0: b8a9 a8b9 b917 9239 8ad2 2436 700f 89b8
00000100: 4189 65b9 a311 45b8 7833 75b9 7f65 bf38
00000110: ffde 07b8 40c3 4ab6 82f8 e0b8 ab13 1eba
00000120: dde3 f237 ee16 8ab7 0e9e f5b9 aea0 a939
00000130: fe58 3bb8 92e1 d2b9 b534 1db9 ac06 9ab9
00000140: f00e 9736 c7d9 0c39 999a 8637 6889 51b8
00000150: 4e9b 31b8 2221 ffb9 e677 a438 f206 c238
00000160: 906f 66ba 0045 c1b4 8ff9 01b8 905f 9a38
00000170: 3fd3 abb8 efb3 aa38 1ad6 c7b9 b350 bb38
00000180: 0092 e4b5 c682 f8b7 92b3 83b9 609b 8bb8
00000190: f84d 5939 23a3 d2b8 9de0 1639 b1ce 34b9
000001a0: 4b59 d5b8 71fb 8238 9344 fab9 5658 8cb8
000001b0: 533b ef38 b2b6 d2b9 c7cb abb7 8683 edb9
000001c0: 9221 04ba 3d82 52b8 b3f3 42b8 f4db 0db8
000001d0: 2c6f a3b9 2aec 88b9 f008 7ab5 7c1d e2b8
000001e0: 9e13 c5b9 4388 0db9 8021 0439 1644 e2b8
000001f0: 7cbb 3bb8 f5eb 7db9 33d8 47b8 d20d 1838

exp_avg_sq f4 [128]
2.794339e-08 1.9194813e-08 7.771152e-08 2.604039e-08 7.904174e-08 6.029489e-08 2.7077935e-08 1.2225003e-07
2.7527e-07 7.3453975e-08 9.7266444e-08 9.1031565e-09 1.952737e-08 1.680536e-08 1.08299474e-07 7.590137e-08
2.314527e-08 1.8859442e-08 2.9530755e-08 4.5605796e-07 6.6902636e-08 2.8828465e-08 5.941617e-08 5.477008e-09
1.2980477e-07 1.1579289e-07 3.7094852e-09 3.9083525e-07 3.3992657e-07 5.97995e-08 3.5571858e-07 8.169017e-09
1.4397929e-07 3.3251567e-08 4.876084e-08 3.32556e-08 8.170306e-08 1.0213325e-08 1.9183537e-07 9.047142e-08
6.1538465e-08 1.06427755e-08 4.1509523e-07 1.4338278e-08 1.1361893e-07 3.1120454e-08 1.481991e-07 1.238293e-07
6.088849e-07 5.363836e-07 9.4730886e-08 2.2153012e-07 2.5886953e-08 1.2380069e-07 3.9058244e-07 1.8402653e-07
2.371792e-08 3.384941e-08 6.702557e-08 4.0464247e-08 7.790985e-08 9.3724545e-08 3.254788e-08 1.9488742e-07
2.6592366e-08 1.9726551e-08 1.7191658e-07 7.8849475e-08 5.8656678e-08 1.6882083e-07 1.4414977e-07 3.0246463e-07
5.314361e-08 2.2221708e-07 3.1841634e-07 1.108557e-07 2.0214957e-08 6.329749e-07 9.034995e-08 5.0618503e-08
1.9222576e-07 1.0721259e-07 2.9942164e-08 5.547075e-08 8.292798e-08 5.911301e-07 5.427994e-08 1.5871139e-07
4.7236256e-07 1.128867e-07 1.9559712e-08 4.2430532e-08 2.6064171e-08 1.6017826e-07 7.475415e-08 1.6480097e-07
2.3427214e-08 2.445262e-08 1.6596121e-07 1.4878079e-07 2.501507e-07 1.0374477e-08 4.0373908e-07 1.2894945e-07
9.014738e-08 2.014156e-08 2.907687e-07 3.9633743e-08 5.7378916e-08 7.144506e-07 4.136753e-08 2.2350592e-07
1.5781715e-07 3.4447257e-08 4.7137142e-08 5.25218e-08 2.586502e-07 6.1553855e-08 3.3475536e-07 9.064999e-08
2.3730499e-07 4.15943e-08 2.328626e-07 4.2494793e-08 2.8711485e-08 1.8532792e-07 4.7676952e-08 7.785367e-08
00000000: 2a08 f032 d7e1 a432 5ce2 a633 6caf df32
00000010: a8bd a933 777b 8133 0299 e832 d543 0334
00000020: d2c8 9334 c0bd 9d33 cbe0 d033 1b64 1c32
00000030: 24bd a732 615b 9032 4492 e833 38ff a233
00000040: fdd0 c632 5a00 a232 d1aa fd32 21d8 f434
00000050: 1dac 8f33 77a2 f732 c530 7f33 4630 bc31
00000060: 7760 0b34 d1a9 f833 f4e9 7e31 fdd3 d134
00000070: 277f b634 1f6b 8033 97f9 be34 b757 0c32
00000080: ba98 1a34 7cd0 0e33 1c6d 5133 ebd4 0e33
00000090: bb74 af33 ae76 2f32 4efb 4d34 3049 c233
000000a0: 2127 8433 6cd7 3632 41da de34 6a54 7632
000000b0: abfe f333 4da9 0533 a920 1f34 f0f5 0434
000000c0: 4072 2335 00fc 0f35 db6e cb33 bcdd 6d34
000000d0: 035e de32 13ee 0434 3eb1 d134 d498 4534
000000e0: 42bc cb32 d261 1133 b2ef 8f33 e9ca 2d33
000000f0: 654f a733 9d45 c933 c6ca 0b33 3f42 5134
00000100: 3b6d e432 2573 a932 1298 3834 f553 a933
00000110: b3ed 7b33 1e45 3534 96c7 1a34 6c62 a234
00000120: 0440 6433 919a 6e34 cff2 aa34 910f ee33
00000130: 29a5 ad32 b4e9 2935 6906 c233 a267 5933
00000140: 9d66 4e34 bf3c e633 c299 0033 bc3e 6e33
00000150: 2416 b233 27ae 1e35 6d21 6933 416a 2a34
00000160: 0499 fd34 1f6c f233 4304 a832 dd3c 3633
00000170: b8e3 df32 77fd 2b34 8788 a033 25f4 3034
00000180: fd3c c932 e10b d232 1233 3234 8dc0 1f34
00000190: 734c 8634 6f3b 3232 7ac1 d834 5b75 0a34
000001a0: 0c97 c133 c203 ad32 f21a 9c34 c339 2a33
000001b0: c970 7633 acc8 3f35 15ac 3133 d7fc 6f34
000001c0: 7374 2934 29f3 1333 d673 4a33 5494 6133
000001d0: 9ddc 8a34 972f 8433 6db8 b334 5cab c233
000001e0: e6cd 7e34 6ba5 3233 c908 7a34 8583 3633
000001f0: 39a1 f632 8dfe 4634 5dc5 4c33 8230 a733
