results/ppo/MoveToGoal/MoveToGoal-512.onnx (onnx, 74608 bytes, 6 tensors)

network_body._body_endoder.seq_layers.0.weight f4 [128, 6]
00000000: 8d0b de3e 717d 5abe 9d5d e5be c9a3 41bf
00000010: 5dd9 febd 5630 10bf 1e36 83be 1925 da3d
00000020: 69f3 e23e e7b7 773f e367 e0bc e0e6 d2bc
00000030: f311 83be 5d03 2fbf 0ae6 4c3c d3a8 e43e
00000040: bb43 8c3e 5620 1b3f 7d65 b0be 2e0e df3e
00000050: 4c85 673e 794c 61bd e583 303f 5cff 10be
00000060: 28e3 e73d f505 84bf 9508 fabe c035 223e
00000070: c056 f7bd 608d 9e3e 300e b5bd a2e5 32be
00000080: 549c d9bd bcff c3be 91e7 2cbf 55e6 bcbe
00000090: 981f 333e 0b7e 4dbe 3853 893e a986 39b7
000000a0: 655a 1d3f a334 0b3e d687 d3bd f923 40bf
000000b0: 17c8 be3e 7086 bb3e 1bff ffbe 4586 d93d
000000c0: 4f29 403e 58d7 94be 02b1 d0be 79c7 0cbe
000000d0: 5161 aa3e 0289 a5be 06d5 5bbd ae60 4b3e
000000e0: b002 c2be 41b8 9dbe 5ca3 383f edf8 33bf
000000f0: e08d a4be 2dd2 0f3f 4274 09be bdda 5f3e
00000100: 80c3 8c3e fa84 933e c050 dbbe 23eb 12be
00000110: 9057 8ebe ccac c1bd 3a80 123c 26b3 65be
00000120: bc25 37bf bb66 0abe 428c ba3d 3f5b 253e
00000130: fde4 0ebe fe14 84bd 52e1 1a3e 9bdd 1fbf
00000140: 2fd0 84be 2b3e 223d 592b a93d 1119 073f
00000150: f212 23be 4953 773f 324e d13c d4f4 1e3f
00000160: be4b 883e a20b e0be 05c9 c93d 2a51 e5be
00000170: 886c 883d ba1d 21be 8f43 a6be 4fcd c83e
00000180: bb8b 893f 3b39 fbbe e6c1 52be 3925 8f3e
00000190: d2e5 1c3e 9107 21bf 1aea fabe ad9b f73e
000001a0: 5ab2 193f 2272 e1be bf8e b23d 4cbb d43e
000001b0: 8d5c 2a3e 162c ba3e 189c a7be 464a 073b
000001c0: 76ed ffbe e9da 2a3f b1c7 7a3d 8615 07bf
000001d0: 95db d43e 6c9e e1be 5897 073d 2b38 13be
000001e0: bb71 4dbf 592f d3be 7163 11be 2866 373e
000001f0: 7ee1 01bf 0562 dbbe 3b13 b2be 56ef 49bf
00000200: 514f c6be decb 423e fc30 0d3e 6a35 20bf
00000210: d949 ffbd 1c5d 383c 0927 0b3e 7144 413f
00000220: 636a a63e 375b c33e ffbb 65be 872a 2bbe
00000230: 05f4 813d afa3 e1be f9c5 2d3e 2448 fdbc
00000240: f2ce fdbe a1de 3fbe 1c32 283f c5d6 d23d
00000250: a9b5 00bf b029 27be fda0 b3be d798 e83e
00000260: a961 7e3e 1438 d1be e495 e9be 885e ea3d
00000270: 8ada 573f e3ee 393d 1b35 f4bd 81f3 4cbe
00000280: b6b0 413e add7 4dbe 7f98 03bf 0193 b6bd
00000290: 2655 bdbe d503 013e 71fc b73e 9da2 273d
000002a0: fd54 ac3d 1752 cf3d 3229 fabe 2de4 8a3d
000002b0: 8bc4 1a3f de7c 0cbe 5914 46be 2e0c cbbb
000002c0: 60c8 09bd 71b6 3d3f e424 30bf 580a 353e
000002d0: 5701 0dbf ba39 27bf f1bc d9be 7f2c f8bd
000002e0: eeef 3b3d ecbb 9fbe 0e1d c23e 3668 72be
000002f0: c3e6 e23c 0395 5bbe ee53 2abf a79e f13d
00000300: 85fa 933e ee18 05bf 2d08 f03e 7ec7 60bd
00000310: 727f 35bf 9927 5c3d 8d1d de3e f016 b7bd
00000320: 07d1 debe 2b82 513f 2968 963d 2fff 31be
00000330: 7e97 46bc ab74 193f d885 d63d e641 04be
00000340: d423 c7be 25b4 bebe 77bb 95be e559 18bf
00000350: cc82 85be 6bc6 9ebe ac23 a73e 7d0c c4be
00000360: 92a7 a03c 9149 27bf c754 493d 3078 14bf
00000370: a13d 453f 87a5 d0bd fae2 6abf 09b8 823f
00000380: 470c 393e 2973 ca3d 7dbe 2d3f b981 cf3d
00000390: 45e3 833e 3626 56bf 5cf9 a93e f65c 173e
000003a0: a884 51bc 33c6 663d 35b7 c3be b6f0 6c3e
000003b0: 0594 a5bd f55c abbe f0e9 a3bd 968e ddbd
000003c0: c5f0 1cbe b3c8 07bf 98fb 773d bb4d 80bd
000003d0: 6456 5d3d 20dd 17be 7cda 51be 1409 103d
000003e0: b94c e33e 42bf 66be 7ad2 763f 6f33 a8bd
000003f0: 5f15 11bf 7f8b 1fbe 1e57 1ebf c785 093e
0.43368188 -0.21336915 -0.44797984 -0.7564054 -0.124438025 -0.56323755 -0.25627226 0.10651607
0.44326332 0.9676499 -0.027393287 -0.025744855 -0.25599632 -0.68364507 0.012506017 0.44660053
0.27395424 0.60596216 -0.3445243 0.43565506 0.22609442 -0.05500457 0.68951255 -0.14159912
0.113226235 -1.0314318 -0.48834673 0.15840816 -0.12077093 0.30967236 -0.08840597 -0.1747041
-0.1062552 -0.38281047 -0.6754084 -0.3689448 0.17492521 -0.20067613 0.26821303 -1.1058212e-05
0.61466056 0.13594298 -0.10328643 -0.7505489 0.3726203 0.36626005 -0.49999318 0.10621313
0.18765758 -0.29070544 -0.40760046 -0.13747968 0.33277372 -0.3233109 -0.05366995 0.19861099
-0.37892675 -0.30804637 0.72124267 -0.70301706 -0.32139492 0.5618008 -0.13423255 0.21860786
0.27492905 0.2881239 -0.42835045 -0.1434751 -0.2780118 -0.094567865 0.008941704 -0.22431621
-0.71541953 -0.13515751 0.09108783 0.16148089 -0.1395454 -0.064493164 0.15125015 -0.6244752
-0.2594008 0.03961007 0.08260221 0.52772623 -0.15925196 0.9661146 0.025549982 0.6209233
0.26620287 -0.43758875 0.098527946 -0.44788486 0.06661326 -0.15733996 -0.32473418 0.39219138
1.0745767 -0.490671 -0.20581779 0.27958086 0.15322044 -0.6290217 -0.4900673 0.4836096
0.6003777 -0.4403239 0.08718633 0.41549146 0.16636868 0.3636176 -0.32736278 0.0020643636
-0.49985856 0.6674028 0.061225597 -0.5276722 0.41573778 -0.4406618 0.033103317 -0.14376895
-0.80251664 -0.4124706 -0.1419809 0.17910063 -0.507347 -0.4284822 -0.34780297 -0.7888082
-0.3873239 0.19023082 0.13788217 -0.62581503 -0.12465257 0.011252668 0.1358911 0.7549506
0.32503042 0.3815553 -0.22434996 -0.16715442 0.06345371 -0.44070193 0.16970052 -0.030918188
-0.4957195 -0.1873727 0.6570146 0.1029487 -0.5027719 -0.16324496 -0.35083762 0.45429108
0.24841942 -0.40863097 -0.4562217 0.11443812 0.8431784 0.045393836 -0.119241916 -0.20014764
0.18915066 -0.20101805 -0.51404566 -0.089147575 -0.36979026 0.12599118 0.35934785 0.040926564
0.08414648 0.10123079 -0.48859555 0.06781802 0.6045615 -0.13719508 -0.193437 -0.0061965203
-0.033638358 0.7410651 -0.6880629 0.17679727 -0.5508017 -0.6532246 -0.42526963 -0.12117862
0.04588311 -0.3119806 0.37912792 -0.23672566 0.027697926 -0.21443562 -0.66534317 0.11797839
0.2890207 -0.51991165 0.46881238 -0.05487775 -0.7089759 0.0537487 0.4338192 -0.08939922
-0.4351885 0.81839246 0.07344086 -0.17382501 -0.0121210795 0.59943646 0.104747474 -0.12915763
-0.38894522 -0.37246814 -0.29244587 -0.5951217 -0.26076353 -0.31010756 0.32644403 -0.38290778
0.019611154 -0.6534663 0.049153116 -0.5799589 0.77047163 -0.10187822 -0.9175259 1.0212413
0.1807109 0.09885246 0.6786879 0.101321645 0.2575933 -0.83652055 0.3319806 0.14781556
-0.012787975 0.05634136 -0.38225713 0.23138699 -0.08084873 -0.33469358 -0.080036044 -0.10818212
-0.15326221 -0.5304062 0.060542673 -0.06264826 0.054037467 -0.14830446 -0.20493501 0.035164908
0.44394472 -0.22533897 0.9641491 -0.08212935 -0.56673235 -0.15580557 -0.6185168 0.13429938

network_body._body_endoder.seq_layers.0.bias f4 [128]
00000000: 0000 0000 0000 0000 0000 0000 0000 0000
00000010: 0000 0000 0000 0000 0000 0000 0000 0000
00000020: 0000 0000 0000 0000 0000 0000 0000 0000
00000030: 0000 0000 0000 0000 0000 0000 0000 0000
00000040: 0000 0000 0000 0000 0000 0000 0000 0000
00000050: 0000 0000 0000 0000 0000 0000 0000 0000
00000060: 0000 0000 0000 0000 0000 0000 0000 0000
00000070: 0000 0000 0000 0000 0000 0000 0000 0000
00000080: 0000 0000 0000 0000 0000 0000 0000 0000
00000090: 0000 0000 0000 0000 0000 0000 0000 0000
000000a0: 0000 0000 0000 0000 0000 0000 0000 0000
000000b0: 0000 0000 0000 0000 0000 0000 0000 0000
000000c0: 0000 0000 0000 0000 0000 0000 0000 0000
000000d0: 0000 0000 0000 0000 0000 0000 0000 0000
000000e0: 0000 0000 0000 0000 0000 0000 0000 0000
000000f0: 0000 0000 0000 0000 0000 0000 0000 0000
00000100: 0000 0000 0000 0000 0000 0000 0000 0000
00000110: 0000 0000 0000 0000 0000 0000 0000 0000
00000120: 0000 0000 0000 0000 0000 0000 0000 0000
00000130: 0000 0000 0000 0000 0000 0000 0000 0000
00000140: 0000 0000 0000 0000 0000 0000 0000 0000
00000150: 0000 0000 0000 0000 0000 0000 0000 0000
00000160: 0000 0000 0000 0000 0000 0000 0000 0000
00000170: 0000 0000 0000 0000 0000 0000 0000 0000
00000180: 0000 0000 0000 0000 0000 0000 0000 0000
00000190: 0000 0000 0000 0000 0000 0000 0000 0000
000001a0: 0000 0000 0000 0000 0000 0000 0000 0000
000001b0: 0000 0000 0000 0000 0000 0000 0000 0000
000001c0: 0000 0000 0000 0000 0000 0000 0000 0000
000001d0: 0000 0000 0000 0000 0000 0000 0000 0000
000001e0: 0000 0000 0000 0000 0000 0000 0000 0000
000001f0: 0000 0000 0000 0000 0000 0000 0000 0000
0.0 0.0 0.0 0.0 0.0 0.0 0.0 0.0
0.0 0.0 0.0 0.0 0.0 0.0 0.0 0.0
0.0 0.0 0.0 0.0 0.0 0.0 0.0 0.0
0.0 0.0 0.0 0.0 0.0 0.0 0.0 0.0
0.0 0.0 0.0 0.0 0.0 0.0 0.0 0.0
0.0 0.0 0.0 0.0 0.0 0.0 0.0 0.0
0.0 0.0 0.0 0.0 0.0 0.0 0.0 0.0
0.0 0.0 0.0 0.0 0.0 0.0 0.0 0.0
0.0 0.0 0.0 0.0 0.0 0.0 0.0 0.0
0.0 0.0 0.0 0.0 0.0 0.0 0.0 0.0
0.0 0.0 0.0 0.0 0.0 0.0 0.0 0.0
0.0 0.0 0.0 0.0 0.0 0.0 0.0 0.0
0.0 0.0 0.0 0.0 0.0 0.0 0.0 0.0
0.0 0.0 0.0 0.0 0.0 0.0 0.0 0.0
0.0 0.0 0.0 0.0 0.0 0.0 0.0 0.0
0.0 0.0 0.0 0.0 0.0 0.0 0.0 0.0

network_body._body_endoder.seq_layers.2.weight f4 [128, 128]
00000000: aef3 983d 884f 08bb 9241 81bd ca25 c63c
00000010: c35e 09bd 1fb2 f8bc 82e3 533d 20e4 efbc
00000020: 621b 1d3a acb0 cabd 5bbe 3e3d 9928 073e
00000030: 30b2 f8bc 99f6 12be ce36 fc3d 51e1 1dbd
00000040: 3556 47bd 0579 a73c 051b 9bbe 0ce1 703e
00000050: bb72 d33d c6ce 3bbd d3d5 8f3c 3c56 22bd
00000060: 6eb5 eb3d dbe6 c33d 7220 373e df45 7abc
00000070: a777 bfbd 253e 423d d7bf 02ba d746 8fbc
00000080: 8153 5b3d c73b b6bc 65b9 f2bc 8107 663d
00000090: f724 683d 76c3 3c3d 6479 873d a3ec 05bd
000000a0: 7316 303c e73a 13bc 2157 b83d 1234 72bd
000000b0: 27cd 0ebd 3dbb b83d 753f ca3d 458f 203d
000000c0: d804 623d 353e bebb 5deb 56bd 3e15 f93d
000000d0: 3b33 043d 7ac3 88bd edba 79bd 373a e0bd
000000e0: 6a29 2cbd c64d 11be 1270 623c 7452 ab3d
000000f0: f8a8 97bd c6bf b0bd b61b 7d3d cae7 66bd
00000100: ca9c 703c 8a03 54bc f897 ccbd 9508 08be
00000110: 3a52 013e 7f1b 59bd 8a4a 63bb e8d6 23bd
00000120: 91bf 13be 62a3 573d de0c e0bd 23b7 1a3e
00000130: fe58 01be d62f cd3d d18f d33d 0171 5bbe
00000140: 249e 1ebd 998a 133e e9c7 16bd 13bd 713d
00000150: 46e0 553c 02b7 62bd ce79 74bd 2f78 45be
00000160: 7f73 943e 8769 56bd 7404 4dbd 7a00 383d
00000170: 911c 093c 36b9 2bbd a140 f3bd e8a4 be3c
00000180: d991 3e3d 0e5f b8bd 226b b83c 44f2 803d
00000190: 05e5 6e3d 7aed 74bd 1338 fdbd 32ec a5bd
000001a0: 8185 953c 4a84 6ebd e570 3f3e 5f9d e1bd
000001b0: 1025 293d 1935 0e3d d5ca 043c a0db 62bd
000001c0: 9d70 693d d5f6 26bd 4f83 c3bc 0258 90bd
000001d0: 087b eebd 6123 b73c e72d a3bd d307 4fbc
000001e0: 78c9 8a3c c7cc fd3d a2a5 ee3a e986 773a
000001f0: 286d 3fbe 8726 053e 3eea 41bd a11d 07be
00000200: 7fd9 c53c 5a4a b6bd dd38 cc3c c9ca ae3c
00000210: 4b0f d6bd 4437 98bc 9403 c93c bb01 bfbd
00000220: 1c31 e13d 5421 f13c 9d89 933d c070 df3d
00000230: c312 033d 2e3f debd 8e0b 1dbe 9d2f dabd
00000240: a309 323d 747f af3d 8384 0a3e e401 803e
00000250: bd97 493d 6f3c 46be 15bc 9f3c bbb8 ea3d
00000260: 8102 d7bb 9310 a63d fd89 bfbd d1bc e6bc
00000270: 00ce f23d 8775 71bd d1e8 fcbc dd12 8dbd
00000280: 4bbb d5bd c4b1 e53d 27e2 09be 92e9 493e
00000290: 4b4b 68bd d0de 27bd 3942 f03b a3d4 9c3d
000002a0: 6783 7abd c507 6cbb 6e1d 4d3d 4175 f93d
000002b0: 4338 c4bd 171d 12be 484c bf3d f127 293d
000002c0: cf7f 94bd 51ab ef3d 241d ddbd e7ed b9bd
000002d0: 7340 c4bd 1c8f 6f3c bfb3 243e aa8c c3bd
000002e0: 4296 febc fdde 4e3c 3e99 723d cfdf c3bd
000002f0: b440 403e 048b 143d 83f6 e33d 99b0 0a3e
00000300: 3aae af3c 4be5 9dbd 1633 7fbd aae7 8d3d
00000310: 5846 bc3d bb45 53bd a209 993c d6d9 583d
00000320: e84f 323d 0918 8e3d 3fd8 543e 9e5f dabd
00000330: 8841 21bd fa49 143d 2509 9c3d 2fdb 83bd
00000340: dc54 e43c 9dd4 983d 1ffe a4bc 10cd bebd
00000350: b513 a43b c435 723d 3340 913d 65fc 81bd
00000360: 7f79 84bd 6b49 373d 91d7 c33d edc4 10be
00000370: fcac d43c 7bee 1bbc cbc1 2c3c 61de d7bc
00000380: 92f0 0c3e c116 5bbd a403 9ebd f968 b23d
00000390: 1f01 843d ebc2 443d aa12 ed3c 60b7 403d
000003a0: 155b 86bd d65a b63b 7926 1abd 8dda 373e
000003b0: bf3b bb3d 5fa9 e7bd 6a24 73bb fa60 353d
000003c0: 1f56 bebd 223e f6bd 4f9a 9c3d 1644 a4bd
000003d0: 382f 7ebd c68e ad3d 7d42 a73c f9d2 86bd
000003e0: 8e35 9e3d 3b9d a03d ad4e 84bc 9317 903c
000003f0: 56a5 8fbd b27a a13d 1c9a c73a 5d9c cc3d
0.07468353 -0.0020799357 -0.06311335 0.024187941 -0.033537637 -0.030358372 0.05173064 -0.029283583
0.0005993155 -0.09896979 0.046568256 0.1319908 -0.030358404 -0.14351882 0.12315141 -0.038544957
-0.048666198 0.020443449 -0.30294052 0.23523349 0.103246175 -0.04585149 0.017558014 -0.03963302
0.11509214 0.095655166 0.1788347 -0.015275448 -0.09348994 0.047422547 -0.0004987693 -0.017489834
0.053546432 -0.022245301 -0.029629419 0.0561595 0.056675877 0.046084844 0.0661495 -0.032696377
0.01074754 -0.008986211 0.090009935 -0.05913169 -0.034863617 0.09020088 0.09875385 0.039199132
0.0551804 -0.0058057555 -0.052470554 0.12162255 0.03227542 -0.06677909 -0.060969282 -0.109486036
-0.042031683 -0.14189824 0.013820665 0.08365336 -0.07405275 -0.08630328 0.061794005 -0.056373395
0.014685819 -0.012940297 -0.09989923 -0.13284524 0.12629023 -0.053004738 -0.003468188 -0.039999872
-0.14428546 0.05264605 -0.10939954 0.15108924 -0.12631604 0.100188896 0.10330165 -0.21429826
-0.038725033 0.1440834 -0.036811743 0.059018206 0.013053959 -0.05535031 -0.059686475 -0.19284128
0.28994367 -0.052346732 -0.050053075 0.04492233 0.008368627 -0.041924678 -0.11877561 0.023271993
0.04652581 -0.09002505 0.022512022 0.062962085 0.05832388 -0.059796788 -0.12364211 -0.08101691
0.018252136 -0.05823163 0.1869541 -0.11016344 0.04129511 0.034718607 0.008105 -0.055385232
0.056992162 -0.04076274 -0.023866324 -0.07048036 -0.1164456 0.022355737 -0.079677396 -0.012636143
0.01694177 0.12392574 0.0018207321 0.00094424054 -0.18693984 0.13002978 -0.04734253 -0.13194896
0.024151562 -0.089009 0.024929458 0.02133693 -0.10452136 -0.01858104 0.024537839 -0.09326502
0.10995695 0.029434837 0.07203982 0.10910177 0.032000314 -0.10851894 -0.15336439 -0.10653613
0.04346622 0.08569232 0.13527112 0.25001442 0.049216975 -0.19358991 0.019498864 0.11461016
-0.006561578 0.0810863 -0.09352491 -0.028166207 0.11855698 -0.058949973 -0.030872734 -0.068883635
-0.10436114 0.11215547 -0.13465177 0.19718006 -0.05671243 -0.040983975 0.007332113 0.07657745
-0.06116047 -0.0036015373 0.050076894 0.121805675 -0.095810436 -0.1426891 0.09340721 0.041297857
-0.0725094 0.11702598 -0.10796574 -0.090785794 -0.09582605 0.014621522 0.16084193 -0.09548314
-0.031077508 0.012626407 0.059228174 -0.095641725 0.18774682 0.036265388 0.11131003 0.13543929
0.021445382 -0.0770975 -0.06230458 0.06928952 0.091931045 -0.051580172 0.018681351 0.05294212
0.043533236 0.06938178 0.20785616 -0.10662769 -0.039369136 0.036203362 0.07618932 -0.0643829
0.027872495 0.07462428 -0.020140706 -0.09316456 0.005007232 0.059133306 0.07092323 -0.063469686
-0.06468486 0.04474775 0.095626004 -0.14137621 0.025961392 -0.009517307 0.010544251 -0.026351156
0.13763645 -0.053488497 -0.07715538 0.08711428 0.06445526 0.04803745 0.028939564 0.04704988
-0.06560341 0.0055650277 -0.037634347 0.17954464 0.09142255 -0.11311602 -0.0037100562 0.044281937
-0.0929377 -0.1202357 0.076466195 -0.08020799 -0.06205675 0.084744975 0.020417446 -0.065832086
0.077250585 0.07842489 -0.016150797 0.017589366 -0.07013957 0.078847304 0.0015228423 0.099907614

action_model._continuous_distribution.log_sigma f4 [1, 2]
00000000: 0000 0000 0000 0000
0.0 0.0

action_model._continuous_distribution.mu.weight f4 [2, 128]
00000000: 579e 1d3d 5430 933c e50f 983c 3f88 593b
00000010: 00cd d23a 02cd 68bc f58d 7bbc 2501 cdbc
00000020: 5e44 083c 46d3 c2bb 9fb3 763c ebef 1eb9
00000030: 61d8 b43b 61c4 2a3c ffe1 debc e0bc f2bb
00000040: 5cd4 42bc 4ea8 373b a714 7a3c efbd 1c3d
00000050: 3d81 343c 0b7b e2bb a312 0bbc 403d 83bc
00000060: db7d ae3c 8268 bd3b 0970 98bc bfe8 17bd
00000070: abca 5f3c 15ce 29bc c7c6 84ba 6b93 923c
00000080: 7776 e9ba 6778 5f3b cd56 533b fbb0 21bd
00000090: 5270 b73b 683a afbc 97bf 873b bfdd 4d3d
000000a0: e362 ed3b 1f11 0c3d 7756 efbb 8905 0fbc
000000b0: 00c4 f93b 5e56 b43b 15a3 283c 9281 2fbb
000000c0: fd76 9c3c b7c0 0f3d cbb9 913c 4410 1cbd
000000d0: 3026 733c a5c9 5dbc 7f86 a9bc c82d bfbc
000000e0: 2ede 25bc cf8e 1fbc aaff a9bb 6f2d 8e3b
000000f0: 5369 023b 7b45 56bc 37fd 9eba 9d97 943c
00000100: 7ad8 c03c ab7f 14bd 37e1 e23b ca20 1b3c
00000110: be7f a73c 35ec 923b 4066 79b9 b2e8 e73c
00000120: 4d20 87bc beb3 00bb 0745 c1bc 0f0c a53c
00000130: 11c6 a0bb 89d1 9fbc 1626 4c3c 45b7 fbbc
00000140: 8bcb 25bc 6b45 7dbb 3aab ccbb 3bd2 e13a
00000150: 00b4 1dbd 3baf 8bbc db0f 3bbd 294b 22bd
00000160: 9409 47bc 3595 723b bffb db3b c72e 83bc
00000170: 1770 1cbb c34e cb3c bae4 633c 1f7a afba
00000180: a866 b83c 8ae3 723c f1b5 b83c f28b 663c
00000190: f5dd c3bc 7747 14bc e1d8 893c 07ac 67bc
000001a0: f90f bdbc fe09 8dbc 471d 0e3c 9dd6 c93c
000001b0: e90b 96bc a726 1c3c 816d 21bc 48a5 bcbc
000001c0: b5ab d83b 55a2 f1bc 3217 38bb ea1b 213c
000001d0: 6a78 75bc 58de 87bc c1c6 8a3c f727 41bc
000001e0: 6bae 17bd a343 ae3c 8739 dabc b017 a0ba
000001f0: 9275 8cbc 8525 10bb 297b 4a3c 4aa7 543c
00000200: 088e 243d ea8c 7a3c ff29 bc3a 6ddf d0bc
00000210: c27c ecba 3bcc b73c 13f2 483c 6eeb c3bc
00000220: 2d1e cebb 3f4a 693c ed77 f3bc 232b bfbc
00000230: fe00 093b 9286 bc3c 480c c0bc 42b7 293d
00000240: a83a a13b 9b3a acbc 5f8b fdbb 1f65 d73c
00000250: bb09 503c c525 03bc 9ab7 4b3b 33a1 05bd
00000260: d88e a03c ffb3 0fbd 977a bdbc 24ba 053d
00000270: abaa 93bc b7a0 5bbc d6e5 273d b70a 463c
00000280: a5b1 6dbc 68b3 543c 5f07 893c 8707 4e3c
00000290: fb89 903b 03ad 273c 0f4b 9fbc 282c 243a
000002a0: ca72 14bd b0d9 cb3b b13f 9ebc ff87 b73c
000002b0: 0f0e 083c b846 203c 30d9 66bc e562 9bbb
000002c0: 4805 51bc 5ff0 9cbc ed98 24bc eb6b 00bd
000002d0: 8ef9 14bc 45e8 d9bc 8f46 ab3c 15ef 033c
000002e0: 955d 4e3c 2fbd bc3c 7d04 8ebb 961d ae3c
000002f0: eb50 8abc 602c 02bd f2cc 423c a039 b53c
00000300: c3aa 84ba 2131 17bc 4d52 b93c 02f7 f2bb
00000310: d283 a7bb c3c9 463b a68d 4b3c 376f 34b9
00000320: e1c2 213c 9e07 493c 89a5 a2ba 67b3 0cbc
00000330: eb41 f43c 8784 58bc 3797 30bd 8ac4 673c
00000340: 08ed 0b3d 2071 e4bb 8ff8 b03b b7e6 72bc
00000350: d48c 03bc 3ea5 3bbc 184c 513c 0d2f 98ba
00000360: 9ee8 213c 3da8 78bc 834a f1bb 303f 5c3b
00000370: 0776 41bc 2714 d2bc 7abe fabc 9a74 f0bc
00000380: 67df 84bc 6dbc ee3c f190 24bc 9dcd 40bc
00000390: d74f ad3c 4a72 aebc f85d 8fbc baca 3e3b
000003a0: 42e4 f53c 0038 c63c ce0d 29bd e9ce 32bc
000003b0: ff54 b0bc e538 223b 7f8b a83c c532 1a3b
000003c0: fad1 c43c 0311 92bb a29f e83c 7a94 e2bc
000003d0: 7796 2bbc 9a76 d1bb d78e 193b a1d8 a73c
000003e0: 0d24 09bd e834 2e3c 6033 ff3c 86e0 063c
000003f0: ee4d b2ba 1bd6 fdbc 5202 0a3d cb2d ac3c
0.038481083 0.01796738 0.018562267 0.0033192781 0.0016082823 -0.014209034 -0.015353669 -0.02502496
0.008317081 -0.005945596 0.015057473 -0.0001515743 0.0055189584 0.010422797 -0.027207373 -0.0074077696
-0.011891451 0.0028023901 0.015263713 0.038267072 0.011017141 -0.0069116405 -0.00848833 -0.016020417
0.021300247 0.0057802806 -0.01860811 -0.0370872 0.01365916 -0.010364075 -0.0010130041 0.01789256
-0.0017811795 0.0034098865 0.0032247782 -0.039475422 0.0055981064 -0.021390155 0.0041427123 0.0502603
0.007244454 0.034196015 -0.0073040086 -0.008729347 0.007622242 0.00550346 0.010292788 -0.002678011
0.019099707 0.035095897 0.017788788 -0.03810145 0.014840648 -0.013536845 -0.020694016 -0.02333726
-0.010123773 -0.009738638 -0.0051879482 0.004338912 0.0019899204 -0.013078089 -0.0012129907 0.018138701
0.023540724 -0.036254566 0.0069238204 0.009468267 0.020446654 0.0044837245 -0.00023784582 0.0283092
-0.016494894 -0.0019638385 -0.023592485 0.020147352 -0.004906424 -0.019509094 0.012460252 -0.030727038
-0.010119329 -0.0038646113 -0.0062459977 0.0017228791 -0.03850174 -0.01705133 -0.045669418 -0.03962246
-0.01214828 0.0037015204 0.00671336 -0.016013516 -0.0023870522 0.02481783 0.013909513 -0.0013387835
0.022509888 0.014824757 0.022547694 0.0140714515 -0.023909548 -0.009050242 0.016827049 -0.014140136
-0.023078905 -0.017216679 0.008673972 0.024638468 -0.018316226 0.0095307 -0.009852768 -0.023028031
0.006612266 -0.029496351 -0.0028089997 0.009833315 -0.014982322 -0.016585514 0.016940476 -0.0117893135
-0.037031572 0.021272486 -0.02663876 -0.0012214091 -0.017145906 -0.002199502 0.012358465 0.012979338
0.040174514 0.015292386 0.0014355778 -0.025497163 -0.0018042552 0.022436252 0.012264746 -0.023915973
-0.0062902183 0.014238893 -0.029720271 -0.023335999 0.0020905132 0.023013387 -0.023443356 0.041434534
0.0049203224 -0.021024039 -0.0077375616 0.026293335 0.012697632 -0.00800461 0.0031084777 -0.032624435
0.019599363 -0.035083767 -0.023129744 0.03264822 -0.018025717 -0.013405017 0.040990673 0.012087516
-0.014507686 0.012982227 0.016727148 0.012575037 0.00441098 0.01023412 -0.01944497 0.00062626833
-0.036242284 0.0062210187 -0.01931748 0.022403715 0.008304133 0.009782486 -0.0140898675 -0.0047420138
-0.012757607 -0.019157587 -0.010046226 -0.03135292 -0.009092702 -0.026600013 0.020907668 0.008052607
0.012595554 0.023039429 -0.004334031 0.021254342 -0.016884288 -0.0317806 0.011889683 0.022122204
-0.0010121692 -0.009228022 0.022622252 -0.0074146995 -0.0051121498 0.0030332662 0.012423908 -0.00017207568
0.009873123 0.0122698825 -0.0012408952 -0.008587695 0.029816588 -0.013215191 -0.04311296 0.01414598
0.034161597 -0.0069714934 0.0054007242 -0.0148255145 -0.0080291815 -0.011452971 0.01277449 -0.0011610702
0.00988212 -0.01517683 -0.007363619 0.0033606999 -0.011807925 -0.025644375 -0.030608404 -0.029352475
-0.016219808 0.029142583 -0.010044322 -0.011767772 0.021156235 -0.021294732 -0.017500862 0.0029112534
0.030016068 0.024196625 -0.04127293 -0.010913589 -0.021524904 0.002475315 0.02057433 0.0023528796
0.024025906 -0.0044575944 0.028396431 -0.02765869 -0.010472885 -0.0063923122 0.0023431086 0.020489039
-0.033481646 0.010632731 0.031152427 0.0082322415 -0.0013603547 -0.030985883 0.03369362 0.02101793

action_model._continuous_distribution.mu.bias f4 [2]
00000000: 0000 0000 0000 0000
0.0 0.0
