results/ppo/MoveToGoal/MoveToGoal-261148.pt (torch, 441366 bytes, 36 tensors)

network_body._body_endoder.seq_layers.0.weight f4 [128, 6]
0	0xbcf77632	-0.030207727
1	0x3dfb324b	0.12265452
2	0xbf1a8736	-0.60362566
3	0x3e160729	0.14651169
4	0xbf337746	-0.7010387
5	0xbe97b3e5	-0.29629436
6	0x3d2dd02d	0.04243486
7	0x3ef01362	0.46889788
8	0x3e9edfac	0.31030023
9	0xbf161bf8	-0.58636427
10	0xbf57d994	-0.8431637
11	0x3f407298	0.75174856
12	0xbf656c71	-0.89618593
13	0x3e6a81b8	0.22901046
14	0xbe844940	-0.25837135
15	0x3f16df97	0.5893492
16	0xbe27d603	-0.16390233
17	0xbf015be7	-0.50530857
18	0xbe735fce	-0.23767015
19	0x3e7256e2	0.23665956
20	0x3e8426a5	0.25810733
21	0xbebcbe00	-0.36863708
22	0x3e2b63b9	0.1673726
23	0x3d8a4c7c	0.067528695
24	0xbd957bae	-0.07298981
25	0xbe565823	-0.20932059
26	0x3c5bd0d0	0.013416484
27	0x3e5e8012	0.21728542
28	0x3d4aa6ae	0.049475364
29	0xbf37250c	-0.71540904
30	0x3e8d6a16	0.2762
31	0x3e2701aa	0.16309229
32	0xbc9172ae	-0.017754879
33	0x3e50eda6	0.20403156
34	0xbf2f7adf	-0.6854686
35	0x3d07a907	0.03312018
36	0xbd2c77f7	-0.042106595
37	0x3ee760e5	0.45191112
38	0xbdc9d27c	-0.098546
39	0xbe86740d	-0.26260415
40	0xbe7d028c	-0.24708003
41	0x3e3960e9	0.18103375
42	0xbe90ac46	-0.28256434
43	0xbf63c6cf	-0.8897523
44	0x3ea2443a	0.31692678
45	0x3ea48436	0.3213212
46	0x3edd41b8	0.43214202
47	0xbc98109d	-0.01856261
48	0xbed8d955	-0.4235331
49	0xbe391c3a	-0.18077174
50	0x3f442799	0.7662292
51	0x3d96fca8	0.07372409
52	0xbe8eb60a	-0.2787326
53	0xbe769611	-0.24080683
54	0xbe1a284e	-0.15054438
55	0xbeb5eda5	-0.3553287
56	0x3e81059e	0.25199598
57	0x3f7d0f7d	0.9885176
58	0xbf792ea2	-0.9733678
59	0xbca06818	-0.019580886
60	0xbe1f5b8b	-0.15562265
61	0x3f1a56ed	0.6028889
62	0x3e81b49b	0.25333104
63	0x3d289762	0.041159995
64	0x3eedd3e6	0.46450728
65	0x3ed0dc68	0.40793157
66	0xbf6cab0a	-0.92448485
67	0x3f1d6570	0.61482906
68	0xbdfb6bae	-0.12276398
69	0x3e192140	0.1495409
70	0xbe0e5cb4	-0.13902551
71	0x3f30619e	0.6889895
72	0x3e85b310	0.26113176
73	0x3eaca907	0.33722708
74	0x3e0733c9	0.13203348
75	0x3e47d551	0.19514968
76	0xbe4017b3	-0.1875904
77	0x3f3bbe25	0.7333701
78	0xbd080cda	-0.03321538
79	0xbd57549f	-0.052570935
80	0x3e18df94	0.14929038
81	0x3e9f90c7	0.31165144
82	0xbea50767	-0.3223221
83	0xbf0ecc33	-0.55780333
84	0x3e845770	0.2584796
85	0xbe6cc0a4	-0.23120362
86	0x3ed9b39f	0.42519853
87	0x3ed4839f	0.4150667
88	0x3ed564a2	0.4167834
89	0x3e768b12	0.24076489
90	0xbee1496f	-0.44001338
91	0xbdfbfbdc	-0.12303898
92	0xbe9b0f24	-0.3028499
93	0x3f158188	0.58400774
94	0xbeaf86d0	-0.3428254
95	0xbf493f73	-0.7861244
96	0x3dc3f6e9	0.09568579
97	0xbf57b5e1	-0.842619
98	0x3eef35be	0.4672069
99	0x3e5b3c4d	0.21409722
100	0x3c8f9337	0.017526252
101	0xbdf9336f	-0.12168013
102	0xbeee6bd8	-0.46566653
103	0xbf5498ab	-0.8304545
104	0x3d83be76	0.06432812
105	0xbe47785e	-0.1947951
106	0x3f439c8c	0.76410747
107	0xbf0dcf45	-0.55394393
108	0x3e978697	0.2959487
109	0x3c7af1c5	0.015316431
110	0xbe75500f	-0.23956321
111	0xbedcbab9	-0.43111208
112	0x3e0ef96c	0.13962334
113	0xbea074bb	-0.31339058
114	0xbf02ebec	-0.5114124
115	0xbe91e951	-0.2849832
116	0xbe91fa93	-0.28511485
117	0xbc11c4dc	-0.008897033
118	0x3e345b0f	0.17612861
119	0xbe39fd48	-0.18163025
120	0x3f1846c7	0.59483
121	0x3ccf06ec	0.025271855
122	0xbd81fc67	-0.0634697
123	0xbe9752cd	-0.2955536
124	0x3a2d2a73	0.00066057517
125	0xbe98f93e	-0.29877657
126	0xbebcaa0c	-0.36848485
127	0xbd86d896	-0.06584279
128	0x3e6d559f	0.23177193
129	0x3f1b768b	0.6072776
130	0xbeaf6f7b	-0.3426474
131	0x3f5eab5f	0.8698024
132	0xbefb6e29	-0.49107483
133	0xbde13ffa	-0.10998531
134	0xbee36372	-0.44411808
135	0x3e59c49e	0.2126641
136	0x3da22e51	0.079189904
137	0xbeca720a	-0.3954013
138	0x3cb695c4	0.02228821
139	0x3ee3e403	0.44509897
140	0xbdcfe682	-0.10151388
141	0xbe0970fe	-0.1342201
142	0x3d1f1ab6	0.038843833
143	0xbf08076f	-0.5313634
144	0xbf24f99c	-0.64443374
145	0xbecfd9d2	-0.4059587
146	0x3e010b0e	0.12601873
147	0xbdf2454e	-0.11829625
148	0x3e94aff6	0.29040498
149	0x3e1407c1	0.14456083
150	0xbcc9ab6c	-0.024617873
151	0x3e1408ad	0.14456435
152	0x3da6af60	0.08138919
153	0x3f3c27fd	0.7349852
154	0xbe34c739	-0.17654122
155	0xbd8980f5	-0.0671405
156	0x3e4adb4b	0.19810216
157	0xbed69535	-0.4191071
158	0xbeac9d1e	-0.3371362
159	0xbf2c8345	-0.673878
160	0xbf00fe48	-0.50388
161	0xbf1f4181	-0.62209326
162	0x3e3a540e	0.18196127
163	0xbe277ffb	-0.16357414
164	0x3f3aa6cc	0.7291076
165	0xbf14ba5a	-0.5809685
166	0xbec158b3	-0.37762985
167	0xbbc65a20	-0.006053224
168	0xbe3920a2	-0.18078855
169	0x3d9f6f82	0.0778494
170	0x3f33aea4	0.70188355
171	0xbedc5f4c	-0.43041456
172	0xbea860fe	-0.328865
173	0x3f02ff40	0.5117073
174	0x3f02ad1a	0.5104538
175	0xbe41f61f	-0.18941544
176	0x3caa9ba3	0.020826166
177	0xbe6903d8	-0.22755373
178	0xbf0d4c81	-0.5519486
179	0xbf24314f	-0.6413774
180	0xbdfe8c4e	-0.12429105
181	0xbd5301a4	-0.051515236
182	0x3e200aa2	0.15629056
183	0xbee62ba0	-0.44955158
184	0x3da93bc4	0.082633525
185	0xbe325066	-0.17413482
186	0x3f36fda2	0.7148076
187	0x3f02b073	0.5105049
188	0xbe5444ef	-0.20729421
189	0x3ef43261	0.47694686
190	0xbec35602	-0.38151556
191	0x3ef81480	0.4845314
192	0x3e090ec3	0.13384537
193	0x3e349957	0.1763662
194	0x3e2114dc	0.15730613
195	0xbe3eac83	-0.18620495
196	0xbf7bd1f3	-0.9836723
197	0xbe4f8479	-0.20265378
198	0x3db14609	0.08655936
199	0xbf1b3d79	-0.60640675
200	0xbdc7a56a	-0.09748347
201	0xbd88286c	-0.06648335
202	0x3f463772	0.7742835
203	0x3eb436f8	0.35198188
204	0x3ebb5a68	0.36592412
205	0xbd89c205	-0.067264594
206	0x3f2aa168	0.66652536
207	0x3e05e757	0.1307653
208	0xbeaf6cb1	-0.34262612
209	0xbe2b142c	-0.16706914
210	0xbe02dcb3	-0.12779503
211	0xbcfb4495	-0.03067235
212	0xbfb03897	-1.376727
213	0x3f4387e7	0.76379246
214	0xbde1fbbb	-0.11034342
215	0xbf06fa25	-0.5272544
216	0x3f0eb4d1	0.55744654
217	0x3e368edb	0.17827933
218	0x3e9ddc87	0.30832312
219	0xbde4ccb8	-0.111718595
220	0x3f27c575	0.6553567
221	0xbf155833	-0.58337706
222	0x3f1637a0	0.58678627
223	0x3e6184a8	0.2202326
224	0xbe23a46c	-0.1598069
225	0xbecca13a	-0.39966756
226	0x3cbd6858	0.023121044
227	0x3e1400f4	0.14453489
228	0x3f0ac708	0.5420995
229	0xbd9288d1	-0.07155002
230	0xbe91138b	-0.28335223
231	0xbf224d55	-0.6339925
232	0x3e3bf5a1	0.18355419
233	0x3f2b5301	0.6692353
234	0x3c762b5e	0.015024988
235	0xbefa41af	-0.48878238
236	0xbeb61857	-0.35565445
237	0xbd8ccd67	-0.06875115
238	0xbe47ac91	-0.19499423
239	0x3f229e49	0.63522774
240	0xbef58b5c	-0.47957885
241	0xbf079dd6	-0.52975214
242	0xbea81b60	-0.32833385
243	0xbf792171	-0.9731665
244	0xbe66567d	-0.2249393
245	0x3e5dbb21	0.21653415
246	0x3ef1c7d0	0.47222757
247	0x3ecaa8e4	0.39581978
248	0x3f22a253	0.6352894
249	0x3ec3fba7	0.38277933
250	0xbed9b8d1	-0.42523816
251	0xbd27d341	-0.04097295
252	0x3e3c7da8	0.18407309
253	0x3ee174ff	0.44034573
254	0x3f86326f	1.0484141
255	0xbe03489b	-0.12820666

network_body._body_endoder.seq_layers.0.bias f4 [128]
0	0x3c021814	0.007940311
1	0xbb918cd6	-0.004441838
2	0xba1bd233	-0.0005944103
3	0xbb011732	-0.0019697663
4	0x3c438f72	0.0119360555
5	0xbbf74d11	-0.007547029
6	0x3b83e621	0.0040252362
7	0xbbf7b405	-0.007559302
8	0xbc17052d	-0.009217543
9	0x3ab27b6e	0.0013617107
10	0xbc038001	-0.008026124
11	0xb9bf8566	-0.00036529748
12	0x3b878002	0.004135133
13	0x3b880d27	0.0041519585
14	0xbc338b46	-0.010958498
15	0xbb0c758d	-0.002143237
16	0x3b700999	0.0036626814
17	0xbbd28b5f	-0.0064253057
18	0x3af75966	0.0018871247
19	0xbc003bf2	-0.007826792
20	0x3b491f2c	0.0030688746
21	0x3c3afea5	0.011413251
22	0xbbece14c	-0.007229006
23	0xbac4b1c7	-0.0015006595
24	0x3b8daf39	0.0043238667
25	0xbb71a13c	-0.0036869785
26	0x3a20ff57	0.0006141564
27	0x3c192a9c	0.009348538
28	0x3b1e716a	0.0024176487
29	0xb96d6c29	-0.00022642374
30	0x39efe68c	0.00045757403
31	0xbbcf7b62	-0.006331847
32	0xba747752	-0.00093256414
33	0xba44c523	-0.00075061823
34	0xbaa03a8f	-0.0012224483
35	0xbb283479	-0.0025666042
36	0xbb3c7468	-0.0028755907
37	0x3b3a8d63	0.002846562
38	0xbb6c36d7	-0.003604343
39	0xbafae780	-0.0019142479
40	0x3b2eee1b	0.0026692215
41	0xbbd22cbf	-0.0064140256
42	0xbb631679	-0.0034650846
43	0x3c5b55d6	0.013387164
44	0xbbfec6f7	-0.0077751833
45	0xbbb028dd	-0.005375965
46	0x3c082c3a	0.008311326
47	0xbbfcaa0e	-0.007710702
48	0x3af42a10	0.0018628258
49	0x3b0a6007	0.0021114366
50	0x3b14f572	0.0022729305
51	0x3ba7e182	0.005123318
52	0xbc15d344	-0.009144608
53	0xbb3f1e4f	-0.0029162352
54	0x3befacbc	0.0073142927
55	0x3b900dbe	0.0043961694
56	0xbb8e538d	-0.004343456
57	0x3b448e7c	0.0029992154
58	0x3c561019	0.013065361
59	0xbb882948	-0.0041553117
60	0x3adbfbe4	0.0016783443
61	0xbb36dc69	-0.002790237
62	0x3b57296c	0.0032831086
63	0x3b90053b	0.004395155
64	0x3c220f40	0.009891331
65	0x3b9b701a	0.004743588
66	0x3bf69c00	0.007525921
67	0x3c3621ef	0.011116489
68	0x3b92cdc3	0.004480095
69	0xbb9acfb9	-0.0047244695
70	0xbb9d93dc	-0.004808886
71	0xbb09e0eb	-0.0021038603
72	0x3b116b50	0.0022189207
73	0xbc49c3ae	-0.01231472
74	0x3c16e6e5	0.009210323
75	0xb99a6c52	-0.00029453874
76	0x3a87709d	0.0010333244
77	0xbae1a930	-0.001721656
78	0x3b61d579	0.0034459515
79	0x3bf540d7	0.007484536
80	0x3c2bd35b	0.010487403
81	0xbc125888	-0.00893224
82	0x3c2333c4	0.009961072
83	0xbc1ea79c	-0.009683516
84	0xbc0427b9	-0.008066111
85	0xbbd16b8d	-0.006390995
86	0xbbe3ce33	-0.006952071
87	0xb9cf1553	-0.00039498004
88	0x3c4f8413	0.012665766
89	0xbb4cfd9e	-0.0031279097
90	0xba75d419	-0.00093776133
91	0xbb698bbc	-0.0035636267
92	0x3b050c97	0.0020301694
93	0x3c3561eb	0.011070709
94	0xbb55568c	-0.0032552807
95	0xbc4d2700	-0.012521505
96	0xbab41f05	-0.0013742155
97	0x3b158c7c	0.002281933
98	0xbb48dbc7	-0.0030648576
99	0xbba1bdff	-0.0049359794
100	0xbaa2adf7	-0.0012411465
101	0x3c257227	0.010098017
102	0xbb214cf9	-0.002461253
103	0x3b2a304a	0.0025968724
104	0xbb5a33e6	-0.0033295094
105	0xbb84037a	-0.0040287348
106	0xba8b7448	-0.0010639513
107	0xbb134240	-0.0022469908
108	0xbbfbf3aa	-0.007688959
109	0x3a4b5f40	0.0007758029
110	0xbc420ff0	-0.01184462
111	0x3b0000fb	0.0019531834
112	0xba95ee7e	-0.0011438874
113	0xba4c4a28	-0.00077930326
114	0x3bfa8a52	0.0076458836
115	0x3c0c981b	0.008581187
116	0x3b135510	0.002248112
117	0xbb65be66	-0.0035056113
118	0xbbb3e673	-0.005490118
119	0xbbd7c9a6	-0.0065853177
120	0x3c3970fc	0.0113184415
121	0xbb6f160a	-0.0036481642
122	0x3b06239d	0.0020468005
123	0xbb264f30	-0.002537679
124	0x3bb91ee7	0.005649436
125	0xba9ea571	-0.0012103749
126	0x3a6da0d7	0.00090647995
127	0x3ad2ac64	0.0016073105

network_body._body_endoder.seq_layers.2.weight f4 [128, 128]
0	0x3bfb7f58	0.0076750927
1	0xbd12b331	-0.03581542
2	0xbcdd3031	-0.027000519
3	0xbd30eabf	-0.04319262
4	0xbc81aa5c	-0.015828304
5	0x3c415abe	0.01180142
6	0x3cb4da68	0.0220768
7	0x3e219f71	0.15783478
8	0xbbae7d55	-0.0053249993
9	0x3df14ae2	0.11781861
10	0x3dc5aef9	0.09652514
11	0x3ce594d5	0.02802507
12	0x3da63e5a	0.08117361
13	0x3dd6bd68	0.10485345
14	0x3db708cb	0.08937224
15	0xbc78e07f	-0.015190243
16	0x3dbb4a9c	0.0914509
17	0x3cb1a282	0.021683935
18	0xbc7ae98a	-0.015314469
19	0x3e021ae4	0.1270557
20	0xbdb39f70	-0.08770645
21	0xbe198636	-0.14992604
22	0xbdf64eb3	-0.120267294
23	0xbe0b08f1	-0.1357763
24	0x3d9d4536	0.076792166
25	0xbc4a686d	-0.012353999
26	0xbe324bf3	-0.17411785
27	0xbd8ae37a	-0.06781669
28	0xbc9b06bf	-0.018924115
29	0xbe0e7b59	-0.13914241
30	0x3cb88e56	0.022528809
31	0xbdd6069d	-0.1045048
32	0xbdb15623	-0.086590074
33	0x3b9b2590	0.0047347024
34	0x3e2512ad	0.16120405
35	0xbd889098	-0.06668204
36	0x3d3182fd	0.04333781
37	0xbe29ab47	-0.16569243
38	0x3ddac9b4	0.10683003
39	0xbd7b181c	-0.06130229
40	0xbdedd032	-0.11611976
41	0xbc858146	-0.016296994
42	0x3db8bea8	0.0902074
43	0x3c9c91da	0.019112516
44	0xbc83183f	-0.016002772
45	0xbca02658	-0.019549534
46	0x3d0d2fce	0.03446942
47	0x3e00bdf2	0.12572458
48	0x3e1147bd	0.14187522
49	0x3d468742	0.048468836
50	0xbc21ca2d	-0.009874863
51	0x3d7bd0f1	0.06147856
52	0x3d1b0f4a	0.037856378
53	0x3db598c1	0.08867026
54	0xbc935b94	-0.017988004
55	0x3d947851	0.07249511
56	0xbc33ed9d	-0.010981944
57	0x3dcd989c	0.100388736
58	0x3e046043	0.12927346
59	0x3d6a6030	0.057220638
60	0x3e4683c0	0.19386196
61	0x3d12f9e8	0.03588286
62	0x3d551a57	0.052027073
63	0xbdbcbfb9	-0.09216256
64	0xbe3e969f	-0.18612145
65	0x3a369471	0.00069648685
66	0x3d90ae60	0.070645094
67	0x3dad8b82	0.08473875
68	0xbc3d9f31	-0.011573599
69	0x3d031d5f	0.032010432
70	0xbb56c86f	-0.0032773276
71	0xbd8143f0	-0.06311786
72	0x3e15c287	0.14624988
73	0xbe328706	-0.1743432
74	0xbdc30d81	-0.0952406
75	0xbcc56bfc	-0.024099343
76	0xbda81017	-0.08206194
77	0x3cc47242	0.023980264
78	0xbd3257e5	-0.043540854
79	0x3dd4149a	0.10355492
80	0x3d36faed	0.044672895
81	0x3dc2a174	0.09503451
82	0xbe19cb6c	-0.15019006
83	0xbd514f24	-0.051100865
84	0x3c292b0f	0.010325207
85	0xbd0376b2	-0.03209562
86	0x3d2c6f7a	0.0420985
87	0xbd27f0e8	-0.04100123
88	0xbd4374ee	-0.047718935
89	0xbd895d6a	-0.067072704
90	0x3dede756	0.116163895
91	0xbd7fd114	-0.06245525
92	0x3d9603be	0.073249325
93	0xbe2a6c62	-0.16642907
94	0x3dd905e5	0.105968274
95	0x3d873eae	0.06603752
96	0xbdaeb9ec	-0.085315555
97	0xbd6fcf80	-0.058547497
98	0xbd767e61	-0.060179118
99	0xbe8b7eab	-0.27245077
100	0x3d9109d3	0.07081952
101	0xbdf9efdf	-0.12203955
102	0xbd46bfce	-0.048522763
103	0x3d833f3f	0.064085476
104	0xbde263c2	-0.110541835
105	0x3d47af07	0.048750903
106	0x3d7bf0c8	0.061508924
107	0xbdadc49b	-0.08484765
108	0x3cc0cb50	0.023534447
109	0xbd00c336	-0.031436168
110	0x3debbc87	0.11510568
111	0xbdd58aeb	-0.10426887
112	0xbd332d5c	-0.04374443
113	0x3d9ba218	0.07599276
114	0x3d2a2af3	0.041544866
115	0x3d5bb8ae	0.05364292
116	0x3df7ad31	0.120935805
117	0xbd864992	-0.06557001
118	0xbd789b23	-0.060694825
119	0xbd72daf3	-0.059290837
120	0xbcc9b186	-0.024620783
121	0x3db9129e	0.09036754
122	0xbe16dd50	-0.14732862
123	0xbda15a35	-0.07878534
124	0xbd61fda9	-0.05517355
125	0xbe01706d	-0.12640543
126	0xbdd2654b	-0.10273226
127	0xbd8d4c1a	-0.06899281
128	0xbdcf229b	-0.10114022
129	0x3dae7378	0.08518118
130	0x3d67163f	0.0564177
131	0x3c9cbd48	0.019133225
132	0xbc93c11f	-0.018036423
133	0x3e033e98	0.12816846
134	0x3bc16d4c	0.005902922
135	0xbdcaf1d5	-0.09909407
136	0xbc09570c	-0.00838257
137	0xbe3b48bb	-0.18289463
138	0xbdfc7530	-0.12327039
139	0x3d215f2e	0.03939741
140	0xbdc3736a	-0.09543498
141	0xbe858064	-0.26074517
142	0xbbbefed6	-0.0058287187
143	0x3df32770	0.118727565
144	0xbdebe94e	-0.11519109
145	0xbd9519c5	-0.07280306
146	0xbe475230	-0.19464946
147	0x3da2a3f2	0.07941426
148	0xbdabad02	-0.08382608
149	0xbc2a46d5	-0.010392864
150	0xbdd7d2f0	-0.1053828
151	0x3e199006	0.14996347
152	0xbdd27f2c	-0.10278162
153	0xbda647b4	-0.08119145
154	0xbe150e5e	-0.14556262
155	0xbdddbc21	-0.10826898
156	0xbd8a535f	-0.06754183
157	0x3e093f61	0.13403083
158	0xbd737a82	-0.059443004
159	0x3dcc19da	0.09965868
160	0x3d2038e0	0.03911674
161	0x3cf1ba33	0.029507732
162	0xbce8407a	-0.028351057
163	0xbd22fbaf	-0.039790805
164	0xbc0fbcf5	-0.008773078
165	0xbc814449	-0.015779631
166	0x3d3d9151	0.046281163
167	0x3d2f1932	0.042748637
168	0x3c85f886	0.016353857
169	0x3d84e99e	0.064898714
170	0xbd26cdb4	-0.040723518
171	0x3dbb4486	0.09143929
172	0xbd2f2880	-0.042763233
173	0xbda0742b	-0.07834657
174	0x3d94acfc	0.07259557
175	0xbd1f4519	-0.038884256
176	0xbda73dc6	-0.08166079
177	0xbcac7a87	-0.02105452
178	0x3d68be5f	0.056822177
179	0xbd58f75d	-0.05297028
180	0xb7829102	-1.5564732e-05
181	0xbdaf1184	-0.08548263
182	0xbbf1d61c	-0.00738026
183	0x3e18b887	0.14914142
184	0x3cd90386	0.026490938
185	0x3d47ee3c	0.048811182
186	0x3c3ab063	0.011394593
187	0xbd8c4ab8	-0.06850189
188	0x3dd6d8e8	0.1049059
189	0x3d36014b	0.044434827
190	0x3de195d2	0.11014904
191	0x3d3612d5	0.044451553
192	0x3d83ff06	0.06445126
193	0x3d33ce00	0.04389763
194	0xbd70dd69	-0.058804903
195	0xbd61312e	-0.054978542
196	0x3d5a6816	0.05332192
197	0xbcdb720f	-0.026787786
198	0xbdc10ef9	-0.09426684
199	0xbddf6e90	-0.1090976
200	0x3d5f725f	0.054552432
201	0x3b290dfc	0.002579569
202	0xbc0f77a4	-0.008756552
203	0xbe161f7d	-0.1466045
204	0xbcf3c6ee	-0.029757943
205	0x3e05a880	0.13052559
206	0x3dbaddb2	0.09124316
207	0x3e047481	0.12935068
208	0xbdfa8450	-0.12232268
209	0x3dda9681	0.106732376
210	0x3dd3e027	0.10345488
211	0xbdf5d482	-0.12003423
212	0xbd961c93	-0.07329669
213	0xbcb07c05	-0.021543512
214	0x3e05280a	0.13003555
215	0xbe014495	-0.12623818
216	0x3c81b732	0.015834425
217	0xbde65703	-0.11247065
218	0x3e13f86a	0.14450231
219	0x3d80e60d	0.06293879
220	0xbe080b03	-0.1328545
221	0xbcdbbfd6	-0.026824873
222	0xbe116685	-0.14199264
223	0xbd4a5515	-0.049397547
224	0x3d588312	0.052859373
225	0x3d74c521	0.05975831
226	0xbde1e38c	-0.11029729
227	0x3b5f2319	0.003404802
228	0x3da47005	0.080291785
229	0xbd864af4	-0.06557265
230	0xbb7a2239	-0.003816737
231	0x3b75e5e8	0.0037521068
232	0xbd93e47d	-0.07221315
233	0xbdfeca3f	-0.12440919
234	0x3cd91362	0.0264985
235	0x3db61786	0.088912055
236	0x3e412a3f	0.18863772
237	0xbd8871db	-0.06662341
238	0x3d172869	0.036903773
239	0x3d823e4f	0.06359541
240	0xbe1107a5	-0.14163072
241	0xbd751948	-0.059838563
242	0x3c34c0f2	0.01103233
243	0x3dc64659	0.096813865
244	0x3cbb91c4	0.022896655
245	0xbe373038	-0.17889488
246	0xbdd585f6	-0.10425942
247	0xbdf491e0	-0.11941886
248	0xbcfff143	-0.031242972
249	0xbe08a1a9	-0.13342918
250	0xbd3fa6b0	-0.046789825
251	0x3d3d0323	0.04614557
252	0xbe064e16	-0.13115725
253	0xbc796510	-0.015221849
254	0xbd65e962	-0.056130774
255	0xbcfb4db4	-0.0306767

network_body._body_endoder.seq_layers.2.bias f4 [128]
0	0xbc03cdf7	-0.008044711
1	0xbbd7aef1	-0.006582134
2	0x3ad2c504	0.0016080444
3	0x3ac7efe5	0.0015253989
4	0xbc01a947	-0.007913894
5	0x3b1445b2	0.002262455
6	0xbb7a661f	-0.0038207842
7	0xbaabe8c9	-0.001311564
8	0xbbc8580b	-0.006114011
9	0xbbe80050	-0.0070801154
10	0xbb9f521e	-0.004862084
11	0xbb8f1841	-0.004366905
12	0x3ada8f56	0.0016674798
13	0xbb0f8d8b	-0.0021904435
14	0xbba10c76	-0.0049148155
15	0x3c21194f	0.009832694
16	0xbbca2a85	-0.0061696195
17	0xba37431c	-0.0006990896
18	0xbb8610ce	-0.0040913587
19	0xbbe46674	-0.006970221
20	0x3ba2ac9d	0.0049644248
21	0x3a65380f	0.000874401
22	0xba72f3ec	-0.00092679146
23	0x3a3a0582	0.00070961576
24	0x3c15fd63	0.00915465
25	0xb999cf4c	-0.00029336882
26	0x3c0d6a11	0.008631245
27	0x3b950d4d	0.0045487047
28	0x3a4ae5e2	0.00077399437
29	0xba844159	-0.0010090276
30	0xbbc2d697	-0.0059459913
31	0x3aa76eef	0.001277415
32	0xbaa23a3e	-0.0012376977
33	0xbbd9c59a	-0.0066458704
34	0xbb95c52c	-0.004570624
35	0xbb33c804	-0.002743245
36	0x3bbda093	0.005786964
37	0xbb52652a	-0.0032103756
38	0x3a807936	0.0009801749
39	0xbb5cf793	-0.0033716902
40	0xbba4baaf	-0.005027137
41	0x3a085bb4	0.0005201653
42	0xbb56184e	-0.0032668295
43	0x3a9102c5	0.0011063447
44	0xba2610d0	-0.0006334903
45	0x3af1bd39	0.0018443234
46	0xbba5727c	-0.005049048
47	0x3929306d	0.00016135136
48	0xbc0adc56	-0.008475384
49	0xbb10befc	-0.0022086492
50	0xbbf0245a	-0.007328552
51	0x3acb6253	0.0015516974
52	0xbb35e1b0	-0.0027752928
53	0xbb187894	-0.002326523
54	0xbbb84924	-0.0056239534
55	0x3952d453	0.00020106258
56	0xbb0bc5e1	-0.0021327662
57	0xbaef2996	-0.0018246647
58	0xbb1cbe53	-0.0023917153
59	0x3c03c4f9	0.008042567
60	0xbb8c9546	-0.0042902557
61	0xbb25c141	-0.002529219
62	0xbbd018eb	-0.0063506267
63	0xbbb74467	-0.005592871
64	0x389ce066	7.480457e-05
65	0x3a0d5551	0.0005391436
66	0x3b0b4712	0.0021252078
67	0xbb7938fa	-0.0038028345
68	0xbb41cbcc	-0.0029570935
69	0xbb5cd145	-0.003369407
70	0xbb19b2c7	-0.0023452507
71	0x3ba27724	0.0049580503
72	0xbbca53b6	-0.00617453
73	0xbc1ccb78	-0.009569995
74	0xbb455150	-0.003010828
75	0x3a917d3f	0.0011099948
76	0xbb2c2963	-0.0026269786
77	0x3a9208e2	0.0011141563
78	0xbad2ea61	-0.0016091579
79	0x3b8e7a5e	0.0043480834
80	0xbaa5a622	-0.0012638012
81	0x3b043876	0.0020175255
82	0xb980874f	-0.00024514875
83	0xbb7e155d	-0.0038770058
84	0xbc2d5ea0	-0.010581642
85	0x3ad561f2	0.00162798
86	0x3bb8d9e9	0.0056412113
87	0x3bf74d1d	0.0075470344
88	0xbc292592	-0.010323899
89	0x3ae65a08	0.0017574439
90	0xb90bcbfa	-0.0001333206
91	0xbad26628	-0.0016052173
92	0xbb204c57	-0.0024459565
93	0xbc5d70ae	-0.013515634
94	0xb99b260d	-0.00029592254
95	0x3bae76a0	0.0053242
96	0x3bc4bcc2	0.006003947
97	0xbb7675e5	-0.0037606892
98	0x3b0affd6	0.002120962
99	0x3b9c7b0c	0.0047754105
100	0xbb8cc55d	-0.0042959885
101	0xba7e7b8c	-0.0009707741
102	0xbaca606c	-0.0015440113
103	0xb9286011	-0.00016057516
104	0x39d8a4e1	0.00041321575
105	0xbb50dbe8	-0.0031869356
106	0xb92686c8	-0.00015881204
107	0xbbf303d4	-0.007416228
108	0x3ab3576a	0.0013682668
109	0x3b1a775f	0.0023569686
110	0xbabb27ab	-0.001427879
111	0x3b4480f6	0.0029984093
112	0xbb9182b5	-0.0044406303
113	0x3b4ed603	0.0031560666
114	0xba4e7cad	-0.00078768545
115	0xba89d4fa	-0.0010515742
116	0xbb549597	-0.0032437795
117	0xbb745d5a	-0.0037287087
118	0xbc2dac93	-0.010600227
119	0xbacedbcc	-0.0015782057
120	0xbad21607	-0.0016028293
121	0x3b8024e6	0.0039106486
122	0xba49824f	-0.0007686959
123	0xbb5403e7	-0.0032350959
124	0x3aceba63	0.00157721
125	0xbb9f99b1	-0.0048706164
126	0xbb72d0a6	-0.0037050634
127	0xba4df691	-0.00078568707

action_model._continuous_distribution.log_sigma f4 [1, 2]
0	0xbab6606b	-0.0013914233
1	0xbbf51f7f	-0.0074805613

action_model._continuous_distribution.mu.weight f4 [2, 128]
0	0xbcc191a3	-0.023629015
1	0xbb0c0834	-0.0021367194
2	0xbbe37a8e	-0.0069421
3	0xbb4eb1f3	-0.0031539171
4	0x37d6c766	2.560364e-05
5	0x39cc6378	0.00038984022
6	0x3c3bb1cc	0.011455964
7	0x3ba6992b	0.005084177
8	0xbbbddbd7	-0.005794029
9	0xbcc0e5d8	-0.023547098
10	0xbd096513	-0.033543658
11	0xba80c001	-0.0009822847
12	0x3c073d97	0.00825443
13	0xbbf25a16	-0.007395993
14	0xbc8a8003	-0.016906744
15	0x3cf62a80	0.030049562
16	0x3a88018b	0.0010376436
17	0xbc96590e	-0.018353011
18	0x3c2e098a	0.0106223915
19	0x3b33f964	0.002746188
20	0x3c65a803	0.014017108
21	0x3c53272c	0.012887757
22	0x3c2f19b4	0.01068728
23	0x3cb10cf2	0.021612618
24	0xbc83199d	-0.016003424
25	0x3c118c52	0.008883553
26	0xbc81bb2c	-0.01583632
27	0x3c88e38b	0.016710063
28	0xbc457169	-0.012050965
29	0xbce623f2	-0.028093312
30	0x3c245390	0.0100296885
31	0x3c861ed2	0.016372118
32	0xbc326923	-0.010889324
33	0x3ae5f71f	0.0017544961
34	0x3b9c23b7	0.0047649997
35	0x3ccafb1b	0.02477794
36	0x3bf5e35a	0.007503909
37	0xbc41ebd8	-0.011836015
38	0x3a328573	0.00068100466
39	0x3ce24c94	0.027624406
40	0xbb158df7	-0.0022820213
41	0xbaa82ed0	-0.0012831334
42	0xbc932558	-0.017962143
43	0x3d1f089c	0.03882657
44	0x3bce1aae	0.0062898016
45	0xbbf4a519	-0.0074659702
46	0xbc0be816	-0.00853922
47	0x38a86934	8.03046e-05
48	0x3c3da483	0.011574867
49	0xbc6a6819	-0.014307045
50	0x3d01ef53	0.031722378
51	0xbb7c40e3	-0.0038490824
52	0x3c17c5ea	0.009263495
53	0xbbd3c732	-0.006462955
54	0xbc88858f	-0.016665248
55	0x3c835ee9	0.016036468
56	0x3c841310	0.016122371
57	0x3c32a287	0.010903007
58	0xbbfd8aa4	-0.0077374745
59	0x3c02da0d	0.007986558
60	0x3cd9bbe3	0.02657885
61	0xbbc7c831	-0.0060968627
62	0xbbc30f12	-0.0059527243
63	0x3b4c0acb	0.0031134363
64	0x3b09aa6b	0.0021006118
65	0x3c973b75	0.018460969
66	0x3c5ded05	0.013545279
67	0xbc0fff97	-0.008788965
68	0xbc0f8ca4	-0.008761559
69	0x3c250053	0.010070878
70	0xbc987ab7	-0.018613202
71	0x3c6c9fb9	0.014442378
72	0xbc4d28a9	-0.012521901
73	0x3b7081b8	0.0036698412
74	0x3baf05f8	0.0053412877
75	0x3cbb5692	0.022868428
76	0x3b04fc1b	0.0020291868
77	0xbbbb7a18	-0.005721342
78	0xbc7ee76d	-0.015558106
79	0x3d05750e	0.032582335
80	0x3c7ef1ca	0.015560577
81	0x3ca329cf	0.019917397
82	0xbc78df06	-0.015189892
83	0x3c026812	0.007959383
84	0x3a88a97d	0.0010426488
85	0x3b89cde8	0.004205454
86	0x3b3544f0	0.0027659498
87	0x3b6d9398	0.0036251303
88	0xbb5fb650	-0.0034135766
89	0x3c1176c3	0.008878413
90	0xbbc9f82f	-0.006163619
91	0x3c271761	0.010198445
92	0x3bcbdd3f	0.006221443
93	0xbaaf321d	-0.0013366375
94	0xbc41fb3e	-0.011839686
95	0xbd17c2ca	-0.037051
96	0xbc7c6d40	-0.015406907
97	0x3b956b1a	0.0045598866
98	0x3d622c17	0.05521783
99	0xbce52fc7	-0.027976884
100	0x3c01a6fb	0.007913346
101	0x3bdbc50e	0.0067068404
102	0xbcd77c4e	-0.02630439
103	0xbb9d7f0e	-0.004806406
104	0xbc5b5381	-0.013386608
105	0xbc60796a	-0.013700822
106	0x3cde7a68	0.027157977
107	0xbba4a4b7	-0.0050245184
108	0x3b5fd7ec	0.00341558
109	0xbd17aed4	-0.037031963
110	0x3d337f70	0.043822706
111	0xbc225d2b	-0.009909908
112	0xbc05ca0b	-0.008165847
113	0xbcb68594	-0.022280492
114	0xbc6560db	-0.014000143
115	0x3d57a7f2	0.0526504
116	0xbbd05594	-0.006357858
117	0xbc9bde24	-0.019026823
118	0x3c128a58	0.0089441165
119	0x3bc0d7a7	0.0058850828
120	0xbc5ccd62	-0.013476701
121	0x38894712	6.545907e-05
122	0x3caf01ad	0.021363104
123	0x3a8c907a	0.001072421
124	0xbc259a0f	-0.010107531
125	0xbc38887a	-0.011263007
126	0x3c1350b4	0.008991409
127	0xbbdcf0f1	-0.0067425896
128	0xbbe4eeac	-0.0069864597
129	0x3c02ab51	0.007975415
130	0x3cf1fc5a	0.029539276
131	0xbc63eff5	-0.013912191
132	0xbcb5b504	-0.022181042
133	0xbd36d017	-0.044632044
134	0x3c24daa8	0.010061897
135	0xbc1530dd	-0.009105888
136	0x3cb23f04	0.021758564
137	0xbc822314	-0.015885867
138	0x3c6f1453	0.014592248
139	0x3cff4d8c	0.031164907
140	0xbc8c4b30	-0.017125696
141	0xbb4503c0	-0.003006205
142	0x3cbdfb59	0.023191141
143	0xbc8797df	-0.01655191
144	0x3a8b0e7c	0.0010609175
145	0xbb80989e	-0.0039244434
146	0x3a5ad744	0.0008348117
147	0xbbcd6b2b	-0.006268879
148	0xbc79fa17	-0.01525738
149	0x3c5eb4c1	0.0135929
150	0xbb4cc06c	-0.0031242622
151	0x3c366bb7	0.01113408
152	0x3d1492bd	0.036272753
153	0xbc8f32ae	-0.01748022
154	0xbcbcaeb3	-0.023032522
155	0xbbf14bbc	-0.0073637646
156	0x3ba4a7b7	0.005024876
157	0x3a788398	0.0009480058
158	0x3c66bf77	0.014083735
159	0xbbc1f1a2	-0.0059186975
160	0x3c803515	0.015650311
161	0xbbbe14e9	-0.0058008325
162	0xbb66365c	-0.0035127616
163	0xbb442cef	-0.002993401
164	0xbcabaadb	-0.020955494
165	0x3c7bea23	0.015375647
166	0xbce020d9	-0.027359413
167	0x3c31c69c	0.010850575
168	0x3b910979	0.004426178
169	0xbc9b8640	-0.018984914
170	0xbcb1e5ef	-0.021716086
171	0xbc8219e0	-0.015881479
172	0xbb36a8dc	-0.0027871644
173	0x3c589196	0.013218304
174	0xbc023e69	-0.00794945
175	0xbbcb531d	-0.0062049762
176	0x3b882e9d	0.0041559474
177	0x3cc2d35d	0.023782426
178	0xbcfa727d	-0.03057217
179	0xbd5310b3	-0.051529597
180	0x3d0eb792	0.034843035
181	0x3c259655	0.010106643
182	0xbbc67c6f	-0.006057314
183	0xbbfc06e5	-0.0076912516
184	0xbd1814d6	-0.037129246
185	0xbc49a6e4	-0.012307856
186	0xbca211b4	-0.019783832
187	0xbc937bda	-0.018003393
188	0x3cfb5eb9	0.030684816
189	0x3b7b8fd7	0.0038385296
190	0xbc093670	-0.008374795
191	0xbab316fb	-0.0013663465
192	0x3c3bd963	0.011465403
193	0x3c7d5732	0.0154626835
194	0xbbbb224c	-0.0057108756
195	0xbbb94027	-0.0056533995
196	0x3b7c114c	0.0038462458
197	0x3c27d206	0.010242945
198	0x3ba542cb	0.0050433627
199	0x3b555291	0.0032550434
200	0x3bb731af	0.0055906395
201	0xbc1f8204	-0.009735588
202	0x3b590932	0.0033117053
203	0xbcc85040	-0.024452329
204	0xbb9f3ffa	-0.0048599215
205	0x3d0c0b87	0.03419068
206	0xbc354a19	-0.01106503
207	0xbcc2d80d	-0.023784662
208	0xbc284125	-0.010269438
209	0xbc75e12f	-0.015007301
210	0x3ca82e1f	0.020529805
211	0x3c41a734	0.0118196495
212	0x3b5048fb	0.003178178
213	0x3c0c80de	0.008575646
214	0xbd0c536e	-0.034259252
215	0xbcb6a07c	-0.022293322
216	0x3ca22ee2	0.019797746
217	0xbc85d045	-0.016334662
218	0x3c9367ac	0.01799377
219	0xbcaddaa6	-0.021222424
220	0x3b056e5f	0.0020359976
221	0xbc231e6f	-0.009955986
222	0xbbff5457	-0.0077920365
223	0xbb85dabf	-0.0040849145
224	0x3c9de72a	0.019275267
225	0xbc858bcd	-0.016302014
226	0x3c436ba7	0.011927522
227	0xbd0f2ba9	-0.034953747
228	0xbcaf22d5	-0.021378914
229	0xbc5c1694	-0.013433117
230	0x3b88e172	0.004177266
231	0x3d464d4a	0.048413552
232	0xbc6aa96b	-0.014322619
233	0xbbd13407	-0.006384376
234	0x3c55eaab	0.0130564375
235	0x3be7bfa4	0.007072406
236	0xbcd9e7e1	-0.026599826
237	0x3a5815be	0.0008242986
238	0x3d08d587	0.03340676
239	0xbb9f060b	-0.0048530153
240	0xbbe8e8ec	-0.0071078446
241	0xbb90892b	-0.004410883
242	0x3b8f0dec	0.0043656733
243	0xbc81d0c0	-0.01584661
244	0xbb088ccf	-0.0020835882
245	0xbabee16a	-0.0014563028
246	0x3b052acc	0.0020319698
247	0x3b8c9d6b	0.0042912266
248	0x3c776758	0.015100323
249	0x3d3f1fad	0.046661068
250	0x3bc85e7c	0.006114779
251	0xbca8aaa6	-0.020589184
252	0xbbd96495	-0.0066343048
253	0x3b131c63	0.002244734
254	0xbbf49492	-0.007464
255	0x3cff73a9	0.03118308

action_model._continuous_distribution.mu.bias f4 [2]
0	0xb8b62188	-8.684682e-05
1	0xba81c8f8	-0.0009901812

exp_avg f4 [128, 6]
0	0x38dbf6a9	0.00010488678
1	0x380d0432	3.3620927e-05
2	0xb9a33b82	-0.0003113412
3	0x390be45e	0.00013341146
4	0x398d0432	0.00026896741
5	0xb890d26a	-6.905648e-05
6	0x39a6125a	0.0003167566
7	0x381d3660	3.7482358e-05
8	0xb987cf71	-0.00025903762
9	0xb9452c92	-0.00018803988
10	0x399d3660	0.00029985886
11	0x39c1aa2a	0.0003693861
12	0xb78dd700	-1.6908627e-05
13	0xb750af83	-1.2438631e-05
14	0x389f7cb0	7.604936e-05
15	0xb89d1034	-7.4893615e-05
16	0xb8d0af83	-9.9509045e-05
17	0xb83a012f	-4.4346958e-05
18	0x38c4f931	9.392424e-05
19	0x376e60b1	1.4208418e-05
20	0xb7ea4fa6	-2.7932063e-05
21	0xb88bc959	-6.6655404e-05
22	0x38ee60b1	0.000113667345
23	0x3964dcc2	0.00021826013
24	0xb92d7488	-0.00016541977
25	0xb8786e30	-5.9230428e-05
26	0x3a137cb7	0.0005626189
27	0xb98361cf	-0.0002505914
28	0xb9f86e30	-0.00047384342
29	0x3924d692	0.00015720192
30	0xb815df9c	-3.573262e-05
31	0xb72ac7e8	-1.0179334e-05
32	0x388d78a6	6.7458765e-05
33	0xb82effdc	-4.172312e-05
34	0xb8aac7e8	-8.143467e-05
35	0xb890d8ca	-6.906835e-05
36	0xb8a2a122	-7.754775e-05
37	0xb731db00	-1.0601012e-05
38	0x38a6daae	7.956229e-05
39	0x381e654b	3.7764472e-05
40	0xb8b1db00	-8.4808096e-05
41	0xb8e549ba	-0.000109333036
42	0x3702df09	7.800533e-06
43	0x37ccde82	2.4422308e-05
44	0xb994396e	-0.00028271548
45	0x3934d67b	0.00017246038
46	0x394cde82	0.00019537847
47	0xb8c12aba	-9.2109156e-05
48	0xb56651dc	-8.58008e-07
49	0x359c39cf	1.163973e-06
50	0xb6438c95	-2.9139094e-06
51	0x372361e0	9.738345e-06
52	0x371c39cf	9.311784e-06
53	0x373b5380	1.116551e-05
54	0x37eff0bc	2.860312e-05
55	0xb78d77cd	-1.6864296e-05
56	0x388db7b7	6.7576235e-05
57	0xb92d6250	-0.0001653519
58	0xb90d77cd	-0.00013491437
59	0xb8ff22c1	-0.00012165821
60	0xb70223f8	-7.756978e-06
61	0xb8a123d9	-7.6837554e-05
62	0x39992684	0.0002921113
63	0xba279295	-0.0006392387
64	0xba2123d9	-0.00061470043
65	0xb9b14295	-0.00033809678
66	0xb87c08fe	-6.0089857e-05
67	0x38633e9a	5.417932e-05
68	0xb8d92560	-0.00010354328
69	0x3a01dfd8	0.0004954315
70	0x39e33e9a	0.00043343456
71	0x39e227e4	0.000431358
72	0x398533f2	0.0002540644
73	0x381f2be4	3.794943e-05
74	0xb92df282	-0.00016588907
75	0xb90a27ad	-0.00013175486
76	0x399f2be4	0.00030359544
77	0x3a0a4590	0.0005274648
78	0xb7a86772	-2.0075331e-05
79	0xb7075c9a	-8.0681875e-06
80	0x388084c4	6.128245e-05
81	0xb82dc760	-4.1432097e-05
82	0xb8875c9a	-6.45455e-05
83	0xb746f6a4	-1.1859145e-05
84	0x390a0a10	0.00013164454
85	0x3869a9aa	5.570954e-05
86	0xb9be2036	-0.00036263623
87	0x39bbbd36	0.00035808393
88	0x39e9a9aa	0.00044567633
89	0x398492b2	0.00025286298
90	0x3767af44	1.380948e-05
91	0x3709bc50	8.209681e-06
92	0xb934eb53	-0.00017253803
93	0x37ce5fae	2.4601668e-05
94	0x3889bc50	6.567745e-05
95	0xb9321241	-0.00016982203
96	0xb7a2af4e	-1.9393538e-05
97	0xb6bd125c	-5.6347762e-06
98	0x383b1944	4.4607805e-05
99	0xb77b669c	-1.4984656e-05
100	0xb83d125c	-4.507821e-05
101	0xb739d63e	-1.1076741e-05
102	0xb8bf1a44	-9.112482e-05
103	0xb815dbc7	-3.5729052e-05
104	0x3948e6d9	0.00019159484
105	0xb9385e9d	-0.00017582854
106	0xb995dbc7	-0.00028583242
107	0xb8b3355e	-8.5453255e-05
108	0xba064fb0	-0.00051235687
109	0xb8c1cc11	-9.2409675e-05
110	0x3a717084	0.00092101865
111	0xb8c4df74	-9.38763e-05
112	0xba41cc11	-0.0007392774
113	0xb954f80c	-0.000203103
114	0x37cef6de	2.467207e-05
115	0xb7a91818	-2.015759e-05
116	0x39395ad3	0.0001767681
117	0xb96ff70c	-0.00022884848
118	0xb9291818	-0.00016126072
119	0xb9034dbc	-0.00012522092
120	0xb78e3442	-1.6952054e-05
121	0xb5d3fed0	-1.5794885e-06
122	0x392d6dda	0.00016539489
123	0xb8f9c899	-0.000119106095
124	0xb753fed0	-1.2635908e-05
125	0x392e2936	0.00016609285
126	0xb7e7d0f8	-2.7634655e-05
127	0x37d47ff1	2.5331947e-05
128	0xb7aaa7f0	-2.0343781e-05
129	0x3964dc61	0.00021825872
130	0x39547ff1	0.00020265557
131	0x399c23ea	0.00029781397
132	0x392d6a16	0.00016538086
133	0x3820f6db	3.8376875e-05
134	0xb9f24124	-0.0004620637
135	0x3959a31c	0.00020755496
136	0x39a0f6db	0.000307015
137	0xb60a5d30	-2.0617845e-06
138	0x39a9a8d8	0.0003235999
139	0x3870ed30	5.7441357e-05
140	0xba2445b1	-0.00062664883
141	0x393eebef	0.00018207704
142	0x39f0ed30	0.00045953086
143	0xb88d5fba	-6.7412344e-05
144	0xb88246f2	-6.212098e-05
145	0x388e64d8	6.789871e-05
146	0xb942ffca	-0.0001859657
147	0x3a170e8e	0.00057623617
148	0x3a0e64d8	0.0005431897
149	0x3a247ccc	0.00062746997
150	0x37db84fa	2.6168756e-05
151	0xb8eed7dc	-0.00011388931
152	0x39002a54	0.000122228
153	0xba692a1a	-0.0008894518
154	0xba6ed7dc	-0.0009111145
155	0xba8e5ffb	-0.0010862345
156	0xb7411260	-1.1507975e-05
157	0xb64c957c	-3.048538e-06
158	0x37192e4e	9.130292e-06
159	0x369a471a	4.597835e-06
160	0xb7cc957c	-2.4388304e-05
161	0xb79c0694	-1.8599712e-05
162	0xb71969a8	-9.144111e-06
163	0xb5ae33b5	-1.2979059e-06
164	0x36fcaa58	7.530016e-06
165	0x36a0183b	4.7711924e-06
166	0xb72e33b5	-1.0383247e-05
167	0xb757d62e	-1.2864866e-05
168	0xb81ef856	-3.7901416e-05
169	0xb6786038	-3.7010886e-06
170	0xb70ad944	-8.276027e-06
171	0x389bd96d	7.431475e-05
172	0xb7f86038	-2.960871e-05
173	0xb7de49fb	-2.6498912e-05
174	0x3683b8bc	3.92561e-06
175	0x34e0b13c	4.1852206e-07
176	0xb5dd9846	-1.65101e-06
177	0xb5c287f8	-1.4493698e-06
178	0x3660b13c	3.3481765e-06
179	0x3660af84	3.3480765e-06
180	0xb7460099	-1.1801859e-05
181	0xb629183f	-2.5197076e-06
182	0x37cc3175	2.4341725e-05
183	0xb62064a2	-2.3900434e-06
184	0xb7a9183f	-2.015766e-05
185	0x37618518	1.3442033e-05
186	0x391379af	0.00014064343
187	0x37471154	1.1865359e-05
188	0xb8e8beb4	-0.00011098143
189	0xb8cbc7bb	-9.716997e-05
190	0x38c71154	9.492287e-05
191	0x3787fe2c	1.6211612e-05
192	0x349c2465	2.9083745e-07
193	0x3379511d	5.8048602e-08
194	0xb4bbd414	-3.4985771e-07
195	0x333bee7c	4.375623e-08
196	0x34f9511d	4.6438882e-07
197	0x34baca4b	3.4792387e-07
198	0xb965d0c2	-0.0002191691
199	0xb8f370c2	-0.00011608146
200	0x3a102dca	0.0005499987
201	0xba31da3f	-0.00067845354
202	0xba7370c2	-0.00092865166
203	0xba51156a	-0.0007975908
204	0x351c43c0	5.821312e-07
205	0xb55f2d0c	-8.3139525e-07
206	0xb4b4566c	-3.3590493e-07
207	0xb6d047a0	-6.2072213e-06
208	0xb6df2d0c	-6.651162e-06
209	0xb7349026	-1.0762398e-05
210	0x388c74b7	6.69746e-05
211	0x384bbab3	4.857285e-05
212	0xb9912b18	-0.00027688663
213	0x39d88c2f	0.00041303175
214	0x39cbbab3	0.0003885828
215	0x394007cb	0.0001831345
216	0xb63a0580	-2.7719361e-06
217	0x37e50058	2.7299087e-05
218	0xb92f8cdc	-0.00016741775
219	0x38c22e03	9.259211e-05
220	0x39650058	0.0002183927
221	0x38b77cb0	8.749345e-05
222	0xb8b01126	-8.395528e-05
223	0xb80636dd	-3.1999185e-05
224	0x398bd592	0.00026671268
225	0xb832c0bc	-4.2618005e-05
226	0xb98636dd	-0.00025599348
227	0xb87bd016	-6.003686e-05
228	0xb5669c20	-8.590887e-07
229	0x379ce7cf	1.8704593e-05
230	0xb920d42c	-0.00015337829
231	0x397bb8f4	0.00024006126
232	0x391ce7cf	0.00014963675
233	0x37d66a44	2.5560272e-05
234	0xb8880e7f	-6.4876855e-05
235	0xb7ee00e6	-2.837223e-05
236	0x39815a2c	0.0002467198
237	0xb95128c8	-0.00019946985
238	0xb96e00e6	-0.00022697783
239	0xb8716672	-5.7554287e-05
240	0xb73f98e8	-1.1420088e-05
241	0xb602d320	-1.94944e-06
242	0x35b8b180	1.3760728e-06
243	0x37709d8a	1.4341795e-05
244	0xb782d320	-1.559552e-05
245	0xb7fcfb24	-3.0157687e-05
246	0x357960aa	9.2900393e-07
247	0xb7033e01	-7.822645e-06
248	0x38011bef	3.0782012e-05
249	0xb8830bed	-6.248788e-05
250	0xb8833e01	-6.258116e-05
251	0xb824bbb2	-3.9275452e-05
252	0x398385fc	0.00025086093
253	0x3839fab9	4.434094e-05
254	0xb934184f	-0.00017175193
255	0xb8a00f48	-7.632241e-05

exp_avg_sq f4 [128, 6]
0	0x35d4218c	1.5804994e-06
1	0x32b12f9f	2.0627168e-08
2	0x368e8131	4.2469696e-06
3	0x35aaedcb	1.2735194e-06
4	0x35b12f9f	1.3201387e-06
5	0x35f76906	1.84335e-06
6	0x3581ae09	9.6619e-07
7	0x32409f5a	1.1212103e-08
8	0x359802af	1.1325664e-06
9	0x34f60a9e	4.5828796e-07
10	0x35409f5a	7.175746e-07
11	0x35916bd0	1.083472e-06
12	0x34838370	2.4496285e-07
13	0x325809c8	1.2575079e-08
14	0x36089a59	2.0355421e-06
15	0x3596d096	1.1236577e-06
16	0x355809c8	8.0480504e-07
17	0x35ac1543	1.2821187e-06
18	0x34c21632	3.6151465e-07
19	0x3257b0ec	1.25548745e-08
20	0x3581d9a7	9.674594e-07
21	0x34d4aef3	3.961537e-07
22	0x3557b0ec	8.0351197e-07
23	0x35aa0ea2	1.2670246e-06
24	0x35a7747b	1.247637e-06
25	0x32ab8e6a	1.9971782e-08
26	0x36744252	3.6397437e-06
27	0x353bc117	6.994391e-07
28	0x35ab8e6a	1.2781941e-06
29	0x35e07ad3	1.6725047e-06
30	0x33697e17	5.4364218e-08
31	0x3004593f	4.8148147e-10
32	0x33a41f13	7.6424975e-08
33	0x32b7e43c	2.1407793e-08
34	0x3304593f	3.0814814e-08
35	0x3336360a	4.2424325e-08
36	0x349a9148	2.879044e-07
37	0x3140d42f	2.806029e-09
38	0x34d4e19a	3.9652224e-07
39	0x340e6b59	1.3263833e-07
40	0x3440d42f	1.7958585e-07
41	0x349cc49b	2.9200314e-07
42	0x34ce6211	3.8441843e-07
43	0x32b08c04	2.0552768e-08
44	0x364380ac	2.9132161e-06
45	0x361025aa	2.1479595e-06
46	0x35b08c04	1.3153772e-06
47	0x35cdb13a	1.532527e-06
48	0x34806c1b	2.3920515e-07
49	0x31ec4781	6.876633e-09
50	0x35cc7c38	1.5235337e-06
51	0x343264b5	1.6614179e-07
52	0x34ec4781	4.4010451e-07
53	0x356ecc28	8.8958996e-07
54	0x34277f9f	1.5599515e-07
55	0x31c1c79f	5.6397336e-09
56	0x357d8431	9.444221e-07
57	0x358683f1	1.0022178e-06
58	0x34c1c79f	3.6094295e-07
59	0x34deecd7	4.1523046e-07
60	0x353a0206	6.9293344e-07
61	0x332241ea	3.7778513e-08
62	0x365f5d9d	3.328408e-06
63	0x3626aca3	2.4836415e-06
64	0x362241ea	2.4178248e-06
65	0x35e48c8c	1.7028228e-06
66	0x346d7a7f	2.2116909e-07
67	0x32ab7a4d	1.9962636e-08
68	0x35df1917	1.6622097e-06
69	0x3602afab	1.9473762e-06
70	0x35ab7a4d	1.2776087e-06
71	0x35a6caa0	1.2426935e-06
72	0x35dbd3a2	1.6378365e-06
73	0x32b337a3	2.0863643e-08
74	0x35ba7b0b	1.389389e-06
75	0x35581364	8.049449e-07
76	0x35b337a3	1.3352732e-06
77	0x35d9663f	1.6197517e-06
78	0x348368ed	2.4476995e-07
79	0x321c57c2	9.100349e-09
80	0x35ee9f2b	1.7778706e-06
81	0x358a8376	1.0320061e-06
82	0x351c57c2	5.8242233e-07
83	0x35a10a12	1.1998366e-06
84	0x34befa86	3.5572538e-07
85	0x3260aed5	1.3078268e-08
86	0x3572df20	9.0476715e-07
87	0x34f1d2a2	4.5043004e-07
88	0x3560aed5	8.3700917e-07
89	0x35a62c05	1.2380775e-06
90	0x35a46448	1.2248138e-06
91	0x332e4805	4.0578033e-08
92	0x36f37fa6	7.2568246e-06
93	0x36413e23	2.879541e-06
94	0x362e4805	2.5969941e-06
95	0x3684aeac	3.954241e-06
96	0x33be7192	8.868223e-08
97	0x3193ba89	4.2994697e-09
98	0x3524e748	6.143132e-07
99	0x34627488	2.1090284e-07
100	0x3493ba89	2.7516606e-07
101	0x3501412b	4.8151077e-07
102	0x353c7bdd	7.02157e-07
103	0x3293a5fe	1.7188537e-08
104	0x361158a2	2.1658275e-06
105	0x35b9eaa4	1.3851864e-06
106	0x3593a5fe	1.1000664e-06
107	0x35800e16	9.540843e-07
108	0x366377a9	3.3895287e-06
109	0x332439a4	3.823665e-08
110	0x36c0a2fa	5.741019e-06
111	0x35b63756	1.3576162e-06
112	0x362439a4	2.4471456e-06
113	0x3656484d	3.193057e-06
114	0x351d13cb	5.851586e-07
115	0x32b8a159	2.1493792e-08
116	0x3651ce48	3.1263498e-06
117	0x35cdc47e	1.5330877e-06
118	0x35b8a159	1.3756027e-06
119	0x3600c65c	1.9188947e-06
120	0x35206891	5.975681e-07
121	0x31ba186f	5.4160902e-09
122	0x35429ec4	7.2501666e-07
123	0x34827343	2.429825e-07
124	0x34ba186f	3.4662978e-07
125	0x34e477a1	4.255535e-07
126	0x35592394	8.089057e-07
127	0x32f7942a	2.8821962e-08
128	0x3696be31	4.4924896e-06
129	0x360f267f	2.1331068e-06
130	0x35f7942a	1.8446055e-06
131	0x3620c00f	2.395365e-06
132	0x34f8e907	4.636315e-07
133	0x32335097	1.0437495e-08
134	0x35fa2f35	1.864019e-06
135	0x354d10b7	7.6392774e-07
136	0x35335097	6.679997e-07
137	0x354cb660	7.626131e-07
138	0x359838df	1.1341434e-06
139	0x3289adf4	1.6028004e-08
140	0x3627b851	2.4992225e-06
141	0x35203977	5.9688267e-07
142	0x3589adf4	1.0257922e-06
143	0x3596358d	1.1191456e-06
144	0x34fc7ac9	4.7027996e-07
145	0x32e27d8b	2.6366953e-08
146	0x3634ebca	2.6959337e-06
147	0x35f92da5	1.856523e-06
148	0x35e27d8b	1.687485e-06
149	0x3617b74e	2.260745e-06
150	0x3530a0a5	6.579888e-07
151	0x336fc44d	5.582506e-08
152	0x36c03419	5.728111e-06
153	0x36da31e3	6.502714e-06
154	0x366fc44d	3.5728037e-06
155	0x36671fff	3.4440307e-06
156	0x36129c0b	2.1846524e-06
157	0x327e21d1	1.4792435e-08
158	0x35d1e8ec	1.5639503e-06
159	0x35448da2	7.322179e-07
160	0x357e21d1	9.4671583e-07
161	0x356db065	8.854607e-07
162	0x34aa5a44	3.1730644e-07
163	0x31ecc18c	6.8905077e-09
164	0x35a8255f	1.2527852e-06
165	0x34311b17	1.6494265e-07
166	0x34ecc18c	4.409925e-07
167	0x354db114	7.6626134e-07
168	0x341bdc36	1.4515612e-07
169	0x31ef398e	6.9623587e-09
170	0x35542c1d	7.904035e-07
171	0x341ba15b	1.44942e-07
172	0x34ef398e	4.4559096e-07
173	0x355d1e66	8.237315e-07
174	0x3543c859	7.2934705e-07
175	0x32329748	1.0395361e-08
176	0x36086962	2.032692e-06
177	0x349a4694	2.8736088e-07
178	0x35329748	6.653031e-07
179	0x35f32d19	1.8118036e-06
180	0x350cfaf6	5.251926e-07
181	0x32161a23	8.737092e-09
182	0x359b0c6c	1.1552015e-06
183	0x34a537a5	3.0774132e-07
184	0x35161a23	5.591739e-07
185	0x3587c524	1.0115659e-06
186	0x349a2329	2.8710318e-07
187	0x31d48406	6.1850214e-09
188	0x35713149	8.9851216e-07
189	0x34d15f25	3.899851e-07
190	0x34d48406	3.9584137e-07
191	0x34ef9704	4.4627097e-07
192	0x2fbdb4c7	3.450735e-10
193	0x2c74f402	3.4809937e-12
194	0x304f1901	7.5341694e-10
195	0x2f3fb373	1.7435102e-10
196	0x2f74f402	2.227836e-10
197	0x30140791	5.385284e-10
198	0x362af919	2.5476968e-06
199	0x336f8064	5.5763294e-08
200	0x36dbd39b	6.5513427e-06
201	0x362ddfec	2.5909349e-06
202	0x366f8064	3.5688508e-06
203	0x36b2aa15	5.3246135e-06
204	0x344f9663	1.9333088e-07
205	0x31a3f209	4.7714406e-09
206	0x3583f833	9.832496e-07
207	0x3405710f	1.2427721e-07
208	0x34a3f209	3.053722e-07
209	0x351a9bbd	5.75961e-07
210	0x35d39080	1.576278e-06
211	0x32af739c	2.0425254e-08
212	0x361f412e	2.3730786e-06
213	0x359da696	1.1745894e-06
214	0x35af739c	1.3072163e-06
215	0x35a3bda2	1.2199637e-06
216	0x360a1bba	2.0579741e-06
217	0x32fd168b	2.9463328e-08
218	0x369fe0c7	4.764737e-06
219	0x35e5a182	1.7108835e-06
220	0x35fd168b	1.885653e-06
221	0x362ae478	2.546496e-06
222	0x35e4bfc4	1.7043135e-06
223	0x32dd198e	2.5739407e-08
224	0x3671724e	3.5978333e-06
225	0x35015f00	4.819449e-07
226	0x35dd198e	1.647322e-06
227	0x360a626e	2.0620896e-06
228	0x3510e3ce	5.397568e-07
229	0x32044762	7.699642e-09
230	0x354606a3	7.3770406e-07
231	0x34944e67	2.7624193e-07
232	0x35044762	4.927771e-07
233	0x353a2565	6.9344816e-07
234	0x34f256c5	4.5139146e-07
235	0x32251436	9.6088595e-09
236	0x359ccc6a	1.1682398e-06
237	0x354ced29	7.6341036e-07
238	0x35251436	6.14967e-07
239	0x35008945	4.788347e-07
240	0x34b42ed9	3.35617e-07
241	0x312f33e6	2.5495352e-09
242	0x34a646bc	3.0971376e-07
243	0x341c428c	1.4552842e-07
244	0x342f33e6	1.6317026e-07
245	0x3476242f	2.2923699e-07
246	0x35082af8	5.0726476e-07
247	0x325040fe	1.2121971e-08
248	0x362ec073	2.604004e-06
249	0x34e109d5	4.191667e-07
250	0x355040fe	7.7580614e-07
251	0x35cd5203	1.5297559e-06
252	0x349fb142	2.974503e-07
253	0x323687d2	1.0624676e-08
254	0x3584d532	9.896814e-07
255	0x34905f99	2.6891647e-07

exp_avg f4 [128]
0	0x380d0432	3.3620927e-05
1	0x381d3664	3.7482372e-05
2	0xb750af89	-1.2438636e-05
3	0x376e60ba	1.4208426e-05
4	0xb8786e38	-5.9230457e-05
5	0xb72ac7ea	-1.0179336e-05
6	0xb731daf9	-1.0601006e-05
7	0x37ccde80	2.4422305e-05
8	0x359c39ce	1.1639729e-06
9	0xb78d77cb	-1.6864293e-05
10	0xb8a123d6	-7.683753e-05
11	0x38633e99	5.4179316e-05
12	0x381f2be1	3.794942e-05
13	0xb7075c9b	-8.068188e-06
14	0x3869a9a7	5.570953e-05
15	0x3709bc5c	8.209692e-06
16	0xb6bd125e	-5.634777e-06
17	0xb815dbc9	-3.572906e-05
18	0xb8c1cc11	-9.2409675e-05
19	0xb7a91814	-2.0157582e-05
20	0xb5d3fed8	-1.5794894e-06
21	0x37d47fee	2.5331941e-05
22	0x3820f6da	3.837687e-05
23	0x3870ed2e	5.744135e-05
24	0x388e64d6	6.78987e-05
25	0xb8eed7da	-0.0001138893
26	0xb64c957e	-3.0485385e-06
27	0xb5ae33b4	-1.2979058e-06
28	0xb6786048	-3.7010923e-06
29	0x34e0b141	4.185222e-07
30	0xb6291847	-2.5197094e-06
31	0x3747115e	1.1865368e-05
32	0x33795120	5.8048613e-08
33	0xb8f370ba	-0.0001160814
34	0xb55f2d0a	-8.3139514e-07
35	0x384bbaaf	4.8572834e-05
36	0x37e5004f	2.7299071e-05
37	0xb80636dd	-3.1999185e-05
38	0x379ce7d2	1.8704599e-05
39	0xb7ee00ec	-2.837224e-05
40	0xb602d329	-1.949442e-06
41	0xb7033e01	-7.822645e-06
42	0x3839fab5	4.4340926e-05
43	0xb894a1a9	-7.0873015e-05
44	0x3952f607	0.00020118813
45	0x38090e1e	3.2676493e-05
46	0xb57dbbc2	-9.452307e-07
47	0xb259c6a9	-1.26762325e-08
48	0xb69e39e5	-4.7155067e-06
49	0x3581a779	9.65999e-07
50	0xb6fe6790	-7.581846e-06
51	0x389ab7ea	7.377549e-05
52	0xb84f15ee	-4.937307e-05
53	0xb675a594	-3.6604224e-06
54	0xb6cacf04	-6.044169e-06
55	0xb484da98	-2.4745964e-07
56	0x36cbd874	6.07507e-06
57	0xb833852d	-4.2800955e-05
58	0x36f194ac	7.1996674e-06
59	0xb6fd30c7	-7.545666e-06
60	0xb8769348	-5.8788137e-05
61	0xb692c50e	-4.3740793e-06
62	0x385b88c1	5.234103e-05
63	0x352eb111	6.5077717e-07
64	0x367e8128	3.7924128e-06
65	0xb763f8fc	-1.3588226e-05
66	0x36c35114	5.8208916e-06
67	0x383f54c7	4.5616904e-05
68	0xb88bf66c	-6.673936e-05
69	0xb9195c63	-0.00014625634
70	0x391819e4	0.00014505495
71	0x390abdd8	0.00013231428
72	0x37172b92	9.010446e-06
73	0xb758a8f2	-1.2913939e-05
74	0x38079c17	3.2331878e-05
75	0xb8f12d85	-0.00011500254
76	0x32f43a01	2.8431716e-08
77	0xb5b134bb	-1.3202874e-06
78	0x37a8309a	2.0049793e-05
79	0x366dce29	3.5435753e-06
80	0xb7513c00	-1.2471341e-05
81	0x38c2b5ea	9.284525e-05
82	0xb89d04d4	-7.487243e-05
83	0xb900f7e4	-0.00012299378
84	0xb7776297	-1.4745302e-05
85	0xb85702c4	-5.126257e-05
86	0xb7951bfc	-1.7775215e-05
87	0xb607d809	-2.0242317e-06
88	0xb66da6a0	-3.541274e-06
89	0xb6991a11	-4.56279e-06
90	0xb85e5bbf	-5.301437e-05
91	0x36dcc4d4	6.5794247e-06
92	0xb5ab1d71	-1.2749061e-06
93	0xb7c67c93	-2.3661449e-05
94	0xb91c023f	-0.00014878156
95	0x378f872e	1.7109876e-05
96	0xb7584762	-1.2891223e-05
97	0xb8aee688	-8.339906e-05
98	0xb83682be	-4.3513945e-05
99	0x38fc968f	0.0001204434
100	0x38378865	4.3757627e-05
101	0xb8256f30	-3.9442617e-05
102	0xb903efe9	-0.00012582507
103	0xb647f0b0	-2.979341e-06
104	0xb867dc99	-5.528014e-05
105	0xb5fa52f2	-1.8650592e-06
106	0x399160e6	0.0002772875
107	0xb8851580	-6.345939e-05
108	0x38ad108c	8.252365e-05
109	0xb8d7e27a	-0.000102941834
110	0xb8284560	-4.011893e-05
111	0x35e91bd6	1.7367954e-06
112	0xb8c93d2d	-9.595822e-05
113	0xb891344d	-6.9238806e-05
114	0x38e0871a	0.00010706317
115	0xb883e641	-6.289455e-05
116	0xb8d5c47c	-0.000101932295
117	0x37e065e6	2.6750331e-05
118	0xb4a3a774	-3.0482954e-07
119	0x38266430	3.967079e-05
120	0xb84a2058	-4.8190675e-05
121	0x38cc1119	9.730663e-05
122	0x38b00c5c	8.394636e-05
123	0xb89fef08	-7.626234e-05
124	0x3888f36f	6.5303284e-05
125	0x35ef21e6	1.7816753e-06
126	0x38dbd3b2	0.00010482165
127	0x35a59e07	1.233945e-06

exp_avg_sq f4 [128]
0	0x32b12f9f	2.0627168e-08
1	0x32409f59	1.1212102e-08
2	0x325809c6	1.2575077e-08
3	0x3257b0ec	1.25548745e-08
4	0x32ab8e6a	1.9971782e-08
5	0x30045940	4.814815e-10
6	0x3140d42d	2.8060285e-09
7	0x32b08c03	2.0552767e-08
8	0x31ec4781	6.876633e-09
9	0x31c1c7a0	5.639734e-09
10	0x332241e9	3.777851e-08
11	0x32ab7a4e	1.9962638e-08
12	0x32b337a5	2.0863647e-08
13	0x321c57c1	9.100348e-09
14	0x3260aed5	1.3078268e-08
15	0x332e4804	4.057803e-08
16	0x3193ba88	4.2994692e-09
17	0x3293a5ff	1.7188539e-08
18	0x332439a6	3.8236657e-08
19	0x32b8a158	2.149379e-08
20	0x31ba186d	5.4160894e-09
21	0x32f79428	2.8821958e-08
22	0x32335098	1.0437496e-08
23	0x3289adf4	1.6028004e-08
24	0x32e27d8c	2.6366955e-08
25	0x336fc44d	5.582506e-08
26	0x327e21d1	1.4792435e-08
27	0x31ecc18a	6.890507e-09
28	0x31ef398e	6.9623587e-09
29	0x32329749	1.0395362e-08
30	0x32161a25	8.737094e-09
31	0x31d48407	6.185022e-09
32	0x2c74f403	3.480994e-12
33	0x336f8063	5.576329e-08
34	0x31a3f20b	4.7714415e-09
35	0x32af739a	2.042525e-08
36	0x32fd168f	2.9463335e-08
37	0x32dd198e	2.5739407e-08
38	0x32044762	7.699642e-09
39	0x32251436	9.6088595e-09
40	0x312f33e5	2.549535e-09
41	0x325040fe	1.2121971e-08
42	0x323687d1	1.0624675e-08
43	0x332a86f9	3.9703966e-08
44	0x338280d4	6.0770304e-08
45	0x32412a74	1.1243731e-08
46	0x31a8bab4	4.910669e-09
47	0x31a8c928	4.9123123e-09
48	0x31ce6326	6.006661e-09
49	0x3233b40e	1.0460111e-08
50	0x32c55d73	2.2976314e-08
51	0x331c5922	3.6402646e-08
52	0x32abde77	2.0008185e-08
53	0x3221cfa2	9.418644e-09
54	0x31a01320	4.658787e-09
55	0x2d219ee5	9.187072e-12
56	0x32cb0ff2	2.3639561e-08
57	0x32268a61	9.693935e-09
58	0x31937dff	4.292587e-09
59	0x32101794	8.387264e-09
60	0x3328d3a4	3.9308034e-08
61	0x320db690	8.24879e-09
62	0x33db8582	1.0222267e-07
63	0x31d24f90	6.1208496e-09
64	0x319b9e44	4.5290864e-09
65	0x322647b6	9.678777e-09
66	0x32803f8d	1.493006e-08
67	0x32d934d7	2.5286154e-08
68	0x32b92417	2.1553246e-08
69	0x3351df8f	4.886493e-08
70	0x3337804b	4.272469e-08
71	0x339d15cf	7.314849e-08
72	0x31a74adb	4.8688498e-09
73	0x315e287b	3.2328262e-09
74	0x3247e977	1.1636408e-08
75	0x333e0b9b	4.4248377e-08
76	0x2f46373c	1.8027618e-10
77	0x30fe37e6	1.849682e-09
78	0x3317aa6b	3.531242e-08
79	0x315a93e5	3.1807244e-09
80	0x3316d4a4	3.5117992e-08
81	0x32dad613	2.547589e-08
82	0x333bf2e4	4.3760238e-08
83	0x32fd3cbc	2.9480695e-08
84	0x3273ce09	1.4191309e-08
85	0x32866e16	1.5649714e-08
86	0x32eece69	2.7800711e-08
87	0x3196ee63	4.392676e-09
88	0x32645ad5	1.32919995e-08
89	0x31c84d40	5.8295484e-09
90	0x33445cb6	4.5719126e-08
91	0x320f62d5	8.346167e-09
92	0x30bccdf2	1.3737333e-09
93	0x32a24e0e	1.8894777e-08
94	0x3310d14c	3.3717967e-08
95	0x32bea7dd	2.2195247e-08
96	0x328f8086	1.6705837e-08
97	0x3394598f	6.908078e-08
98	0x333d6bde	4.4103096e-08
99	0x32b37b35	2.089437e-08
100	0x332ca74a	4.019902e-08
101	0x3335881d	4.226614e-08
102	0x3373bb36	5.6748114e-08
103	0x3271bcc3	1.4070966e-08
104	0x32e445e5	2.6574478e-08
105	0x31c494fd	5.7212888e-09
106	0x3429cde9	1.5814261e-07
107	0x331eaaf9	3.694274e-08
108	0x338dda2e	6.605511e-08
109	0x32c73c26	2.3194001e-08
110	0x31f97a76	7.260776e-09
111	0x2fef43f1	4.3522122e-10
112	0x335fd762	5.2117123e-08
113	0x3310bee5	3.370123e-08
114	0x334f0d3a	4.8207973e-08
115	0x330cf57d	3.281956e-08
116	0x33bdfd73	8.8471005e-08
117	0x327cef69	1.4722766e-08
118	0x32ac2348	2.003948e-08
119	0x32b2ec46	2.0829372e-08
120	0x31d9161c	6.3180448e-09
121	0x32efa43c	2.7897947e-08
122	0x332fb7be	4.0912475e-08
123	0x33068c6b	3.1327016e-08
124	0x334d839f	4.784999e-08
125	0x31bd59cc	5.5108327e-09
126	0x338a1995	6.430779e-08
127	0x3195926e	4.353118e-09
