results/ppo/MoveToGoal/MoveToGoal-125627.pt (torch, 441366 bytes, 36 tensors)

network_body._body_endoder.seq_layers.0.weight f4 [128, 6]
000000 d7 85 1a 3d 1f a5 34 3e 98 f2 ad 3e 8f 82 81 be
       0.037725296 0.17641114 0.33974147 -0.2529492
000010 aa 61 3e be 35 e6 ab be 82 34 c6 be a2 03 5e 3e
       -0.18591943 -0.33574072 -0.38711935 0.21681073
000020 a9 e5 22 3f 80 09 d0 3e b5 3f 23 bf b8 bb 64 be
       0.63631684 0.40632248 -0.63769084 -0.22337234
000030 9c 90 a3 3e f1 b9 2b bf 05 5f 8c be 22 fd 42 be
       0.31946266 -0.670806 -0.27416244 -0.19041875
000040 8d 40 22 be 2f e1 aa 3e 86 4f ce be 25 65 2f be
       -0.15844937 0.33374926 -0.40295047 -0.17128427
000050 db b1 91 be 9e 58 b1 3c 28 ea 28 bf 53 03 d6 3d
       -0.28456005 0.021648701 -0.65982294 0.10449853
000060 7e c8 4a 3e db 89 99 bc 96 43 c4 3e 37 32 3a 3f
       0.19803044 -0.018742492 0.38332814 0.7273287
000070 51 49 b2 be fd 7e 05 3e 1e 89 08 3f 7b 07 39 bf
       -0.3482156 0.13036723 0.53334224 -0.7227704
000080 fd 68 86 be 3b 17 8c 3e f1 3f b0 3c 45 1d a9 3e
       -0.26251975 0.27361473 0.021514865 0.33030143
000090 f8 bf 08 3f a5 c0 b1 bd 71 99 df 3e 54 f4 32 bf
       0.5341792 -0.08679322 0.43671754 -0.69904065
0000a0 06 02 49 bf 4c 26 a3 be ae ca 29 3e a4 22 51 3d
       -0.7851871 -0.31865156 0.16581222 0.051058426
0000b0 af 4e 0b 3e 09 35 e3 bd bb 86 bc 3d fd f3 8b 3e
       0.13604234 -0.110941 0.09205385 0.27334586
0000c0 3c 68 d6 be bd 45 2b bf 04 8c 30 be 35 e2 b5 3e
       -0.418764 -0.6690329 -0.17240912 0.35524145
0000d0 b6 7f 15 3f aa a1 21 be 86 df b8 be 0d 2e 24 3e
       0.58397996 -0.15784326 -0.36108035 0.16033192
0000e0 eb 76 44 3e 4e b7 d8 3e 8b da 99 bc 44 d5 56 be
       0.19185989 0.4232735 -0.018780967 -0.20979792
0000f0 b0 a5 fd 3e 15 94 d5 be 9c 55 a4 be 3a 6d 66 be
       0.49540472 -0.4171454 -0.32096565 -0.22502604
000100 87 d1 39 be 6b f7 db 3e 46 e3 5b 3e 70 7c ab be
       -0.18146335 0.42962202 0.21473417 -0.33493376
000110 61 7e 28 bf 3f 04 52 3e c8 7d 29 bf 13 d9 34 3f
       -0.6581784 0.20509432 -0.6620755 0.7064373
000120 58 27 35 be 19 a8 9a bd da b4 c5 be f0 31 6a 3f
       -0.1769079 -0.07551593 -0.3861454 0.9148245
000130 93 82 fc 3d a1 12 ef 3e e2 2b 19 3e 1b 77 88 3d
       0.123295926 0.466939 0.14958146 0.066633426
000140 50 7a 57 bf 2c 88 e3 3e f0 f2 20 bf ee 97 35 be
       -0.8417101 0.44439828 -0.62870693 -0.17733738
000150 a6 77 5d 3c 09 f0 1a bf 6d ee 79 3d 9e 8c fd 3d
       0.013517296 -0.60522515 0.061018396 0.12380336
000160 74 9f a8 be 43 a1 03 bf cc 78 f0 3a 92 92 98 3e
       -0.32934153 -0.5141794 0.0018346547 0.29799324
000170 f1 44 c0 3e 84 b3 5a be 90 a7 dc bd c5 45 ad 3e
       0.37552598 -0.21357542 -0.107741475 0.33842292
000180 cc 78 84 bf 8b 8a 7f bc 7b 33 0f 3d f5 d0 af 3e
       -1.0349364 -0.015596996 0.034961205 0.3433911
000190 29 e2 d0 3e d4 78 fb bd 27 b3 a8 3d dc 81 c6 bc
       0.40797547 -0.122789055 0.082372956 -0.024231844
0001a0 50 fc e6 3e fb 4d ec 3a 78 d5 09 3f 3e cd d3 be
       0.45114374 0.0018028611 0.5384135 -0.41367525
0001b0 7e 31 dd 3e 77 aa cc 3d c1 c0 dd bd 99 81 07 3e
       0.43201822 0.09993451 -0.108277805 0.13233031
0001c0 f2 9b c3 be 47 6b 1c bd 16 f0 4e 3f 4e a6 ff bd
       -0.38204914 -0.038188245 0.8083509 -0.12482892
0001d0 64 40 c5 bd 77 90 2d bb 07 a7 5b bf a5 f8 5d 3e
       -0.09631422 -0.0026483813 -0.8580174 0.21676882
0001e0 82 ad b2 3c 16 2e 30 3e 19 38 a6 3e 59 ad 16 3f
       0.02181125 0.1720508 0.32464674 0.5885826
0001f0 fe 6a 56 be c7 46 cb be 0a 0c 14 3e a4 08 35 bf
       -0.20939252 -0.39702436 0.14457718 -0.7071631
000200 17 78 f7 3d 34 ba 19 3e 80 1f 0a 3e 8e d8 21 bf
       0.12083452 0.15012437 0.13488579 -0.6322106
000210 d7 91 f1 3d 17 80 0a be e1 05 3e bf a1 0c 43 bf
       0.11795395 -0.13525425 -0.7422772 -0.76191145
000220 84 32 e8 be 2a ad 41 bd 95 13 5d bf 4e f7 40 3f
       -0.4535104 -0.047284283 -0.86358005 0.75377357
000230 0a d5 57 3e d0 67 3a bd af 6b d1 3e af 75 b8 bd
       0.21077362 -0.04550916 0.4090247 -0.09006821
000240 ec cc b3 bd d4 84 98 3e 96 fa a1 bd 48 22 9a be
       -0.0877932 0.2978884 -0.079091236 -0.3010428
000250 e0 59 7b 3e c4 f3 cf 3d 41 53 73 3e 20 df e2 bd
       0.24546003 0.101539165 0.23762228 -0.11077714
000260 ac 29 76 be 87 25 1f be a6 79 34 bf 2e 03 93 3e
       -0.24039334 -0.1554166 -0.7049812 0.28713363
000270 71 e4 6f bd 65 17 c9 be 30 4f 3e bf 2b d3 3c 3e
       -0.058567468 -0.3927566 -0.7433958 0.18439929
000280 5c 76 1b 3f 08 19 22 3e 79 49 b8 3e 31 6e fa 3d
       0.6072748 0.15829861 0.35993555 0.122280486
000290 f0 a4 57 be b3 e9 fa bc d7 40 81 be e3 14 a4 3e
       -0.21059012 -0.030629015 -0.2524478 0.32047185
0002a0 41 08 6a bf a1 78 30 be ae 79 b8 be 4d ff 02 3f
       -0.91418844 -0.17233516 -0.36030334 0.5117081
0002b0 81 0b 01 3f 1c c9 ab be 80 1f 26 be ee 40 62 3f
       0.5040818 -0.33551872 -0.16222954 0.88380325
0002c0 48 67 9f be 46 94 bd 3e a3 39 32 be 16 03 73 3e
       -0.31133485 0.37027186 -0.17404799 0.23731646
0002d0 2d 3b 01 bf 36 85 49 bf 4a 05 39 bc 46 d1 f1 be
       -0.5048092 -0.7871889 -0.011292765 -0.47229975
0002e0 49 cc c2 bb 97 7f cb 3e bb 19 8f 3e 79 2c 24 bf
       -0.005944763 0.3974578 0.27949318 -0.6413036
0002f0 07 75 98 3e 01 09 37 3e 4a e6 c6 be 48 31 89 3d
       0.29776785 0.17874528 -0.38847572 0.06698853
000300 55 f9 9a 3e 15 e1 0a be 7f aa 9b bc 69 98 02 bf
       0.3026835 -0.13562424 -0.019002197 -0.5101381
000310 a6 54 16 3e 4b e1 53 bf a4 80 8e be ef 94 0f bf
       0.14680728 -0.82765645 -0.2783252 -0.5608663
000320 d8 a3 aa bd 3b 79 16 3f e5 d0 12 bf b6 49 bb be
       -0.08332032 0.58778733 -0.5735 -0.36579674
000330 fb c6 ce be c9 ad 76 3e 52 30 b0 3d 8c 78 ac 3e
       -0.40386185 0.24089731 0.08602966 0.3368572
000340 9f 1c 4a bf 60 41 99 3e e8 a4 aa be 5e 50 d4 3e
       -0.7894992 0.2993269 -0.33328938 0.41467565
000350 bc 52 f9 bd fe da 9d be 2e 34 2c bf a8 77 33 be
       -0.121739835 -0.3083114 -0.6726712 -0.17526114
000360 2e f2 02 3f 83 d7 81 3d 81 2e e7 3e ac 47 24 3f
       0.51150787 0.06339934 0.45152667 0.6417186
000370 49 aa ae be 84 1c 7f be 3b fb 85 bd 47 90 12 bf
       -0.34114292 -0.24913222 -0.06542059 -0.572514
000380 74 79 0a 3f e3 ac 1f 3f 11 5b fd 3e 3b 2b 25 be
       0.5409157 0.6237318 0.4948354 -0.16129772
000390 0e df 43 3f 5f f1 a9 3e 16 1b 29 be 50 3e 18 bf
       0.7651223 0.33191964 -0.16514239 -0.5947008
0003a0 2e 57 d5 be c1 43 77 3e a7 71 a1 bd fd f7 d5 bd
       -0.41668075 0.2414694 -0.078830056 -0.10447691
0003b0 1a 73 33 be d6 17 9a 3f 7a 2c 7d be c5 4d c0 3e
       -0.17524377 1.2038524 -0.24723998 0.37559333
0003c0 29 cd ef be 10 f7 36 be 0c 65 56 bd e8 b7 02 be
       -0.46836212 -0.17867684 -0.05234246 -0.12765467
0003d0 37 26 3c 3e ff d4 fa be 39 e0 53 bd 66 ad 2f be
       0.18373953 -0.48990628 -0.051727507 -0.1715599
0003e0 9d 59 1b 3f ca 95 b3 3d 31 e6 73 3e 42 dd ce 3e
       0.60683614 0.08768804 0.2381828 0.4040318
0003f0 e6 38 bb be 73 8d 1f 3e 2c 73 24 3f b4 a4 49 be
       -0.36566848 0.15581302 0.6423824 -0.19691736

network_body._body_endoder.seq_layers.0.bias f4 [128]
000000 05 1c 20 bc c9 34 07 3c 09 40 ac 3b b3 98 e4 bb
       -0.009772305 0.008252331 0.005256657 -0.006976211
000010 46 d3 41 bc f8 1e 4e 3c 06 bf 2b bc d8 fe 2a 3c
       -0.011830157 0.012580626 -0.010482555 0.010436736
000020 be 98 a4 3b 9c 8c 22 3b fd 92 11 3c b1 36 bc bb
       0.005023091 0.0024803048 0.008885142 -0.0057438244
000030 0f 93 63 bb 7f 62 5c bc 17 64 f9 bb ab 72 5e 3c
       -0.0034725105 -0.013451218 -0.0076108086 0.013577144
000040 19 ea fe 3b e2 3f 67 bc 3d 05 97 bc e5 64 fa bb
       0.0077793715 -0.014114352 -0.018435115 -0.007641422
000050 1a ce 04 bc 8d 42 bb ba 2d 2c a8 3b 9f 14 cc 3b
       -0.008105779 -0.0014286801 0.0051322193 0.006228044
000060 1b b0 81 bc 81 15 43 3c 7c b9 32 bc 73 e4 1a 3b
       -0.015831044 0.011906982 -0.010908481 0.0023634702
000070 78 f9 d6 39 c6 8a a9 3b e2 ce de bb f6 e8 7c bc
       0.0004100313 0.005174014 -0.0067995647 -0.015436402
000080 f6 9a 21 ba 8e 42 e0 3b c1 ca 9b ba 06 30 e4 3b
       -0.00061647536 0.0068438714 -0.0011885987 0.0069637327
000090 ec 86 2e bb 65 3f 00 bc 7c 8c 64 bb bd 65 b5 bb
       -0.0026630713 -0.007827614 -0.0034873774 -0.00553581
0000a0 49 7e 6e bb 83 af 3d 3c a0 87 a3 bc ef 10 54 3c
       -0.003639119 0.01157749 -0.019962132 0.01294349
0000b0 fb 0a 38 ba 90 aa 65 bb e4 3f fd ba e4 f2 8f 3c
       -0.0007020679 -0.003504429 -0.0019321409 0.017571874
0000c0 d4 32 4c 3b 43 f9 f9 3b e1 02 30 bb 69 96 f8 bb
       0.0031158226 0.0076285913 -0.0026857185 -0.0075862897
0000d0 c1 d6 18 bb ff 17 b4 3a ca fd 02 3c 59 4c 8b 3b
       -0.0023321363 0.0013740062 0.007995078 0.0042510447
0000e0 2d 18 c5 3b 37 e3 82 3c 9e e9 fb 3b 23 54 88 b9
       0.006014845 0.015977485 0.0076877614 -0.00026002628
0000f0 e2 ab 1b 3b f8 31 90 bc af 37 14 3c c8 5d be 3b
       0.0023753573 -0.017601952 0.009046479 0.0058095194
000100 f4 f2 62 3c e5 0c a4 3b a0 3a 9a 3b 18 95 17 bc
       0.01385187 0.00500642 0.0047066957 -0.009251855
000110 d7 37 37 3c d9 db 4b bb df 7f 89 bb 39 01 2b 3c
       0.011182747 -0.0031106381 -0.0041961516 0.010437303
000120 f1 31 1e bc 9e 7e e8 bb 64 d0 75 3b fd 5e bd 3b
       -0.009655462 -0.007095172 0.0037508244 0.0057791458
000130 32 10 31 3b fe 16 6f 3b 94 71 0f 3c 7b ab 65 3c
       0.002701771 0.003648221 0.0087551065 0.014017935
000140 b0 25 03 bc b0 71 00 bc 38 6d 50 3c 7c 45 9d 3c
       -0.008004591 -0.007839605 0.012721352 0.019198172
000150 06 96 57 bb 46 1b 4d 3c c5 43 3f bc d4 1b 1b 3b
       -0.0032895817 0.0125187095 -0.011673872 0.002366771
000160 25 1e 23 3b c1 d0 b0 bc c9 af 43 bb 16 23 dd bb
       0.0024889794 -0.021583917 -0.0029859415 -0.0067485673
000170 79 48 c4 bb 84 a3 3b 3c f6 13 8c 3c cd 4e b1 bb
       -0.0059900847 0.011452559 0.017099362 -0.005411005
000180 e4 44 33 3c e5 00 c4 bb 58 a6 e1 3b 81 be 83 3c
       0.010941718 -0.005981552 0.006886285 0.01608205
000190 89 f4 9a 3b 61 70 ed 3b 17 a9 cf 3a 40 bd 78 bb
       0.004728858 0.0072460626 0.0015843239 -0.0037954599
0001a0 fe 90 7e ba 3e 92 93 bc 31 da f5 3a 4c 11 b6 3b
       -0.00097109366 -0.01801407 0.0018757043 0.005556261
0001b0 e9 ef 45 3c 92 9a 4d bb 5b 6d 71 3c 91 67 c1 bb
       0.012081125 -0.0031372649 0.014735545 -0.0059022387
0001c0 a2 63 13 bb 6d d8 14 3c df 7b 5a bc bc 99 01 3c
       -0.0022489806 0.009084803 -0.013335197 0.007910188
0001d0 b3 b5 a1 bb 71 b5 cd bb 9e b8 93 ba 75 a4 f8 3c
       -0.0049349903 -0.006277733 -0.001127023 0.030351857
0001e0 95 8b b0 bc 7f d2 40 3c c8 30 ec 38 a4 b0 0e bc
       -0.021550933 0.011768936 0.00011262443 -0.008709107
0001f0 da 80 18 bc d8 0a 86 bb bf 05 9c 3b cf ab a2 3a
       -0.009308064 -0.004090648 0.004761427 0.0012410822

network_body._body_endoder.seq_layers.2.weight f4 [128, 128]
000000 d1 9c 6e bd fd 93 82 bd 27 74 9f 3d be c3 6b 3d
       -0.05825502 -0.06375883 0.07785826 0.05755972
000010 69 0e bc bd 2e 6a 12 3e d7 49 53 3d e8 c7 9d bd
       -0.09182436 0.14298317 0.05158409 -0.07704145
000020 fa 23 a4 bd 4d c3 40 bd 31 41 69 bd d6 63 80 3d
       -0.080146745 -0.047061253 -0.056946937 0.06269042
000030 b8 28 83 3d 6b 3c 00 be ad a7 82 bc 15 13 bf 3d
       0.06404251 -0.12523048 -0.015949095 0.093298115
000040 98 6f 90 3d 14 78 82 3d 56 4f 19 3d bb d4 b2 3c
       0.07052535 0.06370559 0.037429176 0.021829953
000050 78 41 12 be 34 42 7e bd 88 40 e4 3c 0d 4b e8 3d
       -0.14282787 -0.062074855 0.027862802 0.1134244
000060 ef ae 3d 3d 22 6b bd 3d 1a 1a ef bd b1 41 e9 bd
       0.046309408 0.092489496 -0.116749 -0.11389483
000070 81 9d a2 ba b4 73 82 bd 1e 68 df 3d 2e 4b ee 3d
       -0.0012406559 -0.06369725 0.10908531 0.11635433
000080 51 1c 8d bd 38 d3 4d 3d 3c 22 34 be 17 2b e8 3d
       -0.068901666 0.050250262 -0.17591184 0.11336344
000090 e9 72 49 bd 44 0d af bd 17 30 17 bc 17 56 74 3d
       -0.049181852 -0.08547452 -0.009227774 0.059652414
0000a0 ba bf e0 bd d0 8f 32 3d 92 46 04 be 0d 5c b6 3d
       -0.10974069 0.04359418 -0.12917545 0.08904276
0000b0 26 3c 3f 3d 9d 46 df 3c b7 fb 1f be ac 64 48 bd
       0.04668822 0.02725535 -0.15623365 -0.048924133
0000c0 61 57 3e 3c d0 2b 9d 3d 95 02 e6 bd 57 be aa bd
       0.011617512 0.07674372 -0.11230961 -0.08337086
0000d0 d1 07 97 bd 4f 0b 07 be 50 c7 15 3c b8 6e c7 3d
       -0.07374538 -0.13187908 0.009141758 0.09737915
0000e0 5a 3a 97 bb e4 e3 6c bd 8c 97 19 be da b0 b0 bd
       -0.0046151103 -0.05783452 -0.14999217 -0.08627482
0000f0 4d e3 a3 bd e5 1a 1d bd a5 34 0d 3d b3 13 11 3d
       -0.080023386 -0.038355727 0.034474034 0.035419177
000100 9e 51 cf 3d 88 78 0b 3d 86 3e 04 3e 4a 28 05 3e
       0.10122989 0.034050494 0.12914476 0.1300365
000110 ed 64 76 bd f6 04 5b 3a c6 9f 03 bd db 39 10 bd
       -0.060154844 0.0008354926 -0.032134794 -0.035211425
000120 60 d2 15 be 82 1a ca 3b 52 8a a2 bd 72 7a a3 bd
       -0.14631033 0.0061677108 -0.07936539 -0.07982339
000130 4e 34 ae 3c f3 06 95 bd 92 4b 82 bd 05 d0 6e 3e
       0.021265175 -0.07276716 -0.0636207 0.2332154
000140 22 ef 20 3e af e0 68 3c 1e ef ad 3d b9 f8 34 bd
       0.15716222 0.014213725 0.084928736 -0.044182513
000150 6e 70 08 bd 7b 03 a0 bd b3 fa c4 3b 5d d3 48 bd
       -0.033310346 -0.07813164 0.006011331 -0.049029697
000160 91 91 17 3e 75 08 90 bd 20 7b c7 3d 61 e9 f5 bd
       0.14801623 -0.07032863 0.09740281 -0.12007404
000170 83 32 b3 bd 8d 1c e3 3d 75 8a 1c 3e 1e 7c 42 3c
       -0.08749869 0.1108943 0.15287192 0.011870412
000180 0f 42 04 3d 5a 4e 70 bd 59 15 31 bd bb 16 25 bd
       0.03228956 -0.058668472 -0.04323325 -0.04030488
000190 e7 f0 ac bc 0a 97 ab bd 69 05 4e bd 5f e9 65 bd
       -0.021110965 -0.08378418 -0.05029813 -0.056130763
0001a0 b7 e6 19 bd 6a 1a e1 ba bb f1 f5 3d 14 74 ac 3d
       -0.037573542 -0.001717401 0.12008997 0.08420578
0001b0 9e 5b 98 bd b9 e9 5e bd 7e a8 c6 bc 27 d3 d5 bc
       -0.074393496 -0.054422114 -0.024250265 -0.026101662
0001c0 dc 6d 02 be 8f 80 0b 3c 31 63 1b bd d1 df 1d be
       -0.1273722 0.0085145375 -0.037936393 -0.1541741
0001d0 d4 9b 7b 3d 1b 06 33 3d d7 2f 28 3e 6b 8f 1d 3e
       0.061427906 0.043706995 0.164245 0.15386741
0001e0 0b 70 a8 bd 13 fb 9c 3d 40 41 2c 3d 6c 23 a0 bd
       -0.082244955 0.07665076 0.042054415 -0.07819256
0001f0 9d 2d 11 be ce ef 93 3c eb 88 8f bd b6 29 49 3d
       -0.14177556 0.018058684 -0.07008537 0.049112044
000200 d9 d3 1f 3e f0 f9 19 bd 35 a8 fa 3b b3 7d 75 3c
       0.15608157 -0.037591875 0.0076494464 0.014983582
000210 b3 ae 04 bd ac 86 f8 3d b9 c3 34 bd 21 6f 69 be
       -0.03239317 0.121350616 -0.04413197 -0.22796299
000220 c4 48 9f 3d ab 8d 16 3e 4c 08 9e 3c 3a f4 b6 bd
       0.07777551 0.1470248 0.019291066 -0.08933301
000230 39 32 6d 3c 12 6f fb 3d 92 be b2 bc 1f 83 e4 3c
       0.014477306 0.12277044 -0.021819387 0.027894555
000240 e6 e2 f0 bc d0 42 47 3d ff 84 2d be 82 74 fc bd
       -0.029405069 0.0486477 -0.16945265 -0.123269096
000250 fb 58 43 3c b7 c2 47 3d 48 2e 34 bc af 45 71 bd
       0.01192307 0.04876968 -0.010997362 -0.058904346
000260 bb 1d 65 bd f7 ef 01 bc 88 f3 65 3d 32 1d c7 3d
       -0.055936556 -0.007930747 0.056140453 0.097223654
000270 7f fd 3c 3e ec bf 69 bd ec 34 c9 bc 3d fb b4 bb
       0.18456076 -0.057067797 -0.024561368 -0.005523114
000280 82 73 80 bd b5 ac a8 3d ea b9 03 3e 91 c9 c7 bc
       -0.06272031 0.08236066 0.1286389 -0.024388107
000290 5d 90 15 bd 48 2a c9 bd 8b b4 f3 3d 31 c6 ef bc
       -0.03651463 -0.09822518 0.1189967 -0.02926931
0002a0 fd ca 0a bd 38 ae 69 3d a3 ea 98 bd ca ca 6d 3d
       -0.03388499 0.057050914 -0.074666284 0.058054723
0002b0 6f e0 1f be 6d 84 eb bd c7 0d 2d 3e c2 09 a1 bd
       -0.15612958 -0.114998676 0.16899787 -0.07863189
0002c0 37 fa 26 3d 53 68 fb 3d f0 38 f6 3c 04 c7 66 bd
       0.040765967 0.12275758 0.030056447 -0.05634214
0002d0 4d 1c 4a bc 90 6a cb 3d b8 e5 1d 3e b0 89 fc 3d
       -0.012335849 0.099324346 0.15419662 0.12330949
0002e0 63 5b b3 bd 28 e5 21 3e c0 fa 33 bb 10 1a a9 3d
       -0.08757665 0.15810072 -0.002746269 0.08256924
0002f0 a1 e5 e3 bb b7 ad de 39 e8 b0 de 3c 7e d3 9f 3d
       -0.006954864 0.00042472567 0.027183965 0.07804011
000300 05 5f 75 3e b6 dc fb bc f7 09 14 be 2a c1 19 3d
       0.23962028 -0.030744892 -0.14456926 0.03753773
000310 85 a7 da 3d 74 80 37 be 0f 4a 56 bd f9 7c e1 3c
       0.10676483 -0.17920095 -0.05231672 0.027525412
000320 11 91 04 3c 48 27 c9 3b 0a 39 c4 bd ab 3d 10 be
       0.008091227 0.006138716 -0.09581192 -0.14086024
000330 c6 e2 95 bd 0b 4e 04 be 16 c5 e4 3d 34 61 ab bd
       -0.07318644 -0.12920396 0.11170404 -0.083681494
000340 e0 34 84 bd bf 57 f4 bc 82 75 8b 3d 30 c7 e4 3b
       -0.064553976 -0.029826997 0.06809522 0.006981753
000350 01 7a 25 3d 3f 75 e2 3d 5b 14 88 bd 8f a7 6d bc
       0.040399555 0.11057519 -0.066445075 -0.014505281
000360 6b ff 98 3d 90 d3 a3 3d c6 07 6f be 08 c2 f9 bb
       0.07470592 0.07999337 -0.23342809 -0.0076220073
000370 a8 f1 d8 3d 68 0b 6f bc d2 72 9e 3d d5 1a a6 bc
       0.10592967 -0.014590122 0.07736744 -0.020276466
000380 cd c2 ed 3d 52 d3 06 3e 55 81 7a bd ef 75 84 3d
       0.11609421 0.1316655 -0.061158497 0.064678065
000390 12 75 38 3d 44 e2 a7 bd af 9d 08 3e 45 54 07 3d
       0.045033522 -0.081974536 0.13341402 0.03303935
0003a0 d3 52 e9 3c c4 d1 da bd 8a 0f 5f 3d a3 1c 03 3c
       0.028481876 -0.10684541 0.05445818 0.008002433
0003b0 c6 ba aa 3c 99 f4 d0 bb 0b 5f 8a bb 66 fc 05 3e
       0.020841014 -0.0063768146 -0.004222756 0.13084564
0003c0 6f f9 11 3c d0 70 be bc 07 d9 26 be 47 91 29 bd
       0.008909567 -0.023247153 -0.16293727 -0.041398313
0003d0 b5 b5 fe 3c b3 2b fd 3c ad 6b 9d 3c b8 c5 1a bc
       0.031092504 0.030904626 0.019216383 -0.009446554
0003e0 34 bf 6a 3d 02 2c 87 bc cc 05 4c 3e c2 f1 8a bd
       0.05731125 -0.016500477 0.19924086 -0.06784393
0003f0 b8 a4 83 bd 60 5d ee 3c 5b 08 3e bc 92 22 49 bd
       -0.06427902 0.029097259 -0.011598672 -0.049105234

network_body._body_endoder.seq_layers.2.bias f4 [128]
000000 73 a8 78 3b db 24 08 3b f6 b2 05 bc 7f 81 d9 3b
       0.00379422 0.002077392 -0.008160343 0.0066377516
000010 20 1d c6 bb 31 b2 31 bc 66 92 e3 3a 24 04 4b bc
       -0.0060459524 -0.010845707 0.0017362356 -0.012391124
000020 09 6e b5 ba d3 45 ca 3a 78 dd 77 3b c0 ee 75 ba
       -0.0013841997 0.0015432186 0.0037821215 -0.0009381585
000030 ec 41 c6 bb 00 68 18 3c 37 af 2a bc 3b 18 5e 3a
       -0.006050339 0.009302139 -0.010417751 0.00084722386
000040 46 2d 08 3b 2d f6 37 3c 7a c2 a2 ba 58 9c 4e 3c
       0.0020778938 0.0112281265 -0.0012417578 0.012610517
000050 fb 51 fb 3b 41 51 03 3b fb af 2b bc 40 7f 56 bb
       0.007669685 0.0020037445 -0.010478969 -0.0032729656
000060 2d 35 8d bb c0 a7 45 bc 2c 37 18 bc 82 6f 37 bc
       -0.0043093176 -0.0120639205 -0.009290498 -0.011196019
000070 53 1d 22 3b 0f e5 38 3b 48 57 4c 3c 6f e7 14 3c
       0.0024736717 0.0028212701 0.012471981 0.009088381
000080 e4 6a c2 3b 1f 8d 13 3c 87 8e a9 3b 22 1f 8c bb
       0.0059331525 0.009005814 0.0051744613 -0.0042761723
000090 1f a9 04 bb b4 b2 38 3c 9a 92 04 bb 75 9c 40 bc
       -0.0020242406 0.011273075 -0.0020228983 -0.011756052
0000a0 de 12 85 3b 23 84 e9 3b 6e 80 3c 3b c3 5f 9d bb
       0.004061087 0.0071263476 0.0028763073 -0.0048026755
0000b0 44 27 cb 3a b6 c4 a3 3b cb fc 36 3a ef 5d 88 bb
       0.0015499373 0.004997815 0.0006980418 -0.0041615884
0000c0 71 a0 14 3c 7a f1 5e 3b 68 0b 05 3c 4b 10 17 3c
       0.009071455 0.0034018443 0.008120395 0.009220193
0000d0 f8 1e 8c b8 9a 47 1c 3b 80 3c bd bb 3f 69 a3 39
       -6.6814886e-05 0.0023846389 -0.0057750344 0.00031168197
0000e0 9e 9b 02 3c 28 1b ca 3b 84 c8 24 3c 01 6e d4 3b
       0.007971672 0.006167788 0.010057572 0.00648284
0000f0 43 14 68 3b 44 89 ce bb 82 60 80 bc 2c 7d 14 bc
       0.0035412468 -0.0063029844 -0.015671019 -0.009063046
000100 2f 39 84 3b 8f 3c 41 bb fd 00 3f bc f8 6e 08 3c
       0.004035137 -0.0029485559 -0.0116579505 0.008327238
000110 82 f4 13 3c ce 32 2f bc b1 de 0b bc 8e 52 f6 3b
       0.009030463 -0.010693265 -0.0085369805 0.0075171655
000120 4e 16 5e 3b e0 31 5f 3c c2 7b 20 3c 1c 82 5b 3b
       0.0033887806 0.013622731 0.009795131 0.00334943
000130 7c 1b a0 3b 13 90 e3 3b cf 03 9c bb e6 a1 a3 bc
       0.004886089 0.006944665 -0.004761196 -0.01997466
000140 76 ff ef bb 0a 11 30 bc 2b 0f 4c bc 5c a0 57 bb
       -0.0073241545 -0.01074625 -0.012454788 -0.0032901978
000150 ea 35 00 3b 25 b4 1a 3c 47 f6 02 3c a1 10 81 3a
       0.0019563385 0.009442364 0.007993287 0.0009846875
000160 5f 95 cd 3b 92 b5 85 ba 5e dc 41 3c 42 ff f4 ba
       0.00627391 -0.0010201207 0.011832325 -0.0018691795
000170 dc 34 45 3c 38 1b 3f 3c 00 b5 74 bc dc 08 cb 3b
       0.012036528 0.011664204 -0.014935732 0.0061961245
000180 be 26 72 3b f3 4f 6c 3b a5 41 93 3b ab 5e 0c bc
       0.0036949362 0.0036058396 0.0044939094 -0.0085674925
000190 c9 c5 fb 3b 5e 4e 8e 3b 18 6a 69 3b 93 f1 c4 bb
       0.00768349 0.004342838 0.0035616215 -0.006010243
0001a0 30 e3 ec 3a 00 fc 54 3a c7 46 a8 3b 76 7e 00 bc
       0.0018073078 0.0008124709 0.0051353904 -0.007842651
0001b0 ca 2c 4c 3b 9c 61 31 3b ee 29 38 bc d8 48 2b 3b
       0.0031154626 0.0027066236 -0.011240466 0.0026135948
0001c0 da 5d 58 ba a6 8b 0a bb ea 6d ec bb 2a e0 94 bb
       -0.0008253731 -0.0021140366 -0.007215251 -0.004543324
0001d0 47 bb cf 3a 58 6b 29 3c 36 ac d7 3b 40 ae 36 3c
       0.001584866 0.010340534 0.0065818084 0.011149943
0001e0 3b 56 5f ba 37 8b 20 3b 0b d8 10 bc a0 bf dd 3b
       -0.0008519624 0.002449704 -0.008840571 0.0067672282
0001f0 4f 62 0b 3c 39 d2 64 ba 82 08 be bb b7 a1 29 bb
       0.008507325 -0.00087288354 -0.005799354 -0.0025883743

action_model._continuous_distribution.log_sigma f4 [1, 2]
000000 bb b2 52 bb 1c 80 d5 bc
       -0.0032149989 -0.026062064

action_model._continuous_distribution.mu.weight f4 [2, 128]
000000 df 7b 6e bc c1 1d 32 bc d0 a4 1b 3b 02 af 07 3d
       -0.0145559 -0.010871352 0.002374936 0.033125885
000010 31 f6 04 bc 68 35 f6 3c 57 ce 3a 3d 72 67 ba bc
       -0.008115337 0.030054763 0.045606937 -0.022754405
000020 f6 de c9 3c 45 f3 ad 3c a5 cc b0 bc fd b5 81 3c
       0.024642449 0.021234164 -0.021581957 0.01583385
000030 32 59 b9 3b 74 38 fc bb ed 7e 0b 3c ff 51 e9 bb
       0.005656385 -0.0076971594 0.008514148 -0.0071203704
000040 fd 60 ef 3b 55 27 33 bc f5 e7 c0 3c ca 0b 22 3d
       0.007305263 -0.01093467 0.023548106 0.039562024
000050 b6 5d 23 bd 40 0f 02 bb b6 9d 0e bb e3 82 94 bc
       -0.03988429 -0.0019845515 -0.0021761484 -0.018128818
000060 89 04 00 bd ae d2 67 3c 7c 25 1b bb 14 ab 0b 3c
       -0.031254325 0.014149351 -0.0023673465 0.008524675
000070 00 9f a4 bb 95 6b 22 3d c0 34 f3 bc 2c c4 a7 bb
       -0.005023837 0.03965338 -0.02968824 -0.005119821
000080 5b 53 8e bc 5a 36 2e 3a e3 d2 49 bc bd 07 96 bc
       -0.017373731 0.0006645672 -0.012318346 -0.018314237
000090 a0 b4 f4 bb 16 9e 0a bb 55 38 55 bc 16 72 2e 3c
       -0.0074678212 -0.0021151355 -0.013013919 0.010647317
0000a0 1e 96 64 3b 3a d1 f5 3b ae 31 aa ba ea d1 9b 3a
       0.0034879516 0.0075017484 -0.0012984776 0.0011888121
0000b0 10 ed 1e bc 6f 58 8f 3b 01 d3 f4 3c af 4e 06 bc
       -0.009700075 0.004374556 0.02988577 -0.008197471
0000c0 e6 10 1e bd 7b 86 00 bc b7 f2 88 3c b8 21 76 bb
       -0.038590334 -0.007844563 0.016717298 -0.003755672
0000d0 2e 0a e5 3c d7 2f c6 3b d6 6e 07 3c 9a 1f 50 3d
       0.027958956 0.0060481834 0.008266171 0.050811388
0000e0 36 c6 c5 bb b3 f8 c1 bb 7e 3c 86 39 d1 7b 04 3d
       -0.0060355915 -0.00591954 0.00025603542 0.032344643
0000f0 6b 3e 30 bc 2f f6 9b bc 28 88 87 3c 44 b2 21 3a
       -0.010757069 -0.019038288 0.016544417 0.0006168226
000100 55 09 a5 bc 21 c5 b1 bc 24 c5 b0 3b ba a0 fd 3c
       -0.020146051 -0.021700444 0.0053945947 0.03096043
000110 72 c8 09 bc c6 29 17 bc e5 a5 f1 3c db 59 be bc
       -0.008409606 -0.009226268 0.02949805 -0.023236206
000120 97 6e 61 3c 1f 46 df bb 1e 15 3e bd f4 d5 ad 3c
       0.013759277 -0.006813779 -0.046406858 0.021220185
000130 4d cf bb bc b4 34 a4 3c 87 45 02 bd c4 03 83 3c
       -0.022925997 0.020044662 -0.031804588 0.015993007
000140 40 33 5a 3c f9 9d 8e ba 8e f9 96 3b 80 80 3a bc
       0.013317883 -0.001088082 0.004607386 -0.011383176
000150 e3 f2 c4 3c 1d 8e c7 bb 06 ea 2f 3c 62 4f 52 bc
       0.024041599 -0.0060899393 0.010736948 -0.012836309
000160 4c aa 24 bc 0b 32 9b 3c d0 db 22 bd b3 55 59 bd
       -0.010050368 0.01894476 -0.03976041 -0.053060245
000170 be 82 01 bc 70 7b f9 3b e6 02 8b bc f0 a6 44 3b
       -0.0079047065 0.007613592 -0.016969156 0.003000673
000180 a3 a2 0b bb 2f b4 27 3c 4f 29 89 3b 87 19 c9 b9
       -0.0021306656 0.01023583 0.0041858326 -0.00038356727
000190 14 8c 15 bd 15 e0 fd 3b 37 73 e3 ba df e0 00 3c
       -0.036510542 0.00774766 -0.0017353062 0.007866113
0001a0 8b c2 a4 bc 10 4c d6 bc f2 5a ab bc d9 3f fb bc
       -0.020112297 -0.026159316 -0.02091739 -0.030670093
0001b0 d2 b4 02 3a f1 5f 91 3c 15 37 7d 3c 75 89 86 bc
       0.0004986051 0.017745944 0.015455027 -0.016422966
0001c0 c9 7c 63 bd 88 9f 86 b8 ee b7 60 3c a4 92 dd bb
       -0.055538926 -6.419333e-05 0.013715727 -0.0067618657
0001d0 f0 c4 69 bc 0a f8 e9 3b 8b 16 a4 3c aa d9 f3 bc
       -0.014268145 0.0071401643 0.02003028 -0.029766876
0001e0 9e 14 16 39 a8 a5 26 3d b5 33 a3 bb 3a 75 b2 bc
       0.00014312795 0.040685326 -0.004980529 -0.021784414
0001f0 b0 0d 8b 3c c1 99 e7 3a 26 49 a2 bc b3 7c a2 3c
       0.0169743 0.0017669724 -0.01981027 0.019834852
000200 c1 85 bb bc fd 29 44 3c 87 58 bf 3b 22 cc 0d bc
       -0.022890927 0.011972901 0.0058394107 -0.008654626
000210 76 83 77 3c 08 c1 0f 3c a8 d1 3f ba d6 b5 99 3c
       0.015107026 0.00877405 -0.0007317313 0.018763464
000220 5d 9f 1c bb 4c c3 20 bb 56 d4 93 bc eb 91 1c 3c
       -0.00238987 -0.0024530469 -0.018045586 0.009556274
000230 57 bc 4d 3c 6e f9 4c bd 96 18 59 3b 6d 4d 53 3a
       0.012557111 -0.050042562 0.0033126227 0.00080605486
000240 0b d8 d9 bb 68 5d 97 bc ee bd 26 b9 ca 9f 76 bd
       -0.006648069 -0.018477157 -0.00015901748 -0.06021098
000250 6e 4e 14 bd 97 da 91 3c f4 6b f1 3c 1c b2 8c 3c
       -0.03620761 0.017804427 0.029470421 0.017174773
000260 c6 0d b6 3a bc 9e a9 3c 65 84 85 3c 8b 44 43 3b
       0.0013889603 0.020705573 0.016298482 0.0029795493
000270 d7 17 00 bc 15 b5 e3 3b ae 8d 0c bd 4c 59 80 bc
       -0.007818184 0.006949077 -0.034314804 -0.01566758
000280 4c 6f 82 bd e3 f5 dd bc 12 6a 42 bb 24 f6 e9 3c
       -0.063688844 -0.027094787 -0.0029665274 0.028559752
000290 22 4d 39 3b be 8a 1a bc 23 b3 cd 3c 32 19 b2 3c
       0.0028274735 -0.009432493 0.025109833 0.02174053
0002a0 7a 17 d9 bc 96 ad 8c bc 04 b8 b8 bc d8 32 80 3c
       -0.026500452 -0.017172616 -0.022548683 0.015649244
0002b0 46 ae 17 bd e0 d9 d2 bc 54 33 7d 3c fd b3 b9 3c
       -0.037031434 -0.025738657 0.015454132 0.022668833
0002c0 d7 16 97 3b de f4 a8 bc c5 5c ba bc 66 82 ec bc
       0.004610877 -0.020624574 -0.022749314 -0.028870773
0002d0 6f 99 7e bc 24 d0 b7 3c 81 19 8d 3b a3 4f a6 3c
       -0.015539511 0.022438116 0.004306019 0.020301646
0002e0 4d 09 64 ba ee 5d 9d bc c8 1d c4 bc e9 1d 07 bd
       -0.00086988957 -0.019209828 -0.023939982 -0.03298751
0002f0 7f dc 97 bc 1c 2f 7b 3c e7 96 22 3c ae 45 b1 3b
       -0.018537758 0.015331056 0.009923673 0.005409918
000300 df 65 fe 3c 53 24 37 3d c7 2f 4c 3c 5a f9 d1 3b
       0.031054435 0.044712376 0.012462563 0.006407899
000310 4a fb c9 bc 68 d0 df 3c 21 47 a9 3c 80 64 67 b9
       -0.024655957 0.027321056 0.0206638 -0.00022067316
000320 18 81 83 bc ba f9 db bc ba 13 9a bc 29 98 52 bc
       -0.016052768 -0.026852477 -0.018808234 -0.012853661
000330 fb cb 05 3d 1d 33 7a bb d7 a6 df 3c da 32 a8 3b
       0.032665234 -0.0038177439 0.027301235 0.005133015
000340 d1 d6 34 3c 58 85 b6 3c e2 02 5d 3c c0 5e 61 3a
       0.011037544 0.02228038 0.013489457 0.00085971877
000350 b7 22 16 bc 2c 5f db bc 3c b7 b5 bc 9b 70 1e bc
       -0.00916355 -0.02677878 -0.0221821 -0.009670402
000360 73 86 b2 bc 44 ff 16 3d b5 cd 8a bc f6 f7 13 3d
       -0.021792626 0.036864534 -0.016943792 0.036125146
000370 06 fa 6d bc 54 98 3d bc 4e e7 6f 3c 6c 6e 2b bd
       -0.014524942 -0.011571962 0.01464255 -0.041853353
000380 ac bb 88 bc b6 9c 83 bc 5a fc ee bb ef 5c ab 3b
       -0.016691051 -0.016065937 -0.0072932662 0.0052295844
000390 c2 e3 00 bc 07 34 8a 3b f6 7f ab bc 78 7e 2b 3c
       -0.007866802 0.004217628 -0.02093504 0.010467164
0003a0 43 8c b1 3c 05 5b 92 3b bb 3c a8 bc 2d 53 be 3b
       0.021673327 0.004466417 -0.020536771 0.005808255
0003b0 50 e1 01 bd 1d 43 d2 b9 8f 6f db 3c 2e 23 ec 39
       -0.031709015 -0.00040104325 0.026786594 0.0004503964
0003c0 ac 58 af 3c 78 97 2f 3b cc e8 ed 3b 38 49 c9 3c
       0.021404587 0.0026793163 0.0072604176 0.024571046
0003d0 71 a3 92 ba fc 47 a7 bc dc 3c 1f bc 73 fc 25 bd
       -0.0011187625 -0.020420067 -0.0097191 -0.040523957
0003e0 4d 40 5d 3c ac 87 dc 3c c2 be 1e 3d 37 1f a3 bc
       0.0135041 0.026920162 0.03875614 -0.019912345
0003f0 8c 91 7e 3a 17 1d 0a 3d 89 8f df 3c 88 4d a5 3c
       0.0009711019 0.03371915 0.027290123 0.020178571

action_model._continuous_distribution.mu.bias f4 [2]
000000 f4 92 08 b5 d8 09 ac bb
       -5.0877793e-07 -0.005250197

exp_avg f4 [128, 6]
000000 f0 2e bb b3 00 00 00 00 aa 38 27 b5 00 00 00 00
       -8.716404e-08 0.0 -6.2294805e-07 0.0
000010 70 70 19 34 70 70 99 34 61 28 ac 36 00 00 00 00
       1.429014e-07 2.858028e-07 5.1307e-06 0.0
000020 ec 73 7e 37 00 00 00 00 e3 88 de b6 e3 88 5e b7
       1.516657e-05 0.0 -6.6320513e-06 -1.3264103e-05
000030 60 d5 78 b8 00 00 00 00 d8 08 4b b6 00 00 00 00
       -5.932653e-05 0.0 -3.0254505e-06 0.0
000040 60 83 20 35 60 83 a0 35 22 7b 3c b8 00 00 00 00
       5.979582e-07 1.1959164e-06 -4.493737e-05 0.0
000050 10 48 ac b6 00 00 00 00 16 71 cf 37 16 71 4f 38
       -5.1343886e-06 0.0 2.4728983e-05 4.9457965e-05
000060 72 6a 87 b6 00 00 00 00 63 26 68 b6 00 00 00 00
       -4.0357054e-06 0.0 -3.4593038e-06 0.0
000070 6f 4b 1a 36 6f 4b 9a 36 9f fd 1b b7 00 00 00 00
       2.2991696e-06 4.5983393e-06 -9.297771e-06 0.0
000080 47 90 52 38 00 00 00 00 82 dd aa b7 82 dd 2a b8
       5.020227e-05 0.0 -2.0368727e-05 -4.0737454e-05
000090 b1 ad d6 b5 00 00 00 00 4c 78 29 34 00 00 00 00
       -1.5994793e-06 0.0 1.5783115e-07 0.0
0000a0 64 51 fd 32 64 51 7d 33 30 12 f6 37 00 00 00 00
       2.9490089e-08 5.8980177e-08 2.9333954e-05 0.0
0000b0 ce 78 8d 37 00 00 00 00 07 58 bc b7 07 58 3c b8
       1.6864764e-05 0.0 -2.2452337e-05 -4.4904675e-05
0000c0 52 26 03 37 00 00 00 00 7c 99 19 b6 00 00 00 00
       7.817131e-06 0.0 -2.2888116e-06 0.0
0000d0 28 3d 15 b6 28 3d 95 b6 24 0c 38 36 00 00 00 00
       -2.2238328e-06 -4.4476656e-06 2.7425203e-06 0.0
0000e0 30 df fa b5 00 00 00 00 d0 e5 86 b5 d0 e5 06 b6
       -1.8691408e-06 0.0 -1.0050662e-06 -2.0101324e-06
0000f0 31 94 83 37 00 00 00 00 0e d4 0d 39 00 00 00 00
       1.5685424e-05 0.0 0.00013525804 0.0
000100 2d 87 56 b8 2d 87 d6 b8 80 36 26 b6 00 00 00 00
       -5.114747e-05 -0.00010229494 -2.476765e-06 0.0
000110 c2 c4 54 38 00 00 00 00 f2 7c 42 b7 f2 7c c2 b7
       5.0727984e-05 0.0 -1.1592392e-05 -2.3184784e-05
000120 8c 2a d1 b8 00 00 00 00 c1 60 fd 38 00 00 00 00
       -9.9738216e-05 0.0 0.00012082002 0.0
000130 74 12 6a b7 74 12 ea b7 30 93 1b b7 00 00 00 00
       -1.3951783e-05 -2.7903567e-05 -9.27299e-06 0.0
000140 58 11 55 38 00 00 00 00 d2 cf 05 b7 d2 cf 85 b7
       5.079931e-05 0.0 -7.975805e-06 -1.595161e-05
000150 a3 b3 c2 35 00 00 00 00 b1 42 dc b5 00 00 00 00
       1.4506408e-06 0.0 -1.6410687e-06 0.0
000160 6c d2 2b 34 6c d2 ab 34 f5 f2 25 38 00 00 00 00
       1.6002167e-07 3.2004334e-07 3.9565337e-05 0.0
000170 88 6c b8 36 00 00 00 00 ff a6 6d b7 ff a6 ed b7
       5.496262e-06 0.0 -1.4165183e-05 -2.8330365e-05
000180 96 14 0d 39 00 00 00 00 a3 68 9c b8 00 00 00 00
       0.00013454477 0.0 -7.45815e-05 0.0
000190 98 d0 b0 36 98 d0 30 37 91 8a 28 b7 00 00 00 00
       5.2694922e-06 1.05389845e-05 -1.0045843e-05 0.0
0001a0 ee 36 24 b7 00 00 00 00 ea 4a bd 36 ea 4a 3d 37
       -9.787951e-06 0.0 5.64136e-06 1.128272e-05
0001b0 07 f2 6a b7 00 00 00 00 58 16 d6 b7 00 00 00 00
       -1.4003838e-05 0.0 -2.5521193e-05 0.0
0001c0 ac ec 40 37 ac ec c0 37 79 e5 8e 36 00 00 00 00
       1.1499196e-05 2.2998393e-05 4.258644e-06 0.0
0001d0 01 93 61 36 00 00 00 00 27 19 07 b6 27 19 87 b6
       3.361318e-06 0.0 -2.0131208e-06 -4.0262416e-06
0001e0 ac 54 96 36 00 00 00 00 d4 15 95 36 00 00 00 00
       4.4802055e-06 0.0 4.443087e-06 0.0
0001f0 3f b5 26 b6 3f b5 a6 b6 60 cf 4b 37 00 00 00 00
       -2.4841427e-06 -4.9682853e-06 1.2148026e-05 0.0
000200 80 22 0e b5 00 00 00 00 20 19 2f b6 20 19 af b6
       -5.2949326e-07 0.0 -2.6091657e-06 -5.2183314e-06
000210 40 52 8a 36 00 00 00 00 de 42 75 39 00 00 00 00
       4.1222956e-06 0.0 0.0002338993 0.0
000220 e3 e2 94 b8 e3 e2 14 b9 7a 30 6e 39 00 00 00 00
       -7.099451e-05 -0.00014198902 0.00022715508 0.0
000230 e8 b2 fd 37 00 00 00 00 3b e8 55 b8 3b e8 d5 b8
       3.024326e-05 0.0 -5.099944e-05 -0.00010199888
000240 61 4d f2 b7 00 00 00 00 cc 63 0b b8 00 00 00 00
       -2.888468e-05 0.0 -3.3233126e-05 0.0
000250 3f 31 95 37 3f 31 15 38 60 97 9d 35 00 00 00 00
       1.7785116e-05 3.5570232e-05 1.1741467e-06 0.0
000260 ef 9c 5e 38 00 00 00 00 1e 28 97 b7 1e 28 17 b8
       5.307508e-05 0.0 -1.8019284e-05 -3.6038567e-05
000270 96 40 34 b9 00 00 00 00 2c 5b 70 38 00 00 00 00
       -0.00017190198 0.0 5.730537e-05 0.0
000280 cc 70 de 37 cc 70 5e 38 70 7d 03 b7 00 00 00 00
       2.6516987e-05 5.3033975e-05 -7.837414e-06 0.0
000290 c6 62 c2 38 00 00 00 00 0e 9f 05 b8 0e 9f 85 b8
       9.269039e-05 0.0 -3.1857802e-05 -6.3715604e-05
0002a0 64 97 1b 38 00 00 00 00 39 77 7a 38 00 00 00 00
       3.7095873e-05 0.0 5.971568e-05 0.0
0002b0 ea 71 c1 b7 ea 71 41 b8 63 38 2c 37 00 00 00 00
       -2.3060438e-05 -4.6120877e-05 1.02651275e-05 0.0
0002c0 e0 2f da b6 00 00 00 00 40 4e e3 36 40 4e 63 37
       -6.5024797e-06 0.0 6.7742367e-06 1.3548473e-05
0002d0 11 00 2c 38 00 00 00 00 38 e3 81 35 00 00 00 00
       4.1008057e-05 0.0 9.677378e-07 0.0
0002e0 78 28 42 b6 78 28 c2 b6 8a 28 ca b6 00 00 00 00
       -2.8931809e-06 -5.7863617e-06 -6.0247885e-06 0.0
0002f0 a7 71 bc b6 00 00 00 00 48 b0 4a 36 48 b0 ca 36
       -5.6160675e-06 0.0 3.0202955e-06 6.040591e-06
000300 5c 93 36 b7 00 00 00 00 94 c7 c9 36 00 00 00 00
       -1.0882355e-05 0.0 6.0135008e-06 0.0
000310 c0 9d 2f b4 c0 9d af b4 dd 5d b3 b7 00 00 00 00
       -1.6355534e-07 -3.2711068e-07 -2.1382171e-05 0.0
000320 48 88 1a 36 00 00 00 00 64 b1 c6 36 64 b1 46 37
       2.3027114e-06 0.0 5.921511e-06 1.1843022e-05
000330 24 c9 f2 37 00 00 00 00 c0 cb e6 b7 00 00 00 00
       2.8942311e-05 0.0 -2.7513015e-05 0.0
000340 58 26 0e 37 58 26 8e 37 4e 93 88 37 00 00 00 00
       8.472787e-06 1.6945574e-05 1.6281057e-05 0.0
000350 e4 78 6d b7 00 00 00 00 24 28 84 36 24 28 04 37
       -1.4154448e-05 0.0 3.9385795e-06 7.877159e-06
000360 12 9b 34 36 00 00 00 00 e8 6a 8f 36 00 00 00 00
       2.6912353e-06 0.0 4.2741776e-06 0.0
000370 3c 4a 4d b6 3c 4a cd b6 69 4d b9 b7 00 00 00 00
       -3.059059e-06 -6.118118e-06 -2.2089765e-05 0.0
000380 c5 8e 57 b7 00 00 00 00 28 17 0f 37 28 17 8f 37
       -1.284824e-05 0.0 8.528856e-06 1.7057711e-05
000390 48 ed 48 37 00 00 00 00 ed de a0 37 00 00 00 00
       1.1976175e-05 0.0 1.9177294e-05 0.0
0003a0 52 a8 15 b7 52 a8 95 b7 0e e7 70 38 00 00 00 00
       -8.920282e-06 -1.7840564e-05 5.7435645e-05 0.0
0003b0 20 74 9a 35 00 00 00 00 91 c5 82 b7 91 c5 02 b8
       1.1507691e-06 0.0 -1.5589207e-05 -3.1178413e-05
0003c0 41 bb 63 b8 00 00 00 00 58 37 e7 b6 00 00 00 00
       -5.429541e-05 0.0 -6.8907793e-06 0.0
0003d0 31 a0 a4 37 31 a0 24 38 36 66 04 38 00 00 00 00
       1.9624918e-05 3.9249837e-05 3.1566444e-05 0.0
0003e0 80 a5 db 35 00 00 00 00 ef 22 4a b7 ef 22 ca b7
       1.6364938e-06 0.0 -1.2048272e-05 -2.4096544e-05
0003f0 1a 1d df b7 00 00 00 00 d5 52 25 b8 00 00 00 00
       -2.6597223e-05 0.0 -3.941621e-05 0.0

exp_avg_sq f4 [128, 6]
000000 27 ac 70 2f 00 00 00 00 9d 76 85 2f 00 00 00 00
       2.1889034e-10 0.0 2.427684e-10 0.0
000010 fa e7 23 2e fa e7 23 2f 57 1c 9c 31 00 00 00 00
       3.7267946e-11 1.4907178e-10 4.5434194e-09 0.0
000020 0a e6 ad 31 00 00 00 00 50 60 38 30 50 60 38 31
       5.061115e-09 0.0 6.707568e-10 2.6830271e-09
000030 86 21 75 35 00 00 00 00 42 d6 98 35 00 00 00 00
       9.1318395e-07 0.0 1.138724e-06 0.0
000040 4e a8 23 34 4e a8 23 35 e4 94 69 35 00 00 00 00
       1.5241787e-07 6.096715e-07 8.701593e-07 0.0
000050 47 a5 8e 35 00 00 00 00 c8 ea 1a 34 c8 ea 1a 35
       1.0627926e-06 0.0 1.442778e-07 5.771112e-07
000060 95 25 e7 2f 00 00 00 00 b7 d3 56 30 00 00 00 00
       4.204536e-10 0.0 7.815361e-10 0.0
000070 49 48 27 31 49 48 27 32 5c bb af 33 00 00 00 00
       2.4342788e-09 9.737115e-09 8.183153e-08 0.0
000080 7a 4c ec 33 00 00 00 00 61 85 8c 32 61 85 8c 33
       1.10035174e-07 0.0 1.6358799e-08 6.5435195e-08
000090 50 c8 67 2f 00 00 00 00 c4 ee 87 2f 00 00 00 00
       2.1080493e-10 0.0 2.472601e-10 0.0
0000a0 56 c7 54 2e 56 c7 54 2f ca bb a8 34 00 00 00 00
       4.8380265e-11 1.9352106e-10 3.1429073e-07 0.0
0000b0 47 69 d8 34 00 00 00 00 88 5b 91 33 88 5b 91 34
       4.0309735e-07 0.0 6.768738e-08 2.7074952e-07
0000c0 4a 9c 06 34 00 00 00 00 3c cb eb 33 00 00 00 00
       1.253658e-07 0.0 1.09800084e-07 0.0
0000d0 7f 9e 89 32 7f 9e 89 33 e3 f4 47 33 00 00 00 00
       1.6020975e-08 6.40839e-08 4.655602e-08 0.0
0000e0 35 9e 19 33 00 00 00 00 7e 76 93 31 7e 76 93 32
       3.5766977e-08 0.0 4.291734e-09 1.7166936e-08
0000f0 cb dc ba 33 00 00 00 00 54 7b fd 33 00 00 00 00
       8.701462e-08 0.0 1.1803664e-07 0.0
000100 bf 3a 9d 32 bf 3a 9d 33 3e 10 96 33 00 00 00 00
       1.830392e-08 7.321568e-08 6.987874e-08 0.0
000110 1b ae bd 33 00 00 00 00 e0 7c 73 32 e0 7c 73 33
       8.832668e-08 0.0 1.4172855e-08 5.669142e-08
000120 be 08 06 35 00 00 00 00 ef 4d 1c 35 00 00 00 00
       4.993161e-07 0.0 5.8227937e-07 0.0
000130 89 7c c7 33 89 7c c7 34 a1 f0 95 34 00 00 00 00
       9.2893124e-08 3.715725e-07 2.7928493e-07 0.0
000140 8e 95 bf 34 00 00 00 00 c5 2f 5b 33 c5 2f 5b 34
       3.5685338e-07 0.0 5.1033357e-08 2.0413343e-07
000150 13 5e c4 2e 00 00 00 00 74 4f cf 2e 00 00 00 00
       8.929759e-11 0.0 9.427384e-11 0.0
000160 4e ba 66 2d 4e ba 66 2e ca 36 a1 32 00 00 00 00
       1.3115354e-11 5.2461417e-11 1.8767782e-08 0.0
000170 6d 2f ce 32 00 00 00 00 31 6d cc 31 31 6d cc 32
       2.4003123e-08 0.0 5.949595e-09 2.379838e-08
000180 d9 ad 30 35 00 00 00 00 be af 4e 35 00 00 00 00
       6.581809e-07 0.0 7.699672e-07 0.0
000190 8d 52 d9 33 8d 52 d9 34 03 e5 bc 31 00 00 00 00
       1.0119866e-07 4.0479463e-07 5.4975557e-09 0.0
0001a0 f3 0d f2 31 00 00 00 00 91 81 8a 31 91 81 8a 32
       7.044713e-09 0.0 4.0310586e-09 1.6124234e-08
0001b0 01 78 71 30 00 00 00 00 9a 25 e1 30 00 00 00 00
       8.7845825e-10 0.0 1.6381592e-09 0.0
0001c0 e1 6d d2 2f e1 6d d2 30 49 b6 45 30 00 00 00 00
       3.827685e-10 1.531074e-09 7.1927225e-10 0.0
0001d0 37 33 3d 30 00 00 00 00 0b c5 7f 2f 0b c5 7f 30
       6.883058e-10 0.0 2.3262119e-10 9.3048474e-10
0001e0 87 0a 63 2f 00 00 00 00 54 7b 69 2f 00 00 00 00
       2.064927e-10 0.0 2.1235042e-10 0.0
0001f0 1c 51 0a 2e 1c 51 0a 2f f5 be bc 31 00 00 00 00
       3.1449607e-11 1.2579843e-10 5.4932294e-09 0.0
000200 c1 49 bc 31 00 00 00 00 50 d2 30 30 50 d2 30 31
       5.479905e-09 0.0 6.43273e-10 2.573092e-09
000210 88 07 64 35 00 00 00 00 ea 11 8f 35 00 00 00 00
       8.494758e-07 0.0 1.0659544e-06 0.0
000220 91 dc 12 34 91 dc 12 35 ed 13 55 35 00 00 00 00
       1.3677551e-07 5.4710205e-07 7.937768e-07 0.0
000230 25 af 64 35 00 00 00 00 d5 98 ea 33 d5 98 ea 34
       8.519149e-07 0.0 1.0924274e-07 4.3697096e-07
000240 af 2c 07 32 00 00 00 00 2a c8 fb 31 00 00 00 00
       7.868194e-09 0.0 7.3278175e-09 0.0
000250 ee 3a df 30 ee 3a df 31 8b 61 3f 32 00 00 00 00
       1.6242134e-09 6.4968537e-09 1.1139842e-08 0.0
000260 d5 a8 76 32 00 00 00 00 c4 e1 6d 31 c4 e1 6d 32
       1.43574725e-08 0.0 3.4616372e-09 1.3846549e-08
000270 33 8b f5 34 00 00 00 00 37 58 13 35 00 00 00 00
       4.5736087e-07 0.0 5.4890137e-07 0.0
000280 c1 20 d8 33 c1 20 d8 34 55 f3 58 33 00 00 00 00
       1.0064242e-07 4.0256967e-07 5.0512728e-08 0.0
000290 9d 24 8b 33 00 00 00 00 75 59 29 32 75 59 29 33
       6.479352e-08 0.0 9.857435e-09 3.942974e-08
0002a0 2d d1 a0 33 00 00 00 00 ed ad 98 33 00 00 00 00
       7.4886294e-08 0.0 7.1096885e-08 0.0
0002b0 2c 05 29 32 2c 05 29 33 d7 02 85 34 00 00 00 00
       9.838271e-09 3.9353083e-08 2.4775247e-07 0.0
0002c0 1d 22 a1 34 00 00 00 00 62 d9 2f 33 62 d9 2f 34
       3.0013408e-07 0.0 4.094307e-08 1.6377228e-07
0002d0 92 85 fa 33 00 00 00 00 ff 48 13 34 00 00 00 00
       1.16658285e-07 0.0 1.3716998e-07 0.0
0002e0 d9 bd b4 32 d9 bd b4 33 30 80 85 31 00 00 00 00
       2.104109e-08 8.416436e-08 3.8853827e-09 0.0
0002f0 c5 39 90 31 00 00 00 00 7f 2f 65 30 7f 2f 65 31
       4.197519e-09 0.0 8.337721e-10 3.3350884e-09
000300 56 e2 df 31 00 00 00 00 67 af f1 31 00 00 00 00
       6.5158856e-09 0.0 7.033964e-09 0.0
000310 c4 01 65 30 c4 01 65 31 a3 f3 93 33 00 00 00 00
       8.3312224e-10 3.332489e-09 6.889538e-08 0.0
000320 e5 81 a5 33 00 00 00 00 96 ed 21 32 96 ed 21 33
       7.707039e-08 0.0 9.425454e-09 3.7701817e-08
000330 45 13 9d 34 00 00 00 00 de 19 ab 34 00 00 00 00
       2.925755e-07 0.0 3.1870053e-07 0.0
000340 89 22 28 33 89 22 28 34 9e 02 9b 33 00 00 00 00
       3.9146958e-08 1.5658783e-07 7.218226e-08 0.0
000350 f8 1f ab 33 00 00 00 00 90 bc 26 32 90 bc 26 33
       7.968623e-08 0.0 9.705346e-09 3.8821383e-08
000360 22 46 4b 31 00 00 00 00 96 dc 7e 31 00 00 00 00
       2.9580254e-09 0.0 3.7087253e-09 0.0
000370 73 f0 5e 30 73 f0 5e 31 dd 34 05 30 00 00 00 00
       8.110483e-10 3.2441931e-09 4.846024e-10 0.0
000380 b4 f5 23 30 00 00 00 00 02 fe 73 30 02 fe 73 31
       5.964822e-10 0.0 8.876385e-10 3.550554e-09
000390 3e 17 02 2f 00 00 00 00 fa c0 ae 2f 00 00 00 00
       1.1831688e-10 0.0 3.1787534e-10 0.0
0003a0 ec 44 d1 2e ec 44 d1 2f 59 d1 14 34 00 00 00 00
       9.5164626e-11 3.806585e-10 1.3859734e-07 0.0
0003b0 50 ef 32 34 00 00 00 00 bf a1 b3 32 bf a1 b3 33
       1.6664603e-07 0.0 2.0911896e-08 8.3647585e-08
0003c0 d7 ea b7 34 00 00 00 00 ae a2 c5 34 00 00 00 00
       3.4257275e-07 0.0 3.6812474e-07 0.0
0003d0 b5 4d 48 33 b5 4d 48 34 27 fd 15 33 00 00 00 00
       4.6636803e-08 1.8654721e-07 3.4922007e-08 0.0
0003e0 31 95 30 33 00 00 00 00 c0 f5 bc 32 c0 f5 bc 33
       4.1113882e-08 0.0 2.1997835e-08 8.799134e-08
0003f0 74 29 74 31 00 00 00 00 3a 0b 86 31 00 00 00 00
       3.5530237e-09 0.0 3.9011896e-09 0.0

exp_avg f4 [128]
000000 73 70 19 34 e2 88 de b6 e0 81 20 35 20 71 cf 37
       1.4290144e-07 -6.632051e-06 5.979364e-07 2.4729e-05
000010 6f 4b 1a 36 95 dd aa b7 30 55 fd 32 f7 57 bc b7
       2.2991696e-06 -2.0368761e-05 2.9491815e-08 -2.2452308e-05
000020 1d 3d 15 b6 9c e5 86 b5 32 87 56 b8 ff 7c 42 b7
       -2.2238303e-06 -1.0050603e-06 -5.1147486e-05 -1.1592404e-05
000030 98 12 6a b7 d4 cf 05 b7 2c d2 2b 34 f3 a6 6d b7
       -1.3951816e-05 -7.9758065e-06 1.6002076e-07 -1.4165172e-05
000040 70 d0 b0 36 eb 4a bd 36 ae ec 40 37 28 19 07 b6
       5.269474e-06 5.6413605e-06 1.1499198e-05 -2.013121e-06
000050 3e b5 26 b6 1e 19 2f b6 e8 e2 94 b8 3b e8 55 b8
       -2.4841424e-06 -2.6091652e-06 -7.0994545e-05 -5.099944e-05
000060 3f 31 95 37 22 28 97 b7 c0 70 de 37 0a 9f 05 b8
       1.7785116e-05 -1.8019291e-05 2.6516966e-05 -3.1857788e-05
000070 f0 71 c1 b7 2a 4e e3 36 a0 28 42 b6 44 b0 4a 36
       -2.306045e-05 6.7742267e-06 -2.89319e-06 3.0202946e-06
000080 e0 9c 2f b4 72 b1 c6 36 55 26 0e 37 0d 28 84 36
       -1.6355216e-07 5.921517e-06 8.472784e-06 3.938569e-06
000090 48 4a 4d b6 28 17 0f 37 54 a8 15 b7 97 c5 82 b7
       -3.0590618e-06 8.528856e-06 -8.920284e-06 -1.5589218e-05
0000a0 2f a0 a4 37 f2 22 4a b7 a8 a3 9c 37 f8 aa 95 b7
       1.9624915e-05 -1.2048275e-05 1.8672858e-05 -1.7841798e-05
0000b0 80 e3 b3 b4 8a 09 0d 37 48 b8 c4 b5 f8 07 bc b7
       -3.3506876e-07 8.406476e-06 -1.4656771e-06 -2.2415057e-05
0000c0 d2 73 37 b7 8f 9e 86 b7 dc e3 9e b7 cc e6 fc 36
       -1.09346165e-05 -1.604788e-05 -1.8941173e-05 7.5370535e-06
0000d0 40 1f 07 38 39 85 39 b8 10 f6 55 b6 bc 00 fe b6
       3.2215612e-05 -4.423151e-05 -3.18827e-06 -7.5698754e-06
0000e0 88 0d a9 35 01 59 a2 b8 6c 92 c4 35 48 9a 14 36
       1.2595419e-06 -7.74134e-05 1.4645752e-06 2.2143522e-06
0000f0 8b 45 10 37 96 c5 f9 35 b6 33 54 b6 00 ba ff 36
       8.599261e-06 1.8609451e-06 -3.1620561e-06 7.6212455e-06
000100 ea 8e 92 b6 3d 69 33 b6 56 3d c2 35 96 4d d0 37
       -4.3677765e-06 -2.6734335e-06 1.4471977e-06 2.4831661e-05
000110 73 f7 62 b6 ba e6 4c 37 32 ea 92 37 18 da 95 b8
       -3.3820659e-06 1.2213068e-05 1.7513612e-05 -7.145497e-05
000120 d1 bf 46 36 3a c0 3a b8 d6 e2 6c b7 5c f7 c0 b7
       2.961595e-06 -4.452488e-05 -1.41195105e-05 -2.300337e-05
000130 66 7c bd b7 ca cc b5 b7 d4 68 e1 b7 c4 3b 0d b6
       -2.2588483e-05 -2.1672244e-05 -2.6870905e-05 -2.1045425e-06
000140 88 bd c5 b7 a0 9f f6 b4 78 02 b9 b8 1a 7c 0a b9
       -2.3572487e-05 -4.5937213e-07 -8.821947e-05 -0.00013206937
000150 de e6 4c b6 d4 86 07 b7 b3 5b 50 36 44 91 5f b7
       -3.0532751e-06 -8.078019e-06 3.1047791e-06 -1.3325658e-05
000160 00 b5 ec 35 32 87 4d 37 12 4a 98 b6 30 c2 a8 b6
       1.7636048e-06 1.225043e-05 -4.538576e-06 -5.0293966e-06
000170 4e 27 2e b8 1e 98 e0 b7 7d 9b 09 b9 26 79 8e b6
       -4.1521438e-05 -2.6773716e-05 -0.00013123262 -4.2460333e-06
000180 da 45 b8 b7 2a 8f 34 b6 de c9 4a b8 76 28 8d b6
       -2.1967036e-05 -2.6905423e-06 -4.8348556e-05 -4.2068377e-06
000190 19 c6 19 b8 38 94 17 b6 f0 a5 2e 35 78 28 c6 b5
       -3.6662535e-05 -2.2587028e-06 6.506152e-07 -1.4763928e-06
0001a0 80 3b 0a 32 8c 4e 82 36 56 26 1d 37 d8 de 0a b5
       8.046186e-09 3.883446e-06 9.366855e-06 -5.1733286e-07
0001b0 5e a8 b7 b7 e8 d8 35 34 ce 20 86 b8 5e a0 54 b7
       -2.1893702e-05 1.6935849e-07 -6.395728e-05 -1.2673523e-05
0001c0 7d 95 60 b8 e6 3d 09 b7 1f 12 b3 37 6b 48 4b b7
       -5.3544984e-05 -8.180248e-06 2.1346901e-05 -1.2116604e-05
0001d0 9a a3 85 b7 e9 4c 49 36 1d 30 0c 37 c2 c8 22 b8
       -1.5931018e-05 2.9996102e-06 8.3558525e-06 -3.881078e-05
0001e0 0b 81 b0 36 81 25 58 b7 63 e3 ce 36 c8 83 04 b7
       5.2602313e-06 -1.2883335e-05 6.1657497e-06 -7.898496e-06
0001f0 b4 e9 49 35 02 50 95 37 7f f5 38 b8 91 e9 ea 35
       7.521842e-07 1.779944e-05 -4.4097655e-05 1.7502335e-06

exp_avg_sq f4 [128]
000000 fb e7 23 2e 52 60 38 30 4f a8 23 34 c9 ea 1a 34
       3.726795e-11 6.707569e-10 1.5241788e-07 1.4427782e-07
000010 49 48 27 31 60 85 8c 32 57 c7 54 2e 88 5b 91 33
       2.4342788e-09 1.6358797e-08 4.838027e-11 6.768738e-08
000020 7d 9e 89 32 80 76 93 31 bf 3a 9d 32 e1 7c 73 32
       1.6020971e-08 4.291735e-09 1.830392e-08 1.4172856e-08
000030 8a 7c c7 33 c5 2f 5b 33 4e ba 66 2d 33 6d cc 31
       9.289313e-08 5.1033357e-08 1.3115354e-11 5.949596e-09
000040 8e 52 d9 33 90 81 8a 31 e2 6d d2 2f 07 c5 7f 2f
       1.01198665e-07 4.031058e-09 3.8276854e-10 2.3262113e-10
000050 1c 51 0a 2e 50 d2 30 30 91 dc 12 34 d6 98 ea 33
       3.1449607e-11 6.43273e-10 1.3677551e-07 1.0924275e-07
000060 ec 3a df 30 c3 e1 6d 31 c0 20 d8 33 79 59 29 32
       1.6242132e-09 3.461637e-09 1.0064241e-07 9.857438e-09
000070 2e 05 29 32 63 d9 2f 33 dc bd b4 32 80 2f 65 30
       9.838272e-09 4.0943075e-08 2.1041096e-08 8.3377216e-10
000080 c3 01 65 30 99 ed 21 32 8c 22 28 33 8e bc 26 32
       8.331222e-10 9.425457e-09 3.914697e-08 9.705344e-09
000090 71 f0 5e 30 04 fe 73 30 e8 44 d1 2e be a1 b3 32
       8.110482e-10 8.8763863e-10 9.51646e-11 2.0911894e-08
0000a0 b4 4d 48 33 bd f5 bc 32 b0 12 48 30 8f c1 da 32
       4.66368e-08 2.199783e-08 7.278613e-10 2.546656e-08
0000b0 2d 26 51 32 dd 73 e1 31 55 c5 16 33 76 c3 11 33
       1.2174081e-08 6.561534e-09 3.510407e-08 3.3938214e-08
0000c0 cb 72 d3 32 b0 12 48 32 2e 11 1c 33 55 ec 49 31
       2.4615835e-08 1.1645781e-08 3.6337205e-08 2.9383689e-09
0000d0 79 bf a0 33 bf 48 ff 33 31 c0 b8 31 50 16 ff 30
       7.485409e-08 1.1887595e-07 5.3769544e-09 1.8560034e-09
0000e0 07 b2 a8 33 ce 48 8a 33 66 f4 32 32 b4 86 61 2f
       7.8554926e-08 6.439369e-08 1.0416533e-08 2.0511487e-10
0000f0 45 b1 21 31 41 6c 1f 2f 72 6b 99 31 9a 65 bf 33
       2.352935e-09 1.4499425e-10 4.465101e-09 8.912612e-08
000100 6b aa 81 32 50 0c 12 30 db ed 33 2f d3 b4 55 33
       1.5095074e-08 5.313199e-10 1.6364458e-10 4.9757386e-08
000110 86 6f eb 30 ff e3 e8 33 05 2f ef 33 63 02 0d 32
       1.7130197e-09 1.0844814e-07 1.11378576e-07 8.207823e-09
000120 47 ea dc 2f dd 76 a5 34 44 4b f4 32 2c 1e cf 32
       4.018423e-10 3.082013e-07 2.8439565e-08 2.4111692e-08
000130 6b 64 65 33 cb e7 3e 32 40 b3 c9 32 a4 bf d8 2f
       5.3409547e-08 1.1112159e-08 2.3480993e-08 3.942634e-10
000140 22 c3 56 31 6f fe 79 31 ec 10 b0 32 f3 40 e2 33
       3.1252019e-09 3.6378898e-09 2.0496792e-08 1.0535759e-07
000150 c6 79 13 31 c5 3e 6e 34 36 ea 28 31 a9 ae 28 34
       2.1460536e-09 2.2188313e-07 2.458035e-09 1.570976e-07
000160 ed dd 4b 31 82 f8 4d 2f 76 5b 2d 31 68 33 7b 33
       2.9666538e-09 1.8732929e-10 2.5226803e-09 5.8487245e-08
000170 0a 1b 48 34 97 40 0f 33 c2 a2 3d 33 9b 77 d4 31
       1.8636288e-07 3.3353526e-08 4.415302e-08 6.1836096e-09
000180 b4 69 1b 31 4e 94 e5 2f 7f 2d df 32 c4 e9 44 2e
       2.2615554e-09 4.1760234e-10 2.5981306e-08 4.4772866e-11
000190 74 7f 25 33 7f 06 98 31 31 6f 34 30 d8 b2 94 2f
       3.8532974e-08 4.4245207e-09 6.564163e-10 2.704812e-10
0001a0 20 bc 36 2f 95 77 d2 2f d3 12 73 33 bd 7d ab 2f
       1.6619639e-10 3.8283746e-10 5.6594967e-08 3.119406e-10
0001b0 96 9c 31 33 48 67 cb 2f a3 a2 ad 32 65 08 27 31
       4.1353438e-08 3.699887e-10 2.021381e-08 2.430647e-09
0001c0 bc 39 1d 33 3f 51 fa 32 47 de ad 30 aa bd e2 32
       3.660692e-08 2.9140777e-08 1.2650582e-09 2.6396112e-08
0001d0 94 9b 40 31 bf f4 e8 2f ab ec 42 32 df 45 8d 31
       2.8028113e-09 4.2374457e-10 1.1346098e-08 4.1115835e-09
0001e0 db 5a e8 2f 7b 6d 92 30 04 a3 09 31 9a e3 27 32
       4.226511e-10 1.0654014e-09 2.0028788e-09 9.77243e-09
0001f0 38 66 a4 30 de 7f cf 34 5e 6b 09 33 a7 08 3c 2e
       1.1961623e-09 3.864979e-07 3.1995448e-08 4.2753936e-11
