results/ppo/MoveToGoal/MoveToGoal-186597.pt (torch, 441366 bytes, 36 tensors)

network_body._body_endoder.seq_layers.0.weight f4 [128, 6]
0	0xbf272fa7	-0.65307087
1	0x3e8dedef	0.2772059
2	0xbf0c2272	-0.5474006
3	0x3f10e44b	0.5659835
4	0xbec7cea1	-0.39024833
5	0xbce1de3c	-0.02757179
6	0xbf1510b5	-0.5822862
7	0x3dc90ddb	0.09817096
8	0xbe75f9a8	-0.24021018
9	0xbea6657e	-0.32499307
10	0xbd616130	-0.055024326
11	0x3f862577	1.0480183
12	0x3d077f64	0.033080474
13	0x3f1a4890	0.6026697
14	0xbe101031	-0.14068677
15	0xbe0b27a5	-0.13589342
16	0xbefd58bd	-0.49481764
17	0xbe5771ec	-0.21039551
18	0xbf8282fb	-1.0196222
19	0xbf722baf	-0.94597906
20	0x3dfc71c0	0.123263836
21	0xbea52bf3	-0.32260093
22	0x3e29a558	0.1656698
23	0x3dc2475c	0.09486267
24	0x3ec20bc9	0.37899616
25	0xbf3af159	-0.7302452
26	0xbf21317a	-0.6296612
27	0x3efac4b0	0.48978186
28	0xbead620c	-0.33863866
29	0xbe1e787e	-0.15475652
30	0x3efd0bdf	0.4942312
31	0xbdd99fdb	-0.10626193
32	0xbeac2c7b	-0.33627686
33	0xbe7d0d0d	-0.2471201
34	0xbf1dd880	-0.6165848
35	0xbea39025	-0.3194591
36	0x3d871816	0.06596391
37	0xbe91a009	-0.2844241
38	0xbe63c15b	-0.22241728
39	0xbeb4c726	-0.35308188
40	0x3e8db9e9	0.276809
41	0x3e3cd750	0.1844151
42	0x3ec5fd87	0.3866999
43	0x3e23cc79	0.15995969
44	0xbe055892	-0.13022068
45	0xbd67c591	-0.0565849
46	0x3e873d4b	0.2641395
47	0xbf027e02	-0.5097352
48	0x3eb9f539	0.36319903
49	0x3e236326	0.15955791
50	0x3ee8c668	0.45463872
51	0x3dbf6a62	0.09346463
52	0xbe5bcc83	-0.21464734
53	0x3d1c5e66	0.038175963
54	0xbeda28b8	-0.4260919
55	0x3e3e415f	0.18579625
56	0x3e7830cc	0.24237365
57	0xbe7aca56	-0.24491248
58	0xbf2a94fc	-0.6663358
59	0xbd6fcc87	-0.05854466
60	0xbe173bdd	-0.1476893
61	0x3f09eb0a	0.53874266
62	0x3e812551	0.25223783
63	0x3f2c873c	0.6739385
64	0x3d0e3576	0.034718953
65	0xbf1110e8	-0.5666642
66	0xbe705b62	-0.2347236
67	0x3f0175e7	0.5057053
68	0xbcda9c5e	-0.02668589
69	0xbe28112e	-0.16412804
70	0xbe579701	-0.21053697
71	0xbdbc6469	-0.09198839
72	0x3ec1c935	0.3784882
73	0x3db4f5a3	0.08835914
74	0xbe1b757e	-0.15181538
75	0x3e2632fa	0.16230384
76	0x3e55b01b	0.2086796
77	0x3d084dd3	0.033277344
78	0xbe6b184b	-0.22958486
79	0x3ee58d8b	0.4483455
80	0x3eaeff21	0.34179023
81	0x3f1a2f97	0.60228866
82	0xbe0c1f75	-0.13683875
83	0x3ef6989d	0.4816331
84	0xbf29a84f	-0.66272444
85	0x3d31024d	0.043215085
86	0x3f86ed3f	1.0541152
87	0x3e36134a	0.17780796
88	0xbe9ffdaa	-0.31248218
89	0x3ebc572d	0.3678526
90	0x3e31cd39	0.17363442
91	0xbf5e629c	-0.86869216
92	0xbe855447	-0.2604086
93	0x3e6b0b33	0.22953491
94	0xbd71e8a5	-0.059059758
95	0x3cbcb85b	0.023037126
96	0x3d97dcda	0.07415171
97	0x3d3d75cd	0.04625492
98	0xbe647411	-0.22309901
99	0xbe680d5e	-0.22661349
100	0x3dde2dcb	0.10848578
101	0x3f31c189	0.69435936
102	0xbe7efca9	-0.2490107
103	0xbe1ce6ae	-0.15322372
104	0xbdc2c93f	-0.09511041
105	0x3ec42c0a	0.3831485
106	0x3f21008a	0.6289145
107	0x3ed46550	0.41483545
108	0xbe95e1cc	-0.29273832
109	0xbe6da1ee	-0.23206303
110	0xbecc945a	-0.39956933
111	0xbedaf86f	-0.42767665
112	0xbf0dd4c8	-0.55402803
113	0xbf20f8be	-0.6287955
114	0xbed8befb	-0.42333207
115	0xbee3f275	-0.44520918
116	0xbdffd4dd	-0.12491772
117	0x3f20dfc6	0.6284145
118	0x3f483444	0.7820475
119	0xbe8149aa	-0.25251514
120	0x3f32d494	0.6985562
121	0xbdb18af2	-0.0866908
122	0xbf6ddff7	-0.9291987
123	0xbe0e3594	-0.13887626
124	0x3f087cee	0.5331563
125	0x3e038e4f	0.12847255
126	0xbd857b7f	-0.06517696
127	0xbe889948	-0.26679444
128	0xbe5c6dfd	-0.21526332
129	0x3ea2a4df	0.31766412
130	0x3f4a8508	0.7910924
131	0xbe09771c	-0.13424343
132	0x3dd54981	0.104144104
133	0x3f02a20a	0.510285
134	0x3b4f2a4f	0.0031610911
135	0x3e007834	0.12545854
136	0x3e32ad23	0.17448859
137	0x3f249727	0.6429314
138	0xbdec8804	-0.115493804
139	0xbc2e9aff	-0.010657071
140	0x3f18cbc8	0.59685946
141	0xbf0fe1f8	-0.56204176
142	0x3eaa4d8d	0.33262292
143	0xbe82771a	-0.25481492
144	0xbe5919a7	-0.21201192
145	0xbf208fd8	-0.6271949
146	0xbd3c8e55	-0.046034176
147	0xbf23ccd5	-0.63984424
148	0x3d57aac9	0.052653108
149	0x3e17b151	0.14813735
150	0xbecb3b82	-0.39693838
151	0xbd36a4fb	-0.04459093
152	0x3f32de45	0.69870406
153	0xbe0a8825	-0.13528498
154	0x3ba6fa02	0.005095721
155	0x3cfbdeab	0.030745825
156	0xbe6d2676	-0.23159203
157	0x3cd6a6ba	0.026202548
158	0x3e903ace	0.28169864
159	0xbe9da5cd	-0.30790558
160	0xbf1ff6b7	-0.6248583
161	0xbc490c11	-0.012270943
162	0x3f35641d	0.70855886
163	0xbf2099ae	-0.62734497
164	0xbc987697	-0.018611236
165	0x3c99d4de	0.01877826
166	0xbeeb4e68	-0.45958257
167	0x3f37cc78	0.7179637
168	0xbeaa314e	-0.33240741
169	0x3eb32f2e	0.34996933
170	0x3ef13f0d	0.47118416
171	0xbe5ea83f	-0.21743868
172	0x3f1b79d7	0.6073279
173	0x3d1c03cf	0.03808957
174	0x3dd08586	0.101817176
175	0x3d641667	0.055685427
176	0x3d2c69d2	0.042093106
177	0xbd79ab23	-0.060954224
178	0xbebac5b9	-0.36478975
179	0xbd5d138f	-0.05397373
180	0x3f64c37b	0.8936078
181	0x3e95468c	0.29155385
182	0xbdedfb79	-0.1162023
183	0xbe60bbed	-0.21946688
184	0xbe85406d	-0.26025715
185	0xbeac3c69	-0.3363984
186	0xbefa1671	-0.48845246
187	0xbda530d0	-0.08065951
188	0x3e14ace6	0.1451908
189	0x3e119185	0.14215668
190	0xbdf97d20	-0.12182069
191	0x3f127133	0.5720398
192	0x3f477f15	0.77928287
193	0x3d668aaa	0.056284584
194	0x3eb85ac5	0.36006752
195	0x3d7f2363	0.062289607
196	0xbe8f305c	-0.27966583
197	0xbe07739c	-0.13227695
198	0x3e627f45	0.22118862
199	0xbef3f2e7	-0.47646257
200	0xbca308ce	-0.01990166
201	0x3ea792e9	0.3272927
202	0xbe331181	-0.17487146
203	0xbdec947c	-0.11551759
204	0xbec5d258	-0.38637042
205	0x3d937000	0.07199097
206	0xbe9d7b42	-0.307581
207	0xbf379d62	-0.7172452
208	0xbe6c550d	-0.2307932
209	0x3efecc1a	0.49765092
210	0x3e61ee68	0.22063601
211	0xbe7468d8	-0.2386812
212	0x3e2db5df	0.1696391
213	0x3bd0efe1	0.006376252
214	0xbed0b0e5	-0.4075996
215	0xbd88ff32	-0.066893
216	0x3e83fa09	0.257767
217	0x3edef3d6	0.43545407
218	0xbd59886e	-0.053108625
219	0x3eb6babf	0.3568935
220	0xbe6c0fff	-0.23052977
221	0x3c7ec76a	0.015550474
222	0xbeccc424	-0.39993393
223	0x3c9ce3dc	0.01915162
224	0x3eed1b54	0.46309912
225	0x3f9c0bcd	1.2191101
226	0xbd9270a6	-0.07150392
227	0x3e647fcd	0.22314377
228	0x3f2ca04f	0.6743211
229	0xbe3e8144	-0.18603998
230	0xbdf8a2e0	-0.12140441
231	0xbf1ab7a5	-0.6043647
232	0x3f107ad0	0.56437397
233	0x3f8400e5	1.0312773
234	0xbed75de7	-0.4206383
235	0x3e0ff027	0.14056455
236	0x3ef96214	0.4870764
237	0x3e738bd9	0.23783816
238	0x3cea5f8b	0.028610012
239	0xbf318576	-0.6934427
240	0x3e77685e	0.24160907
241	0xbe917519	-0.2840965
242	0x3d6e072c	0.05811231
243	0xbf0cd1d0	-0.5500765
244	0x3e2c76c5	0.16842182
245	0x3e5dbd17	0.21654163
246	0xbf1dc3f7	-0.61627144
247	0xbe066162	-0.13123086
248	0xbf08cc22	-0.5343648
249	0x3de8c5f3	0.11365881
250	0xbeec97e3	-0.4620963
251	0x3f52b5ea	0.8230883
252	0xbec725b2	-0.38895947
253	0x3ebd4992	0.36970192
254	0x3f7ddbba	0.991634
255	0x3f370123	0.7148611

network_body._body_endoder.seq_layers.0.bias f4 [128]
0	0xbb8954d7	-0.004191022
1	0x39aacaa0	0.00032575894
2	0x3c25aa41	0.0101113925
3	0xbca4d972	-0.020123217
4	0xbbdf7b49	-0.0068201167
5	0x3cb8101a	0.022468615
6	0xbc70a9c3	-0.014688912
7	0x3c983607	0.01858045
8	0x3bf10e3a	0.0073564323
9	0xbc385e4d	-0.011252952
10	0xbc1ff691	-0.009763376
11	0x3c4d8b39	0.0125454
12	0x3c0aab4a	0.00846369
13	0xbc0d8914	-0.008638639
14	0x3cabe2f1	0.020982238
15	0x3bb43bed	0.005500308
16	0x3b5c843c	0.0033648154
17	0x3ba60273	0.00506621
18	0xbabe6317	-0.0014525381
19	0x3a825a9e	0.0009945219
20	0x3c423827	0.011854208
21	0xbcac4174	-0.021027304
22	0xbc0c6523	-0.008569035
23	0x3c295ba5	0.010336791
24	0x3b45025c	0.003006122
25	0x3c81ea4d	0.015858794
26	0x3cc56daf	0.024100153
27	0xba6bed46	-0.0008999895
28	0x3c07f241	0.008297504
29	0x3a7ccfdf	0.00096440123
30	0x3c33ba15	0.010969658
31	0x3c1df014	0.009639759
32	0x3c024bec	0.0079526715
33	0x3c8af256	0.016961258
34	0x3af0019c	0.0018311027
35	0xb98c3836	-0.0002674476
36	0x3b012408	0.0019705314
37	0x3c8c5f18	0.017135188
38	0xbc429715	-0.011876841
39	0x3d0e3d2a	0.0347263
40	0x3c529618	0.012853168
41	0xbc0994cf	-0.008397295
42	0x3c844dd9	0.016150402
43	0x3b89f460	0.00421004
44	0x3acefd7b	0.0015792096
45	0x3b14b753	0.0022692278
46	0x3c271e2f	0.010200067
47	0xbb8e41bd	-0.0043413327
48	0x3a1f50ff	0.0006077438
49	0xbbd31def	-0.0064427773
50	0xbc0c94c6	-0.008580392
51	0x3be9594a	0.00712124
52	0xbbb873c3	-0.0056290342
53	0xbb86f7dc	-0.0041189026
54	0xbc34f812	-0.011045473
55	0x3b6cf0cf	0.0036154275
56	0xba10af17	-0.00055192545
57	0xb9c03a2c	-0.00036664435
58	0x3bf828af	0.0075732092
59	0xbc779276	-0.015110603
60	0x3b90c2ee	0.0044177687
61	0x3c2de2ea	0.010613183
62	0x3aa3a735	0.0012485745
63	0x3c127c96	0.008940836
64	0x3be6d17e	0.0070440164
65	0x3997767c	0.00028889242
66	0x3c2f0649	0.010682651
67	0xbc79c8d1	-0.015245632
68	0x3ba2af99	0.0049647805
69	0xbbdbaab1	-0.0067036976
70	0xbb479c38	-0.0030458104
71	0x3c0dd6f0	0.008657202
72	0x3b84a733	0.004048252
73	0x3c781c3e	0.015143452
74	0x3baa54ba	0.0051980885
75	0x3b820e51	0.003968992
76	0xbbcdfe62	-0.0062864283
77	0xbc8d6098	-0.017257974
78	0x3c3e7df5	0.01162671
79	0xbadb8f60	-0.0016751103
80	0x3bfd364d	0.0077274204
81	0xbba4be8d	-0.0050275982
82	0xbc4c5cf0	-0.01247333
83	0xbc5106d2	-0.012757974
84	0x3bd50694	0.0065010283
85	0xbc393b8c	-0.011305701
86	0x3cd73e53	0.026274836
87	0x3b397119	0.0028296171
88	0x3b1ead28	0.0024212096
89	0xbc0092ba	-0.007847482
90	0x3bfe304f	0.0077572237
91	0xbb629d30	-0.0034578554
92	0x3c8ec32c	0.01742705
93	0x3c97af6d	0.018516267
94	0x3c4beb4a	0.012446234
95	0xbb88061b	-0.0041511185
96	0x3c0cb56b	0.008588175
97	0x3b6951c4	0.0035601715
98	0x3b450727	0.0030064078
99	0xbbec6479	-0.0072141257
100	0xbadb4cc6	-0.0016731254
101	0xbcbd8841	-0.02313626
102	0x3c6e06ca	0.014527986
103	0x3c222052	0.009895401
104	0x3c082df3	0.008311736
105	0xbb04d4e6	-0.00202685
106	0x3c994ce0	0.018713415
107	0x3c2680e3	0.010162565
108	0xbc957574	-0.018244483
109	0x3c071fcc	0.008247327
110	0xbba3c3e3	-0.0049977168
111	0x3c11e85b	0.0089054955
112	0xbcac36d5	-0.02102224
113	0x3bee42a9	0.00727113
114	0xbc728105	-0.0148012685
115	0x3bc7cb2a	0.006097217
116	0xb9c00bc6	-0.00036629866
117	0xbbec423f	-0.0072100456
118	0x3bc67cb5	0.0060573467
119	0xbb0afca0	-0.0021207705
120	0xbb846f50	-0.00404159
121	0xbc0ee099	-0.00872054
122	0x3b79c251	0.0038110206
123	0x3c5db08d	0.0135308625
124	0x3c5d5e28	0.013511218
125	0x3c502898	0.012704991
126	0xbbac9fca	-0.005268072
127	0xbae363d7	-0.001734848

network_body._body_endoder.seq_layers.2.weight f4 [128, 128]
0	0xbe14618d	-0.14490338
1	0x3dcece86	0.10097985
2	0xbc999f03	-0.01875258
3	0x3d82677c	0.06367394
4	0x3c91468a	0.017733831
5	0x3ce7af50	0.028281838
6	0xbc92eab2	-0.017934177
7	0x3cf84a4a	0.030308861
8	0xbd78c3d9	-0.06073365
9	0x3be821c8	0.007084105
10	0xbd8ed1a9	-0.06973583
11	0xbcfb905c	-0.030708484
12	0xbd904335	-0.07044069
13	0x3de37f89	0.1110831
14	0xbd9d8810	-0.076919675
15	0xbd35bf78	-0.044372052
16	0xbe0844b9	-0.13307466
17	0x399a0702	0.0002937839
18	0xbe08187a	-0.13290587
19	0xbd228c37	-0.0396845
20	0x3cc2c159	0.023773836
21	0x3e038e22	0.12847188
22	0x3d9ab206	0.075534865
23	0x3d218d89	0.03944162
24	0x3d8de809	0.06929023
25	0x3e0682c1	0.13135816
26	0xbcd5ad16	-0.02608351
27	0xbb80407a	-0.003913936
28	0x3abe6c08	0.0014528045
29	0xbdb60625	-0.08887891
30	0xbb227c43	-0.0024793304
31	0x3ceb1381	0.028695824
32	0x3e578110	0.21045327
33	0xbc88c72a	-0.016696531
34	0xbd940ff1	-0.07229603
35	0x3e046f39	0.12933053
36	0xbd09181c	-0.033470258
37	0xbddd93af	-0.10819184
38	0x3e8ae0c8	0.2712462
39	0x3d54c873	0.051948976
40	0x3dd5284f	0.10408079
41	0x3d472d28	0.04862705
42	0xbc7cf79c	-0.015439894
43	0x3e5208d5	0.20511182
44	0x3e11dbff	0.14244078
45	0xbdbf3b31	-0.09337462
46	0xbd47047c	-0.04858826
47	0xbe105b5f	-0.14097355
48	0x3d13f9e0	0.03612697
49	0x3daa96b4	0.083295256
50	0xbb2c7bb8	-0.002631886
51	0x3c2fb5e9	0.010724523
52	0x3d772a09	0.060342822
53	0xbd861aa6	-0.065480515
54	0xbe4648b3	-0.1936367
55	0x3e016dce	0.12639543
56	0x3dc2b4c8	0.095071375
57	0x3db9822d	0.09058032
58	0xbce22352	-0.027604733
59	0xbe13edd1	-0.14446189
60	0x3bb99c09	0.005664353
61	0xbc981c1f	-0.018568097
62	0xbe57daec	-0.21079606
63	0xbb13ec20	-0.0022571161
64	0xbe26b59c	-0.16280216
65	0x3dafcaf9	0.08583636
66	0xbd40fc11	-0.04711539
67	0x3d85480d	0.06507883
68	0x3d97facd	0.07420883
69	0xbd81f1ea	-0.063449696
70	0xbdc4ae13	-0.096035145
71	0xbe01123c	-0.12604612
72	0x3dee1942	0.11625911
73	0x3d8c12c4	0.06839517
74	0x3d7f49ed	0.06232636
75	0x3d5c1f95	0.053741056
76	0x3e24cf72	0.16094759
77	0x3c98b139	0.018639194
78	0xbdd72259	-0.10504598
79	0x3df2c1cc	0.1185337
80	0xbd6cbc95	-0.057797033
81	0xb9a98713	-0.0003233483
82	0xbd1d8629	-0.038458023
83	0xbb9bde92	-0.004756757
84	0xbd0e8586	-0.034795307
85	0x3db0324c	0.08603343
86	0xbc967c4b	-0.018369814
87	0x3d0e3a12	0.03472335
88	0xbdef7316	-0.11691873
89	0xbd22322b	-0.039598625
90	0xbdb46c0e	-0.08809672
91	0x3cccd916	0.025005858
92	0xbcfcbfd3	-0.030853188
93	0x3dbb0bb8	0.091330945
94	0xbdb376b8	-0.08762878
95	0xbe0f2dc1	-0.13982297
96	0xbcefdbfc	-0.029279701
97	0xbc7c6878	-0.015405767
98	0xbe722c49	-0.23649706
99	0xbddde2e5	-0.10834292
100	0xbe104c66	-0.14091644
101	0x3d1fdaee	0.039027147
102	0xbc890340	-0.016725183
103	0x3e23bd11	0.15990092
104	0xbd895c22	-0.06707026
105	0xbcb651d0	-0.022255808
106	0x3dc90661	0.0981567
107	0xbdc4ddef	-0.09612643
108	0x3c89715a	0.016777683
109	0x3badea76	0.005307491
110	0xbd178c37	-0.036998954
111	0x3dcf9f39	0.10137791
112	0x3ce50aee	0.027959313
113	0xbc12c9e6	-0.008959269
114	0x3d4553da	0.04817567
115	0xbbb71eff	-0.005588412
116	0x3d58b4c9	0.052906785
117	0x3dc9f31d	0.09860823
118	0x3ca9bab6	0.020718914
119	0x3d35c57c	0.04437779
120	0xbc04eada	-0.008112634
121	0xbccb2a85	-0.024800548
122	0xbdc15f60	-0.094420195
123	0xbde8db3d	-0.113699414
124	0xbe0ff467	-0.14058076
125	0xbb9cab4f	-0.0047811638
126	0x3dda1ea9	0.10650379
127	0xbd0825f4	-0.03323932
128	0x3dbce6a1	0.092236765
129	0x3dd3880d	0.10328684
130	0xbd0bcb7a	-0.034129597
131	0x3d1734e5	0.03691568
132	0x3d91c70b	0.071180426
133	0xbe13d620	-0.14437151
134	0xbcdd0acf	-0.026982693
135	0xbdad99d4	-0.08476606
136	0xbcc2ab5e	-0.023763355
137	0x3c4a96d1	0.012365059
138	0xbd2068e8	-0.039162546
139	0x3d5abaa0	0.053400636
140	0xbd9c32de	-0.0762689
141	0xbd0a3e07	-0.03375056
142	0x3d95d915	0.07316796
143	0xbd9ec33c	-0.07752082
144	0xbcf5291e	-0.029926833
145	0x3c2fc03d	0.0107269855
146	0x3d03ea69	0.032205973
147	0x3a0e738d	0.00054340885
148	0xbdc64274	-0.09680644
149	0xbdaf1a91	-0.08549989
150	0x3e01b0f5	0.1266516
151	0xbe04c11e	-0.12964293
152	0x3e0eb50f	0.13936256
153	0x3d76dba8	0.060268074
154	0xbcc82247	-0.024430407
155	0xbdadbfe1	-0.084838636
156	0x3d0e6901	0.03476811
157	0xbe00a219	-0.12561835
158	0xbc833dc1	-0.016020657
159	0xbcc7baf6	-0.024381142
160	0xbd592529	-0.053013954
161	0x3ccc03f8	0.024904236
162	0x3e147115	0.14496262
163	0x3bc63d71	0.006049805
164	0xbdd351cf	-0.10318338
165	0x3dbbbcbe	0.09166859
166	0xbdbc5c91	-0.09197343
167	0x3d57b162	0.0526594
168	0xbcf0addb	-0.029379776
169	0xbcb1a53d	-0.021685237
170	0x3e16951e	0.14705321
171	0xba858d3c	-0.0010189186
172	0xbe20d972	-0.15707949
173	0x3c70c098	0.014694355
174	0x3c7f68ab	0.01558892
175	0xbdcfe416	-0.10150926
176	0xbc5e4364	-0.013565872
177	0x3dc08862	0.09401013
178	0xbc3faf81	-0.011699558
179	0x3e027654	0.12740451
180	0x3dee678b	0.11640843
181	0xbd486688	-0.048925906
182	0xbd6f1a93	-0.058374953
183	0xbdfdcd5e	-0.12392686
184	0x3d974905	0.07386974
185	0xbe045d57	-0.12926231
186	0x3d02c7d5	0.031928856
187	0x3da8495f	0.082171194
188	0x3de512a0	0.11185193
189	0xbd5057bd	-0.050864924
190	0xbd8f742f	-0.07004582
191	0x3d79216b	0.060822885
192	0x3d32f78e	0.043693118
193	0xbd8d6773	-0.06904497
194	0x3d4bd286	0.049761318
195	0xbe23ce8b	-0.15996759
196	0x3d12cd6a	0.03584043
197	0xbe67bc5d	-0.22630449
198	0x3ce1f3d1	0.027582081
199	0xbda254b3	-0.07926311
200	0xbd7c63b6	-0.06161853
201	0xbddd70b5	-0.10812513
202	0xbdad1e3a	-0.08453031
203	0x3c402e76	0.011729827
204	0x3d69459a	0.056951143
205	0xbc7f66b3	-0.01558845
206	0x3dd06ddb	0.10177203
207	0xbd8ef6ea	-0.06980689
208	0xbc83f5d8	-0.016108438
209	0x3d9b7639	0.075909086
210	0x3dad873a	0.08473058
211	0xbc7b6ca5	-0.015345727
212	0x3e14da44	0.14536387
213	0xbe0a5844	-0.13510233
214	0x3d472227	0.048616555
215	0xbcf15665	-0.029460141
216	0xbd17fef9	-0.037108395
217	0xbc558063	-0.013031098
218	0xbdad6cb9	-0.08468003
219	0xbda3c501	-0.0799656
220	0x3d26532d	0.040606666
221	0xbbbb5057	-0.0057163644
222	0x3d50e3aa	0.050998367
223	0xbcb47c54	-0.02203194
224	0x3ca92698	0.020648286
225	0x3dbe4ee8	0.09292394
226	0x3d085b83	0.033290397
227	0xbc499dfe	-0.012305735
228	0xbc829755	-0.015941301
229	0x3d8c1d8e	0.068415746
230	0xbd2a13e6	-0.041522883
231	0x3c750039	0.014953666
232	0xbe408b11	-0.1880305
233	0xbd882b5d	-0.06648896
234	0x3d9d41bf	0.07678556
235	0x3c23519b	0.009968187
236	0x3e250440	0.16114902
237	0xbdd97c0b	-0.106193624
238	0x3dae0b83	0.084982894
239	0x3d4e8703	0.050421726
240	0x3dafb5aa	0.085795715
241	0x3ded37dd	0.11582921
242	0x3d3d0c24	0.046154156
243	0x3aac0909	0.0013125251
244	0x3e0c00b7	0.13672148
245	0xbdbcc88c	-0.09217939
246	0xbdf51fee	-0.11968981
247	0xbbf593e0	-0.0074944347
248	0xbd91526d	-0.070957996
249	0xbda4016a	-0.08008082
250	0xbe491090	-0.19635224
251	0xba9f5ab9	-0.0012157775
252	0x3d07fde0	0.0332011
253	0xbe034413	-0.12818937
254	0x3c5ccd12	0.013476627
255	0xbdac0a7e	-0.08400439

network_body._body_endoder.seq_layers.2.bias f4 [128]
0	0x3abf3a79	0.001458957
1	0xbabdd0da	-0.0014481798
2	0xbc69d915	-0.014272948
3	0xbb393c3b	-0.002826466
4	0x3c243034	0.010021258
5	0xbc0ea4c2	-0.0087062735
6	0xbb8e8049	-0.004348789
7	0x3b8ec4c1	0.004356951
8	0xbbdee6fb	-0.0068024374
9	0x3c4be770	0.012445316
10	0xbb3bcbd0	-0.0028655417
11	0x3b65ff93	0.003509496
12	0x3c19b07b	0.009380455
13	0xbc11d0be	-0.008899866
14	0xba828141	-0.0009956734
15	0x3c87ee6d	0.016593182
16	0xbb5013e3	-0.0031750135
17	0x3b5aee79	0.00334063
18	0xbc8f872e	-0.017520513
19	0x3bacd8c1	0.0052748625
20	0xbc9acc4e	-0.018896248
21	0xbc888052	-0.01666275
22	0xbbb775bb	-0.0055987514
23	0x3c0d9a4c	0.008642744
24	0x3c8f2b11	0.01747659
25	0x3b919402	0.0044426927
26	0xbb93fa77	-0.0045159417
27	0x3a4496ec	0.0007499296
28	0xbc314c16	-0.010821363
29	0x3c0a71b9	0.008449965
30	0x3b4f833a	0.003166391
31	0x3b95dbf4	0.0045733396
32	0xbb2ecb36	-0.0026671416
33	0x3b9a38a2	0.004706458
34	0xbc897d51	-0.016783388
35	0xb9f9b300	-0.00047626346
36	0x3ba735ed	0.005102864
37	0x3b163060	0.0022917017
38	0x3bea1f52	0.007144847
39	0xbb93a59f	-0.0045058276
40	0x3a9659c7	0.0011470848
41	0x3b232305	0.00248927
42	0xb9813071	-0.0002464089
43	0x3c62320b	0.0138058765
44	0xbcf457af	-0.029826967
45	0xbbc22db7	-0.00592586
46	0xbb4005d4	-0.0029300349
47	0x3b43a422	0.002985247
48	0x3c2acf06	0.010425335
49	0x3c5af7fd	0.013364789
50	0xbc215215	-0.00984623
51	0x3abf9880	0.0014617592
52	0xbc4c6530	-0.012475297
53	0xbc6bb936	-0.014387419
54	0x3c150c3a	0.009097153
55	0xbb3f4cbe	-0.002919003
56	0x3b762e93	0.0037564381
57	0xbb014cdd	-0.0019729652
58	0x39fc690b	0.0004814345
59	0xbb6e70f8	-0.0036383253
60	0xbc943d2e	-0.018095579
61	0x3804f9b1	3.1703796e-05
62	0x3cbee807	0.023303999
63	0x3c3f84c0	0.011689365
64	0x3b8aa9b3	0.0042316555
65	0xbc9470c0	-0.01812017
66	0x3ab0673f	0.0013458504
67	0x3b3c7da4	0.002876141
68	0x3beed5cc	0.00728867
69	0x3c171683	0.009221676
70	0x3be31baf	0.0069307904
71	0xbc15ef22	-0.009151252
72	0xbb695595	-0.003560399
73	0x3c682d03	0.014170888
74	0x3c603560	0.013684601
75	0xbc8c64bb	-0.017137876
76	0xbb98c4af	-0.0046621184
77	0x3bfa4f20	0.007638827
78	0x3b367301	0.0027839544
79	0x3b2e342e	0.0026581394
80	0xbae49e46	-0.0017442189
81	0x3b04fd1a	0.0020292462
82	0xbb317929	-0.0027080274
83	0xbb2299ff	-0.0024811027
84	0x3c021936	0.007940581
85	0x3bb4f55f	0.0055224146
86	0x3a643839	0.00087058876
87	0xbb334964	-0.0027356977
88	0x3ab4d82e	0.0013797337
89	0xbb1d23c8	-0.0023977626
90	0x3aad5a98	0.0013225852
91	0x3b38c927	0.0028196068
92	0x3bbd57fd	0.0057783113
93	0xbb169c0c	-0.0022981195
94	0xbb8d8aad	-0.00431951
95	0xbcbaf157	-0.022820158
96	0xbb662aa4	-0.003512063
97	0xbc13e54e	-0.0090268385
98	0x3c8d811b	0.017273476
99	0xbc0343c7	-0.008011765
100	0x3bd4cce8	0.0064941533
101	0x39936939	0.00028116422
102	0xbc99faab	-0.018796286
103	0x3b064398	0.0020487066
104	0x3c2c18d0	0.010503963
105	0x3b418894	0.002953087
106	0x3aea726c	0.0017886884
107	0xbaeb2274	-0.0017939345
108	0xbc342ba3	-0.010996732
109	0xbb212e74	-0.0024594339
110	0x3be212b3	0.006899202
111	0xbadd0d9b	-0.0016865017
112	0xbc21cb48	-0.009875126
113	0xbb943214	-0.0045225713
114	0xbb178129	-0.0023117757
115	0x3b5aa9f3	0.0033365458
116	0xbc2db71e	-0.010602741
117	0x3b501ac4	0.0031754235
118	0xbb5420ac	-0.0032368107
119	0x3c737924	0.014860425
120	0x3beaf11b	0.0071698553
121	0xbc1e2e67	-0.009654618
122	0xba8ed047	-0.0010895812
123	0xbafedb91	-0.0019444098
124	0x396ae0ef	0.00022399773
125	0xbbd98e2b	-0.006639262
126	0x3a19336c	0.0005844149
127	0x3abf83d3	0.001461143

action_model._continuous_distribution.log_sigma f4 [1, 2]
0	0xbc38b103	-0.011272672
1	0xbc0eab24	-0.008707795

action_model._continuous_distribution.mu.weight f4 [2, 128]
0	0xbca86fc7	-0.020561112
1	0x3ccd7c50	0.02508369
2	0xbbc07817	-0.005873691
3	0xbb619916	-0.0034423522
4	0xbd038816	-0.032112204
5	0x3b9335b0	0.004492484
6	0x3b332593	0.0027335628
7	0x3c6296d4	0.013829906
8	0xbc8299f6	-0.015942555
9	0x3cc23773	0.02370808
10	0x3c47310c	0.01215769
11	0xbd87aa83	-0.066243194
12	0x3cf6a1e1	0.030106487
13	0xbad29634	-0.0016066493
14	0x3ce590cd	0.028023148
15	0x3d5ec9e7	0.054391768
16	0x3a87d0c4	0.00103619
17	0xbc8129cb	-0.015766999
18	0xbc67e9b0	-0.014154837
19	0xbd2d115c	-0.042252883
20	0x3c49efa6	0.012325203
21	0x3ccd4c1c	0.025060706
22	0xbbcfaf4f	-0.006338037
23	0xbdbd34f0	-0.09238613
24	0x3d441474	0.047871068
25	0xbcf72b54	-0.030172028
26	0xbcacf523	-0.021112984
27	0x3c5c3716	0.013440868
28	0xbc5e4423	-0.01356605
29	0xbd6b63bc	-0.05746816
30	0xbc70f35d	-0.01470646
31	0xbc95f9f2	-0.01830766
32	0xbc694855	-0.014238437
33	0xbd1a2d8d	-0.037641097
34	0xbca07e17	-0.019591374
35	0x3d0addcc	0.03390293
36	0x3cea6571	0.028612824
37	0xbd05414c	-0.032532975
38	0xbd564ad7	-0.052317467
39	0x3ca86e94	0.02056054
40	0xbc46834f	-0.012116267
41	0x3ce0cda6	0.02744181
42	0x3c96ba67	0.01839943
43	0xbd29966a	-0.04140321
44	0xbb3c63ea	-0.0028746077
45	0xba6778cf	-0.00088299526
46	0x3b8ce72b	0.0043000183
47	0x3ca290dc	0.019844465
48	0x3c5515ae	0.013005657
49	0x3d4f6a38	0.050638407
50	0xbc9579b8	-0.018246517
51	0xbbb7bea7	-0.0056074443
52	0xbbb3d43e	-0.0054879477
53	0xbc831700	-0.016002178
54	0xbd38d197	-0.045121755
55	0xbd02d1aa	-0.031938232
56	0xbcb3491e	-0.02188545
57	0x3d0be9ea	0.034158625
58	0x3c870f8a	0.016486902
59	0xbb43392f	-0.0029788723
60	0xbb9762c2	-0.004619927
61	0x3d17a61d	0.037023652
62	0x3cf37d37	0.029722793
63	0x3cc37321	0.023858609
64	0xbcf40bb8	-0.029790744
65	0xbd091890	-0.03347069
66	0xbc5067c3	-0.012720051
67	0x3cdb5b67	0.026776982
68	0x3cd19000	0.02558136
69	0x3d5bec9a	0.053692438
70	0x3c58bac8	0.013228126
71	0xbc91a453	-0.017778551
72	0x3af53ca6	0.0018710091
73	0xbce30400	-0.027711868
74	0x3d632839	0.05545828
75	0x3a2acfd8	0.00065159565
76	0x3c2dc522	0.010606082
77	0xbd3aaa6b	-0.04557268
78	0xbca5f115	-0.020256558
79	0xbcc4307c	-0.0239489
80	0xbccfc41e	-0.02536207
81	0xbc048d06	-0.008090263
82	0xbcbdcbc9	-0.023168461
83	0x3cabfc60	0.020994365
84	0xbd55f7f4	-0.05223842
85	0xbc92e951	-0.01793352
86	0xbc60251c	-0.013680723
87	0x3b059281	0.0020381513
88	0x3ca5dc05	0.020246515
89	0x3cf7842c	0.030214392
90	0x3c7cd732	0.015432166
91	0x3cea74ce	0.02862015
92	0xbd0b30c0	-0.03398204
93	0x3c1ea8d4	0.009683806
94	0x3cf385d2	0.029726896
95	0xbd2c24ec	-0.0420274
96	0x3b7e3c8c	0.0038793413
97	0xbc894370	-0.01675579
98	0x3c91aee1	0.017783584
99	0xbcb89b14	-0.022534885
100	0x3be26b09	0.0069097322
101	0xbcd4d752	-0.025981579
102	0xbbf8d9ba	-0.0075943144
103	0xbc5ca3e9	-0.013466814
104	0x3cdc2856	0.026874702
105	0xbc8066a6	-0.015673947
106	0x3cdb0dc6	0.026739966
107	0xbc8be93c	-0.017078988
108	0xbbc8d85b	-0.006129307
109	0xbd0935eb	-0.033498686
110	0x3c8a8c4c	0.016912602
111	0xba9af1e6	-0.0011821359
112	0xbbdbcc60	-0.006707713
113	0x3c210598	0.009827994
114	0xbc71269a	-0.014718676
115	0x3c8d8a59	0.017277883
116	0xbb660ca5	-0.0035102752
117	0xbc93510d	-0.017982984
118	0x3c628fd8	0.01382824
119	0x3c92b565	0.017908761
120	0x3cae7d75	0.021300057
121	0xbae06d85	-0.0017122483
122	0xbd0fc43e	-0.03509926
123	0x3ba4bf8b	0.0050277165
124	0xbab14fc7	-0.0013527804
125	0xbc431687	-0.011907226
126	0x3cb1af7a	0.021690119
127	0x3d2af4cc	0.041737363
128	0xbc2b39ca	-0.01045079
129	0x3b0321bd	0.0020009123
130	0x3c8726e3	0.016498035
131	0x3c62cdab	0.01384298
132	0x3c17048b	0.009217392
133	0xba00b416	-0.00049096474
134	0x3be978c6	0.007124993
135	0xbc0ac7eb	-0.008470516
136	0xbceef99a	-0.029171754
137	0x3c1694b3	0.009190726
138	0x3cc0cffa	0.023536671
139	0x3c6ffc25	0.014647518
140	0xba264800	-0.00063431263
141	0xb8bee03c	-9.101673e-05
142	0xbbddbb88	-0.00676674
143	0xbc24d8ac	-0.010061424
144	0x3c2293d4	0.00992294
145	0xbcd3b884	-0.02584482
146	0xba875ee6	-0.0010327965
147	0xbb621b31	-0.003450107
148	0xbcd5dbdc	-0.026105814
149	0xbc8973b4	-0.016778804
150	0xbb375825	-0.0027976122
151	0x3af954da	0.001902248
152	0xbbd251b5	-0.0064184316
153	0x3c65fb4d	0.014036966
154	0x3d187364	0.03721942
155	0xbc7d2b2e	-0.015452189
156	0xba96dbae	-0.0011509561
157	0xbbc29fe1	-0.005939469
158	0xbce0d491	-0.02744511
159	0xbd222f2c	-0.039595768
160	0x3c805a14	0.015667953
161	0x3b509237	0.0031825432
162	0xbc56e240	-0.013115466
163	0x3c56cc82	0.013110282
164	0xbb7ee357	-0.003889283
165	0xbc8b19fd	-0.016980166
166	0x3cd14262	0.02554435
167	0x3d3b45a1	0.0457207
168	0x3ca84425	0.020540306
169	0xbcba7ce7	-0.022764636
170	0xbc2a31fc	-0.010387894
171	0x3c5bbbf7	0.0134115135
172	0x3c321cc8	0.01087112
173	0xbc5334f3	-0.012891042
174	0x3bfff43d	0.007811098
175	0xbc886dd5	-0.016653934
176	0xbbce89b2	-0.0063030357
177	0xbd1f92bb	-0.038958292
178	0x3b4a4420	0.003086336
179	0xbc239c9f	-0.009986072
180	0xbc466236	-0.012108376
181	0xbc4eb944	-0.012617413
182	0x3c8fffc1	0.017578008
183	0x3c649f1a	0.013953948
184	0xbcb59a21	-0.022168221
185	0x3d038923	0.032113206
186	0x3b9fac68	0.0048728473
187	0x3c15b46c	0.009137254
188	0x3b948fd9	0.0045337495
189	0x3c9346ce	0.017978098
190	0xbce94783	-0.028476482
191	0xbd5501d6	-0.052003704
192	0x3afec45e	0.0019437184
193	0x3c84e9a6	0.016224694
194	0xbb15a56b	-0.0022834192
195	0xbc87064d	-0.016482497
196	0xbc34174d	-0.010991883
197	0xbd35a778	-0.044349164
198	0xbd0e4758	-0.034736007
199	0x3c1e314b	0.009655307
200	0x3cad0669	0.02112122
201	0x3c67e487	0.014153606
202	0xbbc76e59	-0.0060861525
203	0x3bb73c99	0.0055919406
204	0xbcac2c33	-0.02101717
205	0xbbcecade	-0.0063108047
206	0xbb4e4ed8	-0.00314801
207	0xbcb65126	-0.022255491
208	0x3b9cb5aa	0.004782398
209	0xbc2522f8	-0.010079138
210	0x3bc7e2eb	0.006100049
211	0x3c7d3601	0.01545477
212	0x3cdb4126	0.026764464
213	0xbd2fed9d	-0.042951215
214	0x3bd538df	0.0065070237
215	0x3cb5edb3	0.02220807
216	0xbbe0bcd3	-0.006858447
217	0x3b9dd70e	0.0048168963
218	0x3c44d440	0.012013495
219	0xbc07a69c	-0.008279469
220	0x3cdd702e	0.02703103
221	0x3cad3388	0.021142736
222	0x3c759266	0.014988517
223	0xbc8e7fae	-0.017394867
224	0x3c22d277	0.009937874
225	0xbcc5e6ae	-0.024157848
226	0xbd8482d6	-0.064702675
227	0x3cb0ef14	0.021598376
228	0xbc9a0b07	-0.018804086
229	0x3c584245	0.013199394
230	0x3c0bf40a	0.00854207
231	0xb94aa780	-0.0001932662
232	0xbd0299a8	-0.03188482
233	0xbcd37dce	-0.025816824
234	0xbd125310	-0.035723746
235	0x3c41781d	0.011808422
236	0x3abe67e7	0.0014526815
237	0x3cef8ed0	0.029242903
238	0xbbe8d861	-0.0071058725
239	0x3d24dff7	0.040252652
240	0x3b8a291d	0.004216327
241	0x3d04b096	0.032394968
242	0xbcb950aa	-0.022621471
243	0xbc832d1e	-0.016012724
244	0xbc1ef660	-0.009702295
245	0xbc9369bd	-0.017994756
246	0x3c06c7ee	0.008226378
247	0xbca1368f	-0.019679336
248	0x3a8dd9af	0.0010822321
249	0x3d495038	0.04914877
250	0xbbb31387	-0.0054649743
251	0x3c3f05bf	0.011659085
252	0xbaeb98a8	-0.0017974572
253	0xbb5aa596	-0.0033362857
254	0xbbd36bc6	-0.0064520566
255	0x3c9736c9	0.01845874

action_model._continuous_distribution.mu.bias f4 [2]
0	0x3a408105	0.0007343444
1	0xbb4dcddd	-0.0031403222

exp_avg f4 [128, 6]
0	0xb5de5088	-1.6563727e-06
1	0x00000000	0.0
2	0x36ba8a6b	5.559346e-06
3	0x00000000	0.0
4	0xb61edee0	-2.3673565e-06
5	0xb69edee0	-4.734713e-06
6	0xb777a6c0	-1.4761172e-05
7	0x00000000	0.0
8	0xb8ac987f	-8.230004e-05
9	0x00000000	0.0
10	0xb7fa9be4	-2.9874915e-05
11	0xb87a9be4	-5.974983e-05
12	0x3440ae40	1.7944785e-07
13	0x00000000	0.0
14	0x3644820d	2.9281975e-06
15	0x00000000	0.0
16	0x36737708	3.6279107e-06
17	0x36f37708	7.2558214e-06
18	0x371da072	9.395286e-06
19	0x00000000	0.0
20	0xb7dbd88d	-2.6207674e-05
21	0x00000000	0.0
22	0x3819367c	3.6528785e-05
23	0x3899367c	7.305757e-05
24	0xb43be600	-1.7499406e-07
25	0x00000000	0.0
26	0x37ca747f	2.4134524e-05
27	0x00000000	0.0
28	0xb744b21a	-1.1723978e-05
29	0xb7c4b21a	-2.3447956e-05
30	0xb69845b8	-4.5380693e-06
31	0x00000000	0.0
32	0x3688f75c	4.0819123e-06
33	0x00000000	0.0
34	0xb634bdf8	-2.6932667e-06
35	0xb6b4bdf8	-5.3865333e-06
36	0x36495f82	3.0006927e-06
37	0x00000000	0.0
38	0x376dce43	1.4174325e-05
39	0x00000000	0.0
40	0xb6293bd0	-2.5217778e-06
41	0xb6a93bd0	-5.0435556e-06
42	0xb673b7e0	-3.631685e-06
43	0x00000000	0.0
44	0x37b7c7da	2.1908363e-05
45	0x00000000	0.0
46	0x36de43f8	6.624028e-06
47	0x375e43f8	1.3248056e-05
48	0xb6a29634	-4.845462e-06
49	0x00000000	0.0
50	0xb6655002	-3.417023e-06
51	0x00000000	0.0
52	0xb7423bb8	-1.1577205e-05
53	0xb7c23bb8	-2.315441e-05
54	0x34987e0e	2.8403923e-07
55	0x00000000	0.0
56	0x33b48461	8.405983e-08
57	0x00000000	0.0
58	0x34b4927a	3.3634188e-07
59	0x3534927a	6.7268377e-07
60	0x36143a1e	2.2087547e-06
61	0x00000000	0.0
62	0x3572dfd6	9.047775e-07
63	0x00000000	0.0
64	0x3624abf9	2.4538006e-06
65	0x36a4abf9	4.907601e-06
66	0x339c6ec0	7.2844614e-08
67	0x00000000	0.0
68	0x36fe278d	7.574394e-06
69	0x00000000	0.0
70	0xb578e2f8	-9.271748e-07
71	0xb5f8e2f8	-1.8543496e-06
72	0x35072260	5.034144e-07
73	0x00000000	0.0
74	0xb6404af4	-2.8653858e-06
75	0x00000000	0.0
76	0x3733a76e	1.0708214e-05
77	0x37b3a76e	2.1416428e-05
78	0xb6f33a74	-7.248769e-06
79	0x00000000	0.0
80	0xb7ac96a5	-2.0574147e-05
81	0x00000000	0.0
82	0xb72101f7	-9.596805e-06
83	0xb7a101f7	-1.919361e-05
84	0xb857d949	-5.1462357e-05
85	0x00000000	0.0
86	0xb7ea970d	-2.7965312e-05
87	0x00000000	0.0
88	0xb8a15544	-7.69296e-05
89	0xb9215544	-0.0001538592
90	0x37054ab4	7.944811e-06
91	0x00000000	0.0
92	0xb5b6bcd0	-1.3615008e-06
93	0x00000000	0.0
94	0x37fc7b18	3.0098061e-05
95	0x387c7b18	6.0196122e-05
96	0x3755a713	1.2734689e-05
97	0x00000000	0.0
98	0x37836321	1.5662577e-05
99	0x00000000	0.0
100	0x372ea069	1.0408557e-05
101	0x37aea069	2.0817113e-05
102	0xb798d728	-1.8220002e-05
103	0x00000000	0.0
104	0xb892681c	-6.9812144e-05
105	0x00000000	0.0
106	0xb8340e14	-4.2928456e-05
107	0xb8b40e14	-8.585691e-05
108	0x34dba660	4.0912983e-07
109	0x00000000	0.0
110	0x329b7b40	1.8100422e-08
111	0x00000000	0.0
112	0xb48c7f80	-2.61698e-07
113	0xb50c7f80	-5.23396e-07
114	0xb5456b80	-7.354465e-07
115	0x00000000	0.0
116	0xb856c8fe	-5.1208764e-05
117	0x00000000	0.0
118	0x37bc2948	2.243057e-05
119	0x383c2948	4.486114e-05
120	0x37c07538	2.2942768e-05
121	0x00000000	0.0
122	0x389d1044	7.489373e-05
123	0x00000000	0.0
124	0x389a5ef4	7.3609786e-05
125	0x391a5ef4	0.00014721957
126	0x37129d36	8.738882e-06
127	0x00000000	0.0
128	0x37c2a2fc	2.3202498e-05
129	0x00000000	0.0
130	0x36a3278e	4.8623833e-06
131	0x3723278e	9.724767e-06
132	0xb735f540	-1.0845542e-05
133	0x00000000	0.0
134	0xb767f054	-1.3824629e-05
135	0x00000000	0.0
136	0xb857726a	-5.136655e-05
137	0xb8d7726a	-0.0001027331
138	0x34792500	2.3203393e-07
139	0x00000000	0.0
140	0x369e3364	4.7147496e-06
141	0x00000000	0.0
142	0xb5a06cd0	-1.1952598e-06
143	0xb6206cd0	-2.3905195e-06
144	0xb6931ef0	-4.384543e-06
145	0x00000000	0.0
146	0xb81613c0	-3.578118e-05
147	0x00000000	0.0
148	0xb6dbb2e8	-6.547536e-06
149	0xb75bb2e8	-1.3095072e-05
150	0xb7d39d49	-2.5226402e-05
151	0x00000000	0.0
152	0xb78e469f	-1.6960605e-05
153	0x00000000	0.0
154	0xb81c5902	-3.7276193e-05
155	0xb89c5902	-7.455239e-05
156	0xb6eb3c06	-7.0105334e-06
157	0x00000000	0.0
158	0xb69a4466	-4.5975203e-06
159	0x00000000	0.0
160	0xb72bd295	-1.0241424e-05
161	0xb7abd295	-2.0482848e-05
162	0x37cea2c6	2.4632911e-05
163	0x00000000	0.0
164	0x389e4f68	7.548818e-05
165	0x00000000	0.0
166	0x37f3d1dc	2.906558e-05
167	0x3873d1dc	5.813116e-05
168	0xb7d346c6	-2.5186117e-05
169	0x00000000	0.0
170	0xb7fa9f70	-2.9876566e-05
171	0x00000000	0.0
172	0xb84462ac	-4.6821937e-05
173	0xb8c462ac	-9.3643874e-05
174	0x36a17b14	4.812502e-06
175	0x00000000	0.0
176	0x3742367d	1.1575988e-05
177	0x00000000	0.0
178	0x3719ba41	9.162876e-06
179	0x3799ba41	1.8325753e-05
180	0xb5804360	-9.556352e-07
181	0x00000000	0.0
182	0x37fd974c	3.0230403e-05
183	0x00000000	0.0
184	0x370ffd28	8.582407e-06
185	0x378ffd28	1.7164813e-05
186	0xb7b47964	-2.1514199e-05
187	0x00000000	0.0
188	0xb8702b41	-5.7260742e-05
189	0x00000000	0.0
190	0xb8185296	-3.6316538e-05
191	0xb8985296	-7.2633076e-05
192	0x37080248	8.106763e-06
193	0x00000000	0.0
194	0x379fa6ea	1.9032002e-05
195	0x00000000	0.0
196	0x372d9c9c	1.0348067e-05
197	0x37ad9c9c	2.0696134e-05
198	0x35fc06e0	1.8777464e-06
199	0x00000000	0.0
200	0x36ea05f4	6.9744365e-06
201	0x00000000	0.0
202	0x377806b0	1.4783509e-05
203	0x37f806b0	2.9567018e-05
204	0xb61914c0	-2.2810855e-06
205	0x00000000	0.0
206	0xb7f58608	-2.926869e-05
207	0x00000000	0.0
208	0xb74413e8	-1.1687145e-05
209	0xb7c413e8	-2.337429e-05
210	0x36c46200	5.852664e-06
211	0x00000000	0.0
212	0x37970030	1.800069e-05
213	0x00000000	0.0
214	0x37511cf2	1.246411e-05
215	0x37d11cf2	2.492822e-05
216	0x36b1a074	5.2936903e-06
217	0x00000000	0.0
218	0x3797bdb9	1.808895e-05
219	0x00000000	0.0
220	0x37127dac	8.731538e-06
221	0x37927dac	1.7463077e-05
222	0xb8257540	-3.9448263e-05
223	0x00000000	0.0
224	0xb85afe74	-5.221223e-05
225	0x00000000	0.0
226	0xb8838272	-6.270864e-05
227	0xb9038272	-0.00012541728
228	0x37408463	1.14749155e-05
229	0x00000000	0.0
230	0x382251d3	3.8700015e-05
231	0x00000000	0.0
232	0x3619c2d0	2.2912172e-06
233	0x3699c2d0	4.5824345e-06
234	0xb56687d6	-8.5879344e-07
235	0x00000000	0.0
236	0x3663545a	3.3874735e-06
237	0x00000000	0.0
238	0xb60eaf85	-2.1261815e-06
239	0xb68eaf85	-4.252363e-06
240	0x37038b4c	7.840641e-06
241	0x00000000	0.0
242	0x38246bed	3.920116e-05
243	0x00000000	0.0
244	0x37912058	1.7300408e-05
245	0x38112058	3.4600816e-05
246	0x3706c86c	8.033687e-06
247	0x00000000	0.0
248	0x37155ddc	8.902945e-06
249	0x00000000	0.0
250	0xb732a94c	-1.0649044e-05
251	0xb7b2a94c	-2.1298089e-05
252	0xb7f931e4	-2.9706345e-05
253	0x00000000	0.0
254	0xb75d0fb4	-1.3176283e-05
255	0x00000000	0.0

exp_avg_sq f4 [128, 6]
0	0x3133fbdd	2.6191096e-09
1	0x00000000	0.0
2	0x3110a3a9	2.1047788e-09
3	0x00000000	0.0
4	0x30da59e6	1.5887138e-09
5	0x31da59e6	6.3548553e-09
6	0x349cb3d1	2.9188098e-07
7	0x00000000	0.0
8	0x34502e74	1.9388409e-07
9	0x00000000	0.0
10	0x342474ac	1.5316135e-07
11	0x352474ac	6.126454e-07
12	0x3071499a	8.7779883e-10
13	0x00000000	0.0
14	0x2f943001	2.6955152e-10
15	0x00000000	0.0
16	0x3020b3b5	5.846304e-10
17	0x3120b3b5	2.3385216e-09
18	0x318c842e	4.0895634e-09
19	0x00000000	0.0
20	0x318f65a1	4.1734016e-09
21	0x00000000	0.0
22	0x31aeb28a	5.084364e-09
23	0x32aeb28a	2.0337456e-08
24	0x32b38562	2.0898998e-08
25	0x00000000	0.0
26	0x31697422	3.3971976e-09
27	0x00000000	0.0
28	0x31605f5d	3.2650498e-09
29	0x32605f5d	1.3060199e-08
30	0x3223d8fe	9.537187e-09
31	0x00000000	0.0
32	0x30b86d1c	1.3418773e-09
33	0x00000000	0.0
34	0x30b76d2a	1.3346029e-09
35	0x31b76d2a	5.3384115e-09
36	0x325a0353	1.2690026e-08
37	0x00000000	0.0
38	0x32590ce0	1.263399e-08
39	0x00000000	0.0
40	0x3149c8d5	2.936351e-09
41	0x3249c8d5	1.1745404e-08
42	0x339f697b	7.423201e-08
43	0x00000000	0.0
44	0x3311298a	3.3798223e-08
45	0x00000000	0.0
46	0x32a8e294	1.966081e-08
47	0x33a8e294	7.864324e-08
48	0x344e6bbf	1.9224443e-07
49	0x00000000	0.0
50	0x346748bc	2.1540012e-07
51	0x00000000	0.0
52	0x331747a3	3.522258e-08
53	0x341747a3	1.4089032e-07
54	0x3010b71a	5.26471e-10
55	0x00000000	0.0
56	0x2fb83d9e	3.3513187e-10
57	0x00000000	0.0
58	0x2e9d6504	7.1574774e-11
59	0x2f9d6504	2.862991e-10
60	0x3071ea1c	8.800798e-10
61	0x00000000	0.0
62	0x309f2a2d	1.158076e-09
63	0x00000000	0.0
64	0x2f51f56d	1.9095632e-10
65	0x3051f56d	7.638253e-10
66	0x30215dc8	5.870473e-10
67	0x00000000	0.0
68	0x2fb91486	3.3665887e-10
69	0x00000000	0.0
70	0x3001234a	4.6980075e-10
71	0x3101234a	1.879203e-09
72	0x338ef19d	6.6563395e-08
73	0x00000000	0.0
74	0x32d1968a	2.439926e-08
75	0x00000000	0.0
76	0x322f4b8d	1.0203519e-08
77	0x332f4b8d	4.0814076e-08
78	0x32ba0372	2.1654817e-08
79	0x00000000	0.0
80	0x32c7b771	2.3250069e-08
81	0x00000000	0.0
82	0x31ce3dac	6.0024004e-09
83	0x32ce3dac	2.4009601e-08
84	0x33f06278	1.1193782e-07
85	0x00000000	0.0
86	0x33ff4bae	1.1888129e-07
87	0x00000000	0.0
88	0x33520471	4.8898475e-08
89	0x34520471	1.955939e-07
90	0x32f04d16	2.7974732e-08
91	0x00000000	0.0
92	0x3244b38e	1.14495275e-08
93	0x00000000	0.0
94	0x323c9abf	1.0978225e-08
95	0x333c9abf	4.39129e-08
96	0x341932a4	1.4267658e-07
97	0x00000000	0.0
98	0x33ea1219	1.0899766e-07
99	0x00000000	0.0
100	0x32caed90	2.3623926e-08
101	0x33caed90	9.4495704e-08
102	0x342e5bcd	1.623841e-07
103	0x00000000	0.0
104	0x33cc98d5	9.52729e-08
105	0x00000000	0.0
106	0x33dc6844	1.0263514e-07
107	0x34dc6844	4.1054057e-07
108	0x2f80b84b	2.3414012e-10
109	0x00000000	0.0
110	0x2f6742fb	2.1033124e-10
111	0x00000000	0.0
112	0x2f0459a3	1.2037175e-10
113	0x300459a3	4.81487e-10
114	0x324f778f	1.207617e-08
115	0x00000000	0.0
116	0x32176770	8.812876e-09
117	0x00000000	0.0
118	0x324c982a	1.1908961e-08
119	0x334c982a	4.7635844e-08
120	0x34a690fe	3.1025405e-07
121	0x00000000	0.0
122	0x3408c43c	1.2737377e-07
123	0x00000000	0.0
124	0x34454dcf	1.8375361e-07
125	0x35454dcf	7.3501445e-07
126	0x326d5fef	1.3817028e-08
127	0x00000000	0.0
128	0x320529b8	7.751105e-09
129	0x00000000	0.0
130	0x3196aedc	4.3854538e-09
131	0x3296aedc	1.7541815e-08
132	0x34495a14	1.8752354e-07
133	0x00000000	0.0
134	0x340cd015	1.3114216e-07
135	0x00000000	0.0
136	0x3393add4	6.87684e-08
137	0x3493add4	2.750736e-07
138	0x34a7e4a8	3.1272543e-07
139	0x00000000	0.0
140	0x34e13674	4.1949136e-07
141	0x00000000	0.0
142	0x338fd503	6.697703e-08
143	0x348fd503	2.6790812e-07
144	0x32bcca0f	2.1977966e-08
145	0x00000000	0.0
146	0x329ba59b	1.8119684e-08
147	0x00000000	0.0
148	0x3289c3ff	1.6038028e-08
149	0x3389c3ff	6.415211e-08
150	0x33a7f0c7	7.8203406e-08
151	0x00000000	0.0
152	0x33e1dee1	1.05179204e-07
153	0x00000000	0.0
154	0x32c308f7	2.2705064e-08
155	0x33c308f7	9.082026e-08
156	0x3231dd0a	1.03530144e-08
157	0x00000000	0.0
158	0x328fce8a	1.6741314e-08
159	0x00000000	0.0
160	0x31468d51	2.8893121e-09
161	0x32468d51	1.15572485e-08
162	0x34341d7d	1.6774534e-07
163	0x00000000	0.0
164	0x3409cf9b	1.2834646e-07
165	0x00000000	0.0
166	0x33b3dc67	8.375428e-08
167	0x34b3dc67	3.3501712e-07
168	0x3402bc3e	1.2175676e-07
169	0x00000000	0.0
170	0x3415075c	1.3879384e-07
171	0x00000000	0.0
172	0x333f2dc5	4.451228e-08
173	0x343f2dc5	1.7804912e-07
174	0x32b2f06a	2.0831255e-08
175	0x00000000	0.0
176	0x32b5c4f0	2.116073e-08
177	0x00000000	0.0
178	0x31d3de91	6.166211e-09
179	0x32d3de91	2.4664844e-08
180	0x349038ad	2.6863327e-07
181	0x00000000	0.0
182	0x34554b9f	1.9864682e-07
183	0x00000000	0.0
184	0x338abf00	6.4608685e-08
185	0x348abf00	2.5843474e-07
186	0x334e4a13	4.8030483e-08
187	0x00000000	0.0
188	0x32b18a4e	2.0668406e-08
189	0x00000000	0.0
190	0x3335b503	4.2306976e-08
191	0x3435b503	1.692279e-07
192	0x3524d92f	6.1410805e-07
193	0x00000000	0.0
194	0x3524c206	6.13771e-07
195	0x00000000	0.0
196	0x3434eff6	1.6851104e-07
197	0x3534eff6	6.7404414e-07
198	0x323c0adf	1.0945512e-08
199	0x00000000	0.0
200	0x31dcf2c8	6.4304437e-09
201	0x00000000	0.0
202	0x31c7bf1a	5.813388e-09
203	0x32c7bf1a	2.3253552e-08
204	0x326c0212	1.3737479e-08
205	0x00000000	0.0
206	0x31b51388	5.2700138e-09
207	0x00000000	0.0
208	0x3269a84c	1.3600651e-08
209	0x3369a84c	5.4402605e-08
210	0x342045ec	1.4926599e-07
211	0x00000000	0.0
212	0x34228933	1.5137338e-07
213	0x00000000	0.0
214	0x33024d77	3.0338438e-08
215	0x34024d77	1.2135375e-07
216	0x32ab84cb	1.9967407e-08
217	0x00000000	0.0
218	0x32a4b027	1.9172218e-08
219	0x00000000	0.0
220	0x31f145ad	7.0219444e-09
221	0x32f145ad	2.8087777e-08
222	0x3433be69	1.6739945e-07
223	0x00000000	0.0
224	0x34342400	1.6776903e-07
225	0x00000000	0.0
226	0x339c8dd8	7.290117e-08
227	0x349c8dd8	2.916047e-07
228	0x339541e9	6.950342e-08
229	0x00000000	0.0
230	0x339a694d	7.190338e-08
231	0x00000000	0.0
232	0x32d0689a	2.4261954e-08
233	0x33d0689a	9.704782e-08
234	0x2f954831	2.7154237e-10
235	0x00000000	0.0
236	0x2f5be8d6	2.0000654e-10
237	0x00000000	0.0
238	0x2f005bb3	1.167411e-10
239	0x30005bb3	4.669644e-10
240	0x33308048	4.1094864e-08
241	0x00000000	0.0
242	0x329907d7	1.781511e-08
243	0x00000000	0.0
244	0x32f6379a	2.8663454e-08
245	0x33f6379a	1.14653815e-07
246	0x31a54d08	4.8108895e-09
247	0x00000000	0.0
248	0x30d6b661	1.5622384e-09
249	0x00000000	0.0
250	0x31a54423	4.8098783e-09
251	0x32a54423	1.9239513e-08
252	0x32ddc96f	2.5819388e-08
253	0x00000000	0.0
254	0x32e211df	2.631799e-08
255	0x00000000	0.0

exp_avg f4 [128]
0	0xb61edef0	-2.3673601e-06
1	0xb7fa9bd4	-2.9874886e-05
2	0x367376f8	3.627907e-06
3	0x3819367d	3.652879e-05
4	0xb744b20e	-1.1723967e-05
5	0xb634be24	-2.6932767e-06
6	0xb6293bca	-2.5217764e-06
7	0x36de4410	6.624039e-06
8	0xb7423ba8	-1.1577191e-05
9	0x34b4927a	3.3634188e-07
10	0x3624abf9	2.4538006e-06
11	0xb578e2c0	-9.2717164e-07
12	0x3733a76a	1.07082105e-05
13	0xb7210201	-9.596814e-06
14	0xb8a15546	-7.692962e-05
15	0x37fc7b0c	3.009804e-05
16	0x372ea063	1.0408551e-05
17	0xb8340e14	-4.2928456e-05
18	0xb48c7f80	-2.61698e-07
19	0x37bc2947	2.2430568e-05
20	0x389a5f02	7.360989e-05
21	0x36a32792	4.862385e-06
22	0xb8577272	-5.136658e-05
23	0xb5a06d30	-1.1952707e-06
24	0xb6dbb2f8	-6.5475433e-06
25	0xb81c58fe	-3.727618e-05
26	0xb72bd292	-1.02414215e-05
27	0x37f3d1cc	2.9065552e-05
28	0xb844629f	-4.682189e-05
29	0x3719ba3f	9.162874e-06
30	0x370ffd4c	8.5824395e-06
31	0xb8185298	-3.6316545e-05
32	0x372d9c78	1.0348034e-05
33	0x37780698	1.4783487e-05
34	0xb74413c8	-1.1687116e-05
35	0x37511ce8	1.2464101e-05
36	0x37127db6	8.7315475e-06
37	0xb8838272	-6.270864e-05
38	0x3619c30c	2.2912309e-06
39	0xb60eaf88	-2.1261822e-06
40	0x37912042	1.7300368e-05
41	0xb732a93c	-1.064903e-05
42	0xb831f860	-4.2431406e-05
43	0x374bf462	1.2156643e-05
44	0xb69dd892	-4.7041767e-06
45	0xb815c6e4	-3.57096e-05
46	0x367e636c	3.790682e-06
47	0xb7244102	-9.790298e-06
48	0xb70486c8	-7.899194e-06
49	0x370bbbe0	8.328789e-06
50	0x35219cdd	6.020544e-07
51	0xb7a11db4	-1.9206527e-05
52	0x383de054	4.5270033e-05
53	0x37c6c564	2.3695357e-05
54	0x373955ae	1.1046808e-05
55	0xb6095d2c	-2.0468824e-06
56	0xb783269e	-1.56344e-05
57	0x37ddc64e	2.6437596e-05
58	0xb854fa38	-5.0777773e-05
59	0xb77dade4	-1.5120462e-05
60	0xb80a40e2	-3.296219e-05
61	0xb67c4060	-3.7588397e-06
62	0xb816ce22	-3.5954763e-05
63	0x365a0845	3.2489345e-06
64	0xb6b36d4a	-5.3473386e-06
65	0x37bd7674	2.2585715e-05
66	0xb7af6ba9	-2.0911759e-05
67	0x3691a7b2	4.340859e-06
68	0xb80fa9a6	-3.4251854e-05
69	0xb6b5f14b	-5.4223106e-06
70	0xb621c55e	-2.4105752e-06
71	0x3856d252	5.1217452e-05
72	0x372614b8	9.899195e-06
73	0x369601a4	4.4705394e-06
74	0x382d0fc8	4.126111e-05
75	0x37a43e54	1.9579347e-05
76	0x36aee550	5.2122996e-06
77	0xb6d0d914	-6.2241543e-06
78	0x358c33c8	1.0445883e-06
79	0x36771014	3.6815227e-06
80	0xb726f08a	-9.950376e-06
81	0x366ed5b0	3.5589146e-06
82	0x37577f64	1.2844659e-05
83	0x33d56600	9.937139e-08
84	0xb5cd94a0	-1.5316946e-06
85	0x34ae0335	3.241236e-07
86	0xb69d41b8	-4.6866153e-06
87	0xb70d2908	-8.413808e-06
88	0xb67c4183	-3.758906e-06
89	0x36ff1394	7.6018714e-06
90	0xb6d6650e	-6.3894613e-06
91	0x36ed1169	7.065177e-06
92	0x3796aa54	1.7960709e-05
93	0x35dfafb4	1.6665931e-06
94	0xb481620a	-2.4099455e-07
95	0xb56aad40	-8.7423905e-07
96	0xb7fdad84	-3.024075e-05
97	0x38887e50	6.508513e-05
98	0xb8231a2c	-3.8886603e-05
99	0x376a8058	1.3977369e-05
100	0x3804258a	3.1506213e-05
101	0x37188a52	9.092111e-06
102	0xb48128e8	-2.4057886e-07
103	0x344337e8	1.8181129e-07
104	0xb890ec00	-6.9104135e-05
105	0xb82435c4	-3.915072e-05
106	0x360e912e	2.1244155e-06
107	0xb6def9d8	-6.645201e-06
108	0x336db0e0	5.534173e-08
109	0x37b98532	2.2115742e-05
110	0x35026b18	4.8584616e-07
111	0x37d955ea	2.5908423e-05
112	0x3758a2a0	1.2912467e-05
113	0x37d5e906	2.5500089e-05
114	0x3755c86e	1.27424555e-05
115	0x37c7e5a4	2.3829583e-05
116	0xb7520e5e	-1.25203205e-05
117	0x36a22546	4.8323154e-06
118	0x367d2c95	3.7725888e-06
119	0x38078450	3.2309734e-05
120	0x3823ef38	3.908502e-05
121	0xb7102d6a	-8.593643e-06
122	0x360bdbe8	2.0840616e-06
123	0x37032b15	7.818239e-06
124	0x3639f47e	2.7709461e-06
125	0xb4b48290	-3.362261e-07
126	0x3776a8ad	1.47020155e-05
127	0x370fc967	8.570357e-06

exp_avg_sq f4 [128]
0	0x30da59e8	1.588714e-09
1	0x342474ab	1.5316134e-07
2	0x3020b3b4	5.8463034e-10
3	0x31aeb288	5.084363e-09
4	0x31605f5b	3.2650493e-09
5	0x30b76d2a	1.3346029e-09
6	0x3149c8d4	2.9363507e-09
7	0x32a8e296	1.9660813e-08
8	0x331747a4	3.5222584e-08
9	0x2e9d6504	7.1574774e-11
10	0x2f51f56b	1.9095629e-10
11	0x3001234a	4.6980075e-10
12	0x322f4b90	1.0203522e-08
13	0x31ce3dad	6.002401e-09
14	0x33520472	4.8898478e-08
15	0x323c9abe	1.09782246e-08
16	0x32caed91	2.3623928e-08
17	0x33dc6844	1.0263514e-07
18	0x2f0459a4	1.2037177e-10
19	0x324c9828	1.1908959e-08
20	0x34454dd0	1.8375363e-07
21	0x3196aeda	4.385453e-09
22	0x3393add5	6.876841e-08
23	0x338fd504	6.697704e-08
24	0x3289c400	1.603803e-08
25	0x32c308f1	2.2705054e-08
26	0x31468d53	2.8893126e-09
27	0x33b3dc65	8.3754266e-08
28	0x333f2dc4	4.4512277e-08
29	0x31d3de8f	6.16621e-09
30	0x338abeff	6.460868e-08
31	0x3335b502	4.2306972e-08
32	0x3434eff7	1.6851105e-07
33	0x31c7bf1a	5.813388e-09
34	0x3269a84c	1.3600651e-08
35	0x33024d74	3.0338427e-08
36	0x31f145ab	7.0219435e-09
37	0x339c8dd7	7.2901166e-08
38	0x32d0689a	2.4261954e-08
39	0x2f005bb5	1.1674113e-10
40	0x32f63797	2.8663449e-08
41	0x31a54424	4.8098787e-09
42	0x324e7dfc	1.2019424e-08
43	0x330314b8	3.0519658e-08
44	0x2f38ea4c	1.6817941e-10
45	0x333fd28e	4.466215e-08
46	0x33618640	5.2508994e-08
47	0x30bbdd38	1.3668915e-09
48	0x3391d397	6.7905766e-08
49	0x32a9b1b5	1.9755001e-08
50	0x2f7a8b60	2.2786883e-10
51	0x3281b0e3	1.5098015e-08
52	0x31bfa653	5.5777405e-09
53	0x32b69c97	2.1258797e-08
54	0x3014d167	5.4139665e-10
55	0x3014d739	5.4147936e-10
56	0x325ed1d8	1.2969814e-08
57	0x31aa8e55	4.9638325e-09
58	0x339c85d7	7.2886614e-08
59	0x3211dfe3	8.491017e-09
60	0x32e0d49b	2.6173714e-08
61	0x33020903	3.027618e-08
62	0x32f847a2	2.8903575e-08
63	0x33925afa	6.815203e-08
64	0x32b7ef6b	2.1412879e-08
65	0x32ac368f	2.0048246e-08
66	0x32119b74	8.475457e-09
67	0x30822c71	9.471376e-10
68	0x3312c5a4	3.4173027e-08
69	0x2f1dd790	1.435565e-10
70	0x32c6c188	2.3138242e-08
71	0x33fefc0b	1.1873643e-07
72	0x32fa0b17	2.9108874e-08
73	0x30e7ae80	1.6857058e-09
74	0x33718ae1	5.6238495e-08
75	0x330cfd6b	3.2826772e-08
76	0x307f0bec	9.27854e-10
77	0x3187dfed	3.9544745e-09
78	0x2dab01c2	1.944123e-11
79	0x311c9c1a	2.2789721e-09
80	0x3289800a	1.6007125e-08
81	0x3270fb90	1.4027037e-08
82	0x304660f0	7.2169737e-10
83	0x305fb824	8.1388607e-10
84	0x33098283	3.2016498e-08
85	0x2f4e3d3a	1.8757343e-10
86	0x3029c1a7	6.175704e-10
87	0x30a3be28	1.1913857e-09
88	0x31077a2e	1.9714537e-09
89	0x31316067	2.5811688e-09
90	0x325e1806	1.2927563e-08
91	0x331ab7f0	3.602321e-08
92	0x32f87461	2.8923923e-08
93	0x2de3ee78	2.5912814e-11
94	0x2dab9264	1.950546e-11
95	0x327cf8da	1.4724913e-08
96	0x32df0455	2.5962587e-08
97	0x3398275f	7.085213e-08
98	0x333f4566	4.453377e-08
99	0x31c9a0f9	5.8681704e-09
100	0x329c8c75	1.8224663e-08
101	0x311243cc	2.1284334e-09
102	0x3256379f	1.2469086e-08
103	0x2d8a3125	1.5710608e-11
104	0x340a2121	1.2864304e-07
105	0x3380b205	5.992846e-08
106	0x3285493e	1.5516544e-08
107	0x3339b3ac	4.323708e-08
108	0x2e216676	3.6698165e-11
109	0x33a641d9	7.741955e-08
110	0x2fb978ea	3.3737219e-10
111	0x331a87ed	3.5979543e-08
112	0x32e05dca	2.6119682e-08
113	0x32b936ca	2.156175e-08
114	0x314a6d1e	2.9456895e-09
115	0x32fae7f8	2.9209318e-08
116	0x3192cc44	4.2723816e-09
117	0x2f9af72c	2.8188063e-10
118	0x32b88eb1	2.1485308e-08
119	0x33ecb09e	1.1021733e-07
120	0x3353e3a4	4.9334304e-08
121	0x2ff82e76	4.514395e-10
122	0x31461f7d	2.8830691e-09
123	0x3372bd0f	5.6516964e-08
124	0x33818851	6.0318264e-08
125	0x2ebf5dd8	8.7023444e-11
126	0x32376c4a	1.0676624e-08
127	0x318cbc0e	4.0959156e-09
