results/ppo/MoveToGoal/MoveToGoal-11542.pt (torch, 441305 bytes, 36 tensors)

network_body._body_endoder.seq_layers.0.weight f4 [128, 6]
000000 5f cc d5 3d 26 ef 32 bf 77 53 e5 be 68 29 e2 3e
       0.10439371 -0.6989616 -0.4479024 0.44172215
000010 79 97 32 3f 28 68 8b 3e e1 fb 6b be 7b 79 d1 be
       0.6976238 0.27227902 -0.23045303 -0.40912995
000020 9c 42 8b 3d 60 ad c8 bd 30 5a 22 3e 2b 87 b5 be
       0.06799814 -0.09798694 0.15854716 -0.35454687
000030 ea 4e e9 3e 5a 2b 20 bf 47 2c f9 bc d6 3c 64 3e
       0.4556802 -0.6256615 -0.03041662 0.22288832
000040 ce 0d ba be 4c 25 de 3e 5c 45 33 bf 78 60 5a 3f
       -0.36338657 0.4338783 -0.7002771 0.8530345
000050 7c 4f f1 bd 75 48 a1 be ce 5b 0b be 44 74 3a 3e
       -0.117827386 -0.31500593 -0.1360924 0.18208414
000060 ce 90 05 bf 6b c7 fc 3e 1f 17 9b 3e a4 a9 9c 3d
       -0.5217408 0.49370894 0.30291077 0.07649544
000070 aa af 6a be c2 51 0d 3e 74 89 a5 be 5c 0d b5 3d
       -0.22918573 0.1380072 -0.3233143 0.08840439
000080 82 d9 e5 be 48 a2 ba 3e 41 e6 c5 bd c8 14 d9 be
       -0.44892508 0.36451936 -0.09663058 -0.42398667
000090 06 54 66 bf 15 ef df 3e 0b 1a 16 bd 98 e3 81 3e
       -0.8997196 0.43737093 -0.03664593 0.25368953
0000a0 0a 31 17 3e 61 9b 42 bf 66 bb de be e6 7e cd be
       0.147648 -0.7601834 -0.4350235 -0.40135878
0000b0 8f e7 34 3d 27 99 8a 3e f9 02 ee be ef 21 85 3c
       0.044166144 0.2706997 -0.46486643 0.016251532
0000c0 bd c1 08 3f e6 7d be 3e 82 e2 9f 3f 59 2e 45 bf
       0.5342062 0.37205428 1.2491 -0.77023846
0000d0 6a 44 33 bf 52 08 db be 8e c7 58 bf 04 ee 3b bf
       -0.70026267 -0.42779785 -0.84679496 -0.7341006
0000e0 db 33 89 3f 0f e7 a5 be b8 1d ac 3d 2a 49 66 bd
       1.071895 -0.32402846 0.08404106 -0.05622212
0000f0 d6 d0 c3 be e3 fa 29 bf 82 b2 79 3f 95 21 99 be
       -0.38245267 -0.6639845 0.97538006 -0.29908434
000100 78 44 70 be a0 de 44 3e be 1b b8 3e 1b 9b 46 3e
       -0.23463619 0.1922555 0.35958666 0.19395106
000110 e2 bd bf 3d 20 c7 36 be 8f af b9 be df 07 ac bd
       0.09362389 -0.17849398 -0.36266753 -0.08399939
000120 99 cc 62 3f 26 dc 1f 3f 29 6b de 3e 69 23 3a bd
       0.8859344 0.62445295 0.43441132 -0.045443926
000130 dd 2c 58 bf 8a 7b 1a 3e e6 96 93 3e 56 ff f1 3e
       -0.84443456 0.15086189 0.28826064 0.47265118
000140 dd e1 c5 3c 3d d9 93 3e 75 3b 92 3d 4a f3 e5 bd
       0.024155552 0.28876677 0.07140247 -0.11228044
000150 97 a1 7a 3e 30 ed c4 be e9 01 c8 be 7c 20 67 be
       0.24475704 -0.3846221 -0.39063957 -0.22570986
000160 e9 68 60 3e e1 cb f3 3e 87 7d e7 3d fd 40 3f bd
       0.2191502 0.47616485 0.11303239 -0.046692837
000170 8d 49 64 3e f5 fd 45 3f ed 32 a6 3e 05 7e e7 bd
       0.22293682 0.7734063 0.32460728 -0.11303333
000180 33 26 5a be e8 05 f9 be 29 1b 19 bd 1a 1e ad 3e
       -0.21303634 -0.4863732 -0.037379418 0.33812028
000190 2d 3e 21 bf ed 2d 0b be 04 35 e1 be f7 92 9c bd
       -0.629855 -0.13591738 -0.4398576 -0.07645219
0001a0 d1 66 b3 be e7 93 a5 3d 25 48 f3 3b 8d e2 66 3e
       -0.3503938 0.08084851 0.007424372 0.2254736
0001b0 89 71 05 3f f5 e3 10 3f 3f 1c 00 be 8f 8f f8 bd
       0.52126366 0.56597835 -0.12510775 -0.12136757
0001c0 a5 72 f3 be ce 49 e3 3d 01 c3 3e bf 14 90 38 3e
       -0.47548404 0.110980615 -0.745163 0.18023711
0001d0 62 3a 1e be 7f 71 8d bd 1d 9a 67 3e 81 f7 81 bd
       -0.15451959 -0.06906413 0.22617383 -0.06346036
0001e0 13 4e 23 3f 33 da 13 bf 60 23 4c 3e 5e 41 9d be
       0.63791007 -0.5775482 0.1993537 -0.30713934
0001f0 b0 3b ee 3d 86 e2 ec 3e 13 9e d0 be 16 3c b4 be
       0.11632478 0.46266574 -0.407456 -0.35202092
000200 f5 12 24 bf a2 6f be 3e 82 bb 15 3e 1b bc 06 bf
       -0.64091426 0.37194544 0.1462231 -0.52630776
000210 2f 50 04 bf 3c 63 0d 3d 5a 3e 07 3f 80 63 a4 be
       -0.5168485 0.034518465 0.52829516 -0.32107162
000220 6e 96 1f 3e d4 3f 02 bf dd 42 7e be 59 d2 2e bf
       0.15584728 -0.50878644 -0.24830194 -0.68289715
000230 10 04 45 bf 39 5e 16 3e 78 d5 ae 3d fb 5e ab be
       -0.76959324 0.1468438 0.0853681 -0.33470902
000240 78 7e 99 bc 75 11 0d be 92 02 26 bd e9 16 c4 3e
       -0.018737063 -0.1377619 -0.040529795 0.3829873
000250 b3 0e 5e be 92 06 c1 be 04 7c 23 bf 4b c2 04 bf
       -0.21685295 -0.37700325 -0.6386111 -0.5185897
000260 7b be 59 be 2f b7 94 be b0 1b 9b 3e 2b 54 36 3d
       -0.21264069 -0.29046008 0.3029456 0.044513863
000270 09 1a d9 3e a7 26 9c 3e da 0c d8 be d7 2d d3 bd
       0.42402676 0.3049824 -0.42197305 -0.10311478
000280 6e 52 1a 3e bb dc 65 3e f5 5e 6a 3f 37 b9 9c bb
       0.15070507 0.22447483 0.9155114 -0.0047828215
000290 79 4b 33 be f4 ae bf 3e 0d 19 3e 3e 7e 56 ba 3e
       -0.1750926 0.37438166 0.18564244 0.36394113
0002a0 0c b2 dc be b1 d9 15 be f5 a2 c5 be d6 cd 3b 3f
       -0.4310459 -0.14633824 -0.3860089 0.73360956
0002b0 4f 01 ef be 78 e5 12 bf 3d b8 1e 3f ac 73 f7 be
       -0.46680686 -0.5738139 0.61999875 -0.48330438
0002c0 a7 82 c4 be 2b d7 c8 3e ef a6 65 bb f6 49 25 3f
       -0.3838093 0.3922666 -0.0035042127 0.6456598
0002d0 13 d4 cd bd ae 92 9d 3d fb bc 69 bc 89 84 bc be
       -0.100502156 0.076939926 -0.014266248 -0.36819866
0002e0 c0 29 9c bd fc 07 8a bf 5b ce 5e bf bf f4 31 3f
       -0.07625151 -1.0783687 -0.87033623 0.6951408
0002f0 64 8a 96 3c 6d 36 3e bf ad 7b a2 bd ce e0 dc bd
       0.018376537 -0.743018 -0.079337455 -0.107850656
000300 f7 c9 18 bf 7b 01 eb bd 4d 0a 8e 3d 9f 65 c0 be
       -0.59683174 -0.11474892 0.069355585 -0.3757753
000310 0f 41 0a bf 9b bd 80 3e aa 82 82 3f 28 75 0b 3f
       -0.5400552 0.25144657 1.0196126 0.5447564
000320 96 7b 93 be aa a8 d4 bd 6f 12 2d bd 2f e8 b8 be
       -0.28805226 -0.103837326 -0.042253908 -0.36114642
000330 57 1f 9b be 8f eb 60 bf ab 8e ea 3e 78 47 74 be
       -0.30297348 -0.87859434 0.45811972 -0.23855388
000340 d9 b4 9a 3d 34 65 09 3f 8b e9 85 3f 70 3a d2 3b
       0.07554025 0.5367005 1.0461897 0.0064156577
000350 43 63 53 3f 98 65 27 bf 34 3d dd 3e 0a 10 99 be
       0.82573336 -0.65389395 0.43210757 -0.2989505
000360 4c a7 0d 3f 18 bb 0d bf 05 31 df be 3f ad ed 3b
       0.553334 -0.5536361 -0.43592086 0.0072533186
000370 9b 68 91 be 70 1a 01 3e 4b 81 8a 3e d0 86 92 3f
       -0.2840012 0.12607741 0.27051768 1.1447392
000380 d8 4a c3 bd f7 25 b2 3e 91 a1 85 3e 24 27 51 bf
       -0.0953576 0.3479459 0.26099828 -0.8170035
000390 9c 8a 24 bf c3 56 4e 3e 7d 48 85 3e 2d b2 14 be
       -0.64274 0.20150284 0.26031867 -0.14521094
0003a0 58 f8 9c be f3 1f d5 3e 21 46 8f be 14 e2 00 3e
       -0.3065822 0.41625938 -0.27983192 0.12586242
0003b0 49 20 9f be 4d 97 4f 3e 7f 7e 20 bd 92 82 ce 3d
       -0.3107932 0.2027256 -0.039183136 0.10083498
0003c0 47 06 cf 3e 25 52 33 be 33 15 e5 bd 70 3a c2 be
       0.40434477 -0.17511804 -0.11185684 -0.3793521
0003d0 6b aa cb 3e dc 5f c0 be ce f0 05 3d ab 6b ed bd
       0.39778456 -0.37573135 0.032700352 -0.11592802
0003e0 99 49 d7 be 53 d3 1c 3d 29 3c 1d 3e a0 92 03 bc
       -0.42048338 0.038287472 0.1535498 -0.008030564
0003f0 77 69 92 3e 3f 64 33 3e 0f 38 f7 3d b8 09 de bd
       0.28596088 0.1751871 0.12071239 -0.108416975

network_body._body_endoder.seq_layers.0.bias f4 [128]
000000 4d 3b 6f ba 86 21 0f 3b 75 89 67 bb bd ae a6 bb
       -0.0009125963 0.002184005 -0.0035329734 -0.0050867484
000010 0d b1 6d bb d0 f1 2c bb d5 e1 28 3a 7f 15 50 bb
       -0.003626886 -0.0026389249 0.0006442343 -0.0031751094
000020 ba a7 45 38 f1 94 db bb a0 69 13 3b 37 de 23 ba
       4.7124668e-05 -0.006701105 0.0022493377 -0.0006251069
000030 58 8c aa 3a 00 8a 61 bb 8a 12 b0 37 9f b3 9c 3a
       0.0013011796 -0.003441453 2.0989468e-05 0.0011955387
000040 d8 bc 8c 3b ac 4b c4 3a ea c2 31 ba b8 c4 11 bb
       0.004294973 0.0014976165 -0.00067810586 -0.0022242498
000050 51 fa da 3a ad cd 62 bb a8 9f e5 bb 35 75 ca b9
       0.001670668 -0.0034607456 -0.007007558 -0.00038615768
000060 9b 11 9e bb 43 c3 ed 3a 2d 90 e4 b9 95 84 83 bb
       -0.004823876 0.0018139858 -0.00043594968 -0.0040136077
000070 50 ab 92 39 9c ad 98 bb 81 41 62 bb ef 39 c5 3a
       0.00027974928 -0.0046593677 -0.0034523907 0.0015047173
000080 c5 fd 21 bb bf 4d 0a ba 04 05 88 bb 89 2d d6 b8
       -0.0024717909 -0.00052758673 -0.0041509885 -0.00010212797
000090 47 81 00 bb 1d a5 3c 3a ea 32 8e bb 39 6e 3f 3b
       -0.0019608305 0.00071962347 -0.0043395655 0.0029209985
0000a0 7a 89 e8 39 e7 7f d3 3a 07 73 8c bb 5b b8 4a 39
       0.00044352916 0.001613614 -0.0042861733 0.00019332899
0000b0 aa 27 7d bb 39 81 90 ba c7 ee b4 bb 26 76 52 3b
       -0.0038628378 -0.001102484 -0.0055216285 0.003211388
0000c0 7d 6b 49 3a a9 5b 3f bb 3f ea a1 bb 46 ab 87 bb
       0.00076835585 -0.002919892 -0.0049412544 -0.0041402904
0000d0 92 66 1b ba f1 6f db 3a 8a 47 6c 3b 2b 03 98 ba
       -0.0005928065 0.0016741735 0.0036053383 -0.0011597624
0000e0 42 7b 23 bb d5 ba 0b bb 64 ff 31 ba 76 ef ea 3a
       -0.0024945294 -0.0021321077 -0.00067900703 0.0017924148
0000f0 be 53 6c bb bc 81 f2 3a 78 7f c9 3a 81 99 10 3b
       -0.0036060656 0.0018501799 0.0015373072 0.0022064152
000100 fb b5 48 3b e1 26 86 ba a0 4e 79 bb 7a 60 5a bb
       0.0030626047 -0.0010234975 -0.003804125 -0.0033321665
000110 38 24 06 3b b6 f9 3c 3b 7d 81 da ba 0a 14 98 38
       0.0020468365 0.0028835363 -0.0016670671 7.2516574e-05
000120 f1 d8 03 3b 95 1b 32 3b e3 ae 15 3b 53 04 9a bb
       0.002011832 0.0027177085 0.0022839836 -0.0047002225
000130 04 e1 1a bb 75 e5 2f bb b2 b1 77 ba 5b ea e8 ba
       -0.0023632655 -0.0026839648 -0.0009448781 -0.0017770039
000140 4a 06 5c b9 1a 78 ee b9 be 6c 13 bb e3 6d 67 3b
       -0.00020983178 -0.0004548438 -0.0022495235 0.00353133
000150 15 20 83 bb 6c e8 6e bb ec 77 99 3b 2f cd 13 3b
       -0.004001627 -0.0036454452 0.0046834853 0.002255272
000160 74 20 98 3a f0 db 4a bb 46 ca f4 ba c3 95 33 3b
       0.0011606351 -0.0030953847 -0.0018676005 0.0027402497
000170 29 09 f4 ba 04 1b 44 3b 32 cd 4d bb dd dd 49 bb
       -0.0018618453 0.002992333 -0.0031402824 -0.0030802407
000180 46 1a 3a bb 6c b8 2e b9 17 c9 a5 ba 27 34 16 3a
       -0.0028397008 -0.00016662636 -0.001264843 0.0005729817
000190 00 93 4a ba dc 23 5b bb b5 6e e7 ba f4 36 71 3b
       -0.0007727593 -0.0033438122 -0.0017656895 0.0036806436
0001a0 ae 4d 3c 3a 74 60 ad 39 12 93 ab 3b a3 7a 6b bb
       0.0007183206 0.00033068995 0.005236038 -0.0035931251
0001b0 b0 59 20 bb 74 6d c9 3a 13 87 b1 3b f0 30 00 3b
       -0.002446752 0.0015367703 0.0054177134 0.001956042
0001c0 eb 9a 42 ba cf 8f 14 bb 37 1c 20 3b f1 5d 6f ba
       -0.0007423597 -0.0022668724 0.002443088 -0.0009131125
0001d0 b9 4e e2 b9 cd 2f f0 3a 9d 71 41 3b e4 b6 37 3b
       -0.00043164732 0.0018324793 0.0029517182 0.0028032595
0001e0 a6 5c 96 39 55 bb 55 3b 65 eb a9 b8 8a fd 3b 3b
       0.00028679258 0.003261288 -8.1023936e-05 0.0028685057
0001f0 e1 19 1f 3b 99 50 4b 3b 1c af cf ba e0 e6 f3 3a
       0.00242769 0.0031023382 -0.0015845033 0.0018608235

network_body._body_endoder.seq_layers.2.weight f4 [128, 128]
000000 83 61 a6 3e da d3 ce 3d 5d 28 07 bb a4 d3 44 bd
       0.3249627 0.10099001 -0.0020623424 -0.0480534
000010 7c 88 fd bc 9e d0 56 3d 52 bc 8c 3d 63 e6 9c bd
       -0.03094887 0.052445047 0.06871857 -0.0766113
000020 65 b6 89 bb d4 ba 7a bd b8 96 87 bc 49 10 e1 3d
       -0.0042026513 -0.06121333 -0.01655136 0.10989434
000030 3f 51 78 bd 1f 4f 04 bc b9 4b 89 be 80 24 1d b8
       -0.060624357 -0.008075505 -0.26815584 -3.746571e-05
000040 7f 8c 9d bd bd 80 30 3d d6 74 ec bc fc 4a 81 3c
       -0.07692813 0.043091524 -0.028864305 0.015782826
000050 10 1e c1 3b c0 0d e1 bb 6a 76 02 3e 58 99 bc bc
       0.0058934763 -0.006868094 0.12740484 -0.023022339
000060 d3 78 05 be dd c0 b8 3d 89 a2 83 3d 86 f1 a7 3d
       -0.13034372 0.09021161 0.064274855 0.08200364
000070 47 99 00 3e 8e e3 05 be 0c 05 0c bd 9b 0e 35 3c
       0.1255847 -0.13075086 -0.0341845 0.0110508455
000080 a5 f7 40 3e b9 5e 7d 3d e2 c8 30 3d 58 ee 0e be
       0.18844469 0.061857913 0.043160327 -0.13958108
000090 f6 d8 e0 bd 6f 43 b0 3d 68 a7 b3 bd 26 2f 1b be
       -0.10978882 0.08606612 -0.087721646 -0.15154704
0000a0 7e d7 60 3d 43 00 9f 3d 44 f4 0c 3d e9 5f 23 3e
       0.05489301 0.07763722 0.034412637 0.15954556
0000b0 74 49 a2 bd 81 c3 11 be 8d 9e 8c ba 71 d6 5f 3d
       -0.07924166 -0.14234735 -0.0010728404 0.054647867
0000c0 f4 9f 83 3e a6 57 0e be 84 d8 4f bc a0 fa 3c 3d
       0.25707972 -0.13900623 -0.012685899 0.046137452
0000d0 8e 7f 7b 3d 02 3b c8 bc 9e 14 77 bd 6f 6d b9 bd
       0.061400943 -0.0244422 -0.060322396 -0.09054076
0000e0 22 93 c3 3d 67 3e ca bd 8c 46 b4 3d 26 cf 52 be
       0.09549548 -0.098751836 0.08802518 -0.20586833
0000f0 dc 96 c5 3d 2e 61 da 3c 55 ef 01 3e 10 38 c8 bd
       0.09647915 0.026657667 0.12688954 -0.09776318
000100 16 fd 8f 3d 1a dd 85 3c e8 a3 6c bd 8a ff 68 3c
       0.07030694 0.016340781 -0.0577735 0.0142210815
000110 a9 be 31 3a 6a d6 ad 3c 71 9a 0c 3d 8f 73 31 3e
       0.0006780425 0.021220405 0.034326974 0.17329238
000120 2e d1 34 bd b6 cc 85 3c c4 a2 c4 3a 53 82 17 be
       -0.0441448 0.016332965 0.0015002121 -0.14795808
000130 fa 8f 16 bd 4b f6 b7 3d 2b 32 06 be 47 b8 a8 bd
       -0.0367584 0.089825235 -0.13105075 -0.08238273
000140 83 df ab bd d6 3f ce bd b2 0b 20 3d 43 55 71 3d
       -0.08392241 -0.100707695 0.039073654 0.058919203
000150 a4 50 54 bd 63 a2 6c 3c 9e 5d 6e 3d 62 da 2b 3e
       -0.051834717 0.014443013 0.05819475 0.16782525
000160 a7 1e c6 bb 77 27 8c 3c 4f ff 02 3d 53 a5 f6 bc
       -0.0060461345 0.017108662 0.031981762 -0.03010813
000170 83 dc 7d bd f6 ce bf 3d ff 9b 20 bd dd 94 69 bc
       -0.061977874 0.093656465 -0.03921127 -0.014256683
000180 50 19 98 bd 2a d1 bc bb c1 1e 9b bb eb 99 56 bd
       -0.07426703 -0.005762239 -0.0047338908 -0.05239288
000190 86 74 25 bd 7b 5b 35 be be 6b d2 b8 ba ce 85 bd
       -0.04039433 -0.17710678 -0.00010033649 -0.065335706
0001a0 68 03 ac bd 6e 90 52 3e 0f 8e 60 bd d6 d6 ce bc
       -0.08399087 0.20562908 -0.054822978 -0.025248926
0001b0 5f 66 d7 bc 2b e3 c7 bd 3e 29 4c bd 4d 91 ed bd
       -0.026293932 -0.09760126 -0.04984402 -0.115999795
0001c0 0c 9b c1 bc a8 08 1d bc 8b 66 2e 3d 4b 47 89 3d
       -0.023633502 -0.009584583 0.04257826 0.06703051
0001d0 10 e3 12 3d 18 66 f4 3d 80 cc a2 bd 9c bd c0 3c
       0.035861075 0.11933535 -0.079491615 0.023527913
0001e0 e8 91 d1 bb 94 e1 c0 bb f5 bb e1 3d e2 a0 7b 3b
       -0.006395567 -0.005886266 0.11022178 0.0038395454
0001f0 30 09 27 3d b4 37 02 3e ca 46 3b 3d b1 17 60 3e
       0.040780246 0.12716562 0.045721807 0.21884038
000200 06 e0 dd bd ca 5f 93 3d c4 fd 23 be d8 67 e5 3d
       -0.10833745 0.07196005 -0.16014773 0.11201447
000210 97 12 04 bd 68 f6 e3 3d 5a ab c0 bd bd 3f 80 bd
       -0.03224429 0.11130983 -0.09407683 -0.06262157
000220 e3 43 10 3e 6d 54 00 3e 93 f5 53 3d 56 31 f3 bd
       0.14088397 0.12532206 0.05174787 -0.118746445
000230 1f a9 ba 3d 1b cf 66 bb 88 b6 9e 3d 33 1e ce 3d
       0.091142885 -0.003521866 0.07749659 0.10064354
000240 2f 41 e9 bc 2a fc 21 bd 35 83 d4 bd 47 f5 4b bd
       -0.028473465 -0.039547123 -0.10376588 -0.04979446
000250 70 55 e6 3d a5 c8 b7 bd 6c 5c 27 3d ee 71 82 3c
       0.11246765 -0.08973817 0.040859625 0.015923467
000260 d4 96 49 be 65 d9 a8 bc 0c 58 fb 3d 7c d4 c8 bc
       -0.19686443 -0.020611474 0.12272653 -0.024515383
000270 61 49 7e 3d 76 a9 a2 3d bc ea 9a bd ea 9a 1f 3d
       0.0620817 0.07942478 -0.07564303 0.038966097
000280 be 45 0e 3e fc 0e 00 3e ac ec 35 be 36 89 12 3d
       0.13893792 0.12505716 -0.17766064 0.035775386
000290 c3 09 12 bd 1f 5f 57 bd 84 05 c2 3d 7c a9 08 bb
       -0.03565384 -0.05258095 0.09473708 -0.0020852974
0002a0 1a 9d 24 3e 48 f1 7e 3d 2f eb 50 3d c8 81 ec 3d
       0.16075554 0.062241822 0.05100554 0.11548191
0002b0 30 dc 86 bc 7e 81 d8 bb b4 d0 8a be 3d c9 2e bd
       -0.016462415 -0.0066072335 -0.27112353 -0.042672385
0002c0 01 b0 7c bd 39 0b 0e 3d 61 a8 07 be 31 cb d0 bd
       -0.061691288 0.03467867 -0.13247825 -0.10195006
0002d0 4c 56 66 3d ff aa be bd 18 f0 84 3c db 7f 3d 3d
       0.056234643 -0.09309959 0.016227767 0.04626451
0002e0 29 80 d2 bd 0a 69 31 3e 46 bd 18 3e 48 41 3c 3b
       -0.10278351 0.17325225 0.14915952 0.0028725434
0002f0 40 e8 44 3c 3d 31 de 3c df 5e 43 3a 25 2d d0 bd
       0.012018263 0.027123088 0.00074527966 -0.10164861
000300 f0 77 e4 3c 9b 37 08 3e b5 85 6f bc 25 61 06 bd
       0.027889222 0.13302462 -0.014619281 -0.032807488
000310 28 e3 00 3e 9b 65 10 3c 84 56 cd 3d 27 30 7d 3d
       0.12586653 0.008813287 0.10026267 0.0618135
000320 f5 22 50 3e ac 49 4c 3d 67 ab 96 bd fb 7c db bd
       0.20325835 0.049874946 -0.07356911 -0.107171975
000330 d4 71 61 bd 5a 2e ac bd 01 2c 44 3e e6 a4 bc bd
       -0.055040196 -0.08407278 0.19157411 -0.092111394
000340 b0 df 09 be ca 14 7b 3d 8b 21 17 be 95 d5 68 3d
       -0.13464236 0.061299123 -0.1475889 0.056844313
000350 9d 52 7f 3c 75 92 a2 bc 11 94 b4 3c 44 64 60 bc
       0.015583661 -0.019845227 0.02204326 -0.01369578
000360 f9 4d a0 bc 13 b4 3c be a7 5f cd bd 9b 79 81 be
       -0.01956843 -0.18428068 -0.1002801 -0.2528809
000370 83 6b c9 3d 5e c5 da bc 00 45 69 bb a6 b6 35 bd
       0.09834959 -0.02670544 -0.0035594106 -0.04436364
000380 4e 79 42 3b 6b e8 40 be 45 c3 bc bd ae 44 80 3d
       0.0029674354 -0.1883866 -0.09216932 0.062630996
000390 6d 1c 2b 3d bc 0c 1e 3d 71 5c a2 3c 78 13 3e bd
       0.041775156 0.038586363 0.01981947 -0.046405286
0003a0 6d 84 af bd 57 bd da bd 6c a2 b6 bd 3c 79 18 3d
       -0.0857018 -0.10680645 -0.08917698 0.037224993
0003b0 76 97 21 3d c7 02 42 bd bd b1 31 bd d3 c2 0f be
       0.039451085 -0.04736593 -0.043382395 -0.14039163
0003c0 9f 66 c6 3d 50 16 ec 3a 29 44 2e be 20 65 ae 3d
       0.09687542 0.0018012021 -0.17018189 0.08515382
0003d0 24 b6 14 be 68 51 5c b9 c6 5b be bc 2a 8b 33 3b
       -0.14522606 -0.00021011161 -0.02323712 0.002739618
0003e0 4c 51 32 be 11 db db 3d 95 83 f3 3d e6 e2 a5 3d
       -0.17413825 0.10735143 0.11890332 0.08099918
0003f0 8f 39 58 3d 63 ba ea 3c ab 6c e2 3d fc 0b 85 3d
       0.052789267 0.02865333 0.11055883 0.064964265

network_body._body_endoder.seq_layers.2.bias f4 [128]
000000 95 da 7b ba 13 c3 dc b8 e5 f1 0e 3b c3 f8 82 3b
       -0.00096074614 -0.00010526753 0.002181166 0.00399694
000010 c6 c2 05 3a 47 8c 18 3b b5 36 9b ba 9a c9 0a bb
       0.0005102571 0.0023276971 -0.0011841865 -0.0021177293
000020 49 cc 02 3b 8c 77 be b9 93 9d 40 bb 6e 30 86 ba
       0.001995819 -0.00036328693 -0.0029390797 -0.0010237822
000030 d7 a6 14 3a ae 11 a9 3a a1 9e 3b 3b 53 5e 8a 3a
       0.0005670613 0.0012898946 0.0028628486 0.0010556675
000040 0d f1 5d ba a8 ca 9b bb 2f 7c 4e ba de 9a b5 3b
       -0.00084664003 -0.004754383 -0.0007876781 0.0055421432
000050 d1 4d e7 ba 54 1b fd ba 78 b3 88 3b 55 cd 0c 3b
       -0.0017647092 -0.0019310513 0.004171785 0.0021484692
000060 b0 81 b3 bb cb 2c 27 3b 57 d9 ce ba bb 24 42 bb
       -0.0054781064 0.0025508876 -0.0015781325 -0.0029623944
000070 b3 55 42 3a 3b e2 47 ba da 51 f5 39 49 ca b6 3a
       0.0007413283 -0.00076249585 0.00046791026 0.0013945784
000080 62 a7 1b bb 2c 1a 32 bb fa 3d 1e 3b cd 2b 1a ba
       -0.002375089 -0.0027176244 0.0024145828 -0.00058811606
000090 96 9a 2d ba 19 42 76 bb 46 44 d3 3a 2c 49 f1 3a
       -0.00066224614 -0.0037576018 0.001611837 0.0018408648
0000a0 29 75 7c 3b e2 37 1c 3b 56 9b 2d bb 3b ea c2 bb
       0.0038521981 0.002383702 -0.0026490293 -0.0059483326
0000b0 48 fb bb ba 5e fd 04 3b b7 30 9a bb 7b 09 24 3b
       -0.0014341855 0.002029262 -0.0047055143 0.0025030065
0000c0 d5 20 cb 3b f2 85 54 3b a9 ea 0b bb da 57 3c bb
       0.0061989822 0.003242847 -0.0021349585 -0.0028738887
0000d0 ce f0 ab 3a 5b 19 b0 ba b1 70 cf b9 e6 0f 94 3b
       0.001311803 -0.0013435291 -0.00039566078 0.004518497
0000e0 fe dd f7 ba 21 a5 c8 ba 82 c0 0a 3b 34 7f 26 bb
       -0.0018910763 -0.0015308001 0.0021171873 -0.0025405409
0000f0 86 d4 00 3a 2a 0b e5 3a ec c9 67 bb 57 f9 51 bb
       0.0004914481 0.0017474641 -0.0035368158 -0.0032039487
000100 f6 1a 90 ba 3b 81 23 3b 11 16 0b 3b e9 8b 02 3b
       -0.0010994363 0.0024948854 0.002122287 0.0019919819
000110 9a 79 b6 3a 82 db e8 38 b6 4a 68 ba 9d ee ef 39
       0.0013921738 0.000111035086 -0.00088612305 0.00045763413
000120 d5 a8 66 3b db 39 fc ba 6b b7 91 b9 55 06 dc ba
       0.0035195847 -0.0019243316 -0.00027793212 -0.0016786555
000130 e4 1d fe b9 db c2 4f 3a f4 5e 2c bb 4a 68 e4 3a
       -0.00048468926 0.0007925459 -0.0026301714 0.00174261
000140 49 97 0d bb 7c ef b7 b9 4a f8 13 3b 85 40 67 3b
       -0.0021605066 -0.0003508291 0.0022578412 0.003528626
000150 42 de c7 3a a8 29 dd 3a 9d 51 e1 3a ba fa 5f bb
       0.0015248733 0.0016873376 0.001719046 -0.0034176544
000160 16 db 31 3b be 4a db ba 0e 9c 14 3b be 19 52 3a
       0.0027138642 -0.0016730649 0.0022676024 0.00080147
000170 7e b0 b8 ba 3f ac 97 ba a1 5c ae 3a 28 9f 03 3b
       -0.0014090685 -0.0011571719 0.0013302752 0.0020083878
000180 e4 a5 7d ba a5 bf bc ba 67 d2 70 bb aa 4d 81 3a
       -0.0009675904 -0.0014400376 -0.0036746503 0.0009865065
000190 86 09 06 bb 66 86 46 38 58 bf 02 3b e8 c2 1c ba
       -0.0020452454 4.7332047e-05 0.0019950476 -0.0005979971
0001a0 c7 1a 0e bb 30 a7 cb 39 2e 9d a3 bb 30 aa 7a b9
       -0.002168344 0.00038843742 -0.0049931025 -0.00023905258
0001b0 41 9e ee 3a 85 78 a9 ba 1a 19 5e bb 0c c9 08 bb
       0.0018205122 -0.0012929594 -0.0033889473 -0.0020871786
0001c0 0a 6a bc 3b fd d7 58 3b 38 67 dd 3a e1 a4 fa ba
       0.0057499455 0.0033087723 0.0016891723 -0.0019122624
0001d0 c1 e3 54 bb cb 14 ad b9 b8 a1 a8 3a 0e 80 35 bb
       -0.0032484385 -0.00033012623 0.0012865579 -0.0027694735
0001e0 22 ce 15 bb 9f bf e3 bb 9f b2 15 3b 91 9e 8d 3b
       -0.002285846 -0.0069503332 0.0022842062 0.004321881
0001f0 b0 23 c3 3a 57 c9 89 ba 67 0e cc 3a ae 61 f1 b9
       0.0014887955 -0.0010512274 0.0015568257 -0.0004603988

action_model._continuous_distribution.log_sigma f4 [1, 2]
000000 56 c2 1b bb b9 88 1c bb
       -0.0023766956 -0.0023885204

action_model._continuous_distribution.mu.weight f4 [2, 128]
000000 50 df ae 3c 0b 58 61 3c fe a7 a0 3c 01 52 ed 3c
       0.021346718 0.013753901 0.019611355 0.028969767
000010 4e 8f 00 bd 46 81 67 3b 31 c4 c1 3c 1d b3 0f 3c
       -0.031386666 0.0035324856 0.023653122 0.008770731
000020 62 2b 31 bc 56 a5 12 bd 63 22 90 bb a3 7b b7 3c
       -0.010813566 -0.035802208 -0.0043986305 0.022397822
000030 71 5e 88 3a 3c 00 ec b9 8e 49 a3 ba a7 ab 76 3d
       0.0010404122 -0.00045013602 -0.0012457834 0.060222294
000040 23 96 34 3c ba c9 c4 bc 05 27 9a 3c 31 bb 05 3d
       0.0110221235 -0.024021972 0.018817434 0.032649223
000050 99 0f 21 bc 2f 82 7d 3c 9f 2f ef 3b 03 e0 c1 bc
       -0.009830379 0.015472933 0.007299378 -0.023666387
000060 22 54 ee bc 72 19 96 3c 53 0c 07 3b 4d 34 0e bc
       -0.029092852 0.01832268 0.002060671 -0.008679462
000070 9d 0e 31 bc ee f6 0d 3d b0 d0 99 bc 88 ec e7 bc
       -0.010806707 0.03465932 -0.018776268 -0.02831103
000080 15 a2 20 bd 43 af 9e bb 39 54 46 3c 33 a2 0b 3d
       -0.039217073 -0.00484267 0.012105041 0.034090232
000090 23 b3 24 3d c3 a7 28 bc 9d 19 aa bc ef e1 0b bc
       0.0402099 -0.010293904 -0.020764166 -0.0085377535
0000a0 81 6f 3f 3b 1a 54 e6 3c 7b cc 64 3c 5c 73 15 bc
       0.0029210749 0.028116275 0.013964768 -0.009121742
0000b0 a9 f1 61 3b b0 a6 36 bd 8b 89 2c bc e2 c9 b3 3b
       0.0034476316 -0.04459256 -0.01053084 0.005486713
0000c0 b5 48 14 3d e7 db f7 3c 91 72 99 bb 9f db aa bc
       0.03620215 0.030256225 -0.004682847 -0.020856677
0000d0 cc 29 61 bc e7 07 6b 3b 8c d1 e5 bb c1 54 02 3d
       -0.013742875 0.0035862864 -0.0070135053 0.03181911
0000e0 96 de ef bc 47 14 72 bb cd 2b a8 3c 6e 84 03 bd
       -0.029280942 -0.0036938356 0.020528698 -0.032108717
0000f0 e5 a5 b4 bc ff dd 3b 3a e6 de 44 3b 95 33 5e bb
       -0.02205176 0.0007166564 0.0030040084 -0.0033905257
000100 ac b0 0e 3d da 3e f2 3c 6e 6d a7 bc 51 e6 08 3c
       0.034836456 0.029570986 -0.020437922 0.008355693
000110 c5 73 25 bd 5b a0 78 bc 26 07 02 bd a6 a7 92 3b
       -0.04039361 -0.0151749505 -0.0317451 0.0044755517
000120 3a a0 bd 3c b1 d1 01 3b 41 31 37 bc ca 4a c5 bc
       0.023147691 0.0019808824 -0.011181177 -0.024083514
000130 f7 08 31 bd d2 f8 15 3b b8 53 d0 3c bf 68 91 bc
       -0.04322144 0.0022883904 0.025430545 -0.017750142
000140 67 c9 87 bc 83 f5 3a 3d 9f 6f 9a 3c 2a 67 19 3d
       -0.016575528 0.045644294 0.018852053 0.0374519
000150 3c f5 55 bc f0 5f f1 37 85 b7 c5 bc e4 7b 1c bc
       -0.013058957 2.8774113e-05 -0.02413536 -0.009551022
000160 b1 c1 b0 3c 33 18 ca 3b 2a 0f 22 3d 9f 4a 89 bb
       0.021576734 0.0061674356 0.039565243 -0.0041898037
000170 ea 43 09 3d 32 eb d1 bc 6f e9 e8 bc c9 2b c8 bb
       0.033512034 -0.025624845 -0.028431622 -0.006108735
000180 2e 25 4f 3c 46 27 0a 3d 50 68 c1 bb 61 a7 15 bd
       0.012643142 0.03372886 -0.0059023276 -0.036536578
000190 d6 b3 88 bc c7 1b d9 3c a4 4b 11 3b 18 a1 07 3d
       -0.016687315 0.026502503 0.002217033 0.033112615
0001a0 a5 cf 94 bc 2c 24 8a bc a8 4c 2b bb 8a 54 04 3d
       -0.018165419 -0.016862951 -0.002613822 0.032307185
0001b0 39 e1 ac 3a 82 8f e3 3a e6 62 15 3a 83 af 53 bc
       0.001318968 0.0017361494 0.0005698636 -0.012920263
0001c0 df 6d a2 3c 96 ef af 3c 65 e8 f2 3b 24 fa 53 3b
       0.019827781 0.021476548 0.0074129575 0.003234514
0001d0 34 40 01 bd 74 5b 52 bc 8c a7 aa bc 3e 9f 2e bb
       -0.03155537 -0.012839187 -0.020831846 -0.0026645209
0001e0 bb 68 6a 3c 42 4e fd bb ad c8 6e bb 3f f8 a4 3b
       0.014307196 -0.0077302763 -0.003643553 0.005034476
0001f0 14 c4 00 b9 a5 92 b7 3b b0 78 c1 3b 60 c3 0b 3c
       -0.00012280076 0.005602198 0.0059042796 0.008530468
000200 d3 62 bc bb 2d 69 f4 bb 4b 21 15 3d 26 63 f9 3a
       -0.0057490855 -0.007458827 0.036408704 0.0019026741
000210 7f 70 c2 bc e8 91 61 3a 10 62 99 bc ca 64 b1 bc
       -0.023735283 0.00086048106 -0.018723518 -0.021654505
000220 dd 9d a7 3c be fb fd bb ea 0e 95 bc 60 57 8e bc
       0.020461017 -0.0077509573 -0.018195588 -0.017375648
000230 ed b6 d9 3a 6d 9c 18 3c fd 66 39 3c 0c bd c5 bb
       0.0016610302 0.009314639 0.011316058 -0.006034499
000240 e8 2c c5 b9 24 f0 9c bc 44 45 dc bb 94 63 17 3c
       -0.00037608226 -0.019157477 -0.0067221243 0.00924005
000250 ed 25 28 bc a4 7e aa bc a1 93 b8 3b df 58 34 3d
       -0.010262948 -0.02081234 0.005632833 0.044030067
000260 8d 31 df bb 63 53 ba 3b d7 07 02 bd 29 92 f1 ba
       -0.006811327 0.00568621 -0.031745758 -0.00184304
000270 29 a6 12 3c 44 8a b8 bb bf 32 32 3c a4 6f 0c 3c
       0.0089507485 -0.005631717 0.010876357 0.008571539
000280 0e e3 24 3a 45 08 90 bb ab 6a 36 3c 9f fd eb 3b
       0.00062899373 -0.004395517 0.01113383 0.007201865
000290 3f 58 9b 39 80 d8 73 bb 2b 2b bf 3c 2b 3a a0 3c
       0.00029629652 -0.0037207901 0.023336014 0.019558987
0002a0 aa 4b 3e 3d 73 46 73 3c 62 cd 13 bd f2 b8 35 bb
       0.046458878 0.014848339 -0.03608454 -0.0027728644
0002b0 1a fa bd bc 13 2a 90 3c 3d c4 c4 bc 17 2a 98 3b
       -0.023190547 0.017598188 -0.024019355 0.0046436894
0002c0 bc 84 1c 3c ad 66 49 3b 6b 25 08 bc f0 be c0 bc
       0.009553131 0.0030731366 -0.008309702 -0.023528546
0002d0 80 67 29 3d a8 bd ce 3a cc c9 9e b9 30 69 7c 3b
       0.04135847 0.0015773075 -0.0003028646 0.0038514845
0002e0 6b 3e 51 bc c1 fa d6 bb 4d 7a 99 3c 03 4f 79 bc
       -0.012771229 -0.006560654 0.018735075 -0.015216592
0002f0 17 49 85 3b dd 27 17 3d 9c 2c cd bc f9 d8 a1 3b
       0.004067551 0.03690325 -0.025045685 0.0049391952
000300 75 f6 82 bc d2 21 90 3b 84 56 85 3b 2b 6d a2 3b
       -0.01598666 0.004398563 0.0040691514 0.0049568615
000310 82 37 b7 bc 5d a6 25 bb 1a 59 13 3c 95 0b 4a 3c
       -0.022365335 -0.0025276162 0.008993411 0.012331863
000320 b3 76 fe 3b cd 10 23 bc 56 ee 0a ba 73 bd ed bc
       0.007765615 -0.009952736 -0.0005299797 -0.029021
000330 48 78 a2 3c c0 40 70 ba 9b 72 ed bc 9e 6f 03 3c
       0.019832745 -0.0009164922 -0.028985312 0.008022217
000340 16 ac 9d bc 81 3e b3 bc 44 e3 ab 3c b4 8e 38 3d
       -0.019247096 -0.02188039 0.020982392 0.045057967
000350 cf 04 cd 3c 53 20 7b 3c 12 54 14 3b 42 d6 09 bc
       0.025026707 0.015327531 0.0022633118 -0.008412899
000360 ce fd b5 3c fc fe 3a bd 96 4a 43 3c c4 01 90 3b
       0.02221575 -0.04565333 0.011919638 0.0043947417
000370 ab 46 48 bc 57 ad cf bc 5f d5 b5 3c 4d 03 5d 3c
       -0.01222388 -0.02535121 0.02219647 0.0134895565
000380 6c c3 46 bb fb 0e c8 bc 86 75 e9 bc d0 9a bf 3b
       -0.0030328883 -0.024421206 -0.028498422 0.0058473125
000390 cc 89 f9 bb a2 bf 9b bb 5e ab b2 3c cc 4c 93 bb
       -0.0076153036 -0.004753069 0.02181023 -0.004495239
0003a0 b5 cd a9 bc a3 76 2e 3c 6d 80 68 3c 59 66 09 bc
       -0.020727972 0.010648402 0.014190775 -0.008386218
0003b0 e2 f7 cb 3c 06 d0 75 bc af 44 b5 bc 52 54 10 3b
       0.024898473 -0.01500321 -0.022127477 0.0022022915
0003c0 31 6f c2 3c c0 46 0c 3c e0 37 ea 3c da db 98 bb
       0.02373466 0.00856179 0.028591096 -0.00466488
0003d0 f1 7e 8b bc c0 77 d4 bb 92 7d 10 3d 29 52 8a bc
       -0.017028304 -0.006484002 0.035276003 -0.01688488
0003e0 17 79 c7 bc a8 8c 08 bc 2a fb ca 3c b1 f5 ac 3c
       -0.024349732 -0.008334316 0.024777967 0.021113249
0003f0 49 bb 86 3b 84 10 0a bc c4 c4 19 3c 52 ad c6 b9
       0.0041116816 -0.008426789 0.0093852915 -0.00037894637

action_model._continuous_distribution.mu.bias f4 [2]
000000 aa 63 2f 3a 83 5a f5 3a
       0.00066905713 0.0018718991

exp_avg f4 [128, 6]
000000 3b fa 0f 39 00 00 00 00 69 ca 12 b7 00 00 00 00
       0.00013730761 0.0 -8.749405e-06 0.0
000010 e6 c0 04 37 e6 c0 84 37 b4 75 65 b6 00 00 00 00
       7.912726e-06 1.5825452e-05 -3.4192171e-06 0.0
000020 b0 62 2f b7 00 00 00 00 e1 e2 de b6 e1 e2 5e b7
       -1.045379e-05 0.0 -6.6425278e-06 -1.32850555e-05
000030 fe d7 85 b8 00 00 00 00 1d 82 dc b7 00 00 00 00
       -6.382166e-05 0.0 -2.6286632e-05 0.0
000040 54 72 00 38 54 72 80 38 67 b1 0c 38 00 00 00 00
       3.0624054e-05 6.124811e-05 3.354382e-05 0.0
000050 2c 6b 98 37 00 00 00 00 32 bc d3 37 32 bc 53 38
       1.8169718e-05 0.0 2.5240795e-05 5.048159e-05
000060 da d1 cf 37 00 00 00 00 d6 a5 84 37 00 00 00 00
       2.4774043e-05 0.0 1.581285e-05 0.0
000070 ae 61 a9 37 ae 61 29 38 be c8 aa 36 00 00 00 00
       2.0191856e-05 4.038371e-05 5.0897643e-06 0.0
000080 14 62 29 b8 00 00 00 00 ec 67 c5 37 ec 67 45 38
       -4.0384082e-05 0.0 2.3532622e-05 4.7065245e-05
000090 2e d8 bd b5 00 00 00 00 3f a1 ad 36 00 00 00 00
       -1.4144514e-06 0.0 5.1745733e-06 0.0
0000a0 fe ea 99 b6 fe ea 19 b7 52 12 fc 37 00 00 00 00
       -4.587112e-06 -9.174224e-06 3.0049272e-05 0.0
0000b0 52 3f 4f b7 00 00 00 00 d6 ae 89 37 d6 ae 09 38
       -1.2352904e-05 0.0 1.6413087e-05 3.2826174e-05
0000c0 f0 b1 37 b6 00 00 00 00 c8 8c c6 37 00 00 00 00
       -2.7372698e-06 0.0 2.3668996e-05 0.0
0000d0 64 cf 9c 36 64 cf 1c 37 f7 7c 8c 38 00 00 00 00
       4.6733057e-06 9.3466115e-06 6.698997e-05 0.0
0000e0 9d 63 d9 37 00 00 00 00 a8 72 c2 38 a8 72 42 39
       2.5914802e-05 0.0 9.271997e-05 0.00018543995
0000f0 fe 0b 90 36 00 00 00 00 f4 00 e3 b6 00 00 00 00
       4.2929305e-06 0.0 -6.765238e-06 0.0
000100 84 b7 b4 b7 84 b7 34 b8 64 93 55 b9 00 00 00 00
       -2.1543128e-05 -4.3086256e-05 -0.0002036817 0.0
000110 ee dc 53 b8 00 00 00 00 e8 6d bd 36 e8 6d 3d 37
       -5.0512077e-05 0.0 5.6454337e-06 1.1290867e-05
000120 b2 75 02 39 00 00 00 00 43 b8 0d 38 00 00 00 00
       0.00012441611 0.0 3.3788627e-05 0.0
000130 04 5a c6 b6 04 5a 46 b7 f8 9e 71 38 00 00 00 00
       -5.911339e-06 -1.1822678e-05 5.760693e-05 0.0
000140 68 ed 0f 37 00 00 00 00 a9 43 26 38 a9 43 a6 38
       8.57874e-06 0.0 3.9640498e-05 7.9280995e-05
000150 e5 16 02 b9 00 00 00 00 93 c7 ab 38 00 00 00 00
       -0.00012406295 0.0 8.191089e-05 0.0
000160 68 a2 24 37 68 a2 a4 37 50 c7 8b 38 00 00 00 00
       9.812975e-06 1.962595e-05 6.665161e-05 0.0
000170 0e 61 6a 38 00 00 00 00 d8 e0 aa b7 d8 e0 2a b8
       5.5880337e-05 0.0 -2.037028e-05 -4.074056e-05
000180 c2 d3 bb b5 00 00 00 00 66 5c bb 34 00 00 00 00
       -1.3994215e-06 0.0 3.4898693e-07 0.0
000190 c8 24 c8 b4 c8 24 48 b5 82 4f 69 b8 00 00 00 00
       -3.7279665e-07 -7.455933e-07 -5.5625576e-05 0.0
0001a0 f7 76 cf b7 00 00 00 00 46 a4 d0 b7 46 a4 50 b8
       -2.473172e-05 0.0 -2.4872028e-05 -4.9744056e-05
0001b0 16 e7 e2 37 00 00 00 00 79 90 1a b8 00 00 00 00
       2.7048907e-05 0.0 -3.6851012e-05 0.0
0001c0 43 f1 34 38 43 f1 b4 38 10 8d cc b5 00 00 00 00
       4.3140037e-05 8.628007e-05 -1.5240239e-06 0.0
0001d0 74 ee 01 b8 00 00 00 00 96 d0 a6 37 96 d0 26 38
       -3.0978073e-05 0.0 1.9885872e-05 3.9771745e-05
0001e0 99 f2 7a b8 00 00 00 00 18 da 4e b7 00 00 00 00
       -5.983058e-05 0.0 -1.2329336e-05 0.0
0001f0 d6 59 e9 b8 d6 59 69 b9 8e d2 c0 b6 00 00 00 00
       -0.00011127039 -0.00022254078 -5.7465577e-06 0.0
000200 28 6c 7c b7 00 00 00 00 66 36 4f 36 66 36 cf 36
       -1.5045553e-05 0.0 3.0877068e-06 6.1754135e-06
000210 96 21 89 36 00 00 00 00 56 4d b7 b4 00 00 00 00
       4.086828e-06 0.0 -3.4142676e-07 0.0
000220 b9 0a 34 37 b9 0a b4 37 aa 04 2d 38 00 00 00 00
       1.0731333e-05 2.1462665e-05 4.1250758e-05 0.0
000230 b0 99 8b b7 00 00 00 00 8a 5b 10 38 8a 5b 90 38
       -1.6641658e-05 0.0 3.4417528e-05 6.8835056e-05
000240 e6 5f f6 b5 00 00 00 00 4d f7 72 b6 00 00 00 00
       -1.8356338e-06 0.0 -3.6204758e-06 0.0
000250 fd a1 b3 36 fd a1 33 37 02 59 e0 37 00 00 00 00
       5.3534736e-06 1.0706947e-05 2.6744328e-05 0.0
000260 5e e0 20 37 00 00 00 00 1a f8 a8 37 1a f8 28 38
       9.588983e-06 0.0 2.0142692e-05 4.0285384e-05
000270 2e fd 15 38 00 00 00 00 2c d3 69 37 00 00 00 00
       3.576016e-05 0.0 1.39370495e-05 0.0
000280 d0 60 b3 b4 d0 60 33 b5 e0 b1 1c b8 00 00 00 00
       -3.3411789e-07 -6.6823577e-07 -3.7358957e-05 0.0
000290 c7 19 9f b7 00 00 00 00 ba c3 21 38 ba c3 a1 38
       -1.896628e-05 0.0 3.8567676e-05 7.713535e-05
0002a0 88 99 0d 36 00 00 00 00 6b ce ba 36 00 00 00 00
       2.1100004e-06 0.0 5.567262e-06 0.0
0002b0 c3 44 2b b6 c3 44 ab b6 80 06 90 b8 00 00 00 00
       -2.552101e-06 -5.104202e-06 -6.867666e-05 0.0
0002c0 e0 48 16 b8 00 00 00 00 6b 18 b1 37 6b 18 31 38
       -3.5830657e-05 0.0 2.1111415e-05 4.222283e-05
0002d0 37 f4 05 37 00 00 00 00 22 39 be 35 00 00 00 00
       7.984278e-06 0.0 1.4172731e-06 0.0
0002e0 b4 74 a8 36 b4 74 28 37 16 97 94 b7 00 00 00 00
       5.020376e-06 1.0040752e-05 -1.771333e-05 0.0
0002f0 f7 8a 80 b7 00 00 00 00 02 2d 29 b5 02 2d a9 b5
       -1.53235e-05 0.0 -6.30229e-07 -1.260458e-06
000300 39 ab 49 37 00 00 00 00 18 ad 79 37 00 00 00 00
       1.20203995e-05 0.0 1.4881858e-05 0.0
000310 1e d2 23 37 1e d2 a3 37 f0 06 1e 38 00 00 00 00
       9.764479e-06 1.9528958e-05 3.7676597e-05 0.0
000320 c2 e4 24 b8 00 00 00 00 86 74 8a 38 86 74 0a 39
       -3.9313694e-05 0.0 6.602057e-05 0.00013204114
000330 54 c2 3f b7 00 00 00 00 ad c8 45 b7 00 00 00 00
       -1.1429733e-05 0.0 -1.17888385e-05 0.0
000340 40 c7 bd 38 40 c7 3d 39 55 08 c6 b8 00 00 00 00
       9.0493355e-05 0.00018098671 -9.442928e-05 0.0
000350 26 f7 a1 b7 00 00 00 00 5a 77 05 b7 5a 77 85 b7
       -1.9307783e-05 0.0 -7.9552065e-06 -1.5910413e-05
000360 a0 71 2a b7 00 00 00 00 5c e4 39 b8 00 00 00 00
       -1.0159245e-05 0.0 -4.4320113e-05 0.0
000370 14 2b 99 38 14 2b 19 39 de 12 e7 b7 00 00 00 00
       7.3036324e-05 0.00014607265 -2.7546132e-05 0.0
000380 79 3a fb b6 00 00 00 00 5e 18 40 b7 5e 18 c0 b7
       -7.48719e-06 0.0 -1.1449765e-05 -2.289953e-05
000390 f9 45 2f 38 00 00 00 00 5a 89 8d 38 00 00 00 00
       4.178842e-05 0.0 6.748988e-05 0.0
0003a0 cd 2e 0e 38 cd 2e 8e 38 4d 05 28 b9 00 00 00 00
       3.3899025e-05 6.779805e-05 -0.00016023703 0.0
0003b0 22 6e 0f b8 00 00 00 00 80 ec 21 b9 80 ec a1 b9
       -3.4196426e-05 0.0 -0.0001544226 -0.0003088452
0003c0 f0 36 c3 38 00 00 00 00 5c 43 6a b7 00 00 00 00
       9.3085575e-05 0.0 -1.396317e-05 0.0
0003d0 3c ac 40 36 3c ac c0 36 82 6e 8d 38 00 00 00 00
       2.8710483e-06 5.7420966e-06 6.7439876e-05 0.0
0003e0 0f cd 1b 38 00 00 00 00 c4 47 9f b7 c4 47 1f b8
       3.7145855e-05 0.0 -1.8987696e-05 -3.797539e-05
0003f0 42 09 92 38 00 00 00 00 3e 4d a1 37 00 00 00 00
       6.963547e-05 0.0 1.9228664e-05 0.0

exp_avg_sq f4 [128, 6]
000000 02 9d 89 32 00 00 00 00 1d a8 a7 30 00 00 00 00
       1.6020298e-08 0.0 1.219863e-09 0.0
000010 d1 bb dc 30 d1 bb dc 31 16 d3 68 2d 00 00 00 00
       1.6060487e-09 6.424195e-09 1.3234544e-11 0.0
000020 1c f8 0e 2e 00 00 00 00 d3 41 c4 2d d3 41 c4 2e
       3.2507427e-11 0.0 2.2311852e-11 8.924741e-11
000030 34 16 4f 32 00 00 00 00 45 58 8d 30 00 00 00 00
       1.2054034e-08 0.0 1.0284188e-09 0.0
000040 5b 2c b8 30 5b 2c b8 31 b3 92 89 2f 00 00 00 00
       1.3400369e-09 5.3601474e-09 2.502439e-10 0.0
000050 1a 15 0e 2f 00 00 00 00 27 ce 29 2e 27 ce 29 2f
       1.2922322e-10 0.0 3.860925e-11 1.54437e-10
000060 14 3c 25 2f 00 00 00 00 0d 56 d8 2e 00 00 00 00
       1.5028007e-10 0.0 9.8378285e-11 0.0
000070 f3 c4 7b 2e f3 c4 7b 2f 1d 33 9a 2e 00 00 00 00
       5.724572e-11 2.2898287e-10 7.012189e-11 0.0
000080 49 26 59 30 00 00 00 00 36 01 7c 2f 36 01 7c 30
       7.8998547e-10 0.0 2.2919697e-10 9.1678787e-10
000090 77 c6 96 2d 00 00 00 00 3b 77 37 2d 00 00 00 00
       1.7141162e-11 0.0 1.042882e-11 0.0
0000a0 be 4c ca 2c be 4c ca 2d b3 2e 7e 2f 00 00 00 00
       5.7497054e-12 2.2998822e-11 2.3117756e-10 0.0
0000b0 29 a2 71 2f 00 00 00 00 a5 1c 53 2f a5 1c 53 30
       2.1976433e-10 0.0 1.9200515e-10 7.680206e-10
0000c0 5c d8 96 32 00 00 00 00 62 0f 45 31 00 00 00 00
       1.7560687e-08 0.0 2.8676017e-09 0.0
0000d0 be 46 dd 30 be 46 dd 31 72 d1 bb 30 00 00 00 00
       1.6099972e-09 6.439989e-09 1.3665569e-09 0.0
0000e0 12 8e 44 30 00 00 00 00 fa bb 98 30 fa bb 98 31
       7.150628e-10 0.0 1.1112882e-09 4.4451527e-09
0000f0 53 eb c8 2f 00 00 00 00 18 c1 a1 2e 00 00 00 00
       3.6546996e-10 0.0 7.355733e-11 0.0
000100 98 2b 5a 2e 98 2b 5a 2f f0 42 4a 33 00 00 00 00
       4.960618e-11 1.9842472e-10 4.709267e-08 0.0
000110 a3 b6 4d 31 00 00 00 00 fb d3 7f 31 fb d3 7f 32
       2.9935243e-09 0.0 3.722788e-09 1.4891152e-08
000120 73 15 8f 32 00 00 00 00 ca 1a cd 30 00 00 00 00
       1.6657145e-08 0.0 1.4923327e-09 0.0
000130 ef 2f bf 30 ef 2f bf 31 64 13 cc 30 00 00 00 00
       1.3910703e-09 5.564281e-09 1.4848465e-09 0.0
000140 6e 8e 75 2f 00 00 00 00 7c 8d e9 2f 7c 8d e9 30
       2.2333221e-10 0.0 4.2482984e-10 1.6993194e-09
000150 98 d6 1c 33 00 00 00 00 5c d3 ee 31 00 00 00 00
       3.6516752e-08 0.0 6.9507404e-09 0.0
000160 71 c0 d8 31 71 c0 d8 32 a5 03 3f 32 00 00 00 00
       6.3083054e-09 2.5233222e-08 1.1118492e-08 0.0
000170 18 a8 ee 30 00 00 00 00 03 8e 32 31 03 8e 32 32
       1.7364554e-09 0.0 2.5983133e-09 1.0393253e-08
000180 76 81 c7 2c 00 00 00 00 e8 4d 81 2b 00 00 00 00
       5.6702932e-12 0.0 9.187625e-13 0.0
000190 15 e1 91 2b 15 e1 91 2c 86 cd 4c 30 00 00 00 00
       1.0365342e-12 4.146137e-12 7.4506834e-10 0.0
0001a0 b2 1d 03 31 00 00 00 00 e9 d6 58 30 e9 d6 58 31
       1.9079889e-09 0.0 7.888575e-10 3.15543e-09
0001b0 53 bc b3 32 00 00 00 00 48 8a ff 30 00 00 00 00
       2.0923983e-08 0.0 1.8592994e-09 0.0
0001c0 eb fa 5b 31 eb fa 5b 32 54 9f 69 2f 00 00 00 00
       3.2011325e-09 1.280453e-08 2.1247831e-10 0.0
0001d0 18 88 44 30 00 00 00 00 df 81 c6 2f df 81 c6 30
       7.1497785e-10 0.0 3.610827e-10 1.4443308e-09
0001e0 f9 02 86 32 00 00 00 00 89 ed ca 31 00 00 00 00
       1.5601005e-08 0.0 5.9059784e-09 0.0
0001f0 74 32 13 32 74 32 13 33 1f 6e 4c 2e 00 00 00 00
       8.567998e-09 3.427199e-08 4.6482037e-11 0.0
000200 bd 21 d3 2e 00 00 00 00 e2 bc a0 2d e2 bc a0 2e
       9.601162e-11 0.0 1.8273775e-11 7.30951e-11
000210 f8 25 04 2e 00 00 00 00 4c b0 6a 2d 00 00 00 00
       3.0047048e-11 0.0 1.3340506e-11 0.0
000220 81 52 ae 2d 81 52 ae 2e 8e 58 5f 30 00 00 00 00
       1.9818149e-11 7.9272595e-11 8.125277e-10 0.0
000230 b3 eb 96 31 00 00 00 00 33 6e bf 30 33 6e bf 31
       4.3923705e-09 0.0 1.39284e-09 5.57136e-09
000240 62 9f 9b 2d 00 00 00 00 fa 79 e0 2c 00 00 00 00
       1.769224e-11 0.0 6.380005e-12 0.0
000250 ce 6a 7b 2c ce 6a 7b 2d a2 2f b5 2e 00 00 00 00
       3.5728534e-12 1.42914135e-11 8.239388e-11 0.0
000260 e0 09 a0 2f 00 00 00 00 c9 ce 82 2e c9 ce 82 2f
       2.9110847e-10 0.0 5.948448e-11 2.3793792e-10
000270 27 f6 c8 30 00 00 00 00 3e db 39 30 00 00 00 00
       1.4621876e-09 0.0 6.761417e-10 0.0
000280 b0 1b 00 2f b0 1b 00 30 7c be cd 31 00 00 00 00
       1.1651369e-10 4.6605475e-10 5.987941e-09 0.0
000290 88 7a 7e 30 00 00 00 00 88 57 38 30 88 57 38 31
       9.257879e-10 0.0 6.70632e-10 2.682528e-09
0002a0 db 33 a7 2e 00 00 00 00 61 5b 9e 2d 00 00 00 00
       7.603492e-11 0.0 1.80031e-11 0.0
0002b0 fe 25 26 2d fe 25 26 2e 1e 6c 99 32 00 00 00 00
       9.4444435e-12 3.7777774e-11 1.786071e-08 0.0
0002c0 0c 52 99 30 00 00 00 00 f3 0e f3 30 f3 0e f3 31
       1.1155534e-09 0.0 1.7684826e-09 7.0739303e-09
0002d0 9b d3 38 2e 00 00 00 00 cb 0c d4 2d 00 00 00 00
       4.20247e-11 0.0 2.410729e-11 0.0
0002e0 5d 65 1e 2d 5d 65 1e 2e 98 71 f6 2e 00 00 00 00
       9.003767e-12 3.601507e-11 1.1206963e-10 0.0
0002f0 43 a0 f2 2e 00 00 00 00 80 da 9b 2e 80 da 9b 2f
       1.1033354e-10 0.0 7.087397e-11 2.834959e-10
000300 3b f9 09 2f 00 00 00 00 d7 d3 3a 2e 00 00 00 00
       1.2548622e-10 0.0 4.2479655e-11 0.0
000310 4e 07 3d 2e 4e 07 3d 2f 8f 97 a7 32 00 00 00 00
       4.2980113e-11 1.7192045e-10 1.951028e-08 0.0
000320 4b bc 1d 31 00 00 00 00 5a 9a 6b 31 5a 9a 6b 32
       2.295354e-09 0.0 3.428474e-09 1.3713896e-08
000330 d4 e9 23 32 00 00 00 00 48 38 b7 30 00 00 00 00
       9.541015e-09 0.0 1.3330999e-09 0.0
000340 c4 f6 99 31 c4 f6 99 32 e9 ed 77 32 00 00 00 00
       4.48094e-09 1.792376e-08 1.4431387e-08 0.0
000350 20 a9 ae 30 00 00 00 00 bf dc 9b 30 bf dc 9b 31
       1.2708234e-09 0.0 1.1340474e-09 4.5361896e-09
000360 a0 65 75 32 00 00 00 00 7d c8 56 31 00 00 00 00
       1.4283984e-08 0.0 3.1255063e-09 0.0
000370 18 f2 86 31 18 f2 86 32 b5 b2 14 31 00 00 00 00
       3.927436e-09 1.5709745e-08 2.1638418e-09 0.0
000380 05 b2 25 2f 00 00 00 00 25 63 66 2f 25 63 66 30
       1.5069908e-10 0.0 2.0953601e-10 8.3814405e-10
000390 57 8f 83 2f 00 00 00 00 d2 26 3f 30 00 00 00 00
       2.393061e-10 0.0 6.954056e-10 0.0
0003a0 1e 58 ab 2f 1e 58 ab 30 a0 c9 8b 31 00 00 00 00
       3.116733e-10 1.2466932e-09 4.0683545e-09 0.0
0003b0 c3 02 2f 32 00 00 00 00 28 1b 11 32 28 1b 11 33
       1.0186969e-08 0.0 8.4462854e-09 3.3785142e-08
0003c0 28 35 83 32 00 00 00 00 f0 b1 68 30 00 00 00 00
       1.527458e-08 0.0 8.465397e-10 0.0
0003d0 e1 89 e8 30 e1 89 e8 31 db ee ca 31 00 00 00 00
       1.6919409e-09 6.7677637e-09 5.9061285e-09 0.0
0003e0 86 af ff 30 00 00 00 00 0a 6a bf 30 0a 6a bf 31
       1.8603579e-09 0.0 1.3927217e-09 5.570887e-09
0003f0 47 80 25 31 00 00 00 00 77 95 85 2f 00 00 00 00
       2.4083577e-09 0.0 2.429876e-10 0.0

exp_avg f4 [128]
000000 de c0 04 37 e6 e2 de b6 54 72 00 38 31 bc d3 37
       7.9127185e-06 -6.64253e-06 3.0624054e-05 2.5240794e-05
000010 af 61 a9 37 eb 67 c5 37 fe ea 99 b6 d8 ae 89 37
       2.0191857e-05 2.353262e-05 -4.587112e-06 1.641309e-05
000020 de cf 9c 36 a8 72 c2 38 82 b7 b4 b7 c8 6d bd 36
       4.673361e-06 9.271997e-05 -2.1543125e-05 5.645419e-06
000030 e8 59 c6 b6 a7 43 26 38 66 a2 24 37 d2 e0 aa b7
       -5.9113263e-06 3.964049e-05 9.812973e-06 -2.037027e-05
000040 d5 24 c8 b4 43 a4 d0 b7 45 f1 34 38 96 d0 a6 37
       -3.7279702e-07 -2.4872023e-05 4.3140044e-05 1.9885872e-05
000050 d4 59 e9 b8 69 36 4f 36 bb 0a 34 37 88 5b 10 38
       -0.000111270376 3.0877075e-06 1.0731334e-05 3.441752e-05
000060 fc a1 b3 36 1a f8 a8 37 40 5f b3 b4 b8 c3 21 38
       5.353473e-06 2.0142692e-05 -3.3410652e-07 3.856767e-05
000070 c8 44 2b b6 74 18 b1 37 b7 74 a8 36 30 2d 29 b5
       -2.5521022e-06 2.1111431e-05 5.0203776e-06 -6.302316e-07
000080 20 d2 23 37 86 74 8a 38 40 c7 bd 38 52 77 05 b7
       9.764481e-06 6.602057e-05 9.0493355e-05 -7.955199e-06
000090 16 2b 99 38 5a 18 40 b7 ca 2e 0e 38 81 ec 21 b9
       7.303634e-05 -1.1449762e-05 3.3899014e-05 -0.00015442261
0000a0 6d ac 40 36 c0 47 9f b7 28 9c c1 37 84 40 99 36
       2.8710595e-06 -1.8987688e-05 2.3080109e-05 4.567266e-06
0000b0 07 12 11 38 0e e3 34 38 15 26 7c 38 fa 01 a2 b8
       3.4587483e-05 4.3126805e-05 6.011695e-05 -7.72513e-05
0000c0 7e 7d 1f b8 66 1b 27 b5 b5 69 56 38 88 26 21 37
       -3.8025428e-05 -6.225222e-07 5.1120023e-05 9.605319e-06
0000d0 c5 58 99 37 11 c7 81 37 5a 19 fe b8 00 ec 72 33
       1.8280358e-05 1.5470696e-05 -0.00012116386 5.6559657e-08
0000e0 ae 91 d0 35 28 67 70 37 5d 6f 92 37 99 ce 81 b8
       1.5539606e-06 1.4329133e-05 1.7456414e-05 -6.189681e-05
0000f0 16 d8 4f 38 2a 7b 37 b7 52 4e c5 b7 ec 51 90 36
       4.955389e-05 -1.0936326e-05 -2.35207e-05 4.3010714e-06
000100 80 c8 ac b5 d2 f5 60 37 e0 23 7a 36 d7 24 c2 37
       -1.2873352e-06 1.3408675e-05 3.7273785e-06 2.3143757e-05
000110 c0 89 48 b8 e9 62 be b7 19 42 ea 37 2a ec 9c b7
       -4.7812006e-05 -2.2695824e-05 2.7925753e-05 -1.8706622e-05
000120 76 31 ae b7 bb b1 ab b8 d1 be 41 b7 df fc 86 37
       -2.0765448e-05 -8.18702e-05 -1.1548124e-05 1.6091797e-05
000130 44 d2 25 37 47 b2 40 37 50 88 00 b7 da 76 08 38
       9.883723e-06 1.14856e-05 -7.661132e-06 3.2535616e-05
000140 2e dd 2e 37 ce 58 7f 37 3e 8a d1 38 35 f0 1b b8
       1.0422706e-05 1.5219861e-05 9.991646e-05 -3.717859e-05
000150 c0 6b e6 37 07 da a5 38 65 3b 21 b9 a6 f5 e4 b7
       2.7468312e-05 7.908424e-05 -0.00015376283 -2.7294107e-05
000160 63 3d dc b7 56 e7 b8 37 6d cb 0c 38 7c bd 80 b8
       -2.625463e-05 2.2042233e-05 3.3568056e-05 -6.13881e-05
000170 ec f7 11 36 44 4d d1 b8 c9 5d 46 37 c0 b7 d9 38
       2.1750993e-06 -9.9802885e-05 1.1823556e-05 0.000103815924
000180 58 58 07 38 c0 ad a7 36 3c c5 36 37 82 e0 1a b8
       3.2268785e-05 4.997215e-06 1.0893968e-05 -3.692555e-05
000190 71 f5 cb 36 53 ba 11 39 6d fa 1f 38 26 b9 ef b8
       6.0784446e-06 0.00013897689 3.814178e-05 -0.00011430895
0001a0 3e 64 11 b6 00 03 e4 33 a4 4c 24 b6 d7 00 ea 37
       -2.1665032e-06 1.0617623e-07 -2.4482515e-06 2.7895365e-05
0001b0 fe f8 3c 38 36 99 33 b8 da 7d 0f b7 43 cf 04 b9
       4.5054585e-05 -4.2819614e-05 -8.552766e-06 -0.00012665712
0001c0 23 0c 08 b7 c4 b2 08 38 f8 12 0d b9 81 47 72 37
       -8.1090575e-06 3.2591415e-05 -0.00013453874 1.4440972e-05
0001d0 82 6f 0f b7 b4 b1 64 b8 71 64 cd b8 01 60 5c b7
       -8.549427e-06 -5.4524935e-05 -9.7938704e-05 -1.31353745e-05
0001e0 78 23 34 b7 44 72 c7 b7 f3 c1 24 37 73 fd 14 b9
       -1.0737094e-05 -2.3775858e-05 9.820319e-06 -0.00014208797
0001f0 88 66 68 b6 b0 4f 05 b9 e3 27 c2 37 6c 41 b5 b8
       -3.4630375e-06 -0.00012713554 2.3145176e-05 -8.642938e-05

exp_avg_sq f4 [128]
000000 d1 bb dc 30 d3 41 c4 2d 5b 2c b8 30 28 ce 29 2e
       1.6060487e-09 2.2311852e-11 1.3400369e-09 3.8609255e-11
000010 f0 c4 7b 2e 35 01 7c 2f be 4c ca 2c a4 1c 53 2f
       5.7245708e-11 2.2919695e-10 5.7497054e-12 1.9200513e-10
000020 bc 46 dd 30 fa bb 98 30 98 2b 5a 2e f8 d3 7f 31
       1.609997e-09 1.1112882e-09 4.960618e-11 3.7227874e-09
000030 f2 2f bf 30 7b 8d e9 2f 71 c0 d8 31 03 8e 32 31
       1.3910706e-09 4.248298e-10 6.3083054e-09 2.5983133e-09
000040 18 e1 91 2b e6 d6 58 30 ef fa 5b 31 dd 81 c6 2f
       1.0365346e-12 7.888573e-10 3.2011334e-09 3.6108264e-10
000050 73 32 13 32 e2 bc a0 2d 81 52 ae 2d 32 6e bf 30
       8.567997e-09 1.8273775e-11 1.9818149e-11 1.3928398e-09
000060 ca 6a 7b 2c c7 ce 82 2e b2 1b 00 2f 86 57 38 30
       3.5728525e-12 5.9484466e-11 1.1651372e-10 6.706319e-10
000070 fc 25 26 2d ee 0e f3 30 5e 65 1e 2d 7f da 9b 2e
       9.444442e-12 1.768482e-09 9.003768e-12 7.0873966e-11
000080 4e 07 3d 2e 59 9a 6b 31 c5 f6 99 31 be dc 9b 30
       4.2980113e-11 3.4284737e-09 4.4809405e-09 1.1340473e-09
000090 17 f2 86 31 24 63 66 2f 1e 58 ab 2f 2a 1b 11 32
       3.9274357e-09 2.09536e-10 3.116733e-10 8.446287e-09
0000a0 df 89 e8 30 0c 6a bf 30 e6 cf 31 2f 94 56 82 31
       1.6919407e-09 1.3927219e-09 1.6171917e-10 3.7933408e-09
0000b0 08 85 51 30 1d bd 7e 31 f8 77 2b 30 62 84 d1 30
       7.6222806e-10 3.7069363e-09 6.2379923e-10 1.5244377e-09
0000c0 a1 1f 49 31 d5 a3 e4 30 ba 9f 27 30 be d4 9f 2f
       2.9267329e-09 1.6635747e-09 6.098123e-10 2.9073094e-10
0000d0 64 68 38 30 ce 8d 61 30 e6 7e 80 31 cd 5c 04 31
       6.708716e-10 8.205604e-10 3.739717e-09 1.926128e-09
0000e0 08 49 52 2d b2 95 2d 2f f3 f0 80 2f c9 9a ce 31
       1.1953334e-11 1.5787441e-10 2.345427e-10 6.012986e-09
0000f0 11 79 92 30 c4 f1 6f 2e 67 53 27 30 ca b5 1c 2f
       1.0657307e-09 5.455704e-11 6.087277e-10 1.4252702e-10
000100 87 2d a1 2e 44 43 86 30 72 9d 34 2e 7a bd 2e 2f
       7.3295196e-11 9.768901e-10 4.10671e-11 1.5892523e-10
000110 47 8f 5a 31 46 81 9a 2f 9f 62 33 31 fc 15 92 30
       3.180462e-09 2.810429e-10 2.6103988e-09 1.0629146e-09
000120 95 37 e5 2f b4 0d a3 31 82 5d 3a 2e 2d c9 8a 2e
       4.169435e-10 4.7454822e-09 4.2374555e-11 6.3112494e-11
000130 98 7f 6c 30 20 2c 74 30 af b4 05 30 f9 79 8c 30
       8.603762e-10 8.882939e-10 4.8641885e-10 1.0221007e-09
000140 69 fd da 30 cf f9 2e 31 b1 fc 69 31 40 5c 22 30
       1.5933611e-09 2.5462332e-09 3.40496e-09 5.906635e-10
000150 fe 8f 13 2f 84 23 bc 31 38 73 26 31 63 76 00 30
       1.3420728e-10 5.475558e-09 2.4221674e-09 4.6734366e-10
000160 bc 90 88 2f 97 e6 9d 30 89 e6 65 30 6d 63 27 31
       2.4841096e-10 1.1488791e-09 8.3637325e-10 2.4358215e-09
000170 5c ca b2 30 fc eb 80 31 11 e8 2f 30 e6 fb a1 31
       1.3008719e-09 3.7521186e-09 6.3994415e-10 4.7143542e-09
000180 c2 3f 98 30 55 76 c7 31 f7 85 06 30 a9 d1 41 30
       1.1077577e-09 5.805115e-09 4.893929e-10 7.0510936e-10
000190 2f bb 31 2f e0 a6 e2 31 3a 0f 90 30 b9 fe 4b 31
       1.6164557e-10 6.596437e-09 1.0481707e-09 2.968518e-09
0001a0 84 fa 56 2f 47 27 9b 30 a5 50 3b 2f f1 52 c6 2e
       1.9552188e-10 1.1288898e-09 1.7036202e-10 9.018731e-11
0001b0 43 87 9e 30 5e a6 68 31 15 6b e1 2c 73 91 a4 32
       1.1534457e-09 3.3855012e-09 6.406773e-12 1.9158255e-08
0001c0 3c b7 42 31 e8 78 84 31 e6 75 67 32 0b 72 fc 30
       2.8334872e-09 3.855451e-09 1.3472777e-08 1.8367826e-09
0001d0 a1 e0 24 31 4a b5 c8 30 77 fa 1b 31 a4 31 06 30
       2.3992828e-09 1.4603441e-09 2.2697841e-09 4.881946e-10
0001e0 43 32 97 30 e2 ab 39 30 ed cd 57 30 73 6d 52 32
       1.1000981e-09 6.754687e-10 7.850918e-10 1.2248495e-08
0001f0 1a 97 3f 30 9c 71 15 32 d7 1a 01 32 f2 c8 07 32
       6.9700123e-10 8.698773e-09 7.514891e-09 7.903724e-09
