results/ppo/MoveToGoal/MoveToGoal-2028.pt (torch, 149081 bytes, 12 tensors)

network_body._body_endoder.seq_layers.0.weight f4 [128, 6]
000000 a8 83 a5 3d 1a a4 67 be f2 c9 16 bd f3 ad f9 bc
       0.08081752 -0.22621194 -0.036813684 -0.030478453
000010 e3 c0 1e bf dd a4 8e 3d c6 b4 14 be 33 ea ac be
       -0.6201307 0.06965039 -0.14522085 -0.3377243
000020 02 71 a6 bd 92 4a 0a bf ae a0 44 bf 55 10 54 bd
       -0.08127023 -0.54020035 -0.7680768 -0.051773388
000030 f2 c4 4f bf fc fc fe be 52 0f fb 3c 51 ac 10 be
       -0.8115989 -0.49802387 0.030646954 -0.14128233
000040 f1 4f 01 3d 59 55 a2 bd 7b e5 ca 3e a0 ef 88 be
       0.03157038 -0.07926435 0.39628205 -0.2674532
000050 bb 51 aa be b9 2e b1 3d 45 49 43 bf 14 77 85 bf
       -0.3326548 0.0865149 -0.76283675 -1.0426965
000060 c9 f9 62 be 6e c9 bb 3e 75 c0 16 bf 71 ae ad 3e
       -0.22165598 0.36677116 -0.58887416 0.3392215
000070 9e 79 ec 3e 03 93 c9 3e 33 4b 03 3f ab b7 05 bf
       0.46186537 0.39369974 0.5128662 -0.5223338
000080 20 91 b5 be a2 51 e6 3e eb fe 8e bc 00 0d 56 3e
       -0.35462284 0.44984156 -0.017455539 0.20903397
000090 36 d2 16 3f 70 08 e3 bb 96 3a 2c bf 67 f8 1d 3f
       0.58914506 -0.006928496 -0.67276895 0.61707157
0000a0 42 b2 f0 bc ed 4e 42 3f ee 69 6c bf d4 34 f7 3d
       -0.029381875 0.7590168 -0.92349136 0.12070623
0000b0 3c 03 17 3f 38 ca 0b 3f c6 c2 24 be 10 f8 af be
       0.5898931 0.54605436 -0.16089925 -0.34368944
0000c0 2b d8 e4 be 0d ff 12 bf 68 ca 4c be 18 2b 2e bd
       -0.44696173 -0.57420427 -0.19999087 -0.042521566
0000d0 fc bb 16 3d 93 f2 ce be 3a 5c 78 bf bf 15 18 3f
       0.03680037 -0.40419444 -0.97015727 0.5940818
0000e0 80 13 47 be 19 b5 8a 3e 40 7c 2b 3d 1b fd d5 be
       -0.19441032 0.27091292 0.04186654 -0.41794667
0000f0 b3 ff 06 3f 66 a8 bf 3c 43 08 10 3f 72 fa 8a 3e
       0.52733916 0.023395728 0.56262606 0.271442
000100 26 1c 18 bf 75 f4 99 3d 8c cf b2 bd b1 1e d5 3e
       -0.5941795 0.075173296 -0.08730993 0.41624978
000110 2b 43 0c 3f 25 0c 8d bd 03 b1 9f 3e 4d b0 98 bf
       0.5478999 -0.06887082 0.31189737 -1.1928803
000120 cb d9 5e 3d f0 19 b6 3d bd 92 bf bd 27 d0 d8 be
       0.054406922 0.08891666 -0.0935416 -0.42346308
000130 30 5a 8c bf 5d 2e 24 3d 32 35 17 3e 67 28 4b 3d
       -1.0965023 0.040083278 0.14766386 0.049599078
000140 a4 30 0a 3f b7 6f 13 3e c1 28 57 be 33 2c 07 be
       0.5398047 0.14398085 -0.2101164 -0.13200454
000150 69 71 0d bd 75 9c 82 3e 4c 52 d6 3e d1 bc 03 be
       -0.034531984 0.25509992 0.41859663 -0.12864996
000160 bc 07 86 3e 84 6b 0a 3e 32 c0 a5 bd 49 5a 2b bd
       0.26177776 0.13517576 -0.08093299 -0.04183415
000170 dc 8d a6 3e 52 32 b9 be e0 9d 97 be 69 be 4d 3f
       0.32530105 -0.36171204 -0.29612637 0.8036867
000180 89 cc 6a 3d 67 ce 73 3f ac d9 e2 bd 82 ea 93 bd
       0.057323966 0.9523682 -0.11076674 -0.07222463
000190 72 25 01 bf a5 14 58 3f dd 39 7d be b5 ff 7a 3e
       -0.5044776 0.844065 -0.24729104 0.24511607
0001a0 79 87 22 bf f5 26 92 bc c8 0d fc 3e 0c 57 78 bd
       -0.63487965 -0.017840842 0.49229264 -0.06062989
0001b0 3b 81 49 3f 9c bf ce bd a9 e3 e5 3d dd 33 61 be
       0.78712815 -0.1009514 0.11225063 -0.2199244
0001c0 21 c8 8e bc 19 db 8f bf 55 31 94 be 4a 1e 8b 3e
       -0.017429413 -1.1238738 -0.28943887 0.27171546
0001d0 93 f6 9b 3e 99 97 1f 3f 5d 96 e2 be 82 ad 8f be
       0.3046156 0.62340695 -0.44255343 -0.28062063
0001e0 25 53 73 bd 37 d2 b4 be c0 f1 b8 bd fe 27 b4 3c
       -0.059405465 -0.3531663 -0.09030485 0.021991726
0001f0 2e 9c 15 3f 12 32 31 bd 3c 11 26 3f 83 dd 28 bf
       0.58441436 -0.04326064 0.6487005 -0.65963
000200 78 7f 94 3b 5b 14 51 be 74 5d 75 3e 6b a7 00 3f
       0.004531797 -0.20417921 0.23961431 0.5025546
000210 33 a6 10 bf 29 c1 00 bf b6 23 b4 3c b1 ab 91 bd
       -0.565036 -0.5029474 0.021989685 -0.07112826
000220 54 9a 05 3f 16 8d 29 3e 4b 99 35 3e 0b b9 cf be
       0.5218861 0.16557726 0.17734258 -0.40570864
000230 2f 91 9e 3e ab 87 83 3b 03 2b 07 3f c6 41 20 3f
       0.3097014 0.0040139756 0.52800006 0.6260036
000240 6c 77 94 3d d2 b8 0e 3f 29 b2 c1 bd 30 9b ed 3e
       0.072493404 0.55750763 -0.094578095 0.4640746
000250 37 19 84 3d 2b 68 d9 be a3 d5 58 be a4 fc 7e be
       0.06450122 -0.42462286 -0.21175246 -0.24901062
000260 d3 b0 44 bf 00 e9 7c 3f 27 24 0c 3f 18 11 f9 be
       -0.7683231 0.9879303 0.54742664 -0.48645854
000270 f9 6e fe be 15 2e a6 3d 08 84 76 be 4c a0 fd 3c
       -0.4969404 0.08114258 -0.24073803 0.030960225
000280 a5 ca ab be c9 b1 1b bd ef 9e 89 be 1c b0 52 bf
       -0.33553043 -0.038011346 -0.2687907 -0.8229997
000290 bd 83 34 3d 48 34 3f 3e a8 6b f2 be 1d 9a db 3e
       0.044070948 0.18672287 -0.4734776 0.42891017
0002a0 13 d4 a4 3e 51 c7 a9 bd c9 3b 0a bf 26 31 5b 3d
       0.3219305 -0.0828997 -0.53997475 0.05351367
0002b0 7f 2a 7d 3d d1 c8 13 bf 7f 6d ff be a1 59 c3 be
       0.061808106 -0.57728297 -0.49888226 -0.3815432
0002c0 5e f5 6e 3f 88 43 63 3e e8 de 4f be 10 b9 b1 3e
       0.9334315 0.2219373 -0.20299876 0.34711504
0002d0 cb 97 f4 bd c8 f8 d4 be ba 1c 84 3f 52 52 25 3f
       -0.11943015 -0.41596055 1.0321267 0.64578736
0002e0 65 8e 0b bf 37 45 02 bf fe ce 26 be 45 26 8f 3e
       -0.5451415 -0.50886863 -0.16289899 0.27958885
0002f0 2f 94 a0 be 11 78 e5 bc 87 58 98 be f5 9d 71 bf
       -0.31363055 -0.028011354 -0.2975504 -0.9438165
000300 ea 86 3b 3e b2 2c d7 3e 88 dd 1b bf 5d f0 e1 be
       0.18313184 0.42026287 -0.60884905 -0.44128695
000310 2e 3e ec bd 2f a2 6b be 7d ae 0c be 51 3a 6a 3e
       -0.11535297 -0.23011087 -0.13738437 0.22873808
000320 7b 17 a6 3d 48 20 a3 3d 16 59 60 bd 4a b3 f5 3d
       0.08109947 0.079651415 -0.05477246 0.11997087
000330 28 da 62 3f 17 18 08 bf 14 cf 8f 3e b0 47 aa be
       0.8861413 -0.5316176 0.28087676 -0.33257818
000340 69 69 b0 3d 29 ed e2 3e 52 66 57 be 6e 53 cb be
       0.086138554 0.44321564 -0.21035126 -0.3971209
000350 9d d5 96 3e 05 a8 0a 3f 7a 0f c0 be c0 73 a4 be
       0.2945985 0.5416263 -0.37511808 -0.3211956
000360 ce 88 ac be 25 2b 81 3d c2 1c e5 3e 83 bc df 3e
       -0.33698124 0.06307057 0.44748503 0.4369851
000370 56 db 5c 3d b3 6d 8b bd 02 80 9f 3d 15 1a 83 bd
       0.053920113 -0.06808033 0.077880874 -0.06401459
000380 26 b5 82 3f 64 ed ea 3e b1 6a 97 3e 9a 96 22 3e
       1.0211532 0.4588424 0.29573587 0.15877762
000390 74 04 10 bf 30 aa ee be 67 05 8c 3d d5 48 11 bd
       -0.56256795 -0.46614218 0.06836968 -0.03546985
0003a0 57 8a 74 be d7 82 c9 3e f7 4f 15 bf ab fd 93 3e
       -0.23880897 0.39357635 -0.5832514 0.2890447
0003b0 b6 cc d9 be 5e f7 17 3e b3 3b 9e bf 13 b6 63 3e
       -0.42538995 0.14840457 -1.2361969 0.22237425
0003c0 56 c9 3a bf e8 0f d0 be 3a 78 ba 3e f6 7d 75 be
       -0.72963464 -0.40637136 0.3641985 -0.23973832
0003d0 0d bb 17 be 67 c8 f9 be 9e 43 cf bc 7d 6c a8 bd
       -0.14817448 -0.48785707 -0.025300797 -0.082238175
0003e0 1f 51 1a 3d 31 ce 44 3e 95 cf 39 3f 02 c5 9d be
       0.03767502 0.19219281 0.7258237 -0.30814368
0003f0 a4 13 89 be e8 ad 90 3e 87 4c 4f be 2d 43 fb 3c
       -0.26772797 0.2825768 -0.20244037 0.03067168

network_body._body_endoder.seq_layers.0.bias f4 [128]
000000 00 00 00 00 00 00 00 00 00 00 00 00 00 00 00 00
       0.0 0.0 0.0 0.0
000010 00 00 00 00 00 00 00 00 00 00 00 00 00 00 00 00
       0.0 0.0 0.0 0.0
000020 00 00 00 00 00 00 00 00 00 00 00 00 00 00 00 00
       0.0 0.0 0.0 0.0
000030 00 00 00 00 00 00 00 00 00 00 00 00 00 00 00 00
       0.0 0.0 0.0 0.0
000040 00 00 00 00 00 00 00 00 00 00 00 00 00 00 00 00
       0.0 0.0 0.0 0.0
000050 00 00 00 00 00 00 00 00 00 00 00 00 00 00 00 00
       0.0 0.0 0.0 0.0
000060 00 00 00 00 00 00 00 00 00 00 00 00 00 00 00 00
       0.0 0.0 0.0 0.0
000070 00 00 00 00 00 00 00 00 00 00 00 00 00 00 00 00
       0.0 0.0 0.0 0.0
000080 00 00 00 00 00 00 00 00 00 00 00 00 00 00 00 00
       0.0 0.0 0.0 0.0
000090 00 00 00 00 00 00 00 00 00 00 00 00 00 00 00 00
       0.0 0.0 0.0 0.0
0000a0 00 00 00 00 00 00 00 00 00 00 00 00 00 00 00 00
       0.0 0.0 0.0 0.0
0000b0 00 00 00 00 00 00 00 00 00 00 00 00 00 00 00 00
       0.0 0.0 0.0 0.0
0000c0 00 00 00 00 00 00 00 00 00 00 00 00 00 00 00 00
       0.0 0.0 0.0 0.0
0000d0 00 00 00 00 00 00 00 00 00 00 00 00 00 00 00 00
       0.0 0.0 0.0 0.0
0000e0 00 00 00 00 00 00 00 00 00 00 00 00 00 00 00 00
       0.0 0.0 0.0 0.0
0000f0 00 00 00 00 00 00 00 00 00 00 00 00 00 00 00 00
       0.0 0.0 0.0 0.0
000100 00 00 00 00 00 00 00 00 00 00 00 00 00 00 00 00
       0.0 0.0 0.0 0.0
000110 00 00 00 00 00 00 00 00 00 00 00 00 00 00 00 00
       0.0 0.0 0.0 0.0
000120 00 00 00 00 00 00 00 00 00 00 00 00 00 00 00 00
       0.0 0.0 0.0 0.0
000130 00 00 00 00 00 00 00 00 00 00 00 00 00 00 00 00
       0.0 0.0 0.0 0.0
000140 00 00 00 00 00 00 00 00 00 00 00 00 00 00 00 00
       0.0 0.0 0.0 0.0
000150 00 00 00 00 00 00 00 00 00 00 00 00 00 00 00 00
       0.0 0.0 0.0 0.0
000160 00 00 00 00 00 00 00 00 00 00 00 00 00 00 00 00
       0.0 0.0 0.0 0.0
000170 00 00 00 00 00 00 00 00 00 00 00 00 00 00 00 00
       0.0 0.0 0.0 0.0
000180 00 00 00 00 00 00 00 00 00 00 00 00 00 00 00 00
       0.0 0.0 0.0 0.0
000190 00 00 00 00 00 00 00 00 00 00 00 00 00 00 00 00
       0.0 0.0 0.0 0.0
0001a0 00 00 00 00 00 00 00 00 00 00 00 00 00 00 00 00
       0.0 0.0 0.0 0.0
0001b0 00 00 00 00 00 00 00 00 00 00 00 00 00 00 00 00
       0.0 0.0 0.0 0.0
0001c0 00 00 00 00 00 00 00 00 00 00 00 00 00 00 00 00
       0.0 0.0 0.0 0.0
0001d0 00 00 00 00 00 00 00 00 00 00 00 00 00 00 00 00
       0.0 0.0 0.0 0.0
0001e0 00 00 00 00 00 00 00 00 00 00 00 00 00 00 00 00
       0.0 0.0 0.0 0.0
0001f0 00 00 00 00 00 00 00 00 00 00 00 00 00 00 00 00
       0.0 0.0 0.0 0.0

network_body._body_endoder.seq_layers.2.weight f4 [128, 128]
000000 0c 2a c4 bd a3 b1 0e 3d 44 f3 ad 3d c5 57 80 3d
       -0.09578332 0.034837376 0.08493665 0.06266741
000010 ad 1c 28 3e 8a f9 b1 3d ca 28 2c 3d ab 72 3f bc
       0.16417189 0.08690174 0.042031087 -0.011685054
000020 a4 d4 4c 3d e9 28 57 bd 68 0b 2e 3c 15 c6 53 b9
       0.050007477 -0.05252925 0.010622837 -0.0002019632
000030 4c 11 37 bd 0d 79 fb bc ab 4a b4 3d 50 07 df bd
       -0.04469423 -0.03069737 0.08803304 -0.108900666
000040 66 c5 98 3c 7b 3e 7e bd 5b 9b 29 be 17 51 93 bb
       0.018648814 -0.062071305 -0.1656317 -0.0044957506
000050 02 ce 0d 3e 06 55 84 bd b7 25 33 bc cf fd 18 3d
       0.13848117 -0.064615294 -0.010934285 0.037351426
000060 64 81 73 bd 73 c8 3b be 77 f1 58 bc e7 05 e8 bd
       -0.05944957 -0.18338184 -0.013241163 -0.11329251
000070 ad f8 05 3d 53 b1 9a 3d 3a d3 54 bd ef 56 96 bd
       0.03270786 0.07553353 -0.051959254 -0.073408
000080 a3 4a 8a bb 5d 1d 0f 3d 0e 10 92 3d f4 14 24 bd
       -0.004220323 0.034940112 0.071319684 -0.040059045
000090 54 82 ed bc 24 64 91 bc e4 95 a4 bd 0c 7f 14 bd
       -0.02899281 -0.017747946 -0.08036402 -0.036253974
0000a0 a8 8e 33 bd ad b1 74 3b 2e 1f 8e bd dd ca dd 3d
       -0.04383722 0.0037337348 -0.06939541 0.10829709
0000b0 79 0b 62 3c d0 ab 77 bd 65 aa 9f 3d ad 13 49 bd
       0.013796681 -0.060466588 0.07796172 -0.04909103
0000c0 ba 95 3f 3e 51 2e 0d 3c e7 9d 52 3c 75 29 d5 3d
       0.1870946 0.008617 0.01285503 0.10408298
0000d0 6b fe 7d 3d 35 c0 52 3d c1 91 50 3d d9 10 de bd
       0.06201021 0.051452834 0.05092025 -0.10843057
0000e0 88 43 7b 3d 19 bd 82 bd 3a 1a e6 3d ea 9d a0 bc
       0.0613437 -0.06383724 0.11235471 -0.01960655
0000f0 3d 5c 25 be 05 f0 a0 bd 61 a9 97 3b b7 ca 9f 3d
       -0.16148467 -0.0785828 0.004628346 0.07802337
000100 91 bc f3 bb 4b ff 74 3d ca 04 36 3c 80 37 94 3d
       -0.0074382504 0.05981378 0.01110954 0.07237148
000110 0f d2 59 bd 4e 5f 13 3d 92 81 33 be 7d c0 a0 bd
       -0.053178843 0.03597956 -0.17529896 -0.07849214
000120 4f 4c fa 3c 42 4b b9 bd 24 19 49 be 08 85 7c bd
       0.030553965 -0.090475574 -0.19638497 -0.061650306
000130 d0 2c f1 3d de 1e 67 3e e8 96 cf 3c 5c 4a 86 bd
       0.117761254 0.22570369 0.025340512 -0.06557152
000140 c2 9f 37 3d 68 e3 9c 3d 98 8e 80 bd 48 00 c3 3d
       0.04483009 0.07660562 -0.062771976 0.09521538
000150 e9 e0 d2 3d 7e 53 4c b9 47 78 d3 3d 46 05 b4 3d
       0.102968045 -0.0001948606 0.103256755 0.08790068
000160 7b f2 a9 bd e1 c7 39 3d ca 6e f9 bc bf 16 e3 3c
       -0.082982026 0.045356635 -0.030448336 0.027720807
000170 a3 b8 07 bd de cf 50 bd c7 c1 c6 3d 12 4b 78 bd
       -0.033135068 -0.050979488 0.09704929 -0.060618468
000180 9f f1 15 3d 00 f5 c7 3d 83 43 b7 3d 3b 73 9b 3d
       0.03660738 0.09763527 0.08948424 0.07590338
000190 06 df 81 bc e6 eb 99 3c 9a ab a0 3d af b2 80 3d
       -0.015853416 0.018789243 0.078452304 0.06284081
0001a0 36 97 b8 3d c6 1b 58 3d 05 da ea 3d 32 64 ce bd
       0.09013216 0.05276086 0.11467365 -0.100777045
0001b0 de 06 1f bd 1e 58 f9 3c 1d 54 52 be 7d 94 63 3d
       -0.03882491 0.030437525 -0.20539899 0.05556153
0001c0 db 70 61 bd 94 24 7a 3e b0 d5 1f bc 61 6f de 3c
       -0.055039268 0.24428016 -0.009755537 0.027152719
0001d0 d7 30 91 bc b8 0f c3 3d db 52 53 bd 2c fc 06 bd
       -0.017723484 0.095244825 -0.05159269 -0.032955334
0001e0 d1 96 f3 bc 81 6d 87 3d e8 6f 00 be ac 1b b1 bd
       -0.029735 0.06612683 -0.12542689 -0.08647856
0001f0 72 9c 0d bd 3a d0 00 3d ba 8e ce bd bf ee a9 3d
       -0.034573026 0.03144858 -0.10085817 0.0829749
000200 2b 09 a6 bd 07 2d 8d 3d 47 f5 af 3d 3c 72 e7 bd
       -0.081072174 0.06893354 0.08591705 -0.11301085
000210 e3 a1 bd 3c 7f 73 80 3d ae e3 2b be b2 f3 d3 3d
       0.023148483 0.06272029 -0.16786072 0.103492156
000220 99 af c7 3d 0e 5e 30 3d 61 bd 20 bb 3b 8f 7f bc
       0.097502895 0.043058448 -0.002452694 -0.015598114
000230 42 50 81 bd e6 9f 69 3d d1 07 af 3c 88 18 8d 3d
       -0.06314136 0.057037257 0.021366032 0.068894446
000240 95 bb a2 bc 27 81 35 be 1a d8 1e be 29 88 26 be
       -0.019864837 -0.17725049 -0.15512124 -0.16262878
000250 8e 16 1d 3d c3 80 93 3d 1f 32 de bd 96 97 76 bd
       0.038351588 0.07202294 -0.108494036 -0.060203157
000260 74 a7 3f 3d a0 44 58 3d d8 92 71 3d 6d dc b4 3d
       0.046790555 0.05279982 0.05897793 0.088311054
000270 7f 43 a2 bd b8 20 4c bd ff b4 ff bc 11 df cf bd
       -0.0792303 -0.04983589 -0.031214235 -0.101499684
000280 e7 76 26 be fb 52 a2 3c f9 d0 8b 3b d3 24 73 bd
       -0.16256295 0.019814959 0.004266855 -0.05936129
000290 0b 5a 04 be ea ac 12 3d 0b 37 ba 3d 33 91 92 3d
       -0.12924974 0.035809435 0.0909253 0.07156601
0002a0 9e 4a bf 3d 21 5a da 3d a0 a4 07 3d 7a 42 9f bd
       0.09340404 0.10661722 0.033115983 -0.07776351
0002b0 13 6d e8 bc 3c 06 17 3d 27 00 5b 3d 06 08 e8 ba
       -0.028372323 0.03687118 0.053466942 -0.0017702586
0002c0 7b 2f 9a 3d c3 f0 6c 3d d5 56 60 bc 89 61 96 3c
       0.075285874 0.057846796 -0.013692577 0.018357055
0002d0 26 08 16 bc aa 41 3e bd 3b 69 16 bc e7 a9 89 bc
       -0.009157216 -0.04644934 -0.009180362 -0.016804649
0002e0 ce ae de 3d b5 24 dd bc 64 9e 41 bb 56 6a 9b bd
       0.10873185 -0.026995042 -0.002954387 -0.07588641
0002f0 3e 99 e2 bc cb 5c 99 b9 88 2f 21 be 34 3b e0 bd
       -0.027660962 -0.0002925157 -0.15740788 -0.10948792
000300 40 64 10 bd 02 11 21 be f6 26 37 bd bc bf 8c 3d
       -0.035251856 -0.15729144 -0.04471489 0.06872508
000310 20 4d 3f bc 45 72 be 3d 61 ed de bc 76 d6 34 bd
       -0.011676103 0.09299139 -0.0272128 -0.04414984
000320 62 24 27 3e 74 b0 62 bc 53 b4 2a bd dd 15 24 bd
       0.16322473 -0.013836015 -0.041675877 -0.040059913
000330 2f 5e 48 3d fd d2 9b 3c 96 37 26 3d 97 b4 fb 3d
       0.048917945 0.019021505 0.040580355 0.12290304
000340 d2 59 66 3d 7a 81 28 be 62 e8 74 bd 18 f6 a9 bd
       0.056238003 -0.16455641 -0.05979193 -0.08298892
000350 41 0d a2 bd ca 14 a1 bc 15 07 dc 3d 47 be f4 bb
       -0.07912684 -0.019663233 0.10743538 -0.007468972
000360 04 b2 39 be f4 3a 71 bd 7c 85 cb 3d 31 74 48 3c
       -0.18134314 -0.058894113 0.099375695 0.012234733
000370 ec 20 bf 39 7a 3a ed 3d d9 f7 8f 3d 22 9d 26 bc
       0.00036454888 0.11583419 0.07029695 -0.010169299
000380 98 45 ba 3d e1 b2 11 bc 21 d3 d8 bd 07 fa 61 bd
       0.09095305 -0.008892746 -0.10587145 -0.055170085
000390 47 4b 98 3d 9d 0a 74 3d c9 06 f7 3d 87 d0 6d 3c
       0.07436233 0.059580434 0.12061841 0.014515049
0003a0 95 75 5f 3d df c2 c0 3d 52 00 75 3d ff be c9 bd
       0.054555494 0.09412169 0.05981476 -0.09850883
0003b0 0a a0 20 be 78 99 6b 3d 99 5e bd 3c 3e e1 74 3c
       -0.1568605 0.057519406 0.023116397 0.01494628
0003c0 e8 bb b0 bd 1b 98 79 bd 45 85 4e bd 54 d7 87 bc
       -0.0862959 -0.060936075 -0.050420064 -0.016582169
0003d0 de b7 91 bc ae 13 04 bd 35 55 8c bd 1e 1f ca bc
       -0.01778787 -0.03224533 -0.068521895 -0.024673041
0003e0 7f b8 04 bd f3 60 23 3e f7 7d b7 bd 56 01 de bd
       -0.03240251 0.15954952 -0.08959573 -0.108400986
0003f0 47 e8 b1 3d 8d d1 c0 bc 76 9f 1c bd a0 2f 6e ba
       0.086868815 -0.023537422 -0.03823801 -0.0009086076

network_body._body_endoder.seq_layers.2.bias f4 [128]
000000 00 00 00 00 00 00 00 00 00 00 00 00 00 00 00 00
       0.0 0.0 0.0 0.0
000010 00 00 00 00 00 00 00 00 00 00 00 00 00 00 00 00
       0.0 0.0 0.0 0.0
000020 00 00 00 00 00 00 00 00 00 00 00 00 00 00 00 00
       0.0 0.0 0.0 0.0
000030 00 00 00 00 00 00 00 00 00 00 00 00 00 00 00 00
       0.0 0.0 0.0 0.0
000040 00 00 00 00 00 00 00 00 00 00 00 00 00 00 00 00
       0.0 0.0 0.0 0.0
000050 00 00 00 00 00 00 00 00 00 00 00 00 00 00 00 00
       0.0 0.0 0.0 0.0
000060 00 00 00 00 00 00 00 00 00 00 00 00 00 00 00 00
       0.0 0.0 0.0 0.0
000070 00 00 00 00 00 00 00 00 00 00 00 00 00 00 00 00
       0.0 0.0 0.0 0.0
000080 00 00 00 00 00 00 00 00 00 00 00 00 00 00 00 00
       0.0 0.0 0.0 0.0
000090 00 00 00 00 00 00 00 00 00 00 00 00 00 00 00 00
       0.0 0.0 0.0 0.0
0000a0 00 00 00 00 00 00 00 00 00 00 00 00 00 00 00 00
       0.0 0.0 0.0 0.0
0000b0 00 00 00 00 00 00 00 00 00 00 00 00 00 00 00 00
       0.0 0.0 0.0 0.0
0000c0 00 00 00 00 00 00 00 00 00 00 00 00 00 00 00 00
       0.0 0.0 0.0 0.0
0000d0 00 00 00 00 00 00 00 00 00 00 00 00 00 00 00 00
       0.0 0.0 0.0 0.0
0000e0 00 00 00 00 00 00 00 00 00 00 00 00 00 00 00 00
       0.0 0.0 0.0 0.0
0000f0 00 00 00 00 00 00 00 00 00 00 00 00 00 00 00 00
       0.0 0.0 0.0 0.0
000100 00 00 00 00 00 00 00 00 00 00 00 00 00 00 00 00
       0.0 0.0 0.0 0.0
000110 00 00 00 00 00 00 00 00 00 00 00 00 00 00 00 00
       0.0 0.0 0.0 0.0
000120 00 00 00 00 00 00 00 00 00 00 00 00 00 00 00 00
       0.0 0.0 0.0 0.0
000130 00 00 00 00 00 00 00 00 00 00 00 00 00 00 00 00
       0.0 0.0 0.0 0.0
000140 00 00 00 00 00 00 00 00 00 00 00 00 00 00 00 00
       0.0 0.0 0.0 0.0
000150 00 00 00 00 00 00 00 00 00 00 00 00 00 00 00 00
       0.0 0.0 0.0 0.0
000160 00 00 00 00 00 00 00 00 00 00 00 00 00 00 00 00
       0.0 0.0 0.0 0.0
000170 00 00 00 00 00 00 00 00 00 00 00 00 00 00 00 00
       0.0 0.0 0.0 0.0
000180 00 00 00 00 00 00 00 00 00 00 00 00 00 00 00 00
       0.0 0.0 0.0 0.0
000190 00 00 00 00 00 00 00 00 00 00 00 00 00 00 00 00
       0.0 0.0 0.0 0.0
0001a0 00 00 00 00 00 00 00 00 00 00 00 00 00 00 00 00
       0.0 0.0 0.0 0.0
0001b0 00 00 00 00 00 00 00 00 00 00 00 00 00 00 00 00
       0.0 0.0 0.0 0.0
0001c0 00 00 00 00 00 00 00 00 00 00 00 00 00 00 00 00
       0.0 0.0 0.0 0.0
0001d0 00 00 00 00 00 00 00 00 00 00 00 00 00 00 00 00
       0.0 0.0 0.0 0.0
0001e0 00 00 00 00 00 00 00 00 00 00 00 00 00 00 00 00
       0.0 0.0 0.0 0.0
0001f0 00 00 00 00 00 00 00 00 00 00 00 00 00 00 00 00
       0.0 0.0 0.0 0.0

action_model._continuous_distribution.log_sigma f4 [1, 2]
000000 00 00 00 00 00 00 00 00
       0.0 0.0

action_model._continuous_distribution.mu.weight f4 [2, 128]
000000 01 a2 0b 3c 2d 0f a5 3c 60 e1 63 3c 29 33 0b 3b
       0.008522511 0.020148838 0.013908714 0.002124021
000010 e4 e9 9d 3c 53 6c be bc c7 9d b9 bb bf 1a 71 bc
       0.019276567 -0.023245012 -0.0056645605 -0.014715849
000020 50 0f 16 3d a0 a9 85 3b f6 be bd ba e3 72 81 3c
       0.036635697 0.0040790588 -0.0014476466 0.015801853
000030 6c 2f 01 bd d8 ed 46 bc 18 e8 59 bc 12 8c 4b bb
       -0.031539366 -0.012141667 -0.013299964 -0.003105883
000040 f2 db ce bc 87 2d 88 3b 81 6e cb 3b 58 c6 d1 bc
       -0.025251362 0.004155818 0.0062082415 -0.025607273
000050 63 1c b1 bb 00 3b 80 3c 02 6c b8 3b 60 13 ee ba
       -0.0054049953 0.015653133 0.00562811 -0.0018163733
000060 c2 47 1b bc 5f 01 79 bc 23 d9 2a bc 53 fe 8c bb
       -0.009477558 -0.015198081 -0.010427746 -0.0043027787
000070 a1 f0 a4 bc 45 4f 06 3c 61 c5 95 3a 4f 14 30 bc
       -0.020134272 0.00819761 0.0011426621 -0.010747029
000080 2a 8c 32 3d b5 e1 ef 3b ef e0 70 bc e7 90 8e 3c
       0.043590702 0.0073206075 -0.014702066 0.01740308
000090 74 87 45 3c 9c 6f 1f 3b 34 a8 8b bc a7 0a 12 bd
       0.01205622 0.0024328 -0.017047979 -0.03565469
0000a0 8f 98 aa bb 56 d5 0d bc 4f 13 18 3b 27 94 8f 3c
       -0.0052061747 -0.00865682 0.0023204868 0.0175267
0000b0 e1 8a 8c bc 35 fc 91 3a ed 41 56 bc 88 59 32 bc
       -0.017156066 0.0011137786 -0.013077241 -0.010885604
0000c0 47 55 c7 bb d0 18 96 bc 2d a6 f6 3c 52 03 2b ba
       -0.006083164 -0.018322378 0.030108536 -0.0006523627
0000d0 cb 07 1e bc e5 13 2b bc 2f 93 cb 3b 3b 47 68 3b
       -0.009645413 -0.010441755 0.006212614 0.0035442847
0000e0 c0 4f ce 3c 13 82 e9 bb 27 82 cb 38 87 a0 18 bc
       0.025184512 -0.0071261018 9.704037e-05 -0.009315616
0000f0 fd 01 00 bb 33 e6 94 3a 2f 9a cc 3a 16 b7 bc bc
       -0.0019532435 0.0011360109 0.0015609915 -0.02303652
000100 18 3c 02 3c 87 57 e7 3a d8 1f 02 3d 53 ff 95 bc
       0.007948898 0.0017649987 0.03176865 -0.018310225
000110 6b 15 7f bc 9e ea b8 bc e2 c9 23 bc 38 02 57 bb
       -0.015569071 -0.022572812 -0.009996863 -0.003280772
000120 5f 1b 89 bb db 19 54 3b e8 c4 09 3d 60 18 61 3c
       -0.004184171 0.0032364044 0.03363505 0.013738722
000130 b5 72 18 bc b1 64 3c ba e0 b5 d9 3c f2 1d 11 bc
       -0.009304692 -0.0007186635 0.026575983 -0.008857237
000140 0f c9 49 bc 8f a2 0c 3d 0d b6 7a bb 78 34 60 bb
       -0.0123160025 0.034334715 -0.0038255483 -0.0034210961
000150 dc 34 84 3c b0 6a 88 3c 6e 76 87 3c b7 f0 17 3c
       0.016138487 0.016652435 0.016535964 0.0092736995
000160 c9 1d 18 3c 45 04 5c 3c d1 b4 44 bc 2b 53 e3 bb
       0.009284445 0.013428752 -0.012006001 -0.0069374046
000170 b3 49 ef bb ed 0e 9f 3b 17 9b 6e 3c 80 b9 cc 3b
       -0.007302487 0.004854074 0.0145633435 0.0062476993
000180 25 c7 89 3c 52 dd d4 bb a5 2d 1b bd 8f 75 b3 bb
       0.016818592 -0.00649611 -0.037885327 -0.0054766606
000190 69 18 10 bd 88 a2 fe 3a b9 db c7 bc 5f 23 0e 3c
       -0.03517953 0.00194271 -0.024396764 0.008675425
0001a0 f1 67 45 bc 28 93 7d bc 10 48 4b 39 f2 f4 de bc
       -0.012048707 -0.015476979 0.00019386434 -0.027216408
0001b0 43 26 08 bc a8 77 6e 3b 7b 09 04 3c 50 42 f6 3c
       -0.008309904 0.0036387239 0.008058901 0.030060917
0001c0 96 18 1a 3c 21 5a c0 bc 6f f3 fe bc f2 4b 6e bb
       0.009405276 -0.023480477 -0.031121938 -0.0036361185
0001d0 44 43 08 bd d3 43 ce ba f2 61 6c 3c 05 29 2b 3c
       -0.033267274 -0.0015736766 0.014427649 0.010446792
0001e0 83 25 d1 bb b4 61 27 3c f7 67 09 bb b7 39 c1 bc
       -0.0063826456 0.010216165 -0.002096651 -0.02358709
0001f0 bb 10 3c bd d4 70 19 3c 73 c5 c4 3b 26 c9 2d 3c
       -0.045914393 0.009365279 0.006004983 0.01060704
000200 f7 96 89 3b 37 8f c8 3c e2 a3 bf bc d4 7e 3f 3c
       0.0041989046 0.024482353 -0.023393575 0.011687953
000210 bf c3 22 3c 15 06 d7 bb e7 24 17 bc d5 d3 f2 bc
       0.009934365 -0.0065620043 -0.009225107 -0.029642025
000220 e0 dc d0 3c 0c 26 45 bb bf 89 94 3c 91 92 ab 3c
       0.025495946 -0.0030082492 0.018132089 0.020943912
000230 3d 30 36 3c c5 e8 ce 3b e7 bd 74 bc 5a e2 e7 3c
       0.011119899 0.0063143694 -0.014937854 0.028306175
000240 73 f1 2a 3c 97 bb ec 3c b5 ca c9 3c aa 8c 65 bc
       0.010433543 0.028898044 0.024632791 -0.014010588
000250 1b 92 80 bb 97 ef d7 3c 48 d6 9f 3c e2 86 3e bb
       -0.003923667 0.026359363 0.019511357 -0.0029072096
000260 bf 26 91 bc 66 ee 3f bc 00 1f 23 bd 13 80 f9 3c
       -0.01771867 -0.011714553 -0.039824486 0.030456578
000270 a1 78 01 bc 03 da 8d bb ff 79 68 bc 8f d3 3d bc
       -0.007902295 -0.0043289675 -0.014189242 -0.011586084
000280 9b c1 e5 3a 10 4c f2 3c be 9d 32 bc e3 4f bf 3b
       0.0017529012 0.029577285 -0.0109018665 0.0058383807
000290 5d 70 f0 3a dd 6a d1 bb af 5d f0 3a 43 e9 8f 3c
       0.0018344034 -0.006390913 0.0018338467 0.017567283
0002a0 3c ed af 3b 84 8f 01 bd e2 55 37 bb f9 9f a1 3c
       0.0053688567 -0.031631008 -0.0027974774 0.019729601
0002b0 1f e9 1d 3d f7 ed f0 bc 43 42 45 bc af 2a fe bb
       0.0385524 -0.029410345 -0.012039724 -0.007756553
0002c0 a8 01 d2 bb 6e 78 3b bc 6d a7 ba 3c e7 49 9a 3c
       -0.006408889 -0.011442287 0.022784913 0.018834068
0002d0 b6 dd 39 3b 1d d7 ea 3c a7 ee 00 bd 6c 17 35 3c
       0.002836091 0.028667027 -0.031477597 0.0110529475
0002e0 05 a5 b6 bc 12 82 57 bc 10 85 95 3b a3 3d 80 3c
       -0.022295484 -0.01315357 0.0045629814 0.01565439
0002f0 d2 78 ef bb 19 8c ac bc f8 af 82 bb ac be 82 3c
       -0.007308104 -0.021062898 -0.0039882623 0.01596006
000300 00 fe 61 3c 27 6d 82 bc 70 96 1a bc 55 e0 da bc
       0.0137934685 -0.015921189 -0.009435281 -0.026718298
000310 08 f1 c3 3c c4 4b c6 38 53 7a b6 3b 34 61 1e bb
       0.023918644 9.455488e-05 0.0055687814 -0.0024166824
000320 c3 95 00 3d a9 6c b1 3c 8b 77 c1 3c 67 19 89 ba
       0.031392824 0.021658259 0.023616573 -0.0010459841
000330 57 4f 87 3c 47 2e 8d bb 0b 34 e6 ba eb 7a 98 3b
       0.016517324 -0.004308495 -0.0017563117 0.004653325
000340 5f 4f 9b 3c 0f af cb bc fa b8 ba 3b ad e7 48 bc
       0.018958746 -0.024863748 0.0056983205 -0.012262267
000350 6b e9 47 bc f7 53 9c 3c 10 e6 79 3b fb 11 b3 bc
       -0.012201647 0.019083006 0.0038131513 -0.02185916
000360 28 5d 4c ba 3b ef 14 bb be aa 48 bc be 1d a2 bc
       -0.0007795864 -0.00227256 -0.012247739 -0.019789573
000370 10 b2 a9 bc cd c7 b0 3b b8 86 eb bb af 8b ba bb
       -0.02071479 0.005394912 -0.0071876906 -0.005692921
000380 35 80 4b bb d5 19 16 3c 4d eb 3f bc e1 df 2b 3b
       -0.003105176 0.009161432 -0.011713815 0.0026225972
000390 93 c3 a1 bb a3 19 34 3c d7 37 47 3b 0a 28 06 bb
       -0.0049366443 0.01099244 0.0030398273 -0.0020470642
0003a0 d7 34 7f 3c 4a f0 1b bc bf 81 b1 bc 90 7e 5b 3c
       0.015576563 -0.009517739 -0.021668313 0.013396874
0003b0 82 b7 e9 bc 5e f1 aa 3c 33 20 da 3c b3 3e 72 ba
       -0.028529886 0.020867046 0.026626682 -0.00092409103
0003c0 4a b1 6a 3c 2e bb a6 3c 93 45 00 3d e6 b8 01 3b
       0.014324496 0.020352926 0.03131635 0.0019794046
0003d0 16 d3 91 3b 8f d1 14 bb 00 c8 0d bc f6 6d c9 3c
       0.004450212 -0.0022707914 -0.008653641 0.024588566
0003e0 f8 37 56 3c a4 09 b9 3c f3 73 be 3c 57 33 eb 3b
       0.013074867 0.022587605 0.023248648 0.007177751
0003f0 aa 6f 86 3c 0f b7 84 3c 31 26 30 3d 92 ab d6 37
       0.016410667 0.01620057 0.043005172 2.5590682e-05

action_model._continuous_distribution.mu.bias f4 [2]
000000 00 00 00 00 00 00 00 00
       0.0 0.0

network_body._body_endoder.seq_layers.0.weight f4 [128, 6]
000000 35 b9 bd be 14 8a c5 be 60 27 34 3f f2 ef 19 3f
       -0.37055364 -0.38581908 0.7037258 0.6013175
000010 83 44 c3 be bd f9 1a be b9 97 d2 be 63 d8 e8 be
       -0.38138208 -0.1513433 -0.4113138 -0.4547759
000020 be 5a ec 3d 30 0f d6 3c 91 63 02 bd 5f 5b 8d bd
       0.11540745 0.026130289 -0.031833235 -0.06902193
000030 90 49 0a bf ac b5 4a bf d7 bd 1b be cd 0f 66 bd
       -0.540185 -0.7918346 -0.15209137 -0.056167413
000040 ef 48 e7 3e c5 e3 3c 3f 53 7d ce 3e 09 d1 1a 3e
       0.4517283 0.7378505 0.4032999 0.15118803
000050 3d 1b 33 3e fd 7b 2f 3f 23 c6 25 bf f1 7b fd 3d
       0.1749086 0.68548566 -0.6475546 0.123771556
000060 11 6b 0f 3e 1a 86 de bc 9b d1 18 3f e1 c2 f0 bc
       0.14005686 -0.027163554 0.5969483 -0.0293898
000070 ee ce ed be 8a db 31 bf c9 9e 12 be 17 96 f4 be
       -0.46446937 -0.69475615 -0.14318384 -0.4777076
000080 9b 9d ff bc 7a 35 93 3e b7 46 60 bf 9d 14 7e 3e
       -0.031203082 0.28751737 -0.876079 0.24812551
000090 52 53 ee bd 86 a6 1d 3f 65 7e 5e bf d4 12 bc 3e
       -0.11636986 0.6158222 -0.8691161 0.36733115
0000a0 74 47 67 3e 33 82 d8 be 56 70 21 be 60 6e 42 3f
       0.22585851 -0.42286834 -0.15765509 0.7594967
0000b0 29 94 0f 3e a6 f5 a2 be fc de 59 3e 8b 59 25 3e
       0.14021362 -0.3182804 0.21276468 0.16147439
0000c0 c4 eb 78 3d 27 e6 f6 be 15 42 18 bf 59 61 a3 3e
       0.06077172 -0.48222467 -0.59475833 0.31910208
0000d0 3b af 0d 3e bb 07 87 3e 04 e3 39 3f 94 19 a4 3e
       0.13836376 0.26373085 0.72612023 0.32050765
0000e0 fe b0 49 3e 51 b6 12 3f ce f6 52 3d 92 dd 07 3f
       0.19696423 0.5730944 0.051504903 0.53072464
0000f0 0a 36 71 bf c9 42 92 be 33 38 0a 3e db 68 eb 3c
       -0.9422308 -0.28566578 0.13498001 0.028736522
000100 fd d4 ac be e3 29 95 3d ea 73 27 bf 01 5c 36 3b
       -0.33756247 0.0728338 -0.65411246 0.0027825835
000110 9d b8 df be 2b 40 06 ba c5 11 15 bd 9d 5b 80 3f
       -0.43695536 -0.0005121256 -0.0363939 1.0027958
000120 8d 17 66 3e 38 22 6e bf 66 ce 1c bd 8c 2f 8c bd
       0.22469921 -0.93020964 -0.038282774 -0.06845006
000130 90 b8 66 bd 7a 9c 97 be 64 b6 f6 3d f0 c9 02 3e
       -0.056328356 -0.2961157 0.12046507 0.12772346
000140 b7 a3 06 3f 1c 19 9c bf 0a eb 33 3e d1 32 ba 3e
       0.5259356 -1.2195163 0.17570129 0.36366895
000150 6e 7a f4 be d9 21 a2 be 11 16 53 3e 51 07 ac bd
       -0.47749656 -0.3166645 0.20613886 -0.08399833
000160 4e 28 04 bf 6b 5b bc 3d a9 07 72 3e ae d6 a4 3e
       -0.51624 0.09197124 0.23635735 0.32195038
000170 23 e7 16 3e 99 dd 5f be 21 7b 90 be 6b 8e 11 3f
       0.14736609 -0.21861877 -0.2821894 0.5685794
000180 a0 c3 40 3e 8d 24 c4 be 5e aa d4 3e 66 31 d6 3e
       0.18824625 -0.38309136 0.4153623 0.41834563
000190 17 48 34 3f 39 bc 6d be ab 5c 1c be 5a b6 11 3f
       0.704225 -0.23216332 -0.15269725 0.5691887
0001a0 e8 39 e4 be 68 16 da bd 98 70 16 bf a5 da 29 3e
       -0.4457543 -0.10648805 -0.58765554 0.16587313
0001b0 cf 1c 2f be 35 5e c5 3e d2 5e 0d bf 46 1f 99 be
       -0.17100833 0.38548437 -0.5522281 -0.29906672
0001c0 9a 65 a1 be e9 10 80 be 2e 0f 91 be 83 61 e0 3d
       -0.31522828 -0.250129 -0.28331894 0.10956099
0001d0 40 bc 31 bd a4 8d 1f bf 76 14 d9 be d1 82 59 3e
       -0.04339242 -0.623255 -0.42398423 0.21241309
0001e0 73 7e dd bd 7a f8 c7 bd 45 19 78 3b 9e 69 8e 3e
       -0.10815134 -0.0976419 0.0037856859 0.27814955
0001f0 d5 92 ca bd 75 6b 9f 3d 10 f5 5d be 12 12 7d 3d
       -0.09891287 0.07784168 -0.21675515 0.06178481
000200 20 57 ad 3e e5 e2 5a 3e bf e3 e6 be 89 16 93 3e
       0.33855534 0.21375616 -0.4509563 0.2872813
000210 00 36 c5 3d b2 63 df be 4d 7b 37 3e f3 d2 8c 3e
       0.0962944 -0.4363075 0.1791813 0.2750469
000220 89 8a 07 bf 53 89 52 be c4 ba 0e 3f f2 20 e3 be
       -0.5294576 -0.20560198 0.5575373 -0.44361073
000230 d5 3a b9 3a 16 fd 4a bf 39 98 20 be 70 7a 02 bf
       0.0014131913 -0.7929243 -0.15683068 -0.50968075
000240 cb 13 ad 3c 39 47 ff be 32 ee dd be 53 76 14 bf
       0.021127602 -0.49859026 -0.4334579 -0.5799305
000250 82 44 e7 be e9 09 e1 3e 9c c1 39 be e8 be 01 be
       -0.45169455 0.43952873 -0.18140262 -0.12670481
000260 38 e3 8e be 93 2f 4f 3f b4 79 81 bf a7 47 85 bd
       -0.2790773 0.8093197 -1.0115266 -0.06507807
000270 12 dd 8f 3f 98 66 0c 3f 46 ef f1 3e 06 38 51 be
       1.123934 0.54844046 0.47252864 -0.20431527
000280 64 fe 10 3e 83 08 83 ba 3f d3 00 bf 67 7b e5 3e
       0.14159542 -0.0009997044 -0.50322336 0.4482071
000290 0b ff 1c bd d4 ce f7 3e 49 71 c5 3e a6 78 85 bf
       -0.038329165 0.48399985 0.38562992 -1.0427444
0002a0 48 44 e3 be aa da 81 3e ca 03 c8 3e 8e ba 00 be
       -0.44388032 0.2536214 0.3906539 -0.12571165
0002b0 8c 3c ee bd 7e 38 07 be be 5b 5a 3e c4 87 34 3d
       -0.11632642 -0.13205144 0.2132406 0.04407479
0002c0 c8 07 65 bf d1 41 f2 3d e9 c3 58 bf e8 e7 ef be
       -0.89465 0.1182896 -0.84673935 -0.46856618
0002d0 d6 9d 9a be 29 c4 2b 3f 7f b8 15 bd 60 d2 e9 be
       -0.30198544 0.6709619 -0.036552902 -0.45668316
0002e0 b0 d3 e7 3d 65 73 4e 3e 9b 4e 72 3e 3b 5f 07 bf
       0.11319673 0.20161207 0.23662798 -0.52879685
0002f0 1a b9 8a be f0 59 9b 3e de fc ab bd 6b 79 95 3c
       -0.27094346 0.30342054 -0.0839784 0.018246373
000300 79 f0 34 3f 99 e3 20 bd 03 3e cc bd 14 12 9e be
       0.7067943 -0.039279554 -0.09972765 -0.30873168
000310 45 e4 86 be cc 7a 4e bd 53 86 26 be 96 99 a5 be
       -0.2634603 -0.050410077 -0.16262178 -0.3234374
000320 58 cf 4b be 61 0b 2c bf 5f 90 09 3e 50 32 df 3e
       -0.19903314 -0.6720486 0.1343398 0.43593073
000330 9f 58 e6 be 1d ff 55 3e 4a d8 18 bf 0c df 0e 3e
       -0.44989488 0.20898099 -0.5970503 0.13952273
000340 8c 23 1b bf 82 f1 1e be 22 2c cd 3d 4f d9 ab 3d
       -0.60601115 -0.15521815 0.10018183 0.08391058
000350 01 06 4a 3c 00 8c b4 bb 9b 62 ba 3d 98 74 a1 3e
       0.012330533 -0.0055098534 0.09100839 0.31534266
000360 c1 9d 48 3e 5b bc b6 3e 78 76 c9 3f 1a 29 f6 3d
       0.19591428 0.3569058 1.5739279 0.12019558
000370 22 99 d1 bb 8e 32 68 be 11 58 02 bd 69 83 43 3f
       -0.0063964287 -0.22675535 -0.031822268 0.7637239
000380 0e 51 db be f9 61 e4 3d ac 4a f1 bd 78 06 81 3e
       -0.42835277 0.11151499 -0.11781821 0.25200248
000390 fd 81 9e 3e 1e 4c 3a bd e9 e7 d9 3d 44 2a 16 3e
       0.30958548 -0.045482747 0.106399365 0.1466456
0003a0 52 9a 47 3e 77 bc 1b 3f 7f 65 12 3e d7 5c ea 3b
       0.19492462 0.6083445 0.1429653 0.0071521807
0003b0 4a 59 72 3e 1b c9 e5 bd a0 ae 27 bf c0 f7 e8 3d
       0.23666874 -0.112199984 -0.6550083 0.113753796
0003c0 5f 9f 07 3e 8b a0 3c 3f 53 02 03 3f 11 8e 7a 3e
       0.13244389 0.7368247 0.5117542 0.24468257
0003d0 1b 80 2b 3d 0c 85 cf be d3 49 93 be e0 4e db 3e
       0.041870218 -0.40531194 -0.2876726 0.42833614
0003e0 fe 4d 0f bf 54 b0 f8 bd 8d db 4d bf cc 10 e1 be
       -0.5597838 -0.12143007 -0.8041313 -0.43958127
0003f0 70 88 16 3f 0a 7c 00 3f c7 3a 63 be 2b 76 62 3d
       0.5880194 0.5018927 -0.2219039 0.055288475

network_body._body_endoder.seq_layers.0.bias f4 [128]
000000 00 00 00 00 00 00 00 00 00 00 00 00 00 00 00 00
       0.0 0.0 0.0 0.0
000010 00 00 00 00 00 00 00 00 00 00 00 00 00 00 00 00
       0.0 0.0 0.0 0.0
000020 00 00 00 00 00 00 00 00 00 00 00 00 00 00 00 00
       0.0 0.0 0.0 0.0
000030 00 00 00 00 00 00 00 00 00 00 00 00 00 00 00 00
       0.0 0.0 0.0 0.0
000040 00 00 00 00 00 00 00 00 00 00 00 00 00 00 00 00
       0.0 0.0 0.0 0.0
000050 00 00 00 00 00 00 00 00 00 00 00 00 00 00 00 00
       0.0 0.0 0.0 0.0
000060 00 00 00 00 00 00 00 00 00 00 00 00 00 00 00 00
       0.0 0.0 0.0 0.0
000070 00 00 00 00 00 00 00 00 00 00 00 00 00 00 00 00
       0.0 0.0 0.0 0.0
000080 00 00 00 00 00 00 00 00 00 00 00 00 00 00 00 00
       0.0 0.0 0.0 0.0
000090 00 00 00 00 00 00 00 00 00 00 00 00 00 00 00 00
       0.0 0.0 0.0 0.0
0000a0 00 00 00 00 00 00 00 00 00 00 00 00 00 00 00 00
       0.0 0.0 0.0 0.0
0000b0 00 00 00 00 00 00 00 00 00 00 00 00 00 00 00 00
       0.0 0.0 0.0 0.0
0000c0 00 00 00 00 00 00 00 00 00 00 00 00 00 00 00 00
       0.0 0.0 0.0 0.0
0000d0 00 00 00 00 00 00 00 00 00 00 00 00 00 00 00 00
       0.0 0.0 0.0 0.0
0000e0 00 00 00 00 00 00 00 00 00 00 00 00 00 00 00 00
       0.0 0.0 0.0 0.0
0000f0 00 00 00 00 00 00 00 00 00 00 00 00 00 00 00 00
       0.0 0.0 0.0 0.0
000100 00 00 00 00 00 00 00 00 00 00 00 00 00 00 00 00
       0.0 0.0 0.0 0.0
000110 00 00 00 00 00 00 00 00 00 00 00 00 00 00 00 00
       0.0 0.0 0.0 0.0
000120 00 00 00 00 00 00 00 00 00 00 00 00 00 00 00 00
       0.0 0.0 0.0 0.0
000130 00 00 00 00 00 00 00 00 00 00 00 00 00 00 00 00
       0.0 0.0 0.0 0.0
000140 00 00 00 00 00 00 00 00 00 00 00 00 00 00 00 00
       0.0 0.0 0.0 0.0
000150 00 00 00 00 00 00 00 00 00 00 00 00 00 00 00 00
       0.0 0.0 0.0 0.0
000160 00 00 00 00 00 00 00 00 00 00 00 00 00 00 00 00
       0.0 0.0 0.0 0.0
000170 00 00 00 00 00 00 00 00 00 00 00 00 00 00 00 00
       0.0 0.0 0.0 0.0
000180 00 00 00 00 00 00 00 00 00 00 00 00 00 00 00 00
       0.0 0.0 0.0 0.0
000190 00 00 00 00 00 00 00 00 00 00 00 00 00 00 00 00
       0.0 0.0 0.0 0.0
0001a0 00 00 00 00 00 00 00 00 00 00 00 00 00 00 00 00
       0.0 0.0 0.0 0.0
0001b0 00 00 00 00 00 00 00 00 00 00 00 00 00 00 00 00
       0.0 0.0 0.0 0.0
0001c0 00 00 00 00 00 00 00 00 00 00 00 00 00 00 00 00
       0.0 0.0 0.0 0.0
0001d0 00 00 00 00 00 00 00 00 00 00 00 00 00 00 00 00
       0.0 0.0 0.0 0.0
0001e0 00 00 00 00 00 00 00 00 00 00 00 00 00 00 00 00
       0.0 0.0 0.0 0.0
0001f0 00 00 00 00 00 00 00 00 00 00 00 00 00 00 00 00
       0.0 0.0 0.0 0.0

network_body._body_endoder.seq_layers.2.weight f4 [128, 128]
000000 90 42 6f 3d 85 e3 32 bb 5e 02 fb 3c 26 5d d3 3d
       0.05841309 -0.0027296257 0.030640777 0.10320501
000010 01 94 1e bd 5e 8f 78 3d f9 e6 52 be 9c f8 8e 3d
       -0.038715366 0.0606836 -0.20595922 0.06981012
000020 1a e2 26 3d 49 06 1d bd 68 7e 9e bc ea 22 3c 3a
       0.04074297 -0.038336072 -0.019347385 0.00071768335
000030 bd 4d a5 3d 8e 71 1e 3d f8 13 24 3c 48 1d fc 3c
       0.08071468 0.038682513 0.010014527 0.030775681
000040 3d 92 bc 3d 1b c5 0c 3e 48 e4 53 bd b5 5b 44 bd
       0.0920758 0.13747065 -0.051731378 -0.04793902
000050 0c 50 a2 bd ff e5 dc bc ca 73 9a 3d 66 ed 74 be
       -0.07925424 -0.02696514 0.07541616 -0.23918685
000060 18 c5 84 bd 44 38 36 bd ac c6 8d 3e 40 f2 59 bd
       -0.06482905 -0.044487253 0.27690637 -0.053209543
000070 a0 10 db 3d a4 39 70 3e 5c ef 0d 3e 88 ca c6 bd
       0.1069653 0.23459488 0.1386084 -0.097065985
000080 ad 63 ea 3c 8d b6 2e bd 36 6c be bb 74 78 a4 bd
       0.028611982 -0.042654563 -0.0058112396 -0.08030787
000090 9c 7a 03 3b dd f2 21 bc 9d 22 b4 bd de 38 70 bc
       0.0020062095 -0.009884563 -0.087956645 -0.014661996
0000a0 36 43 eb 3d 99 4c 49 bd bd 29 91 3d f7 76 36 bd
       0.11487429 -0.049145315 0.07088039 -0.044547047
0000b0 51 70 fd bb 34 2a 5e bd 59 44 94 3d e3 7f 8d bc
       -0.0077343364 -0.054239467 0.07239599 -0.017272895
0000c0 32 b1 6d 3d 0b e9 3a be a6 48 49 bd 51 09 06 3e
       0.058030315 -0.18252961 -0.04914155 0.13089491
0000d0 50 e7 ac bd 7d 78 d3 3d 2d 00 61 bc 2e 02 57 3d
       -0.08442557 0.10325716 -0.013732952 0.052492313
0000e0 54 54 81 bd db 6d bb bd b0 34 7d 3c 36 12 2f 3d
       -0.063149124 -0.09151813 0.015454456 0.042741977
0000f0 a1 b9 2c be a4 0d 52 bd 5f c8 9c 3d 43 14 d6 bd
       -0.16867687 -0.05128254 0.07655405 -0.10453083
000100 f8 37 28 3e a3 1c b9 bc fb ec 79 3e 5f 9e 19 bd
       0.164276 -0.022596663 0.24406807 -0.03750455
000110 42 22 b7 3d 5c 58 13 be 60 45 8d 3d 1e 2c 8a 3d
       0.08942081 -0.14389175 0.06897998 0.06746696
000120 20 ea 0b 3d 67 f2 8c bd f1 bc ce 3d 03 d7 24 3d
       0.034158826 -0.06882172 0.100946315 0.040244114
000130 42 27 ee 3d b9 25 08 3e ce 23 1b 3e 73 02 9b 3d
       0.116285816 0.1329564 0.15150377 0.075688265
000140 43 0a 0c 3e bc 20 a5 3d 46 52 66 bc 22 c3 42 bc
       0.1367579 0.08062884 -0.014057701 -0.011887344
000150 d4 8a 89 3d 04 ad 8c 3c 9d fe 9f bd f7 d0 15 be
       0.067159325 0.017172344 -0.078122355 -0.14630495
000160 23 e7 76 bd 75 67 a7 bd b4 2f 4d bc 24 49 c9 bb
       -0.060279023 -0.0817403 -0.01252358 -0.0061427522
000170 41 ac b6 ba 54 67 23 3d 62 f8 03 3d 53 e3 fb bc
       -0.0013936834 0.039893463 0.0322193 -0.030748045
000180 a5 a0 ad bc 00 99 39 be c8 8f 0f be 98 d9 4b 3e
       -0.021194765 -0.18124771 -0.14019692 0.19907224
000190 db 65 80 3d 3f 44 cf bd bb b1 c9 bc 13 9c e8 3d
       0.062694274 -0.10120439 -0.024620881 0.11357894
0001a0 71 af ac bd 47 c8 74 bc 65 3e 0d 3e 21 af f2 3c
       -0.084319 -0.014940328 0.13793333 0.029624524
0001b0 63 68 36 3d ff 25 07 3e 67 23 85 3d 67 af 4d 3d
       0.044533145 0.13198088 0.06500893 0.050216105
0001c0 3a df d6 3c ba c1 e7 3c 9a 70 de 3d a4 72 7a bd
       0.02622949 0.028290618 0.10861321 -0.061144486
0001d0 c1 a2 70 bd 03 a6 ac 3d de 72 ab bc 79 b8 a2 3d
       -0.058748964 0.08430102 -0.020928796 0.079453416
0001e0 76 d4 a7 3d 5a a4 22 bd be 7f 8e bd 37 dd b4 3d
       0.081948206 -0.03970752 -0.06957959 0.08831256
0001f0 2c 99 bd bd 84 ef 59 3c 13 3a 83 3d 2d 0e 15 be
       -0.09257731 0.013301734 0.06407561 -0.14556189
000200 1e 65 c0 3d 39 61 0b be d4 e3 4b 3e d5 4d 28 3c
       0.093942866 -0.13611306 0.19911128 0.010272463
000210 67 4b fb 3b ca 91 e7 bd 0a 4c be bd fd 3d a1 3d
       0.007668901 -0.11307104 -0.09291847 0.078731515
000220 db 85 ed 3d f4 cf 20 be 3e a4 88 3d 44 bd b6 bc
       0.115977965 -0.15704328 0.06671952 -0.022307046
000230 50 5b 84 3d 8b 2f 49 3d 81 43 bb bd 86 18 b6 3d
       0.06462729 0.049117606 -0.09143735 0.08891396
000240 49 20 09 bd 68 bd 84 3e 6a f7 0d 3d 37 6c 1d 3d
       -0.033478055 0.25925756 0.03465978 0.03843328
000250 b2 82 12 3d 4b f0 a9 bd 0c f0 c9 bc 14 3a ba bd
       0.035769172 -0.08297785 -0.024650596 -0.09093109
000260 6e 44 76 bd 61 34 1d 3d ed 59 63 3c f8 b8 36 bd
       -0.060123853 0.03838003 0.01387642 -0.044609994
000270 3d 1e b8 bc 9a b9 1a 3d 2f 86 86 3d c0 74 13 be
       -0.022475356 0.03777466 0.06568562 -0.14400005
000280 1f dc 4a be 28 df af 3d 6f e1 a6 bd 39 d0 0e be
       -0.19810532 0.085874856 -0.08148467 -0.13946618
000290 bd 60 4f 3d 9e 41 bc bd 56 96 f0 3c 62 d7 28 3d
       0.050629366 -0.09192203 0.02936856 0.04122103
0002a0 09 a2 29 be 1e e6 52 bd 05 59 ad bd ec b0 89 3b
       -0.16565718 -0.051488988 -0.08464245 0.004201999
0002b0 c2 d2 2b 3c 5f c3 bb bc ab ed 52 3c e5 40 18 3e
       0.01048726 -0.022920309 0.012874047 0.14868505
0002c0 b8 59 35 3c da ef 5d 3d c4 19 37 3c 94 5d ba 3c
       0.011068754 0.05418382 0.011175577 0.0227497
0002d0 dd 36 e7 3d 14 7e 3d 3d 1c fc 6e bd 75 07 30 3d
       0.11289761 0.046262816 -0.0583459 0.04297586
0002e0 a9 bc fd bd 96 11 80 3d 30 44 d2 3d 42 04 e9 3c
       -0.123895 0.06253354 0.10266912 0.028444413
0002f0 34 ba 19 3d be 53 a1 3c 93 b7 3f be 7f 3f 86 3c
       0.037531093 0.019693252 -0.18722372 0.0163877
000300 fd 8e c5 bc 3d e9 1e 3e 30 05 00 3d 72 7d 53 3d
       -0.024116034 0.15518661 0.031254947 0.051633306
000310 c4 3d c8 bc b4 1b 70 3d 55 00 82 3d e5 7a ad 3d
       -0.024443515 0.05862017 0.063477196 0.08470706
000320 ea 73 5d bd 90 fd 89 bd bf 4a 02 3e 3e 98 b2 ba
       -0.054065622 -0.06737816 0.12723826 -0.0013625694
000330 28 69 92 3d 3e 7a a2 3c 0b 03 92 3a c9 7c a4 bd
       0.07148963 0.01983368 0.0011139823 -0.080316134
000340 f5 da 50 bd 15 60 85 bd 20 3e ee bd 01 fa 95 bd
       -0.050990064 -0.06512467 -0.11632943 -0.07323075
000350 98 03 2c bd 57 7d af bc ca b4 6b bc 82 59 98 3d
       -0.041995615 -0.021422071 -0.014386365 0.07438947
000360 6b 41 87 3d 02 da db 3b b1 32 e2 bd 68 db 85 3d
       0.06604274 0.006709338 -0.11044825 0.06535989
000370 5d e2 e8 3c 12 0c 09 3e 31 d0 b6 bd 2f 34 72 bd
       0.02842825 0.1338351 -0.08926428 -0.059131797
000380 0a 67 8a 3d 34 ca 7d 3b aa 2c 86 3d 09 c9 ce bd
       0.067579344 0.0038725259 0.06551488 -0.10096938
000390 e5 69 78 bb 61 ab ee bc 4f 63 81 3b 18 0f 34 3d
       -0.0037904915 -0.029134454 0.003948606 0.043959707
0003a0 a6 fd e0 3d 01 6a 45 3c e7 e2 f4 3d 46 42 05 bd
       0.109858796 0.012049199 0.11957341 -0.032533906
0003b0 be 09 1c bd 3d 1f 96 bd 0b be 68 bc 1c 02 26 bc
       -0.03809523 -0.07330177 -0.014205466 -0.010132339
0003c0 e5 44 ba 3d 8b cb 31 be 50 94 1c be 90 61 ef 3d
       0.09095172 -0.17362802 -0.15290952 0.116885304
0003d0 c2 28 3c ba 1a 4d 60 bd e4 09 a5 bd a0 e9 97 3d
       -0.0007177704 -0.05476103 -0.08058527 0.07417607
0003e0 9e 53 0c 3d 17 f0 05 bd 55 f3 24 3e e6 2f 45 bd
       0.03425943 -0.03269967 0.16108449 -0.048141383
0003f0 92 64 f8 3d 1b 2d 6c bd 43 dc 14 bd 3a 90 5c bd
       0.12128557 -0.057660203 -0.03634287 -0.053848483

network_body._body_endoder.seq_layers.2.bias f4 [128]
000000 00 00 00 00 00 00 00 00 00 00 00 00 00 00 00 00
       0.0 0.0 0.0 0.0
000010 00 00 00 00 00 00 00 00 00 00 00 00 00 00 00 00
       0.0 0.0 0.0 0.0
000020 00 00 00 00 00 00 00 00 00 00 00 00 00 00 00 00
       0.0 0.0 0.0 0.0
000030 00 00 00 00 00 00 00 00 00 00 00 00 00 00 00 00
       0.0 0.0 0.0 0.0
000040 00 00 00 00 00 00 00 00 00 00 00 00 00 00 00 00
       0.0 0.0 0.0 0.0
000050 00 00 00 00 00 00 00 00 00 00 00 00 00 00 00 00
       0.0 0.0 0.0 0.0
000060 00 00 00 00 00 00 00 00 00 00 00 00 00 00 00 00
       0.0 0.0 0.0 0.0
000070 00 00 00 00 00 00 00 00 00 00 00 00 00 00 00 00
       0.0 0.0 0.0 0.0
000080 00 00 00 00 00 00 00 00 00 00 00 00 00 00 00 00
       0.0 0.0 0.0 0.0
000090 00 00 00 00 00 00 00 00 00 00 00 00 00 00 00 00
       0.0 0.0 0.0 0.0
0000a0 00 00 00 00 00 00 00 00 00 00 00 00 00 00 00 00
       0.0 0.0 0.0 0.0
0000b0 00 00 00 00 00 00 00 00 00 00 00 00 00 00 00 00
       0.0 0.0 0.0 0.0
0000c0 00 00 00 00 00 00 00 00 00 00 00 00 00 00 00 00
       0.0 0.0 0.0 0.0
0000d0 00 00 00 00 00 00 00 00 00 00 00 00 00 00 00 00
       0.0 0.0 0.0 0.0
0000e0 00 00 00 00 00 00 00 00 00 00 00 00 00 00 00 00
       0.0 0.0 0.0 0.0
0000f0 00 00 00 00 00 00 00 00 00 00 00 00 00 00 00 00
       0.0 0.0 0.0 0.0
000100 00 00 00 00 00 00 00 00 00 00 00 00 00 00 00 00
       0.0 0.0 0.0 0.0
000110 00 00 00 00 00 00 00 00 00 00 00 00 00 00 00 00
       0.0 0.0 0.0 0.0
000120 00 00 00 00 00 00 00 00 00 00 00 00 00 00 00 00
       0.0 0.0 0.0 0.0
000130 00 00 00 00 00 00 00 00 00 00 00 00 00 00 00 00
       0.0 0.0 0.0 0.0
000140 00 00 00 00 00 00 00 00 00 00 00 00 00 00 00 00
       0.0 0.0 0.0 0.0
000150 00 00 00 00 00 00 00 00 00 00 00 00 00 00 00 00
       0.0 0.0 0.0 0.0
000160 00 00 00 00 00 00 00 00 00 00 00 00 00 00 00 00
       0.0 0.0 0.0 0.0
000170 00 00 00 00 00 00 00 00 00 00 00 00 00 00 00 00
       0.0 0.0 0.0 0.0
000180 00 00 00 00 00 00 00 00 00 00 00 00 00 00 00 00
       0.0 0.0 0.0 0.0
000190 00 00 00 00 00 00 00 00 00 00 00 00 00 00 00 00
       0.0 0.0 0.0 0.0
0001a0 00 00 00 00 00 00 00 00 00 00 00 00 00 00 00 00
       0.0 0.0 0.0 0.0
0001b0 00 00 00 00 00 00 00 00 00 00 00 00 00 00 00 00
       0.0 0.0 0.0 0.0
0001c0 00 00 00 00 00 00 00 00 00 00 00 00 00 00 00 00
       0.0 0.0 0.0 0.0
0001d0 00 00 00 00 00 00 00 00 00 00 00 00 00 00 00 00
       0.0 0.0 0.0 0.0
0001e0 00 00 00 00 00 00 00 00 00 00 00 00 00 00 00 00
       0.0 0.0 0.0 0.0
0001f0 00 00 00 00 00 00 00 00 00 00 00 00 00 00 00 00
       0.0 0.0 0.0 0.0

value_heads.value_heads.extrinsic.weight f4 [1, 128]
000000 e8 3d 29 3e 01 16 ec bd c8 f7 1e be f8 04 56 bd
       0.16527522 -0.115276344 -0.15524209 -0.052250832
000010 a5 55 ee bd 00 80 69 bc c4 6d 3e 3e ae 92 56 3e
       -0.11637429 -0.014251709 0.1859656 0.20954391
000020 8c ea 21 3e b0 81 0f 3d 2a 13 24 be 6c 1d 88 3d
       0.15812129 0.03503579 -0.16022936 0.06646237
000030 50 28 ce 3c 30 68 1c 3e b8 94 02 be a8 11 13 be
       0.025165707 0.1527412 -0.12752044 -0.14362204
000040 00 ad a2 3b d6 7e 0e be d2 a4 a5 bd a6 be 2e be
       0.004964471 -0.13915572 -0.080880776 -0.17064914
000050 f1 86 10 be 23 ba cc bd a0 07 cc bb bc be 6b bd
       -0.14113976 -0.0999644 -0.006226495 -0.057554945
000060 9c 57 37 be 74 68 af 3d e0 33 eb bc 10 bd 48 bd
       -0.17904514 0.08564845 -0.02871126 -0.04900843
000070 50 72 5f 3d d4 22 13 bd aa cc 9a bd 20 df 23 3e
       0.054552376 -0.035921887 -0.07558568 0.16003084
000080 2c 7a ea 3d 68 0e df 3c af 7e e1 bd b8 2b ba 3d
       0.11449084 0.02722855 -0.11010491 0.0909037
000090 e8 9b 3a 3e 3e 0b a2 bd 24 64 4b be ae 6c 2e 3e
       0.18223536 -0.079123005 -0.1986242 0.17033646
0000a0 10 23 e8 3c 26 1b 0f 3e 42 5d 0a be d6 ba 35 3e
       0.028337032 0.139752 -0.13512138 0.17747054
0000b0 26 b7 b4 bd 30 bd 7a 3c 60 3f b5 3d b0 a2 95 bd
       -0.08823995 0.015303895 0.088499784 -0.07306421
0000c0 ae 79 37 3e c8 f5 18 3e b4 7a 5b 3e cb f3 f9 bd
       0.17917511 0.14937508 0.21433526 -0.12204703
0000d0 94 90 4d 3e c2 c6 57 3e 5a 4d 07 be 70 c2 cd 3c
       0.20074683 0.21071914 -0.13213101 0.02511713
0000e0 a0 dc 0e 3e c2 4b 40 3e 18 c3 22 3d 2c cb a3 3d
       0.1395135 0.187789 0.039736837 0.07997736
0000f0 fb b6 5a be 08 96 0a bd 8c 79 83 bd b0 b4 57 3d
       -0.21358864 -0.033834487 -0.064196676 0.05266255
000100 ec 0d 82 bd 46 70 ea bd 00 a0 70 3d b0 92 b0 bd
       -0.06350312 -0.11447196 0.058746338 -0.086217284
000110 a6 40 38 3e 8c c7 a1 bd d4 2c 02 3d 9c a3 41 be
       0.17993411 -0.07899389 0.031781033 -0.18910068
000120 b4 89 94 3d 97 4c 58 be bc 2b aa 3d 54 f2 1b bd
       0.07252827 -0.21122967 0.08309123 -0.0380729
000130 58 f4 0e 3e 34 d0 08 3e 08 7d 10 3d ec 12 59 3e
       0.13960397 0.13360673 0.03527549 0.21198624
000140 80 1a 92 bd e8 a0 5e 3d 80 fd f2 3d a8 ac 71 bd
       -0.07133961 0.05435267 0.118647575 -0.05900255
000150 48 e8 b3 3d a8 40 d2 3d b5 dd 3f be dc 75 a3 3d
       0.087845385 0.102662385 -0.18736918 0.07981464
000160 eb 83 30 be 45 d2 3a be 04 74 bc 3d a8 44 10 3d
       -0.17237823 -0.18244274 0.09201816 0.035221726
000170 d0 b4 e5 bd 00 a0 da b7 88 92 4e 3e a9 4d e7 bd
       -0.11216128 -2.6062131e-05 0.20173085 -0.112941094
000180 f4 07 36 bd 6a 10 1e 3e 30 e2 90 3d 72 46 d7 bd
       -0.04444118 0.15435949 0.07074392 -0.10511483
000190 60 b6 ea 3b 11 d4 3d be 6e 66 3f be 38 59 7a bd
       0.007162854 -0.18537928 -0.18691418 -0.061120242
0001a0 d4 7c 05 3e fe 2b 20 3e 14 53 c5 3d fc ba 31 3e
       0.130359 0.15641782 0.096349865 0.17356485
0001b0 d4 f3 19 be 94 0e d6 3d e0 2f 2f 3e 04 92 56 be
       -0.1503442 0.10451999 0.17108107 -0.20954138
0001c0 a0 8c a0 3b f0 b5 e1 bc 92 40 11 3e 53 3b 4f be
       0.0048995763 -0.027552575 0.14184788 -0.20237474
0001d0 a4 d7 56 bd ac 1d 0f bd f2 ee 45 3e f8 57 f1 3c
       -0.052451745 -0.034940407 0.19329432 0.029460892
0001e0 56 35 25 be 08 a3 0d be c4 75 41 bd a0 ff 17 bd
       -0.16133627 -0.13831723 -0.04723145 -0.037109017
0001f0 b0 50 59 be d0 25 58 3d 28 01 2f 3e fa 30 a0 bd
       -0.21222186 0.052770436 0.17090285 -0.078218415
