results/ppo/MoveToGoal/MoveToGoal-88465.pt (torch, 441305 bytes, 36 tensors)

network_body._body_endoder.seq_layers.0.weight f4 [128, 6]
0.26652646 -0.2290917 -0.5827661 -0.4287976 0.36271042 -0.08157118 -0.18381707 -0.4198923
-0.12034164 0.43104523 -1.0152923 0.109020144 -0.2614097 -0.013414387 -0.6422583 -0.067566
0.29042724 0.62516356 -0.0071549625 0.3952923 -0.15609677 -0.3889351 -0.21759558 0.38635144
0.09132938 -0.00093347975 -0.08923659 0.10145316 0.04649137 0.1615043 0.2337011 0.18882124
-0.0946743 0.35721055 -0.28160703 0.813902 0.49449784 -0.0940786 -0.3700566 0.33739814
-0.27049994 -0.05004102 0.08447433 0.8649443 -0.44125384 0.2726942 -0.2796595 0.40806696
-0.6586577 -0.30469722 -0.5898769 0.10756405 -0.774008 0.572546 0.26805183 0.2910515
-0.07565437 0.09491746 -0.035705313 -0.17563441 0.18420611 -0.77827775 -0.098769285 0.1637995
-0.060430095 -0.25995255 0.82237786 -0.29297683 0.052259766 0.5603524 0.59713167 0.47043055
-0.12069195 0.46195462 -0.43275487 1.0526161 0.31276807 0.45706755 -0.11170642 0.19152981
-0.043693107 0.6468403 0.09405638 0.6842747 -0.47707373 0.1953947 0.605719 0.7370169
0.45016032 -0.4362392 0.0912712 0.7975927 0.29276326 0.82015455 -0.039062418 0.29215595
-0.3748211 0.020601658 -0.27315792 0.41476074 -0.003592981 0.1446147 -0.35318053 -0.31556153
-0.15489265 0.6510838 -0.012458204 1.0852039 -0.43003434 0.4397857 0.14220828 -0.4552632
0.0034569448 0.17945439 -0.123280816 0.005717744 -0.13852972 -0.7235989 0.6188931 -0.07619298
-0.024808224 -0.25060806 -0.5631736 -0.6315847 0.29901892 -0.28394264 -0.10057484 0.008837186
-0.16007027 -0.648407 -0.19323069 0.58875793 0.19611509 -0.04223624 -0.5589826 -0.5608043
-0.29305932 -0.081742875 0.5342174 0.0527655 0.53676146 -0.511541 0.04250179 0.33258173
0.07818987 0.13373141 -0.38979337 0.23279186 -1.3644406 -0.10112384 -0.78456444 0.046162885
-0.5116349 -0.20259725 -0.034276284 -0.35126147 -0.44205308 0.76604736 0.06087524 -0.1763957
0.26056182 0.24046971 0.23118462 -0.72781575 0.3338722 0.10182294 -0.13295552 -0.42638665
0.5158386 0.36034575 -0.8223653 -0.28893173 -0.31931847 -0.18917067 -0.2438769 0.44019017
-0.76347905 0.6808841 -0.018687569 -0.8257735 -0.3196156 0.45912644 -0.1777159 -0.68008476
-0.35747632 -0.14795949 -0.37849984 -0.47873333 -0.19221762 -0.041537922 -0.40459844 -0.65550834
0.73094714 -0.16804041 -0.25139424 0.23358813 0.14194012 -0.20327656 0.68797916 -0.3692544
0.9798714 0.2687296 -0.60392016 0.1146513 -0.35452232 0.33308682 0.10413097 -0.53986704
0.27093562 0.27746835 0.0360282 -0.65567166 0.2500393 -0.08012814 -0.4537858 -0.6113638
-0.46646374 -0.2853519 0.19014004 -0.41794252 -0.40398607 -0.18265063 0.22979137 -0.013618478
-0.32797384 -0.3766566 0.17866173 0.31710836 -0.043434914 0.11733205 -0.4658136 0.091221265
-0.32717985 0.1924551 0.038754266 0.6514889 0.10693492 -0.09396242 0.33353525 0.4305287
0.19890471 0.04276474 0.26491627 0.19249222 0.014517908 0.14166115 -0.10826195 0.17788868
0.91244614 -0.047750935 -0.33550104 0.3305996 0.001204976 0.15183836 0.4397088 0.28047985
00000000: 2876 883e 0497 6abe 2930 15bf 5c8b dbbe
00000010: 2eb5 b93e ca0e a7bd 8b3a 3cbe 20fc d6be
00000020: ae75 f6bd f6b1 dc3e 19f5 81bf f445 df3d
00000030: 7ed7 85be 04c8 5bbc 0a6b 24bf 0b60 8abd
00000040: e1b2 943e b80a 203f 2d74 eabb c163 ca3e
00000050: d5d7 1fbe 8022 c7be 60d1 5ebe dbcf c53e
00000060: e60a bb3d c4b4 74ba acc1 b6bd adc6 cf3d
00000070: bc6d 3e3d 6261 253e 574f 6f3e 5b5a 413e
00000080: 99e4 c1bd 4de4 b63e cc2e 90be e25b 503f
00000090: d22e fd3e 48ac c0bd 0f78 bdbe 73bf ac3e
000000a0: f87e 8abe d0f7 4cbd e100 ad3d fd6c 5d3f
000000b0: 06ec e1be 939e 8b3e 882f 8fbe 27ee d03e
000000c0: cb9d 28bf 4601 9cbe 2c02 17bf 8a4a dc3d
000000d0: 6325 46bf 6092 123f 173e 893e b404 953e
000000e0: aef0 9abd 1664 c23d bc3f 12bd 82d9 33be
000000f0: 87a0 3c3e 363d 47bf 8d47 cabd 0ebb 273e
00000100: 8c85 77bd 8018 85be 5b87 523f 0f01 96be
00000110: 560e 563d 4173 0f3f 9fdd 183f 46dc f03e
00000120: 572d f7bd 5185 ec3e 0c92 ddbe 20bc 863f
00000130: 2323 a03e c204 ea3e 56c6 e4bd 6420 443e
00000140: 8bf7 32bd 5397 253f a2a0 c03d a02c 2f3f
00000150: 0243 f4be 8c15 483e 6610 1b3f 24ad 3c3f
00000160: 6a7b e63e bf5a dfbe 65ec ba3d 092f 4c3f
00000170: 11e5 953e a6f5 513f eaff 1fbd 7795 953e
00000180: 8de8 bfbe cfc4 a83c 5bdb 8bbe 855b d43e
00000190: 3878 6bbb e015 143e 14d4 b4be 4891 a1be
000001a0: 2e9c 1ebe 6ead 263f 7f1d 4cbc f6e7 8a3f
000001b0: 762d dcbe 972b e13e 0c9f 113e 4218 e9be
000001c0: e98d 623b e4c2 373e a77a fcbd ea5b bb3b
000001d0: bcda 0dbe c73d 39bf c76f 1e3f 110b 9cbd
000001e0: 9e3a cbbc b34f 80be 252c 10bf 89af 21bf
000001f0: 0219 993e ee60 91be 2ffa cdbd d8c9 103c
00000200: 76e9 23be 00fe 25bf 44de 45be d7b8 163f
00000210: 65d2 483e e8ff 2cbd 7c19 0fbf df90 0fbf
00000220: df0b 96be cf68 a7bd 79c2 083f a320 583d
00000230: 3369 093f 5af4 02bf 5b16 2e3d 2748 aa3e
00000240: 0322 a03d e3f0 083e ff92 c7be fd60 6e3e
00000250: fda5 aebf 041a cfbd 37d9 48bf 4b15 3d3d
00000260: 81fa 02bf a775 4fbe 4a65 0cbd 8bd8 b3be
00000270: c854 e2be ae1b 443f 5158 793d 13a1 34be
00000280: 5c68 853e b13d 763e a9bb 6c3e 2252 3abf
00000290: 4cf1 aa3e 8c88 d03d 7e25 08be 5a4f dabe
000002a0: 000e 043f 3d7f b83e 8886 52bf dcee 93be
000002b0: b67d a3be f5b5 41be deba 79be 9b60 e13e
000002c0: 5d73 43bf 6c4e 2e3f ac16 99bc e465 53bf
000002d0: a8a4 a3be 9f12 eb3e 28fb 35be 091a 2ebf
000002e0: 2307 b7be b182 17be bbca c1be 891c f5be
000002f0: b2d4 44be ab23 2abd 8727 cfbe 65cf 27bf
00000300: 5a1f 3b3f c912 2cbe bfb6 80be ba31 6f3e
00000310: c058 113e bb27 50be 671f 303f ea0e bdbe
00000320: dad8 7a3f ed96 893e 839a 1abf 4dce ea3d
00000330: f383 b5be 5b8a aa3e 9e42 d53d ba34 0abf
00000340: 13b8 8a3e 5510 8e3e 4e92 133d 19da 27bf
00000350: 2705 803e 391a a4bd 9d56 e8be 5782 1cbf
00000360: 56d4 eebe a519 92be 12b4 423e 90fc d5be
00000370: 43d7 cebe c408 3bbe 6e4e 6b3e 0920 5fbc
00000380: 30ec a7be 22d9 c0be 1af3 363e 075c a23e
00000390: cfe8 31bd c94b f03d 1f7f eebe 37d2 ba3d
000003a0: 1e84 a7be f312 453e cbbc 1e3d fac7 263f
000003b0: b200 db3d 5f6f c0bd 22c5 aa3e 426e dc3e
000003c0: adad 4b3e 142a 2f3d 1ba3 873e ae1c 453e
000003d0: 85dc 6d3c 9f0f 113e 71b8 ddbd 7328 363e
000003e0: 1296 693f 7c96 43bd cbc6 abbe 5a44 a93e
000003f0: 49f0 9d3a 847b 1b3e 8321 e13e 0e9b 8f3e

network_body._body_endoder.seq_layers.0.bias f4 [128]
-0.0024411136 -0.0019591295 -0.0053930664 0.0031413983 0.0017725555 0.0006303241 0.0041766977 -0.007589658
-0.0057008243 0.0012146097 0.0005768342 0.009223795 0.005485241 -0.0020718318 -0.013972762 0.00757991
0.0015078563 -0.00940059 0.015838893 0.007495949 -0.004800803 -0.0036886751 -0.00029463807 0.01533515
0.015892914 0.006015937 -0.0017965114 -0.010482292 0.0052861283 0.008192047 0.006949992 -0.006589519
0.010370011 0.0024976067 -0.0021356726 -0.010999637 0.037439004 -0.0077536106 -0.0006969838 0.0073076417
0.013924192 -0.019968247 0.00376616 -0.0050881472 -0.00857023 0.00061720127 0.009661005 0.023719886
0.008437674 0.012561777 0.0073380806 0.00033828357 -0.0003062654 -0.0039904146 -0.003121776 -0.006552374
0.00033588102 0.0015931828 0.008793191 0.00069189403 -0.017319536 0.0035136705 0.0012392475 0.03596261
0.0060006646 0.0044949977 -0.00831177 -0.0037166094 -0.0024733017 0.010569342 -0.0009951692 0.019665848
0.024763566 0.0049133194 0.0006192152 -0.0065578907 0.004279002 0.0014620108 -0.0077285976 0.0011805928
0.0019704006 0.0022504467 0.014456289 0.0024562245 0.0087811295 0.02578209 0.0051074186 0.011593309
0.007232772 -7.35703e-05 0.006215145 0.0010407057 -4.4053733e-05 0.011104791 0.004988756 -0.005056783
-0.00405413 0.0004882835 0.018913064 -0.00517586 -0.0030899998 0.012953535 0.0070464113 -0.0049425797
-0.007745782 0.00010737731 -0.007192185 0.0035661045 -0.00032489956 0.018610273 0.0069887387 0.017920725
0.006127496 0.008128196 -0.0017948023 0.005009571 0.009403562 0.0026643474 -0.020630088 0.008248972
0.0006402475 0.011832536 -0.014622497 0.014439456 -0.008513934 -0.0061780796 0.0008415437 0.033698775
00000000: 17fb 1fbb bd64 00bb 52b8 b0bb ebdf 4d3b
00000010: 1855 e83a 563c 253a aedc 883b aab2 f8bb
00000020: fbcd babb 8a33 9f3a b036 173a 661f 173c
00000030: 89bd b33b 92c7 07bb 03ee 64bc e560 f83b
00000040: 43a3 c53a ef04 1abc 91c0 813c 94a0 f53b
00000050: 0e50 9dbb b3bd 71bb a779 9ab9 4840 7b3c
00000060: db31 823c 5621 c53b eb78 ebba ebbd 2bbc
00000070: 4237 ad3b ef37 063c c2bc e33b e4ec d7bb
00000080: fbe6 293c e3ae 233b a4f6 0bbb d237 34bc
00000090: a459 193d 0012 febb cbb5 36ba f174 ef3b
000000a0: 4b22 643c 7394 a3bc aed1 763b 79ba a6bb
000000b0: 266a 0cbc adcb 213a 3149 1e3c 3550 c23c
000000c0: 2b3e 0a3c e9cf 4d3c 4874 f03b a75b b139
000000d0: 3f92 a0b9 06c2 82bb b696 4cbb 4cb5 d6bb
000000e0: 3019 b039 58d2 d03a 5111 103c 3960 353a
000000f0: b3e1 8dbc 9c45 663b 3f6e a23a 884d 133d
00000100: 39a1 c43b c64a 933b 172e 08bc 5c92 73bb
00000110: 1e17 22bb 092b 2d3c 5670 82ba 461a a13c
00000120: f6dc ca3c e9ff a03b d452 223a 93e3 d6bb
00000130: df36 8c3b f1a0 bf3a 2d40 fdbb 1fbe 9a3a
00000140: d621 013b 3b7c 133b 12da 6c3c 9cf8 203b
00000150: bade 0f3c f634 d33c 225c a73b ddf1 3d3c
00000160: e400 ed3b c149 9ab8 6aa8 cb3b 4a68 883a
00000170: 56c6 38b8 dff0 353c b878 a33b 5fb3 a5bb
00000180: 82d8 84bb 2700 003a 92ef 9a3c 439a a9bb
00000190: 9881 4abb 103b 543c 95e5 e63b 5df5 a1bb
000001a0: 54d0 fdbb c12f e138 6cac ebbb 4eb5 693b
000001b0: 4857 aab9 9274 983c ca01 e53b 7cce 923c
000001c0: 29c9 c83b 202c 053c 923f ebba 5427 a43b
000001d0: 6611 1a3c 559c 2e3b 6e00 a9bc b226 073c
000001e0: 48d6 273a 41dd 413c 3393 6fbc 7893 6c3c
000001f0: 077e 0bbc 7d71 cabb 0b9b 5c3a ba07 0a3d

network_body._body_endoder.seq_layers.2.weight f4 [128, 128]
-0.10644822 -0.058733497 0.0009843453 0.10010768 -0.062427178 -0.03590556 0.06980541 -0.032328017
-0.005025294 0.0772456 -0.10510849 -0.033323325 0.13352528 -0.015547541 -0.0042189257 -0.019248439
0.038404915 0.108210385 0.12321764 0.022214465 -0.07218422 -0.023143897 0.02391274 0.012708592
-0.113472454 -0.020056507 0.030926868 -0.10912545 -0.19733565 0.2566189 0.040535346 0.07232483
0.08172096 0.0019686702 0.07730943 -0.07687315 0.011191597 -0.08046389 0.08290757 0.12242335
-0.049443573 -0.050890315 0.084963895 -0.13684031 0.03213259 0.084923424 0.14954142 -0.068557225
-0.029539019 -0.075472146 0.038105376 0.10629748 0.07147687 0.05506822 0.026726445 0.022383042
0.044092637 0.054141346 -0.03735584 0.132554 -0.019381719 0.112541914 0.12476554 0.021213504
-0.2099928 0.06283095 -0.0061768084 -0.18170576 0.033502262 -0.030607082 -0.08951974 -0.10606011
0.057417173 -0.016148025 -0.07746089 0.13136931 -0.057181045 0.029005611 0.009893703 -0.009980119
0.030470971 0.026100261 -0.13279596 0.15858214 -0.060744923 -0.010647669 0.08378705 -0.0914093
-0.008499613 0.0010508347 -0.058778573 0.02857483 0.08874058 -0.15708046 0.03648965 -0.025880752
-0.13290064 0.075138055 -0.06974644 0.050187875 0.03239087 0.038213737 -0.0030381535 -0.010032051
-0.061851483 -0.05068247 0.09706605 -0.086177275 -0.11161182 0.0055238223 0.018735144 -0.019104788
-0.13068458 -0.0807062 0.040434886 0.014828619 0.0007729854 0.007444118 0.015837777 -0.056792665
-0.016751437 0.006814684 0.05635147 0.06558745 -0.13916752 0.08061202 0.00041797658 0.008492584
-0.04661118 -0.028085774 0.010796309 -0.08848054 0.15441385 -0.23285022 0.0873038 0.04629023
-0.0059385323 0.106579624 -0.010749751 0.20767744 -0.1799293 -0.046246596 0.0013690396 -0.018184166
0.022968758 0.040254608 0.07940457 -0.16387084 -0.00398618 -0.03167409 -0.07579571 0.00059507525
-0.16064814 -0.19053236 0.16984965 0.07405407 -0.22985639 -0.01498273 -0.082481496 0.010678789
-0.16627744 -0.035879944 0.05369125 0.02411724 0.05061519 -0.23515531 -0.13152403 -0.07186695
0.070007324 0.12528975 -0.07214743 -0.041550342 0.19737564 -0.1427763 -0.19639795 0.046126675
-0.05830163 0.048103582 0.04892605 -0.10883625 -0.17584501 0.00032377287 0.109727934 -0.14807275
0.10737475 0.05644971 0.032001395 -0.04098208 -0.1561643 0.12016459 0.029829081 0.007570388
0.11103328 0.113702 -0.0031692467 0.018971602 -0.021505514 -0.28803396 -0.20111467 -0.043371066
-0.07864157 -0.0539487 -0.07544931 0.08531702 0.08858007 0.031160139 -0.1458508 -0.06504701
-0.08988879 0.047966857 -0.06176413 0.10451545 -0.04909214 0.05714761 -0.21270248 -0.121971875
0.099813074 -0.071114145 0.06642266 0.009847022 0.19662419 -0.040672828 -0.028451156 0.067493565
0.10647674 -0.0033637409 0.06722413 -0.086484976 -0.033712257 -0.0042954283 0.04396532 -0.0882826
-0.10417307 -0.17549397 -0.052066598 -0.034487363 0.1166869 0.13677931 -0.20587628 0.036711168
-0.013681772 0.016330834 0.049820993 -0.08815571 -0.18648015 -0.1221314 -0.014250073 -0.0028928572
-0.12812941 0.1756099 -0.07659644 -0.032400988 0.07144948 0.059912566 -0.07151794 -0.016007327
00000000: 8601 dabd 8992 70bd 2605 813a 4105 cd3d
00000010: a4b3 7fbd b511 13bd 24f6 8e3d 626a 04bd
00000020: 39ab a4bb f132 9e3d 1f43 d7bd 0a7e 08bd
00000030: daba 083e 1dbb 7ebc ea3e 8abb e7ae 9dbc
00000040: 794e 1d3d 689d dd3d 8859 fc3d 1cfb b53c
00000050: 52d5 93bd 4598 bdbc a7e4 c33c b337 503c
00000060: 3f64 e8bd 8b4d a4bc 585a fd3c 2a7d dfbd
00000070: 5b12 4abe 8d63 833e 6408 263d 0a1f 943d
00000080: 525d a73d ce04 013b 6854 9e3d ac6f 9dbd
00000090: f65c 373c 41ca a4bd 72cb a93d 18b9 fa3d
000000a0: 5885 4abd 5d72 50bd 8d01 ae3d de1f 0cbe
000000b0: 769d 033d 55ec ad3d 6321 193e bb67 8cbd
000000c0: d0fb f1bc 2491 9abd 6214 1c3d 7eb2 d93d
000000d0: 7762 923d 378f 613d 6bf1 da3c a45c b73c
000000e0: 7b9a 343d 51c3 5d3d 7002 19bd 3cbc 073e
000000f0: 69c6 9ebc 607c e63d 1385 ff3d f1c7 ad3c
00000100: 5a08 57be 83ad 803d d366 cabb 1311 3abe
00000110: ab39 093d b4bb fabc 2056 b7bd 0b36 d9bd
00000120: 452e 6b3d dd48 84bc d1a3 9ebd ad85 063e
00000130: ac36 6abd 2d9d ed3c 3319 223c a783 23bc
00000140: 429e f93c 37d0 d53c aafb 07be 5b63 223e
00000150: abcf 78bd 9073 2ebc 8b98 ab3d cd34 bbbd
00000160: f641 0bbc 29bc 893a cdc1 70bd c315 ea3c
00000170: 9fbd b53d b3d9 20be 2c76 153d df03 d4bc
00000180: 1b17 08be fbe1 993d 39d7 8ebd cd91 4d3d
00000190: 4aac 043d 0286 1c3d c21b 47bb 795d 24bc
000001a0: fb57 7dbd 6c98 4fbd 91ca c63d b67d b0bd
000001b0: bd94 e4bd 2e01 b53b 727a 993c a581 9cbc
000001c0: 2ed2 05be 4b49 a5bd 0d9f 253d bcf3 723c
000001d0: 2ca2 4a3a caed f33b 3abe 813c 6d9f 68bd
000001e0: 4f3a 89bc b64d df3b cdd0 663d b752 863d
000001f0: ee81 0ebe ea17 a53d de23 db39 7b24 0b3c
00000200: 5deb 3ebd 2314 e6bc 01e3 303c 4935 b5bd
00000210: aa1e 1e3e 4a70 6ebe 56cc b23d d39a 3d3d
00000220: 0598 c2bb 6b46 da3d b91f 30bc 65a9 543e
00000230: 633f 38be 126d 3dbd 5971 b33a f6f6 94bc
00000240: fa28 bc3c 04e2 243d dd9e a23d c2cd 27be
00000250: 809e 82bb b1bc 01bd c83a 9bbd d3fe 1b3a
00000260: f280 24be ea1a 43be 11ed 2d3e a9a9 973d
00000270: 795f 6bbe 207a 75bc 0fec a8bd 16f6 2e3c
00000280: a244 2abe d9f6 12bd 5beb 5b3d 8591 c53c
00000290: e051 4f3d 8ecc 70be 3cae 06be fb2e 93bd
000002a0: 0060 8f3d f54b 003e 08c2 93bd b130 2abd
000002b0: d71c 4a3e f333 12be 8b1c 49be 53ef 3c3d
000002c0: b1cd 6ebd 4308 453d af66 483d 8ae5 debd
000002d0: b710 34be 0fc0 a939 0ab9 e03d 62a0 17be
000002e0: 4be7 db3d d037 673d e513 033d d3dc 27bd
000002f0: 89e9 1fbe da18 f63d 1e5c f43c 0411 f83b
00000300: 6b65 e33d 98dc e83d 23b3 4fbb 556a 9b3c
00000310: 552c b0bc 3079 93be 01f1 4dbe dca5 31bd
00000320: d50e a1bd 50f9 5cbd 2b85 9abd b1ba ae3d
00000330: 7869 b53d 8c43 ff3c ea59 15be 5e37 85bd
00000340: 9d17 b8bd e578 443d 62fc 7cbd 320c d63d
00000350: d714 49bd 9d13 6a3d aece 59be 64cc f9bd
00000360: cc6a cc3d 4ba4 91bd 9b08 883d 6755 213c
00000370: da57 493e 8d98 26bd 6612 e9bc 113a 8a3d
00000380: 7a10 da3d 3572 5cbb ceac 893d 091f b1bd
00000390: dd15 0abd aac0 8cbb fb14 343d 82cd b4bd
000003a0: b158 d5bd b1b4 33be c943 55bd 9f42 0dbd
000003b0: 8bf9 ee3d e00f 0c3e 3bd1 52be 735e 163d
000003c0: 8329 60bc 3ec8 853c 1911 4c3d fb8a b4bd
000003d0: a7f4 3ebe 0720 fabd 2379 69bc 1796 3dbb
000003e0: 5b34 03be 15d3 333e 98de 9cbd e6b6 04bd
000003f0: 1b54 923d e166 753d ff77 92bd cc21 83bc

network_body._body_endoder.seq_layers.2.bias f4 [128]
-0.004395447 -0.0045500104 0.009037966 0.014867129 -0.0023885733 0.0043484173 -0.009548132 -0.011026248
0.017214693 -0.009555651 0.0036075541 -0.011196895 0.011459632 -0.0016733438 0.0068193944 0.0012909696
-0.0043171113 0.00129791 0.0045824787 -0.007997598 0.007681236 -0.010655897 0.01844366 -0.002462187
0.006304861 0.014880683 0.0038289307 0.0034296282 0.0025805654 0.0037134066 0.0049115564 0.011905119
0.0059801266 0.010466229 0.008239476 -0.0026682643 -0.0060515245 -0.0018232504 -0.012490764 -0.004948783
-0.0077382065 0.00617172 -0.0044097328 0.0018686347 0.006154947 0.0061828014 0.0037527308 0.002664753
-0.0020359461 0.001547452 -0.009130465 -0.0052254326 0.01644006 0.010249393 0.00017898492 -0.009360341
-0.0010501329 0.0035944514 0.016921857 0.0069540013 0.0059270617 -0.0064141024 -0.005491972 0.0077946093
0.01614497 -0.0029415274 0.008060834 0.006594768 0.00855907 0.011961943 0.01035704 -0.015093025
-0.008093374 0.004593375 0.0051384205 0.010370701 -0.009777668 0.006073352 0.02878584 0.01085844
0.0054939026 0.010968012 0.008158116 -0.008032906 0.013791986 -0.0034691598 0.008773603 0.0022776453
0.010836536 -0.00051548425 -0.0018755205 0.0020843842 0.006889008 -0.001970601 -0.007988069 0.007514597
0.0077477153 0.010046611 -2.3268574e-05 0.013134856 0.002160106 -0.009761114 -0.004708874 -0.011615269
0.004366758 0.011880468 0.0035652597 -0.005821866 -0.0038549858 0.0011683053 -0.009427215 0.0008266818
0.0082124425 -0.0028104289 -0.0034832766 0.020853847 0.007666516 -0.0035476051 -0.0032961995 -0.0007818714
0.010460207 0.0021524918 0.0080492385 -0.0029223328 -0.009505396 -0.009457483 0.006538551 -0.0051924507
00000000: af07 90bb 4118 95bb fa13 143c 4295 733c
00000010: 9c89 1cbb 2b7d 8e3b c56f 1cbc 70a7 34bc
00000020: d405 8d3c 4e8f 1cbc b76c 6c3b 2e73 37bc
00000030: 2ec1 3b3c 1a54 dbba 3a75 df3b c035 a93a
00000040: 8e76 8dbb a21e aa3a 9e28 963b 5b08 03bc
00000050: e1b2 fb3b 1296 2ebc 2917 973c a55c 21bb
00000060: 0299 ce3b 1cce 733c ccee 7a3b 9dc3 603b
00000070: b41e 293b a05c 733b 1ff1 a03b b00d 433c
00000080: f0f4 c33b 8c7a 2b3c defe 063c 0cde 2ebb
00000090: de4b c6bb 22fa eeba 10a6 4cbc 6729 a2bb
000000a0: c890 fdbb 243c ca3b 857f 90bb faec f43a
000000b0: 70af c93b 1999 ca3b 60f0 753b 23a3 2e3b
000000c0: 826d 05bb dfd3 ca3a f297 15bc 1b3a abbb
000000d0: 4ead 863c 12ed 273c e6ad 3b39 1e5c 19bc
000000e0: 9da4 89ba e390 6b3b b59f 8a3c 64de e33b
000000f0: cc37 c23b 642d d2bb 00f6 b3bb ec69 ff3b
00000100: 7542 843c a4c6 40bb 9711 043c ec18 d83b
00000110: 573b 0c3c 06fc 433c 93b0 293c bc48 77bc
00000120: 129a 04bc 0684 963b 3260 a83b dfe9 293c
00000130: 8332 20bc f802 c73b 48d0 eb3c 99e7 313c
00000140: 3206 b43b 2db3 333c 9ea9 053c 739c 03bc
00000150: c8f7 613c d85a 63bb 28bf 0f3c 8c44 153b
00000160: ba8b 313c 9021 07ba 06d4 f5ba 2a9a 083b
00000170: 30bd e13b 3325 01bb 64e0 02bc 023d f63b
00000180: 8ce0 fd3b 8a9a 243c e230 c3b7 9433 573c
00000190: 9190 0d3b 14ed 1fbc e64c 9abb f84d 3ebc
000001a0: 0517 8f3b 4ba6 423c 22a7 693b 5ac5 bebb
000001b0: eea3 7cbb d221 993a 9b74 1abc adb5 583a
000001c0: 7b8d 063c 2c2f 38bb af47 64bb b0d5 aa3c
000001d0: 6637 fb3b f07e 68bb 0d05 58bb 80f6 4cba
000001e0: 4a61 2b3c d210 0d3b f4e0 033c 9c84 3fbb
000001f0: 85bc 1bbc 8ff3 1abc 5741 d63b 6f25 aabb

action_model._continuous_distribution.log_sigma f4 [1, 2]
-0.0009448137 -0.0007076603
00000000: 60ad 77ba 4782 39ba

action_model._continuous_distribution.mu.weight f4 [2, 128]
0.033054907 0.028870322 -0.044108108 0.031256758 0.030597642 0.024348887 0.010933363 0.016999979
-0.036301963 0.01230155 -0.01577951 -0.0104839755 -0.02414851 0.027390769 -0.015461825 -0.03200619
0.022249771 -0.015965577 -0.053547088 -0.00042037386 0.017638657 0.018086774 -0.012731447 0.022137716
-0.015442124 -0.040819753 -0.020140115 -0.032954935 0.020920975 0.033090297 -0.02009894 -0.04465211
-0.030717459 -0.01875141 -0.02142824 0.037512228 0.049045976 0.049136728 -0.0004219695 0.004366186
0.0064573567 0.024891721 0.019120103 -0.0015284396 -0.009965382 -0.018177386 0.013621 -0.01174177
0.01187901 0.013862086 0.0124950595 0.014001532 -0.025622483 0.014247795 0.0026145189 0.02030674
0.010464206 -0.017134074 -0.008228739 -0.022902953 0.0051819813 0.0024128035 0.00970788 -0.008289572
-0.0013319602 -0.0040727267 0.022680666 0.015063671 -0.0018450007 0.00086665206 0.073702544 -0.004271655
-0.003777935 -0.00537088 0.010377936 0.021195471 0.01829623 -0.036049344 -0.031410746 -0.0005941835
-0.011952454 0.021081755 -0.026506389 0.010749528 -0.028496407 -0.00621218 0.0022759258 0.030478694
0.036243 0.01665291 -0.0013964525 0.000109762725 -0.019867323 -0.025883747 0.019748311 -0.0061160726
0.032947496 -0.013584402 -0.00021762961 -0.030556671 0.063434646 -0.0017297501 0.04302917 0.012123929
-0.00736823 -0.029432088 0.013914673 -0.004087948 0.00091903924 0.050298296 -0.005698067 0.009718171
0.02787107 -0.0068750796 -0.0049220826 -0.002003022 -0.042011123 0.00452737 -0.0064036855 0.0034592417
0.053545035 0.029164946 -0.03203189 0.03189381 -0.005268845 -0.0013313348 -0.02868989 0.0137108695
0.005212597 0.026841357 0.010193438 -0.044521023 0.0129586235 -0.026478525 0.030535053 0.011571975
0.009292227 0.014938211 -0.011617274 0.03263936 -0.021062672 0.003227984 -0.025133798 0.031681675
0.037855543 0.0004436433 0.027742516 0.017963776 0.032959297 0.020213552 -0.023919476 0.02848957
-0.020160066 -0.009521322 0.0043808296 0.003533538 0.009697592 0.034637116 0.0018881502 -0.0005895049
0.007774468 -0.029202422 -0.03926996 0.011615802 0.015159093 0.052582618 0.014152948 0.029900039
0.014020547 -0.033135585 0.024118248 -0.010032261 -0.022813667 -0.045506954 -0.022557985 -0.02555199
-0.011137076 -0.011095037 0.0036553233 0.016036553 -0.013151413 -0.016329471 0.0073523824 0.028524958
-0.012988822 -0.007988566 -0.020469945 -0.00892846 -0.021000436 0.015012968 0.02484219 -0.007626523
-0.021758117 0.04502793 -0.008872684 -0.047296528 -0.024020543 -0.025174405 -0.011621955 0.012549628
0.015921654 -0.012148426 -0.032221045 -0.015464389 -0.008227291 0.00058833824 -0.004924435 -0.03044575
-0.007755706 -0.017571198 0.0024460144 0.0290484 0.001957662 0.009702372 0.017624611 -0.011892133
-0.013304227 0.041028466 0.02701382 0.02008148 -0.044766754 0.05504805 0.013692789 -0.017272914
-0.026412465 -0.013938459 -0.004280627 -0.01636037 -0.007272183 0.038339987 0.020805255 0.012343186
-0.011230567 -0.040760346 0.009880003 0.0064482233 0.040079474 -0.012927375 0.035216514 -0.00422777
0.00027971054 0.045614228 0.022408063 -0.001300615 -0.02816497 0.023760691 0.031179767 0.025696944
-0.0017672587 0.0072288904 0.010844479 0.01071345 0.03783707 0.0028721055 -0.0349543 0.010842601
00000000: 9564 073d 7481 ec3c b4aa 34bd 1607 003d
00000010: e8a7 fa3c 5177 c73c d921 333c 8a43 8b3c
00000020: 5eb1 14bd 718c 493c 0844 81bc fbc4 2bbc
00000030: 19d3 c5bc 9b62 e03c 9853 7dbc ec18 03bd
00000040: 2745 b63c 3eca 82bc 3154 5bbd a065 dcb9
00000050: f27e 903c b72a 943c 8f97 50bc 285a b53c
00000060: f600 7dbc 9d32 27bd e2fc a4bc c1fb 06bd
00000070: 7762 ab3c b189 073d 88a6 a4bc 22e5 36bd
00000080: 2ea3 fbbc 8f9c 99bc 478a afbc 6ca6 193d
00000090: 6fe4 483d 9843 493d ca3b ddb9 3912 8f3b
000000a0: 3c98 d33b b9e9 cb3c c3a1 9c3c ec55 c8ba
000000b0: d745 23bc bee8 94bc 9d2a 5f3c 8e60 40bc
000000c0: 2ea0 423c ce1d 633c 14b8 4c3c af66 653c
000000d0: 3ee6 d1bc 956f 693c 5958 2b3b 525a a63c
000000e0: 1072 2b3c c25c 8cbc d5d1 06bc f99e bbbc
000000f0: 9ccd a93b 2020 1e3b cd0d 1f3c fcd0 07bc
00000100: 2b95 aeba 8274 85bb cecc b93c 9ecd 763c
00000110: f3d3 f1ba 0930 633a 5cf1 963d 3df9 8bbb
00000120: 3b97 77bb 35fe afbb 3808 2a3c 20a2 ad3c
00000130: fae1 953c 7aa8 13bd 8ea8 00bd fbc2 1bba
00000140: 3ad4 43bc a5b3 ac3c ed23 d9bc ca1e 303c
00000150: 4c71 e9bc 8b8f cbbb b327 153b 74ae f93c
00000160: 8a73 143d af6b 883c 2c09 b7ba 6a30 e638
00000170: ccc0 a2bc 270a d4bc 36c7 a13c 5669 c8bb
00000180: f4f3 063d 1d91 5ebc 8133 64b9 fc51 fabc
00000190: 06ea 813d c8b8 e2ba 5b3f 303d 72a3 463c
000001a0: 3171 f1bb 901b f1bc 5efa 633c 31f4 85bb
000001b0: aeeb 703a 9605 4e3d dab6 babb f738 1f3c
000001c0: df51 e43c 5948 e1bb 6c49 a1bb 2245 03bb
000001d0: db13 2cbd 555a 943b 02d6 d1bb 72b4 623b
000001e0: 0a52 5b3d 53eb ee3c df33 03bd 15a3 023d
000001f0: 46a6 acbb 2f80 aeba 0f07 ebbc 8ea3 603c
00000200: 6fce aa3b 68e2 db3c 6102 273c ad5b 36bd
00000210: 6850 543c 7ee9 d8bc a624 fa3c 6298 3d3c
00000220: 6d3e 183c 66bf 743c 6156 3ebc d9b0 053d
00000230: a08b acbc 968c 533b 65e5 cdbc a5c4 013d
00000240: 6a0e 1b3d cc98 e839 4644 e33c c528 933c
00000250: 5400 073d e496 a53c c7f2 c3bc f562 e93c
00000260: b926 a5bc 52ff 1bbc 108d 8f3b ee92 673b
00000270: a6e2 1e3c a6df 0d3d cf7b f73a 0189 1aba
00000280: f7c0 fe3b eb39 efbc 8ad9 20bd 3450 3e3c
00000290: d85d 783c df60 573d c4e1 673c edf0 f43c
000002a0: 70b6 653c 2eb9 07bd a293 c53c 5a5e 24bc
000002b0: bae3 babc 8065 3abd 86cb b8bc 6852 d1bc
000002c0: 4878 36bc f5c7 35bc 268e 6f3b 175f 833c
000002d0: 0679 57bc 62c5 85bc 41ec f03b 2cad e93c
000002e0: 11cf 54bc 79e2 02bc 96b0 a7bc ad48 12bc
000002f0: 1b09 acbc f4f8 753c d981 cb3c e9e7 f9bb
00000300: 143e b2bc 356f 383d bc5e 11bc 01ba 41bd
00000310: bbc6 c4bc 8e3a cebc 036a 3ebc f49c 4d3c
00000320: 216e 823c 310a 47bc 37fa 03bd 595e 7dbc
00000330: c2cb 06bc b63a 1a3a 285d a1bb 5e69 f9bc
00000340: 9423 febb 79f1 8fbc 504d 203b e9f6 ed3c
00000350: 1e4c 003b b3f6 1e3c 7d61 903c 39d7 42bc
00000360: f9f9 59bc 770d 283d 164c dd3c ea81 a43c
00000370: 585d 37bd 107a 613d b857 603c ed7f 8dbc
00000380: f45e d8bc 225e 64bc 8044 8cbb 2f06 86bc
00000390: 7e4b eebb 640a 1d3d c86f aa3c 133b 4a3c
000003a0: 6900 38bc 52f4 26bd bcdf 213c 9e4b d33b
000003b0: 602a 243d 57cd 53bc 313f 103d 1b89 8abb
000003c0: 1da6 9239 fcd5 3a3d 1d91 b73c 6679 aaba
000003d0: 39ba e6bc c8a5 c23c b66c ff3c 6682 d23c
000003e0: 5da3 e7ba 54e0 ec3b 0bad 313c 7787 2f3c
000003f0: 0bfb 1a3d ef39 3c3b 3d2c 0fbd 2aa5 313c

action_model._continuous_distribution.mu.bias f4 [2]
-0.0055588717 -0.005861669
00000000: 3227 b6bb 3e13 c0bb

exp_avg f4 [128, 6]
-0.00012150916 0.0 8.3627616e-05 0.0 3.086184e-05 6.172368e-05 -1.7958034e-06 0.0
6.6391316e-05 0.0 3.4352588e-06 6.8705176e-06 4.3347723e-07 0.0 -5.2710664e-05 0.0
-1.007762e-05 -2.015524e-05 -0.00021629533 0.0 6.2117026e-05 0.0 -0.00015035177 -0.00030070354
-0.00018051514 0.0 0.00013013984 0.0 -0.000102534796 -0.00020506959 -0.00017817527 0.0
-4.333902e-05 0.0 -0.00010578289 -0.00021156578 -0.0003036136 0.0 0.00061010645 0.0
-0.00023169808 -0.00046339617 3.1429376e-05 0.0 0.00016820629 0.0 -8.6579865e-07 -1.7315973e-06
0.00025078305 0.0 -3.3843946e-05 0.0 0.00011625275 0.0002325055 -9.1357855e-05 0.0
0.00017783749 0.0 -5.6711295e-05 -0.00011342259 -3.1765707e-05 0.0 0.000107537744 0.0
-1.850162e-05 -3.700324e-05 -0.00030854138 0.0 0.0003875292 0.0 -0.00024618508 -0.00049237016
5.9478753e-05 0.0 -3.0340183e-05 0.0 -3.3412332e-05 -6.6824665e-05 -6.701638e-06 0.0
0.00013224033 0.0 -2.2754712e-05 -4.5509423e-05 8.97198e-07 0.0 1.750415e-06 0.0
2.254932e-07 4.509864e-07 -8.813598e-05 0.0 0.000107575535 0.0 -7.959459e-05 -0.00015918918
0.00012585934 0.0 -0.00022539745 0.0 7.362077e-05 0.00014724155 8.083607e-05 0.0
-0.0001362948 0.0 7.747585e-05 0.0001549517 0.00016452126 0.0 2.2571527e-05 0.0
-6.7431596e-05 -0.00013486319 0.00011108064 0.0 0.00014194548 0.0 -6.9217924e-05 -0.00013843585
-0.00013389367 0.0 0.00017418065 0.0 -2.470981e-05 -4.941962e-05 0.0002247868 0.0
-3.7180616e-05 0.0 8.3768595e-05 0.00016753719 6.111655e-05 0.0 4.2267977e-05 0.0
6.757853e-05 0.00013515705 -1.2162531e-05 0.0 0.00017757052 0.0 -0.000107727974 -0.00021545595
1.4871035e-05 0.0 0.00012399962 0.0 -1.9653862e-05 -3.9307724e-05 0.0001387202 0.0
0.00044298643 0.0 -3.5989353e-05 -7.1978706e-05 0.0002258235 0.0 -5.318545e-05 0.0
4.93631e-05 9.87262e-05 -4.6111575e-07 0.0 -1.8735935e-05 0.0 -6.4986534e-07 -1.2997307e-06
-0.00030504895 0.0 0.0008740861 0.0 -0.00024920676 -0.0004984135 8.531282e-05 0.0
0.0003095098 0.0 -5.9666985e-05 -0.00011933397 0.00017671546 0.0 0.000110166766 0.0
1.9877396e-05 3.9754792e-05 5.1499787e-06 0.0 2.1463062e-05 0.0 -9.717161e-06 -1.9434323e-05
-0.00023333759 0.0 0.0006299752 0.0 -0.0002643345 -0.000528669 -8.798333e-06 0.0
2.102024e-06 0.0 -8.152157e-06 -1.6304313e-05 0.00028896384 0.0 -0.00014878808 0.0
8.4205465e-05 0.00016841093 2.8829777e-06 0.0 -1.7081456e-05 0.0 4.498548e-06 8.997096e-06
1.3129893e-05 0.0 4.400394e-05 0.0 -1.705408e-05 -3.410816e-05 -6.5881744e-05 0.0
-0.000105069514 0.0 7.3804345e-05 0.00014760869 -5.339373e-05 0.0 0.0003199299 0.0
-5.6895402e-05 -0.000113790804 -0.00023259205 0.0 2.2576974e-06 0.0 -0.00012721679 -0.00025443357
-4.8960424e-05 0.0 0.00012602944 0.0 -0.00010695854 -0.00021391708 -8.2394145e-06 0.0
-4.4517805e-05 0.0 1.4415646e-05 2.8831291e-05 -1.0410182e-06 0.0 -8.159496e-06 0.0
00000000: bcd2 feb8 0000 0000 3c61 af38 0000 0000
00000010: a671 0138 a671 8138 5607 f1b5 0000 0000
00000020: 913b 8b38 0000 0000 4c89 6636 4c89 e636
00000030: a8b8 e834 0000 0000 a515 5db8 0000 0000
00000040: 0c13 29b7 0c13 a9b7 56cd 62b9 0000 0000
00000050: d344 8238 0000 0000 bfa7 1db9 bfa7 9db9
00000060: aa48 3db9 0000 0000 2676 0839 0000 0000
00000070: f307 d7b8 f307 57b9 8fd4 3ab9 0000 0000
00000080: ebc6 35b8 0000 0000 c2d7 ddb8 c2d7 5db9
00000090: 542e 9fb9 0000 0000 8def 1f3a 0000 0000
000000a0: fbf3 72b9 fbf3 f2b9 09d3 0338 0000 0000
000000b0: 8860 3039 0000 0000 3b69 68b5 3b69 e8b5
000000c0: 887b 8339 0000 0000 a9f3 0db8 0000 0000
000000d0: b8cc f338 b8cc 7339 6097 bfb8 0000 0000
000000e0: e379 3a39 0000 0000 4add 6db8 4add edb8
000000f0: 2b3c 05b8 0000 0000 e385 e138 0000 0000
00000100: ed33 9bb7 ed33 1bb8 b9c3 a1b9 0000 0000
00000110: 4a2d cb39 0000 0000 6712 81b9 6712 01ba
00000120: d378 7938 0000 0000 0c83 feb7 0000 0000
00000130: 3824 0cb8 3824 8cb8 a2de e0b6 0000 0000
00000140: fea9 0a39 0000 0000 5fe1 beb7 5fe1 3eb8
00000150: fad6 7035 0000 0000 cdef ea35 0000 0000
00000160: 191f 7234 191f f234 a5d5 b8b8 0000 0000
00000170: 2d9a e138 0000 0000 05ec a6b8 05ec 26b9
00000180: 1cf9 0339 0000 0000 ab58 6cb9 0000 0000
00000190: da64 9a38 da64 1a39 8986 a938 0000 0000
000001a0: 5bea 0eb9 0000 0000 887a a238 887a 2239
000001b0: 5783 2c39 0000 0000 fc57 bd37 0000 0000
000001c0: 106a 8db8 106a 0db9 f7f3 e838 0000 0000
000001d0: 33d7 1439 0000 0000 1729 91b8 1729 11b9
000001e0: cf65 0cb9 0000 0000 43a4 3639 0000 0000
000001f0: ea47 cfb7 ea47 4fb8 bfb4 6b39 0000 0000
00000200: 62f2 1bb8 0000 0000 ecac af38 ecac 2f39
00000210: b32b 8038 0000 0000 e548 3138 0000 0000
00000220: f2b8 8d38 f2b8 0d39 ac0d 4cb7 0000 0000
00000230: 3932 3a39 0000 0000 04ec e1b8 04ec 61b9
00000240: 9c7e 7937 0000 0000 e505 0239 0000 0000
00000250: 59de a4b7 59de 24b8 6c75 1139 0000 0000
00000260: a240 e839 0000 0000 46f3 16b8 46f3 96b8
00000270: 09cb 6c39 0000 0000 7113 5fb8 0000 0000
00000280: 3a0b 4f38 3a0b cf38 448f f7b4 0000 0000
00000290: 1d2b 9db7 0000 0000 6872 2eb5 6872 aeb5
000002a0: faee 9fb9 0000 0000 ed22 653a 0000 0000
000002b0: f7a7 82b9 f7a7 02ba f9e9 b238 0000 0000
000002c0: b445 a239 0000 0000 f042 7ab8 f042 fab8
000002d0: b24c 3939 0000 0000 5509 e738 0000 0000
000002e0: 62be a637 62be 2638 fbcd ac36 0000 0000
000002f0: 930b b437 0000 0000 e406 23b7 e406 a3b7
00000300: 15ac 74b9 0000 0000 ec24 253a 0000 0000
00000310: 6096 8ab9 6096 0aba 8d9c 13b7 0000 0000
00000320: 7f10 0d36 0000 0000 3fc5 08b7 3fc5 88b7
00000330: 1280 9739 0000 0000 ff03 1cb9 0000 0000
00000340: 7797 b038 7797 3039 2e79 4136 0000 0000
00000350: 264a 8fb7 0000 0000 3cf2 9636 3cf2 1637
00000360: 7648 5c37 0000 0000 df90 3838 0000 0000
00000370: 5c0f 8fb7 5c0f 0fb8 fe29 8ab8 0000 0000
00000380: c458 dcb8 0000 0000 68c7 9a38 68c7 1a39
00000390: 15f3 5fb8 0000 0000 44bc a739 0000 0000
000003a0: f9a2 6eb8 f9a2 eeb8 f4e3 73b9 0000 0000
000003b0: f282 1736 0000 0000 7f65 05b9 7f65 85b9
000003c0: db5a 4db8 0000 0000 c526 0439 0000 0000
000003d0: ee4e e0b8 ee4e 60b9 043c 0ab7 0000 0000
000003e0: a1b8 3ab8 0000 0000 bada 7137 bada f137
000003f0: 1db9 8bb5 0000 0000 c5e4 08b7 0000 0000

exp_avg_sq f4 [128, 6]
5.321321e-09 0.0 3.3378427e-07 0.0 4.920816e-08 1.9683264e-07 1.2355844e-09 0.0
7.3369385e-08 0.0 9.13917e-09 3.655668e-08 1.0953154e-09 0.0 5.3372585e-08 0.0
7.1319475e-09 2.852779e-08 4.2180964e-08 0.0 1.4781622e-06 0.0 1.996433e-07 7.985732e-07
1.1274318e-08 0.0 2.9754753e-07 0.0 3.6854324e-08 1.474173e-07 2.6655128e-08 0.0
1.2211451e-06 0.0 1.5326967e-07 6.1307867e-07 2.1080337e-08 0.0 7.596264e-07 0.0
1.0152247e-07 4.0608987e-07 6.7746098e-09 0.0 3.029174e-07 0.0 4.407647e-08 1.7630587e-07
1.0452285e-08 0.0 3.455231e-07 0.0 4.80542e-08 1.922168e-07 2.1976438e-09 0.0
7.787953e-08 0.0 1.2345937e-08 4.9383747e-08 1.0798418e-09 0.0 7.129438e-08 0.0
9.603395e-09 3.841358e-08 1.4130687e-08 0.0 3.333289e-07 0.0 5.5478797e-08 2.2191519e-07
6.893716e-09 0.0 2.6037083e-07 0.0 4.366447e-08 1.7465788e-07 9.17704e-09 0.0
2.6428208e-07 0.0 3.9411354e-08 1.5764542e-07 8.176646e-12 0.0 2.5215968e-10 0.0
3.067189e-11 1.2268755e-10 1.662853e-09 0.0 3.962885e-08 0.0 6.419033e-09 2.5676131e-08
7.2534383e-09 0.0 2.2594558e-07 0.0 3.519879e-08 1.4079517e-07 5.4622213e-09 0.0
1.4853757e-07 0.0 1.8975127e-08 7.590051e-08 6.224594e-09 0.0 2.963934e-07 0.0
4.5881738e-08 1.8352695e-07 7.428288e-09 0.0 1.7114682e-07 0.0 2.5503425e-08 1.020137e-07
7.216305e-09 0.0 2.4611316e-07 0.0 3.498732e-08 1.3994928e-07 2.1916774e-08 0.0
5.08796e-07 0.0 7.0514155e-08 2.8205662e-07 6.5456853e-09 0.0 4.4779205e-07 0.0
5.518948e-08 2.2075793e-07 4.454236e-09 0.0 1.995703e-08 0.0 1.8972456e-08 7.588982e-08
2.0915816e-09 0.0 1.7688785e-07 0.0 1.829973e-08 7.319892e-08 2.587682e-08 0.0
1.7082289e-06 0.0 2.0190056e-07 8.0760225e-07 8.0847125e-09 0.0 1.54408e-07 0.0
2.4529294e-08 9.811718e-08 1.320388e-10 0.0 7.156509e-09 0.0 9.197419e-10 3.6789676e-09
3.526588e-08 0.0 2.1944038e-06 0.0 2.86424e-07 1.145696e-06 7.0514488e-09 0.0
4.5122545e-07 0.0 5.3634928e-08 2.1453971e-07 7.2711495e-09 0.0 2.5920335e-07 0.0
3.1100516e-08 1.2440206e-07 3.5749462e-10 0.0 6.998003e-09 0.0 7.007542e-10 2.8030167e-09
7.06792e-09 0.0 2.0360962e-07 0.0 3.348334e-08 1.3393336e-07 2.447272e-10 0.0
1.447278e-09 0.0 5.7134536e-10 2.2853814e-09 1.4377919e-08 0.0 2.4479368e-07 0.0
4.2447976e-08 1.697919e-07 3.8806024e-11 0.0 1.0680004e-09 0.0 1.637961e-10 6.551844e-10
3.1272148e-11 0.0 8.5857144e-10 0.0 1.2387014e-10 4.9548055e-10 5.7980194e-09 0.0
1.930567e-07 0.0 2.7628731e-08 1.10514925e-07 6.7856156e-09 0.0 4.330093e-07 0.0
5.7850556e-08 2.3140223e-07 1.5995408e-08 0.0 6.1150695e-07 0.0 9.3798924e-08 3.751957e-07
3.748518e-09 0.0 8.595728e-08 0.0 2.0617525e-08 8.24701e-08 4.7992308e-11 0.0
2.4615807e-09 0.0 5.414756e-10 2.1659023e-09 2.0905317e-11 0.0 4.1165976e-10 0.0
00000000: d6d6 b631 0000 0000 f632 b334 0000 0000
00000010: f258 5333 f258 5334 43d1 a930 0000 0000
00000020: 3f8f 9d33 0000 0000 7f02 1d32 7f02 1d33
00000030: fc89 9630 0000 0000 c73b 6533 0000 0000
00000040: 460d f531 460d f532 762a 3533 0000 0000
00000050: 4465 c635 0000 0000 885d 5634 885d 5635
00000060: fab0 4132 0000 0000 9fbe 9f34 0000 0000
00000070: c249 1e33 c249 1e34 3ff7 e432 0000 0000
00000080: 3ae6 a335 0000 0000 7292 2434 7292 2435
00000090: 2714 b532 0000 0000 21e9 4b35 0000 0000
000000a0: 9104 da33 9104 da34 19c6 e831 0000 0000
000000b0: a7a0 a234 0000 0000 974e 3d33 974e 3d34
000000c0: a391 3332 0000 0000 5580 b934 0000 0000
000000d0: 2764 4e33 2764 4e34 5c05 1731 0000 0000
000000e0: b93e a733 0000 0000 011a 5432 011a 5433
000000f0: 8e69 9430 0000 0000 801a 9933 0000 0000
00000100: 2efc 2432 2efc 2433 6bc3 7232 0000 0000
00000110: 60f4 b234 0000 0000 9547 6e33 9547 6e34
00000120: c4dd ec31 0000 0000 18c9 8b34 0000 0000
00000130: 9889 3b33 9889 3b34 0ca9 1d32 0000 0000
00000140: a7e2 8d34 0000 0000 3e45 2933 3e45 2934
00000150: 57d8 0f2d 0000 0000 52a0 8a2f 0000 0000
00000160: 7ae5 062e 7ae5 062f 708a e430 0000 0000
00000170: 6234 2a33 0000 0000 698e dc31 698e dc32
00000180: eb39 f931 0000 0000 739b 7234 0000 0000
00000190: 7b2d 1733 7b2d 1734 35ae bb31 0000 0000
000001a0: b27d 1f34 0000 0000 bffe a232 bffe a233
000001b0: 1ce0 d531 0000 0000 0020 9f34 0000 0000
000001c0: 810f 4533 810f 4534 ea3b ff31 0000 0000
000001d0: 7bc4 3734 0000 0000 a012 db32 a012 db33
000001e0: 4af3 f731 0000 0000 8921 8434 0000 0000
000001f0: f744 1633 f744 1634 7f43 bc32 0000 0000
00000200: 3294 0835 0000 0000 916d 9733 916d 9734
00000210: 75e8 e031 0000 0000 1268 f034 0000 0000
00000220: 7a09 6d33 7a09 6d34 e00b 9931 0000 0000
00000230: f96d ab32 0000 0000 dff8 a232 dff8 a233
00000240: 7ebb 0f31 0000 0000 90ee 3d34 0000 0000
00000250: 8831 9d32 8831 9d33 bb47 de32 0000 0000
00000260: 4c46 e535 0000 0000 01ca 5834 01ca 5835
00000270: f1e4 0a32 0000 0000 59cb 2534 0000 0000
00000280: 7db4 d232 7db4 d233 9e2d 112f 0000 0000
00000290: 52e5 f531 0000 0000 15d1 7c30 15d1 7c31
000002a0: 3f77 1733 0000 0000 9243 1336 0000 0000
000002b0: d1c5 9934 d1c5 9935 3349 f231 0000 0000
000002c0: f43f f234 0000 0000 3a5c 6633 3a5c 6634
000002d0: b5d5 f931 0000 0000 a328 8b34 0000 0000
000002e0: 6193 0533 6193 0534 e588 c42f 0000 0000
000002f0: 1673 f031 0000 0000 319f 4030 319f 4031
00000300: 15da f231 0000 0000 c99f 5a34 0000 0000
00000310: 52cf 0f33 52cf 0f34 4b8a 862f 0000 0000
00000320: 91e9 c630 0000 0000 db0c 1d30 db0c 1d31
00000330: c202 7732 0000 0000 306c 8334 0000 0000
00000340: 0b50 3633 0b50 3634 b3ab 2a2e 0000 0000
00000350: ecc8 9230 0000 0000 8118 342f 8118 3430
00000360: 4f89 092e 0000 0000 9800 6c30 0000 0000
00000370: 5832 082f 5832 0830 eb37 c731 0000 0000
00000380: 064b 4f34 0000 0000 3954 ed32 3954 ed33
00000390: e826 e931 0000 0000 5878 e834 0000 0000
000003a0: 5c77 7833 5c77 7834 4666 8932 0000 0000
000003b0: 7026 2435 0000 0000 816e c933 816e c934
000003c0: 50cc 8031 0000 0000 8497 b833 0000 0000
000003d0: 6b1a b132 6b1a b133 8912 532e 0000 0000
000003e0: 9628 2931 0000 0000 f5d6 1430 f5d6 1431
000003f0: 97e2 b72d 0000 0000 f64f e22f 0000 0000

exp_avg f4 [128]
3.0861836e-05 3.4352545e-06 -1.0077618e-05 -0.00015035177 -0.00010253477 -0.00010578285 -0.00023169801 -8.657814e-07
0.000116252806 -5.67113e-05 -1.850161e-05 -0.00024618508 -3.341234e-05 -2.2754712e-05 2.254928e-07 -7.959458e-05
7.36208e-05 7.747584e-05 -6.743158e-05 -6.9217924e-05 -2.4709816e-05 8.376859e-05 6.757856e-05 -0.000107727945
-1.9653871e-05 -3.598928e-05 4.936313e-05 -6.4986517e-07 -0.00024920685 -5.9667007e-05 1.9877367e-05 -9.717161e-06
-0.00026433452 -8.152159e-06 8.420544e-05 4.49855e-06 -1.7054079e-05 7.380433e-05 -5.6895376e-05 -0.00012721679
-0.00010695852 1.4415646e-05 3.7518525e-06 -3.5691573e-06 -6.8657796e-06 -0.000113770046 6.2336096e-07 -0.00017699978
-0.00012519823 -0.00013595229 -0.00015999132 2.6643564e-05 -3.0390675e-05 -6.422914e-05 -1.7105282e-06 4.758646e-05
-7.9422716e-05 -0.00023050126 -9.5525065e-05 -4.429399e-05 -5.746766e-07 3.4761848e-05 1.926587e-05 -7.858504e-06
-0.00014358514 -8.686443e-06 -3.556908e-06 -0.0001309344 -5.8217254e-05 -0.00023485793 0.00014313299 -6.383806e-05
-0.00036846398 -0.00020537578 -0.00014654933 -3.2748943e-05 -2.9759e-06 -0.00018021851 4.111613e-06 -4.955771e-05
5.1213818e-05 0.00011489092 -7.5580274e-06 -0.00018923033 2.9478642e-05 -1.0846707e-05 -2.645457e-05 -4.1812164e-06
-5.370076e-07 -1.0495582e-05 -1.9225217e-05 -4.7079226e-05 2.7707822e-05 -0.00022064018 -8.182229e-05 7.094711e-05
6.652021e-06 -2.6328433e-05 -0.00014839559 -3.2820446e-06 -2.6911439e-05 -2.349161e-06 1.0603484e-05 1.028364e-05
9.339696e-06 1.2695906e-05 2.741518e-06 4.198394e-05 -0.000111464964 -0.00011864994 -0.000113008246 -2.9369217e-05
-0.00017131573 -8.290469e-05 8.615269e-05 -0.00013513655 -3.362406e-05 -4.083966e-05 3.9206884e-06 -3.1341875e-05
-4.0180867e-06 -4.9905764e-05 1.0547412e-05 -3.3769833e-05 6.124236e-07 -2.5468773e-06 6.609543e-05 -3.868228e-05
00000000: a571 0138 3989 6636 0a13 29b7 bfa7 1db9
00000010: ef07 d7b8 bcd7 ddb8 f6f3 72b9 0b68 68b5
00000020: c0cc f338 4bdd 6db8 e833 9bb7 6712 81b9
00000030: 3a24 0cb8 5fe1 beb7 fd1e 7234 04ec a6b8
00000040: de64 9a38 867a a238 0e6a 8db8 1729 91b8
00000050: ed47 cfb7 ebac af38 f7b8 8d38 00ec e1b8
00000060: 5ede a4b7 32f3 16b8 420b 4f38 6572 2eb5
00000070: faa7 82b9 f642 7ab8 52be a637 e406 23b7
00000080: 6196 8ab9 42c5 08b7 7497 b038 40f2 9636
00000090: 5b0f 8fb7 66c7 9a38 f2a2 6eb8 7f65 05b9
000000a0: eb4e e0b8 bada 7137 56c8 7b36 a885 6fb6
000000b0: 9960 e6b6 d497 eeb8 0a55 2735 0499 39b9
000000c0: a547 03b9 6a8e 0eb9 58c3 27b9 9e80 df37
000000d0: 7aef feb7 c2b2 86b8 4d95 e5b5 9397 4738
000000e0: bf8f a6b8 b6b2 71b9 a154 c8b8 4fc8 39b8
000000f0: 7a43 1ab5 40cd 1138 249d a137 05d8 03b7
00000100: 588f 16b9 fdbb 11b7 37b3 6eb6 6f4b 09b9
00000110: 4d2e 74b8 3244 76b9 f815 1639 cce0 85b8
00000120: 662e c1b9 245a 57b9 09ab 19b9 e95b 09b8
00000130: 93b5 47b6 0af9 3cb9 7df6 8936 30dc 4fb8
00000140: 6bce 5638 98f1 f038 f69a fdb6 216c 46b9
00000150: e748 f737 40fa 35b7 c2ea ddb7 604c 8cb6
00000160: e226 10b5 2e16 30b7 d745 a1b7 ef76 45b8
00000170: 186e e837 a65b 67b9 0298 abb8 71c9 9438
00000180: 6d34 df36 e1db dcb7 a39a 1bb9 1941 5cb6
00000190: e0bf e1b7 47a6 1db6 9ee5 3137 e687 2c37
000001a0: b0b1 1c37 8000 5537 ecfa 3736 ea17 3038
000001b0: 4cc2 e9b8 b4d3 f8b8 d7fe ecb8 ea5d f6b7
000001c0: 37a3 33b9 1edd adb8 e0ac b438 71b3 0db9
000001d0: 8f07 0db8 404b 2bb8 758e 8336 1575 03b8
000001e0: 1ad3 86b6 e851 51b8 caf4 3037 15a4 0db8
000001f0: 6e65 2435 05eb 2ab6 b79c 8a38 c83e 22b8

exp_avg_sq f4 [128]
4.9208168e-08 9.13917e-09 7.131948e-09 1.9964324e-07 3.685432e-08 1.5326967e-07 1.0152247e-07 4.4076465e-08
4.805419e-08 1.2345938e-08 9.603396e-09 5.5478804e-08 4.3664475e-08 3.9411358e-08 3.0671896e-11 6.4190333e-09
3.5198788e-08 1.8975125e-08 4.5881734e-08 2.5503434e-08 3.4987316e-08 7.0514155e-08 5.518948e-08 1.8972454e-08
1.8299732e-08 2.0190053e-07 2.4529294e-08 9.1974184e-10 2.8642398e-07 5.3634935e-08 3.1100516e-08 7.007542e-10
3.3483346e-08 5.713453e-10 4.2447983e-08 1.6379609e-10 1.2387012e-10 2.7628733e-08 5.7850563e-08 9.379891e-08
2.0617522e-08 5.414754e-10 1.5980696e-10 3.6065074e-08 1.3050264e-09 7.9088494e-08 1.6029069e-09 1.1958405e-08
1.734998e-08 3.2746378e-08 2.3432537e-07 3.0737277e-07 1.1703227e-07 1.7153582e-08 8.135269e-10 2.5710976e-08
4.2059085e-09 8.219663e-08 1.1796905e-08 4.84774e-08 3.20829e-11 6.446664e-08 1.1475922e-09 9.851937e-12
3.526687e-08 1.2522994e-10 3.6001255e-10 1.0997881e-07 5.6961125e-09 8.655418e-08 2.792762e-08 2.271222e-08
3.402248e-08 1.5838737e-07 2.686918e-08 7.1684805e-09 9.37128e-08 5.4194107e-08 4.7677705e-08 3.02721e-08
5.7468547e-08 1.18040504e-07 8.243516e-10 6.803299e-08 4.1732168e-08 3.858632e-11 3.2460976e-09 1.5667398e-10
1.9834628e-10 3.9399588e-08 7.737981e-08 1.1782092e-08 2.26578e-08 7.135681e-08 1.5662941e-07 2.3792904e-08
6.357069e-11 5.3126342e-08 4.787859e-09 8.632758e-10 6.1681673e-09 1.502324e-10 1.848649e-08 8.598393e-08
2.5253648e-09 2.4911998e-08 1.3604026e-10 9.56194e-08 1.5050187e-08 6.6103314e-09 1.0777372e-08 1.1197295e-08
2.0559965e-07 3.4744196e-09 1.8387452e-08 2.2732252e-08 1.4083078e-08 6.3413697e-09 5.871956e-11 7.0388786e-08
1.0839933e-08 4.7450378e-08 2.146535e-10 3.0440275e-10 1.2195477e-10 1.0914247e-09 1.5302878e-07 6.2345895e-10
00000000: f458 5333 7f02 1d32 470d f531 845d 5634
00000010: c149 1e33 7292 2434 9104 da33 964e 3d33
00000020: 2464 4e33 021a 5432 2ffc 2432 9747 6e33
00000030: 9989 3b33 3f45 2933 7ce5 062e 6a8e dc31
00000040: 7a2d 1733 befe a232 800f 4533 a512 db32
00000050: f644 1633 916d 9733 7a09 6d33 def8 a232
00000060: 8931 9d32 ffc9 5834 7db4 d232 14d1 7c30
00000070: d0c5 9934 3c5c 6633 6193 0533 319f 4030
00000080: 54cf 0f33 da0c 1d30 0d50 3633 8018 342f
00000090: 5732 082f 3a54 ed32 5e77 7833 7f6e c933
000000a0: 691a b132 f2d6 1430 a9b5 2f2f f8e5 1a33
000000b0: 895c b330 5cd7 a933 464d dc30 9f71 4d32
000000c0: 0209 9532 06a5 0c33 de9a 7b34 fe04 a534
000000d0: 2c53 fb33 2059 9332 de9e 5f30 09db dc32
000000e0: 9083 9031 1384 b033 56ab 4a32 7735 5033
000000f0: 221a 0d2e e970 8a33 50b9 9d30 2e51 2d2d
00000100: 5578 1733 18b1 092f 43eb c52f 7d2d ec33
00000110: 89b7 c331 aadf b933 7ce5 ef32 b318 c332
00000120: 1d20 1233 3011 2a34 f4cd e632 9f4e f631
00000130: 283f c933 0dc3 6833 31c6 4c33 8704 0233
00000140: 56d3 7633 747d fd33 9698 6230 8819 9233
00000150: 013d 3333 56b4 292e f411 5f31 ce43 2c2f
00000160: 8415 5a2f 4e38 2933 002c a633 306a 4a32
00000170: 07a1 c232 d23c 9933 f72d 2834 2661 cc32
00000180: 1ecb 8b2e 082d 6433 7482 a431 a24b 6d30
00000190: c6ef d331 a92e 252f 39cc 9e32 2aa6 b833
000001a0: b08a 2d31 10fe d532 ee93 152f 5257 cd33
000001b0: b647 8132 1721 e331 6227 3932 395e 4032
000001c0: cdc2 5c34 a3c2 6e31 6ff2 9d32 c044 c332
000001d0: 08f2 7132 47e3 d931 2c20 812e a528 9733
000001e0: 883a 3a32 3ecc 4b33 9703 6c2f e158 a72f
000001f0: 3717 062f 1801 9630 3b50 2434 0660 2b30
