results/ppo/MoveToGoal/MoveToGoal-512.pt (torch, 149059 bytes, 12 tensors)

network_body._body_endoder.seq_layers.0.weight f4 [128, 6]
0	0x3ede0b8d	0.43368188
1	0xbe5a7d71	-0.21336915
2	0xbee55d9d	-0.44797984
3	0xbf41a3c9	-0.7564054
4	0xbdfed95d	-0.124438025
5	0xbf103056	-0.56323755
6	0xbe83361e	-0.25627226
7	0x3dda2519	0.10651607
8	0x3ee2f369	0.44326332
9	0x3f77b7e7	0.9676499
10	0xbce067e3	-0.027393287
11	0xbcd2e6e0	-0.025744855
12	0xbe8311f3	-0.25599632
13	0xbf2f035d	-0.68364507
14	0x3c4ce60a	0.012506017
15	0x3ee4a8d3	0.44660053
16	0x3e8c43bb	0.27395424
17	0x3f1b2056	0.60596216
18	0xbeb0657d	-0.3445243
19	0x3edf0e2e	0.43565506
20	0x3e67854c	0.22609442
21	0xbd614c79	-0.05500457
22	0x3f3083e5	0.68951255
23	0xbe10ff5c	-0.14159912
24	0x3de7e328	0.113226235
25	0xbf8405f5	-1.0314318
26	0xbefa0895	-0.48834673
27	0x3e2235c0	0.15840816
28	0xbdf756c0	-0.12077093
29	0x3e9e8d60	0.30967236
30	0xbdb50e30	-0.08840597
31	0xbe32e5a2	-0.1747041
32	0xbdd99c54	-0.1062552
33	0xbec3ffbc	-0.38281047
34	0xbf2ce791	-0.6754084
35	0xbebce655	-0.3689448
36	0x3e331f98	0.17492521
37	0xbe4d7e0b	-0.20067613
38	0x3e895338	0.26821303
39	0xb73986a9	-1.1058212e-05
40	0x3f1d5a65	0.61466056
41	0x3e0b34a3	0.13594298
42	0xbdd387d6	-0.10328643
43	0xbf4023f9	-0.7505489
44	0x3ebec817	0.3726203
45	0x3ebb8670	0.36626005
46	0xbeffff1b	-0.49999318
47	0x3dd98645	0.10621313
48	0x3e40294f	0.18765758
49	0xbe94d758	-0.29070544
50	0xbed0b102	-0.40760046
51	0xbe0cc779	-0.13747968
52	0x3eaa6151	0.33277372
53	0xbea58902	-0.3233109
54	0xbd5bd506	-0.05366995
55	0x3e4b60ae	0.19861099
56	0xbec202b0	-0.37892675
57	0xbe9db841	-0.30804637
58	0x3f38a35c	0.72124267
59	0xbf33f8ed	-0.70301706
60	0xbea48de0	-0.32139492
61	0x3f0fd22d	0.5618008
62	0xbe097442	-0.13423255
63	0x3e5fdabd	0.21860786
64	0x3e8cc380	0.27492905
65	0x3e9384fa	0.2881239
66	0xbedb50c0	-0.42835045
67	0xbe12eb23	-0.1434751
68	0xbe8e5790	-0.2780118
69	0xbdc1accc	-0.094567865
70	0x3c12803a	0.008941704
71	0xbe65b326	-0.22431621
72	0xbf3725bc	-0.71541953
73	0xbe0a66bb	-0.13515751
74	0x3dba8c42	0.09108783
75	0x3e255b3f	0.16148089
76	0xbe0ee4fd	-0.1395454
77	0xbd8414fe	-0.064493164
78	0x3e1ae152	0.15125015
79	0xbf1fdd9b	-0.6244752
80	0xbe84d02f	-0.2594008
81	0x3d223e2b	0.03961007
82	0x3da92b59	0.08260221
83	0x3f071911	0.52772623
84	0xbe2312f2	-0.15925196
85	0x3f775349	0.9661146
86	0x3cd14e32	0.025549982
87	0x3f1ef4d4	0.6209233
88	0x3e884bbe	0.26620287
89	0xbee00ba2	-0.43758875
90	0x3dc9c905	0.098527946
91	0xbee5512a	-0.44788486
92	0x3d886c88	0.06661326
93	0xbe211dba	-0.15733996
94	0xbea6438f	-0.32473418
95	0x3ec8cd4f	0.39219138
96	0x3f898bbb	1.0745767
97	0xbefb393b	-0.490671
98	0xbe52c1e6	-0.20581779
99	0x3e8f2539	0.27958086
100	0x3e1ce5d2	0.15322044
101	0xbf210791	-0.6290217
102	0xbefaea1a	-0.4900673
103	0x3ef79bad	0.4836096
104	0x3f19b25a	0.6003777
105	0xbee17222	-0.4403239
106	0x3db28ebf	0.08718633
107	0x3ed4bb4c	0.41549146
108	0x3e2a5c8d	0.16636868
109	0x3eba2c16	0.3636176
110	0xbea79c18	-0.32736278
111	0x3b074a46	0.0020643636
112	0xbeffed76	-0.49985856
113	0x3f2adae9	0.6674028
114	0x3d7ac7b1	0.061225597
115	0xbf071586	-0.5276722
116	0x3ed4db95	0.41573778
117	0xbee19e6c	-0.4406618
118	0x3d079758	0.033103317
119	0xbe13382b	-0.14376895
120	0xbf4d71bb	-0.80251664
121	0xbed32f59	-0.4124706
122	0xbe116371	-0.1419809
123	0x3e376628	0.17910063
124	0xbf01e17e	-0.507347
125	0xbedb6205	-0.4284822
126	0xbeb2133b	-0.34780297
127	0xbf49ef56	-0.7888082
128	0xbec64f51	-0.3873239
129	0x3e42cbde	0.19023082
130	0x3e0d30fc	0.13788217
131	0xbf20356a	-0.62581503
132	0xbdff49d9	-0.12465257
133	0x3c385d1c	0.011252668
134	0x3e0b2709	0.1358911
135	0x3f414471	0.7549506
136	0x3ea66a63	0.32503042
137	0x3ec35b37	0.3815553
138	0xbe65bbff	-0.22434996
139	0xbe2b2a87	-0.16715442
140	0x3d81f405	0.06345371
141	0xbee1a3af	-0.44070193
142	0x3e2dc5f9	0.16970052
143	0xbcfd4824	-0.030918188
144	0xbefdcef2	-0.4957195
145	0xbe3fdea1	-0.1873727
146	0x3f28321c	0.6570146
147	0x3dd2d6c5	0.1029487
148	0xbf00b5a9	-0.5027719
149	0xbe2729b0	-0.16324496
150	0xbeb3a0fd	-0.35083762
151	0x3ee898d7	0.45429108
152	0x3e7e61a9	0.24841942
153	0xbed13814	-0.40863097
154	0xbee995e4	-0.4562217
155	0x3dea5e88	0.11443812
156	0x3f57da8a	0.8431784
157	0x3d39eee3	0.045393836
158	0xbdf4351b	-0.119241916
159	0xbe4cf381	-0.20014764
160	0x3e41b0b6	0.18915066
161	0xbe4dd7ad	-0.20101805
162	0xbf03987f	-0.51404566
163	0xbdb69301	-0.089147575
164	0xbebd5526	-0.36979026
165	0x3e0103d5	0.12599118
166	0x3eb7fc71	0.35934785
167	0x3d27a29d	0.040926564
168	0x3dac54fd	0.08414648
169	0x3dcf5217	0.10123079
170	0xbefa2932	-0.48859555
171	0x3d8ae42d	0.06781802
172	0x3f1ac48b	0.6045615
173	0xbe0c7cde	-0.13719508
174	0xbe461459	-0.193437
175	0xbbcb0c2e	-0.0061965203
176	0xbd09c860	-0.033638358
177	0x3f3db671	0.7410651
178	0xbf3024e4	-0.6880629
179	0x3e350a58	0.17679727
180	0xbf0d0157	-0.5508017
181	0xbf2739ba	-0.6532246
182	0xbed9bcf1	-0.42526963
183	0xbdf82c7f	-0.12117862
184	0x3d3befee	0.04588311
185	0xbe9fbbec	-0.3119806
186	0x3ec21d0e	0.37912792
187	0xbe726836	-0.23672566
188	0x3ce2e6c3	0.027697926
189	0xbe5b9503	-0.21443562
190	0xbf2a53ee	-0.66534317
191	0x3df19ea7	0.11797839
192	0x3e93fa85	0.2890207
193	0xbf0518ee	-0.51991165
194	0x3ef0082d	0.46881238
195	0xbd60c77e	-0.05487775
196	0xbf357f72	-0.7089759
197	0x3d5c2799	0.0537487
198	0x3ede1d8d	0.4338192
199	0xbdb716f0	-0.08939922
200	0xbeded107	-0.4351885
201	0x3f51822b	0.81839246
202	0x3d966829	0.07344086
203	0xbe31ff2f	-0.17382501
204	0xbc46977e	-0.0121210795
205	0x3f1974ab	0.59943646
206	0x3dd685d8	0.104747474
207	0xbe0441e6	-0.12915763
208	0xbec723d4	-0.38894522
209	0xbebeb425	-0.37246814
210	0xbe95bb77	-0.29244587
211	0xbf1859e5	-0.5951217
212	0xbe8582cc	-0.26076353
213	0xbe9ec66b	-0.31010756
214	0x3ea723ac	0.32644403
215	0xbec40c7d	-0.38290778
216	0x3ca0a792	0.019611154
217	0xbf274991	-0.6534663
218	0x3d4954c7	0.049153116
219	0xbf147830	-0.5799589
220	0x3f453da1	0.77047163
221	0xbdd0a587	-0.10187822
222	0xbf6ae2fa	-0.9175259
223	0x3f82b809	1.0212413
224	0x3e390c47	0.1807109
225	0x3dca7329	0.09885246
226	0x3f2dbe7d	0.6786879
227	0x3dcf81b9	0.101321645
228	0x3e83e345	0.2575933
229	0xbf562636	-0.83652055
230	0x3ea9f95c	0.3319806
231	0x3e175cf6	0.14781556
232	0xbc5184a8	-0.012787975
233	0x3d66c633	0.05634136
234	0xbec3b735	-0.38225713
235	0x3e6cf0b6	0.23138699
236	0xbda59405	-0.08084873
237	0xbeab5cf5	-0.33469358
238	0xbda3e9f0	-0.080036044
239	0xbddd8e96	-0.10818212
240	0xbe1cf0c5	-0.15326221
241	0xbf07c8b3	-0.5304062
242	0x3d77fb98	0.060542673
243	0xbd804dbb	-0.06264826
244	0x3d5d5664	0.054037467
245	0xbe17dd20	-0.14830446
246	0xbe51da7c	-0.20493501
247	0x3d100914	0.035164908
248	0x3ee34cb9	0.44394472
249	0xbe66bf42	-0.22533897
250	0x3f76d27a	0.9641491
251	0xbda8336f	-0.08212935
252	0xbf11155f	-0.56673235
253	0xbe1f8b7f	-0.15580557
254	0xbf1e571e	-0.6185168
255	0x3e0985c7	0.13429938

network_body._body_endoder.seq_layers.0.bias f4 [128]
0	0x00000000	0.0
1	0x00000000	0.0
2	0x00000000	0.0
3	0x00000000	0.0
4	0x00000000	0.0
5	0x00000000	0.0
6	0x00000000	0.0
7	0x00000000	0.0
8	0x00000000	0.0
9	0x00000000	0.0
10	0x00000000	0.0
11	0x00000000	0.0
12	0x00000000	0.0
13	0x00000000	0.0
14	0x00000000	0.0
15	0x00000000	0.0
16	0x00000000	0.0
17	0x00000000	0.0
18	0x00000000	0.0
19	0x00000000	0.0
20	0x00000000	0.0
21	0x00000000	0.0
22	0x00000000	0.0
23	0x00000000	0.0
24	0x00000000	0.0
25	0x00000000	0.0
26	0x00000000	0.0
27	0x00000000	0.0
28	0x00000000	0.0
29	0x00000000	0.0
30	0x00000000	0.0
31	0x00000000	0.0
32	0x00000000	0.0
33	0x00000000	0.0
34	0x00000000	0.0
35	0x00000000	0.0
36	0x00000000	0.0
37	0x00000000	0.0
38	0x00000000	0.0
39	0x00000000	0.0
40	0x00000000	0.0
41	0x00000000	0.0
42	0x00000000	0.0
43	0x00000000	0.0
44	0x00000000	0.0
45	0x00000000	0.0
46	0x00000000	0.0
47	0x00000000	0.0
48	0x00000000	0.0
49	0x00000000	0.0
50	0x00000000	0.0
51	0x00000000	0.0
52	0x00000000	0.0
53	0x00000000	0.0
54	0x00000000	0.0
55	0x00000000	0.0
56	0x00000000	0.0
57	0x00000000	0.0
58	0x00000000	0.0
59	0x00000000	0.0
60	0x00000000	0.0
61	0x00000000	0.0
62	0x00000000	0.0
63	0x00000000	0.0
64	0x00000000	0.0
65	0x00000000	0.0
66	0x00000000	0.0
67	0x00000000	0.0
68	0x00000000	0.0
69	0x00000000	0.0
70	0x00000000	0.0
71	0x00000000	0.0
72	0x00000000	0.0
73	0x00000000	0.0
74	0x00000000	0.0
75	0x00000000	0.0
76	0x00000000	0.0
77	0x00000000	0.0
78	0x00000000	0.0
79	0x00000000	0.0
80	0x00000000	0.0
81	0x00000000	0.0
82	0x00000000	0.0
83	0x00000000	0.0
84	0x00000000	0.0
85	0x00000000	0.0
86	0x00000000	0.0
87	0x00000000	0.0
88	0x00000000	0.0
89	0x00000000	0.0
90	0x00000000	0.0
91	0x00000000	0.0
92	0x00000000	0.0
93	0x00000000	0.0
94	0x00000000	0.0
95	0x00000000	0.0
96	0x00000000	0.0
97	0x00000000	0.0
98	0x00000000	0.0
99	0x00000000	0.0
100	0x00000000	0.0
101	0x00000000	0.0
102	0x00000000	0.0
103	0x00000000	0.0
104	0x00000000	0.0
105	0x00000000	0.0
106	0x00000000	0.0
107	0x00000000	0.0
108	0x00000000	0.0
109	0x00000000	0.0
110	0x00000000	0.0
111	0x00000000	0.0
112	0x00000000	0.0
113	0x00000000	0.0
114	0x00000000	0.0
115	0x00000000	0.0
116	0x00000000	0.0
117	0x00000000	0.0
118	0x00000000	0.0
119	0x00000000	0.0
120	0x00000000	0.0
121	0x00000000	0.0
122	0x00000000	0.0
123	0x00000000	0.0
124	0x00000000	0.0
125	0x00000000	0.0
126	0x00000000	0.0
127	0x00000000	0.0

network_body._body_endoder.seq_layers.2.weight f4 [128, 128]
0	0x3d98f3ae	0.07468353
1	0xbb084f88	-0.0020799357
2	0xbd814192	-0.06311335
3	0x3cc625ca	0.024187941
4	0xbd095ec3	-0.033537637
5	0xbcf8b21f	-0.030358372
6	0x3d53e382	0.05173064
7	0xbcefe420	-0.029283583
8	0x3a1d1b62	0.0005993155
9	0xbdcab0ac	-0.09896979
10	0x3d3ebe5b	0.046568256
11	0x3e072899	0.1319908
12	0xbcf8b230	-0.030358404
13	0xbe12f699	-0.14351882
14	0x3dfc36ce	0.12315141
15	0xbd1de151	-0.038544957
16	0xbd475635	-0.048666198
17	0x3ca77905	0.020443449
18	0xbe9b1b05	-0.30294052
19	0x3e70e10c	0.23523349
20	0x3dd372bb	0.103246175
21	0xbd3bcec6	-0.04585149
22	0x3c8fd5d3	0.017558014
23	0xbd22563c	-0.03963302
24	0x3debb56e	0.11509214
25	0x3dc3e6db	0.095655166
26	0x3e372072	0.1788347
27	0xbc7a45df	-0.015275448
28	0xbdbf77a7	-0.09348994
29	0x3d423e25	0.047422547
30	0xba02bfd7	-0.0004987693
31	0xbc8f46d7	-0.017489834
32	0x3d5b5381	0.053546432
33	0xbcb63bc7	-0.022245301
34	0xbcf2b965	-0.029629419
35	0x3d660781	0.0561595
36	0x3d6824f7	0.056675877
37	0x3d3cc376	0.046084844
38	0x3d877964	0.0661495
39	0xbd05eca3	-0.032696377
40	0x3c301673	0.01074754
41	0xbc133ae7	-0.008986211
42	0x3db85721	0.090009935
43	0xbd723412	-0.05913169
44	0xbd0ecd27	-0.034863617
45	0x3db8bb3d	0.09020088
46	0x3dca3f75	0.09875385
47	0x3d208f45	0.039199132
48	0x3d6204d8	0.0551804
49	0xbbbe3e35	-0.0058057555
50	0xbd56eb5d	-0.052470554
51	0x3df9153e	0.12162255
52	0x3d04333b	0.03227542
53	0xbd88c37a	-0.06677909
54	0xbd79baed	-0.060969282
55	0xbde03a37	-0.109486036
56	0xbd2c296a	-0.042031683
57	0xbe114dc6	-0.14189824
58	0x3c627012	0.013820665
59	0x3dab5274	0.08365336
60	0xbd97a8f8	-0.07405275
61	0xbdb0bfc6	-0.08630328
62	0x3d7d1bb6	0.061794005
63	0xbd66e7ca	-0.056373395
64	0x3c709cca	0.014685819
65	0xbc54038a	-0.012940297
66	0xbdcc97f8	-0.09989923
67	0xbe080895	-0.13284524
68	0x3e01523a	0.12629023
69	0xbd591b7f	-0.053004738
70	0xbb634a8a	-0.003468188
71	0xbd23d6e8	-0.039999872
72	0xbe13bf91	-0.14428546
73	0x3d57a362	0.05264605
74	0xbde00cde	-0.10939954
75	0x3e1ab723	0.15108924
76	0xbe0158fe	-0.12631604
77	0x3dcd2fd6	0.100188896
78	0x3dd38fd1	0.10330165
79	0xbe5b7101	-0.21429826
80	0xbd1e9e24	-0.038725033
81	0x3e138a99	0.1440834
82	0xbd16c7e9	-0.036811743
83	0x3d71bd13	0.059018206
84	0x3c55e046	0.013053959
85	0xbd62b702	-0.05535031
86	0xbd7479ce	-0.059686475
87	0xbe45782f	-0.19284128
88	0x3e94737f	0.28994367
89	0xbd566987	-0.052346732
90	0xbd4d0474	-0.050053075
91	0x3d38007a	0.04492233
92	0x3c091c91	0.008368627
93	0xbd2bb936	-0.041924678
94	0xbdf340a1	-0.11877561
95	0x3cbea4e8	0.023271993
96	0x3d3e91d9	0.04652581
97	0xbdb85f0e	-0.09002505
98	0x3cb86b22	0.022512022
99	0x3d80f244	0.062962085
100	0x3d6ee505	0.05832388
101	0xbd74ed7a	-0.059796788
102	0xbdfd3813	-0.12364211
103	0xbda5ec32	-0.08101691
104	0x3c958581	0.018252136
105	0xbd6e844a	-0.05823163
106	0x3e3f70e5	0.1869541
107	0xbde19d5f	-0.11016344
108	0x3d292510	0.04129511
109	0x3d0e3519	0.034718607
110	0x3c04cad5	0.008105
111	0xbd62dba0	-0.055385232
112	0x3d69709d	0.056992162
113	0xbd26f6d5	-0.04076274
114	0xbcc3834f	-0.023866324
115	0xbd905802	-0.07048036
116	0xbdee7b08	-0.1164456
117	0x3cb72361	0.022355737
118	0xbda32de7	-0.079677396
119	0xbc4f07d3	-0.012636143
120	0x3c8ac978	0.01694177
121	0x3dfdccc7	0.12392574
122	0x3aeea5a2	0.0018207321
123	0x3a7786e9	0.00094424054
124	0xbe3f6d28	-0.18693984
125	0x3e052687	0.13002978
126	0xbd41ea3e	-0.04734253
127	0xbe071da1	-0.13194896
128	0x3cc5d97f	0.024151562
129	0xbdb64a5a	-0.089009
130	0x3ccc38dd	0.024929458
131	0x3caecac9	0.02133693
132	0xbdd60f4b	-0.10452136
133	0xbc983744	-0.01858104
134	0x3cc90394	0.024537839
135	0xbdbf01bb	-0.09326502
136	0x3de1311c	0.10995695
137	0x3cf12154	0.029434837
138	0x3d93899d	0.07203982
139	0x3ddf70c0	0.10910177
140	0x3d0312c3	0.032000314
141	0xbdde3f2e	-0.10851894
142	0xbe1d0b8e	-0.15336439
143	0xbdda2f9d	-0.10653613
144	0x3d3209a3	0.04346622
145	0x3daf7f74	0.08569232
146	0x3e0a8483	0.13527112
147	0x3e8001e4	0.25001442
148	0x3d4997bd	0.049216975
149	0xbe463c6f	-0.19358991
150	0x3c9fbc15	0.019498864
151	0x3deab8bb	0.11461016
152	0xbbd70281	-0.006561578
153	0x3da61093	0.0810863
154	0xbdbf89fd	-0.09352491
155	0xbce6bcd1	-0.028166207
156	0x3df2ce00	0.11855698
157	0xbd717587	-0.058949973
158	0xbcfce8d1	-0.030872734
159	0xbd8d12dd	-0.068883635
160	0xbdd5bb4b	-0.10436114
161	0x3de5b1c4	0.11215547
162	0xbe09e227	-0.13465177
163	0x3e49e992	0.19718006
164	0xbd684b4b	-0.05671243
165	0xbd27ded0	-0.040983975
166	0x3bf04239	0.007332113
167	0x3d9cd4a3	0.07657745
168	0xbd7a8367	-0.06116047
169	0xbb6c07c5	-0.0036015373
170	0x3d4d1d6e	0.050076894
171	0x3df97541	0.121805675
172	0xbdc43843	-0.095810436
173	0xbe121d17	-0.1426891
174	0x3dbf4c48	0.09340721
175	0x3d2927f1	0.041297857
176	0xbd947fcf	-0.0725094
177	0x3defab51	0.11702598
178	0xbddd1d24	-0.10796574
179	0xbdb9ede7	-0.090785794
180	0xbdc44073	-0.09582605
181	0x3c6f8f1c	0.014621522
182	0x3e24b3bf	0.16084193
183	0xbdc38caa	-0.09548314
184	0xbcfe9642	-0.031077508
185	0x3c4edefd	0.012626407
186	0x3d72993e	0.059228174
187	0xbdc3dfcf	-0.095641725
188	0x3e4040b4	0.18774682
189	0x3d148b04	0.036265388
190	0x3de3f683	0.11131003
191	0x3e0ab099	0.13543929
192	0x3cafae3a	0.021445382
193	0xbd9de54b	-0.0770975
194	0xbd7f3316	-0.06230458
195	0x3d8de7aa	0.06928952
196	0x3dbc4658	0.091931045
197	0xbd5345bb	-0.051580172
198	0x3c9909a2	0.018681351
199	0x3d58d9d6	0.05294212
200	0x3d324fe8	0.043533236
201	0x3d8e1809	0.06938178
202	0x3e54d83f	0.20785616
203	0xbdda5f9e	-0.10662769
204	0xbd214188	-0.039369136
205	0x3d1449fa	0.036203362
206	0x3d9c0925	0.07618932
207	0xbd83db2f	-0.0643829
208	0x3ce454dc	0.027872495
209	0x3d98d49d	0.07462428
210	0xbca4fe1f	-0.020140706
211	0xbdbecd10	-0.09316456
212	0x3ba413b5	0.005007232
213	0x3d7235c4	0.059133306
214	0x3d914033	0.07092323
215	0xbd81fc65	-0.063469686
216	0xbd84797f	-0.06468486
217	0x3d37496b	0.04474775
218	0x3dc3d791	0.095626004
219	0xbe10c4ed	-0.14137621
220	0x3cd4acfc	0.025961392
221	0xbc1bee7b	-0.009517307
222	0x3c2cc1cb	0.010544251
223	0xbcd7de61	-0.026351156
224	0x3e0cf092	0.13763645
225	0xbd5b16c1	-0.053488497
226	0xbd9e03a4	-0.07715538
227	0x3db268f9	0.08711428
228	0x3d84011f	0.06445526
229	0x3d44c2eb	0.04803745
230	0x3ced12aa	0.028939564
231	0x3d40b760	0.04704988
232	0xbd865b15	-0.06560341
233	0x3bb65ad6	0.0055650277
234	0xbd1a2679	-0.037634347
235	0x3e37da8d	0.17954464
236	0x3dbb3bbf	0.09142255
237	0xbde7a95f	-0.11311602
238	0xbb73246a	-0.0037100562
239	0x3d3560fa	0.044281937
240	0xbdbe561f	-0.0929377
241	0xbdf63e22	-0.1202357
242	0x3d9c9a4f	0.076466195
243	0xbda44416	-0.08020799
244	0xbd7e2f38	-0.06205675
245	0x3dad8ec6	0.084744975
246	0x3ca7427d	0.020417446
247	0xbd86d2f9	-0.065832086
248	0x3d9e358e	0.077250585
249	0x3da09d3b	0.07842489
250	0xbc844ead	-0.016150797
251	0x3c901793	0.017589366
252	0xbd8fa556	-0.07013957
253	0x3da17ab2	0.078847304
254	0x3ac79a1c	0.0015228423
255	0x3dcc9c5d	0.099907614

network_body._body_endoder.seq_layers.2.bias f4 [128]
0	0x00000000	0.0
1	0x00000000	0.0
2	0x00000000	0.0
3	0x00000000	0.0
4	0x00000000	0.0
5	0x00000000	0.0
6	0x00000000	0.0
7	0x00000000	0.0
8	0x00000000	0.0
9	0x00000000	0.0
10	0x00000000	0.0
11	0x00000000	0.0
12	0x00000000	0.0
13	0x00000000	0.0
14	0x00000000	0.0
15	0x00000000	0.0
16	0x00000000	0.0
17	0x00000000	0.0
18	0x00000000	0.0
19	0x00000000	0.0
20	0x00000000	0.0
21	0x00000000	0.0
22	0x00000000	0.0
23	0x00000000	0.0
24	0x00000000	0.0
25	0x00000000	0.0
26	0x00000000	0.0
27	0x00000000	0.0
28	0x00000000	0.0
29	0x00000000	0.0
30	0x00000000	0.0
31	0x00000000	0.0
32	0x00000000	0.0
33	0x00000000	0.0
34	0x00000000	0.0
35	0x00000000	0.0
36	0x00000000	0.0
37	0x00000000	0.0
38	0x00000000	0.0
39	0x00000000	0.0
40	0x00000000	0.0
41	0x00000000	0.0
42	0x00000000	0.0
43	0x00000000	0.0
44	0x00000000	0.0
45	0x00000000	0.0
46	0x00000000	0.0
47	0x00000000	0.0
48	0x00000000	0.0
49	0x00000000	0.0
50	0x00000000	0.0
51	0x00000000	0.0
52	0x00000000	0.0
53	0x00000000	0.0
54	0x00000000	0.0
55	0x00000000	0.0
56	0x00000000	0.0
57	0x00000000	0.0
58	0x00000000	0.0
59	0x00000000	0.0
60	0x00000000	0.0
61	0x00000000	0.0
62	0x00000000	0.0
63	0x00000000	0.0
64	0x00000000	0.0
65	0x00000000	0.0
66	0x00000000	0.0
67	0x00000000	0.0
68	0x00000000	0.0
69	0x00000000	0.0
70	0x00000000	0.0
71	0x00000000	0.0
72	0x00000000	0.0
73	0x00000000	0.0
74	0x00000000	0.0
75	0x00000000	0.0
76	0x00000000	0.0
77	0x00000000	0.0
78	0x00000000	0.0
79	0x00000000	0.0
80	0x00000000	0.0
81	0x00000000	0.0
82	0x00000000	0.0
83	0x00000000	0.0
84	0x00000000	0.0
85	0x00000000	0.0
86	0x00000000	0.0
87	0x00000000	0.0
88	0x00000000	0.0
89	0x00000000	0.0
90	0x00000000	0.0
91	0x00000000	0.0
92	0x00000000	0.0
93	0x00000000	0.0
94	0x00000000	0.0
95	0x00000000	0.0
96	0x00000000	0.0
97	0x00000000	0.0
98	0x00000000	0.0
99	0x00000000	0.0
100	0x00000000	0.0
101	0x00000000	0.0
102	0x00000000	0.0
103	0x00000000	0.0
104	0x00000000	0.0
105	0x00000000	0.0
106	0x00000000	0.0
107	0x00000000	0.0
108	0x00000000	0.0
109	0x00000000	0.0
110	0x00000000	0.0
111	0x00000000	0.0
112	0x00000000	0.0
113	0x00000000	0.0
114	0x00000000	0.0
115	0x00000000	0.0
116	0x00000000	0.0
117	0x00000000	0.0
118	0x00000000	0.0
119	0x00000000	0.0
120	0x00000000	0.0
121	0x00000000	0.0
122	0x00000000	0.0
123	0x00000000	0.0
124	0x00000000	0.0
125	0x00000000	0.0
126	0x00000000	0.0
127	0x00000000	0.0

action_model._continuous_distribution.log_sigma f4 [1, 2]
0	0x00000000	0.0
1	0x00000000	0.0

action_model._continuous_distribution.mu.weight f4 [2, 128]
0	0x3d1d9e57	0.038481083
1	0x3c933054	0.01796738
2	0x3c980fe5	0.018562267
3	0x3b59883f	0.0033192781
4	0x3ad2cd00	0.0016082823
5	0xbc68cd02	-0.014209034
6	0xbc7b8df5	-0.015353669
7	0xbccd0125	-0.02502496
8	0x3c08445e	0.008317081
9	0xbbc2d346	-0.005945596
10	0x3c76b39f	0.015057473
11	0xb91eefeb	-0.0001515743
12	0x3bb4d861	0.0055189584
13	0x3c2ac461	0.010422797
14	0xbcdee1ff	-0.027207373
15	0xbbf2bce0	-0.0074077696
16	0xbc42d45c	-0.011891451
17	0x3b37a84e	0.0028023901
18	0x3c7a14a7	0.015263713
19	0x3d1cbdef	0.038267072
20	0x3c34813d	0.011017141
21	0xbbe27b0b	-0.0069116405
22	0xbc0b12a3	-0.00848833
23	0xbc833d40	-0.016020417
24	0x3cae7ddb	0.021300247
25	0x3bbd6882	0.0057802806
26	0xbc987009	-0.01860811
27	0xbd17e8bf	-0.0370872
28	0x3c5fcaab	0.01365916
29	0xbc29ce15	-0.010364075
30	0xba84c6c7	-0.0010130041
31	0x3c92936b	0.01789256
32	0xbae97677	-0.0017811795
33	0x3b5f7867	0.0034098865
34	0x3b5356cd	0.0032247782
35	0xbd21b0fb	-0.039475422
36	0x3bb77052	0.0055981064
37	0xbcaf3a68	-0.021390155
38	0x3b87bf97	0.0041427123
39	0x3d4dddbf	0.0502603
40	0x3bed62e3	0.007244454
41	0x3d0c111f	0.034196015
42	0xbbef5677	-0.0073040086
43	0xbc0f0589	-0.008729347
44	0x3bf9c400	0.007622242
45	0x3bb4565e	0.00550346
46	0x3c28a315	0.010292788
47	0xbb2f8192	-0.002678011
48	0x3c9c76fd	0.019099707
49	0x3d0fc0b7	0.035095897
50	0x3c91b9cb	0.017788788
51	0xbd1c1044	-0.03810145
52	0x3c732630	0.014840648
53	0xbc5dc9a5	-0.013536845
54	0xbca9867f	-0.020694016
55	0xbcbf2dc8	-0.02333726
56	0xbc25de2e	-0.010123773
57	0xbc1f8ecf	-0.009738638
58	0xbba9ffaa	-0.0051879482
59	0x3b8e2d6f	0.004338912
60	0x3b026953	0.0019899204
61	0xbc56457b	-0.013078089
62	0xba9efd37	-0.0012129907
63	0x3c94979d	0.018138701
64	0x3cc0d87a	0.023540724
65	0xbd147fab	-0.036254566
66	0x3be2e137	0.0069238204
67	0x3c1b20ca	0.009468267
68	0x3ca77fbe	0.020446654
69	0x3b92ec35	0.0044837245
70	0xb9796640	-0.00023784582
71	0x3ce7e8b2	0.0283092
72	0xbc87204d	-0.016494894
73	0xbb00b3be	-0.0019638385
74	0xbcc14507	-0.023592485
75	0x3ca50c0f	0.020147352
76	0xbba0c611	-0.004906424
77	0xbc9fd189	-0.019509094
78	0x3c4c2616	0.012460252
79	0xbcfbb745	-0.030727038
80	0xbc25cb8b	-0.010119329
81	0xbb7d456b	-0.0038646113
82	0xbbccab3a	-0.0062459977
83	0x3ae1d23b	0.0017228791
84	0xbd1db400	-0.03850174
85	0xbc8baf3b	-0.01705133
86	0xbd3b0fdb	-0.045669418
87	0xbd224b29	-0.03962246
88	0xbc470994	-0.01214828
89	0x3b729535	0.0037015204
90	0x3bdbfbbf	0.00671336
91	0xbc832ec7	-0.016013516
92	0xbb1c7017	-0.0023870522
93	0x3ccb4ec3	0.02481783
94	0x3c63e4ba	0.013909513
95	0xbaaf7a1f	-0.0013387835
96	0x3cb866a8	0.022509888
97	0x3c72e38a	0.014824757
98	0x3cb8b5f1	0.022547694
99	0x3c668bf2	0.0140714515
100	0xbcc3ddf5	-0.023909548
101	0xbc144777	-0.009050242
102	0x3c89d8e1	0.016827049
103	0xbc67ac07	-0.014140136
104	0xbcbd0ff9	-0.023078905
105	0xbc8d09fe	-0.017216679
106	0x3c0e1d47	0.008673972
107	0x3cc9d69d	0.024638468
108	0xbc960be9	-0.018316226
109	0x3c1c26a7	0.0095307
110	0xbc216d81	-0.009852768
111	0xbcbca548	-0.023028031
112	0x3bd8abb5	0.006612266
113	0xbcf1a255	-0.029496351
114	0xbb381732	-0.0028089997
115	0x3c211bea	0.009833315
116	0xbc75786a	-0.014982322
117	0xbc87de58	-0.016585514
118	0x3c8ac6c1	0.016940476
119	0xbc4127f7	-0.0117893135
120	0xbd17ae6b	-0.037031572
121	0x3cae43a3	0.021272486
122	0xbcda3987	-0.02663876
123	0xbaa017b0	-0.0012214091
124	0xbc8c7592	-0.017145906
125	0xbb102585	-0.002199502
126	0x3c4a7b29	0.012358465
127	0x3c54a74a	0.012979338
128	0x3d248e08	0.040174514
129	0x3c7a8cea	0.015292386
130	0x3abc29ff	0.0014355778
131	0xbcd0df6d	-0.025497163
132	0xbaec7cc2	-0.0018042552
133	0x3cb7cc3b	0.022436252
134	0x3c48f213	0.012264746
135	0xbcc3eb6e	-0.023915973
136	0xbbce1e2d	-0.0062902183
137	0x3c694a3f	0.014238893
138	0xbcf377ed	-0.029720271
139	0xbcbf2b23	-0.023335999
140	0x3b0900fe	0.0020905132
141	0x3cbc8692	0.023013387
142	0xbcc00c48	-0.023443356
143	0x3d29b742	0.041434534
144	0x3ba13aa8	0.0049203224
145	0xbcac3a9b	-0.021024039
146	0xbbfd8b5f	-0.0077375616
147	0x3cd7651f	0.026293335
148	0x3c5009bb	0.012697632
149	0xbc0325c5	-0.00800461
150	0x3b4bb79a	0.0031084777
151	0xbd05a133	-0.032624435
152	0x3ca08ed8	0.019599363
153	0xbd0fb3ff	-0.035083767
154	0xbcbd7a97	-0.023129744
155	0x3d05ba24	0.03264822
156	0xbc93aaab	-0.018025717
157	0xbc5ba0b7	-0.013405017
158	0x3d27e5d6	0.040990673
159	0x3c460ab7	0.012087516
160	0xbc6db1a5	-0.014507686
161	0x3c54b368	0.012982227
162	0x3c89075f	0.016727148
163	0x3c4e0787	0.012575037
164	0x3b9089fb	0.00441098
165	0x3c27ad03	0.01023412
166	0xbc9f4b0f	-0.01944497
167	0x3a242c28	0.00062626833
168	0xbd1472ca	-0.036242284
169	0x3bcbd9b0	0.0062210187
170	0xbc9e3fb1	-0.01931748
171	0x3cb787ff	0.022403715
172	0x3c080e0f	0.008304133
173	0x3c2046b8	0.009782486
174	0xbc66d930	-0.0140898675
175	0xbb9b62e5	-0.0047420138
176	0xbc510548	-0.012757607
177	0xbc9cf05f	-0.019157587
178	0xbc2498ed	-0.010046226
179	0xbd006beb	-0.03135292
180	0xbc14f98e	-0.009092702
181	0xbcd9e845	-0.026600013
182	0x3cab468f	0.020907668
183	0x3c03ef15	0.008052607
184	0x3c4e5d95	0.012595554
185	0x3cbcbd2f	0.023039429
186	0xbb8e047d	-0.004334031
187	0x3cae1d96	0.021254342
188	0xbc8a50eb	-0.016884288
189	0xbd022c60	-0.0317806
190	0x3c42ccf2	0.011889683
191	0x3cb539a0	0.022122204
192	0xba84aac3	-0.0010121692
193	0xbc173121	-0.009228022
194	0x3cb9524d	0.022622252
195	0xbbf2f702	-0.0074146995
196	0xbba783d2	-0.0051121498
197	0x3b46c9c3	0.0030332662
198	0x3c4b8da6	0.012423908
199	0xb9346f37	-0.00017207568
200	0x3c21c2e1	0.009873123
201	0x3c49079e	0.0122698825
202	0xbaa2a589	-0.0012408952
203	0xbc0cb367	-0.008587695
204	0x3cf441eb	0.029816588
205	0xbc588487	-0.013215191
206	0xbd309737	-0.04311296
207	0x3c67c48a	0.01414598
208	0x3d0bed08	0.034161597
209	0xbbe47120	-0.0069714934
210	0x3bb0f88f	0.0054007242
211	0xbc72e6b7	-0.0148255145
212	0xbc038cd4	-0.0080291815
213	0xbc3ba53e	-0.011452971
214	0x3c514c18	0.01277449
215	0xba982f0d	-0.0011610702
216	0x3c21e89e	0.00988212
217	0xbc78a83d	-0.01517683
218	0xbbf14a83	-0.007363619
219	0x3b5c3f30	0.0033606999
220	0xbc417607	-0.011807925
221	0xbcd21427	-0.025644375
222	0xbcfabe7a	-0.030608404
223	0xbcf0749a	-0.029352475
224	0xbc84df67	-0.016219808
225	0x3ceebc6d	0.029142583
226	0xbc2490f1	-0.010044322
227	0xbc40cd9d	-0.011767772
228	0x3cad4fd7	0.021156235
229	0xbcae724a	-0.021294732
230	0xbc8f5df8	-0.017500862
231	0x3b3ecaba	0.0029112534
232	0x3cf5e442	0.030016068
233	0x3cc63800	0.024196625
234	0xbd290dce	-0.04127293
235	0xbc32cee9	-0.010913589
236	0xbcb054ff	-0.021524904
237	0x3b2238e5	0.002475315
238	0x3ca88b7f	0.02057433
239	0x3b1a32c5	0.0023528796
240	0x3cc4d1fa	0.024025906
241	0xbb921103	-0.0044575944
242	0x3ce89fa2	0.028396431
243	0xbce2947a	-0.02765869
244	0xbc2b9677	-0.010472885
245	0xbbd1769a	-0.0063923122
246	0x3b198ed7	0.0023431086
247	0x3ca7d8a1	0.020489039
248	0xbd09240d	-0.033481646
249	0x3c2e34e8	0.010632731
250	0x3cff3360	0.031152427
251	0x3c06e086	0.0082322415
252	0xbab24dee	-0.0013603547
253	0xbcfdd61b	-0.030985883
254	0x3d0a0252	0.03369362
255	0x3cac2dcb	0.02101793

action_model._continuous_distribution.mu.bias f4 [2]
0	0x00000000	0.0
1	0x00000000	0.0

network_body._body_endoder.seq_layers.0.weight f4 [128, 6]
0	0xbf285488	-0.65753984
1	0x3ef65bec	0.48117006
2	0x3f271fa2	0.6528264
3	0x3d54f4fe	0.051991455
4	0x3f03ba7d	0.51456434
5	0xbeac41f5	-0.3364407
6	0x3d5efd8d	0.054441024
7	0xbe4f0e57	-0.20220314
8	0x3f0d8b1a	0.5529038
9	0xbf18ce3c	-0.5968969
10	0xbef4c9ad	-0.47810116
11	0x3e818b36	0.25301522
12	0xbdc45ab5	-0.095876135
13	0x3eb87688	0.36027932
14	0x3b6f1ae0	0.0036484525
15	0x3dcb4bf2	0.09926595
16	0x3f20f7fe	0.62878406
17	0xbf062822	-0.5240499
18	0x3e53a148	0.20666993
19	0x3f68f0ba	0.9099232
20	0xbe8218c7	-0.2540953
21	0x3ea59d07	0.32346365
22	0xbe9f480b	-0.31109652
23	0xbb3cf3ba	-0.0028831796
24	0x3e4e38f1	0.20138909
25	0x3f1c3b9e	0.6102847
26	0x3dd8a290	0.10577881
27	0x3f04d124	0.51881623
28	0x3e24af05	0.1608239
29	0xbece025b	-0.40236172
30	0x3e48de93	0.19616155
31	0x3f4569db	0.7711465
32	0xbd05ce58	-0.032667488
33	0xbf1170b3	-0.5681259
34	0xbf44104c	-0.7658737
35	0xbebbdfbc	-0.36694133
36	0x3f3de10f	0.7417154
37	0x3d84c0af	0.06482064
38	0x3ea2978c	0.31756246
39	0xbe2a3b9a	-0.16624299
40	0xbe056595	-0.13027032
41	0xbd7bb408	-0.061450988
42	0x3ef9bf8e	0.48778957
43	0xbbb9ea27	-0.005673665
44	0xbedd453e	-0.4321689
45	0x3f834755	1.0256144
46	0x3e2569a5	0.16153581
47	0xbe95424a	-0.29152137
48	0xbd3a563e	-0.045492403
49	0xbe89470a	-0.2681201
50	0x3e36249a	0.177874
51	0xbe328f6b	-0.17437522
52	0x3ea019e2	0.31269747
53	0x3f02ed6b	0.5114352
54	0x3ecc9b6d	0.3996233
55	0xbf13013c	-0.5742376
56	0x3f3781f2	0.71682656
57	0x3bf52903	0.0074816956
58	0x3e6f4e45	0.23369701
59	0xbecbc479	-0.39798334
60	0xbdddacb1	-0.10823954
61	0xbcec8d1b	-0.028875878
62	0x3dda14d3	0.10648503
63	0xbea2abcb	-0.31771693
64	0x3f2800a2	0.65625966
65	0xbece9ca3	-0.4035388
66	0x3eac7509	0.3368304
67	0x3f57ceef	0.8430013
68	0xbf232c63	-0.63739604
69	0xbe09c822	-0.13455251
70	0xbf40e62d	-0.7535122
71	0x3e743c27	0.23851071
72	0x3f0cb498	0.54963064
73	0xbec2cc44	-0.38046467
74	0x3ec51980	0.38496017
75	0x3de6bd0d	0.11266527
76	0xbf1667ab	-0.58751935
77	0x3e659d03	0.22423176
78	0xbeadee32	-0.3397079
79	0x3d81d342	0.06339122
80	0x3eb6d29f	0.35707566
81	0xbec0f6c1	-0.37688258
82	0x3da8455a	0.08216353
83	0xbd22a7c5	-0.03971078
84	0xbeabcdcc	-0.33555448
85	0x3e728f66	0.23687515
86	0xbe70c71c	-0.23513454
87	0xbec99e31	-0.39378503
88	0x3d8de4c3	0.069283985
89	0x3ef9728b	0.48720202
90	0xbe94e27c	-0.29079044
91	0x3f6bbfb9	0.9208942
92	0x3e956316	0.2917716
93	0xbf00beb6	-0.50291
94	0x3ea82b5e	0.32845587
95	0xbedf0067	-0.43554994
96	0xbe7feb2f	-0.24992059
97	0x3c42fef6	0.011901608
98	0xbe50cf40	-0.2039156
99	0x3f18c6f1	0.5967856
100	0xbe19a36b	-0.15003745
101	0x3f39c9e9	0.72573715
102	0x3def4d29	0.11684639
103	0xbe923a22	-0.28559977
104	0xbf0f209f	-0.5590915
105	0xbd349c0c	-0.04409413
106	0x3e2bf987	0.16794406
107	0xbf0901b2	-0.5351821
108	0x3edf0443	0.4355794
109	0x3efc187e	0.49237436
110	0xbccebae2	-0.025235597
111	0xbdb94c97	-0.090478115
112	0x3e0bb6f3	0.13644008
113	0x3e618759	0.22024287
114	0x3dfb2d76	0.1226453
115	0x3e36e677	0.17861353
116	0x3d9a99ea	0.07548888
117	0xbe22e362	-0.15907052
118	0x3e453c5c	0.19261307
119	0xbddb73ba	-0.107154325
120	0xbdcf246f	-0.10114371
121	0xbe13d6aa	-0.14437357
122	0xbe68693f	-0.22696398
123	0xbea265f6	-0.31718415
124	0x3f3a867c	0.72861457
125	0x3edd4e86	0.4322397
126	0xbe1366e9	-0.14394726
127	0x3f53930e	0.8264626
128	0x3f3ce168	0.7378144
129	0x3e5024a4	0.20326477
130	0xbee06cc9	-0.43832996
131	0xbe8f1464	-0.27945244
132	0x3ea83874	0.3285557
133	0x3ca1ad13	0.019735849
134	0xbf6354ea	-0.88801444
135	0xbf8c1f5e	-1.0947073
136	0x3e5d12e7	0.21589242
137	0xbf63824b	-0.88870686
138	0x3e3dfb2b	0.18552844
139	0x3ec6676d	0.38750783
140	0x3e2c061b	0.16799204
141	0xbe6cd401	-0.23127748
142	0x3e2df907	0.16989528
143	0xbec84980	-0.39118576
144	0x3ed18567	0.4092209
145	0x3dca5495	0.09879414
146	0x3e8bffec	0.2734369
147	0xbc158014	-0.0091247745
148	0x3e9ba094	0.3039595
149	0xbf2ae8c2	-0.6676141
150	0xbead9f27	-0.33910486
151	0x3e9f546e	0.31119102
152	0xbe4a5512	-0.19759014
153	0x3f554ac9	0.8331724
154	0xbebf181f	-0.3732309
155	0xbf105d15	-0.5639203
156	0xbe3e7cf2	-0.1860235
157	0x3ddea26b	0.108708225
158	0x3cbfc7ff	0.023410795
159	0x3ce69e5d	0.028151685
160	0xbe3d22ce	-0.18470308
161	0x3e20a655	0.1568845
162	0xbf20ee6a	-0.6286379
163	0x3f1c42b0	0.6103926
164	0x3d21e0fa	0.039521195
165	0xbc562314	-0.013069887
166	0xbf4d8780	-0.8028488
167	0xbdf255ca	-0.11832769
168	0x3dbfe2eb	0.09369453
169	0x3e971210	0.29505968
170	0x3eddc5bd	0.43314925
171	0xbee78866	-0.4522125
172	0xbd357681	-0.044302467
173	0x3eec0aad	0.46101895
174	0xbda1a48b	-0.07892712
175	0xbf5f9599	-0.8733764
176	0x3ee4bc01	0.44674686
177	0xbebc0c95	-0.3672835
178	0xbbdd64ef	-0.006756417
179	0xbefc2e23	-0.4925395
180	0x3e97bb0f	0.29634902
181	0x3e66aded	0.22527285
182	0xbc7192f5	-0.01474451
183	0x3de9d417	0.11417406
184	0x3f231add	0.63712865
185	0xbf2c65a0	-0.6734257
186	0xbef9bd60	-0.48777294
187	0xbf254d9b	-0.6457154
188	0xbf8c76b3	-1.0973724
189	0x3d9da5ec	0.07697663
190	0xbf0b7f5b	-0.54491204
191	0xbee1a46b	-0.44070753
192	0x3dc45349	0.09586198
193	0xbe063159	-0.13104762
194	0x3eb6e0c6	0.35718364
195	0x3eea4c36	0.4576127
196	0x3f133e3b	0.5751683
197	0xbd7a39cc	-0.061090276
198	0xbf260313	-0.6484844
199	0xbd8b9c44	-0.06816915
200	0x3d131ee7	0.035918143
201	0xbeb17c59	-0.34665182
202	0x3f07dcee	0.53071487
203	0xbe067d13	-0.1313365
204	0x3e8dedae	0.27720398
205	0x3e465002	0.19366458
206	0xbbb5db03	-0.00554979
207	0x3f7d5c32	0.98968804
208	0x3f086cfa	0.53291285
209	0x3e88836d	0.2666277
210	0x3de61332	0.1123413
211	0xbd764558	-0.060124725
212	0x3ee9d48e	0.4566998
213	0x3d8c9eb8	0.06866211
214	0x3f4a90af	0.7912702
215	0x3e9842a4	0.29738343
216	0xbe23864d	-0.159692
217	0x3e1fa62d	0.15590735
218	0x3ef01245	0.4688894
219	0x3edd4c96	0.43222493
220	0x3e694bce	0.22782823
221	0x3ebd79ae	0.37006897
222	0x3e90433a	0.2817629
223	0x3e45600b	0.19274919
224	0x3e0f2853	0.13980226
225	0xbd4823b8	-0.04886219
226	0x3e893b77	0.2680318
227	0x3de1604b	0.110046946
228	0xbf61ac30	-0.8815336
229	0x3d576618	0.0525876
230	0xbebdb0fe	-0.37049097
231	0x3f085abc	0.5326345
232	0xbd5afc9b	-0.05346356
233	0x3e5cf6ab	0.21578471
234	0xbf578a50	-0.84195423
235	0x3e51f772	0.20504549
236	0xbea391b4	-0.319471
237	0xbe3702c0	-0.17872143
238	0x3e4e61bf	0.20154475
239	0x3d9cd5a6	0.07657938
240	0xbeb62e5e	-0.3558225
241	0xbe660144	-0.2246142
242	0x3f25674e	0.64610755
243	0x3bb6b897	0.005576204
244	0x3cd7c343	0.026338225
245	0xbf2abd88	-0.6669545
246	0xbf35ef43	-0.7106821
247	0x3e2e3e86	0.17016038
248	0xbf05e16a	-0.5229708
249	0xbf12bce3	-0.5731947
250	0x3f11f8dc	0.57020354
251	0x3dd0cf52	0.10195793
252	0xbeb1b9ba	-0.3471201
253	0x3f45f106	0.773209
254	0xbe9193a7	-0.28432962
255	0x3f0a5f74	0.540519

network_body._body_endoder.seq_layers.0.bias f4 [128]
0	0x00000000	0.0
1	0x00000000	0.0
2	0x00000000	0.0
3	0x00000000	0.0
4	0x00000000	0.0
5	0x00000000	0.0
6	0x00000000	0.0
7	0x00000000	0.0
8	0x00000000	0.0
9	0x00000000	0.0
10	0x00000000	0.0
11	0x00000000	0.0
12	0x00000000	0.0
13	0x00000000	0.0
14	0x00000000	0.0
15	0x00000000	0.0
16	0x00000000	0.0
17	0x00000000	0.0
18	0x00000000	0.0
19	0x00000000	0.0
20	0x00000000	0.0
21	0x00000000	0.0
22	0x00000000	0.0
23	0x00000000	0.0
24	0x00000000	0.0
25	0x00000000	0.0
26	0x00000000	0.0
27	0x00000000	0.0
28	0x00000000	0.0
29	0x00000000	0.0
30	0x00000000	0.0
31	0x00000000	0.0
32	0x00000000	0.0
33	0x00000000	0.0
34	0x00000000	0.0
35	0x00000000	0.0
36	0x00000000	0.0
37	0x00000000	0.0
38	0x00000000	0.0
39	0x00000000	0.0
40	0x00000000	0.0
41	0x00000000	0.0
42	0x00000000	0.0
43	0x00000000	0.0
44	0x00000000	0.0
45	0x00000000	0.0
46	0x00000000	0.0
47	0x00000000	0.0
48	0x00000000	0.0
49	0x00000000	0.0
50	0x00000000	0.0
51	0x00000000	0.0
52	0x00000000	0.0
53	0x00000000	0.0
54	0x00000000	0.0
55	0x00000000	0.0
56	0x00000000	0.0
57	0x00000000	0.0
58	0x00000000	0.0
59	0x00000000	0.0
60	0x00000000	0.0
61	0x00000000	0.0
62	0x00000000	0.0
63	0x00000000	0.0
64	0x00000000	0.0
65	0x00000000	0.0
66	0x00000000	0.0
67	0x00000000	0.0
68	0x00000000	0.0
69	0x00000000	0.0
70	0x00000000	0.0
71	0x00000000	0.0
72	0x00000000	0.0
73	0x00000000	0.0
74	0x00000000	0.0
75	0x00000000	0.0
76	0x00000000	0.0
77	0x00000000	0.0
78	0x00000000	0.0
79	0x00000000	0.0
80	0x00000000	0.0
81	0x00000000	0.0
82	0x00000000	0.0
83	0x00000000	0.0
84	0x00000000	0.0
85	0x00000000	0.0
86	0x00000000	0.0
87	0x00000000	0.0
88	0x00000000	0.0
89	0x00000000	0.0
90	0x00000000	0.0
91	0x00000000	0.0
92	0x00000000	0.0
93	0x00000000	0.0
94	0x00000000	0.0
95	0x00000000	0.0
96	0x00000000	0.0
97	0x00000000	0.0
98	0x00000000	0.0
99	0x00000000	0.0
100	0x00000000	0.0
101	0x00000000	0.0
102	0x00000000	0.0
103	0x00000000	0.0
104	0x00000000	0.0
105	0x00000000	0.0
106	0x00000000	0.0
107	0x00000000	0.0
108	0x00000000	0.0
109	0x00000000	0.0
110	0x00000000	0.0
111	0x00000000	0.0
112	0x00000000	0.0
113	0x00000000	0.0
114	0x00000000	0.0
115	0x00000000	0.0
116	0x00000000	0.0
117	0x00000000	0.0
118	0x00000000	0.0
119	0x00000000	0.0
120	0x00000000	0.0
121	0x00000000	0.0
122	0x00000000	0.0
123	0x00000000	0.0
124	0x00000000	0.0
125	0x00000000	0.0
126	0x00000000	0.0
127	0x00000000	0.0

network_body._body_endoder.seq_layers.2.weight f4 [128, 128]
0	0xbdc19a65	-0.094532765
1	0x3d48c66b	0.04901735
2	0xbd8baace	-0.06819688
3	0x3b7cd6d9	0.0038580208
4	0xbd72c33c	-0.05926822
5	0xbd2dc5c9	-0.04242495
6	0xbc1e53cb	-0.0096635325
7	0xbdedaa25	-0.11604718
8	0x3c38c006	0.011276251
9	0x3cf56888	0.029957071
10	0x3db86509	0.09003646
11	0xbdfa5e1a	-0.1222498
12	0xbc872b98	-0.01650028
13	0x3c9352cf	0.017983822
14	0xbd844eb8	-0.06460327
15	0xbe2715e8	-0.1631695
16	0x3c90d9d0	0.017681986
17	0xbc0dce35	-0.008655121
18	0x3da49f84	0.08038238
19	0xbdae0215	-0.08496491
20	0xbddd0941	-0.10792781
21	0xbdf55814	-0.1197969
22	0xbccc759a	-0.02495842
23	0xbe0db9fe	-0.13840482
24	0xbe33621f	-0.17517899
25	0xbc9b15eb	-0.01893135
26	0xbb6d0bb6	-0.003617031
27	0x3e0cd95d	0.13754793
28	0x3d95a6b0	0.07307184
29	0x3db770fa	0.089570954
30	0xbdc7301b	-0.09725972
31	0xbdf2fdfd	-0.11864851
32	0x3dc78b8f	0.097434156
33	0xbe23733d	-0.15961929
34	0x3d72fc26	0.0593225
35	0x3e0301bb	0.12793629
36	0xbd840a8e	-0.06447326
37	0x3d35b3f2	0.044361062
38	0x3c5f7ce7	0.013640619
39	0xbe3c74ff	-0.18404005
40	0xbe2c7edd	-0.1684527
41	0x3dc7dab2	0.0975851
42	0x3e216bdf	0.15763806
43	0xbdc72e8c	-0.09725675
44	0x3d004e68	0.031324774
45	0x3d8cfe34	0.06884423
46	0xbe140825	-0.14456232
47	0x3d546e49	0.05186299
48	0xbd65ff84	-0.05615188
49	0xbbc7a49b	-0.0060926205
50	0xbd30b309	-0.04313949
51	0xbe0854fd	-0.1331367
52	0x3c8f4526	0.017489027
53	0xbe0a11ea	-0.13483396
54	0xbd6c8f55	-0.05775388
55	0x3b47a65b	0.0030464146
56	0xbe2d47fd	-0.16921993
57	0xbda247f8	-0.07923883
58	0xbc31536b	-0.010823111
59	0xbe169625	-0.14705713
60	0x3e1ea184	0.15491301
61	0xbdba0fd8	-0.09085053
62	0x3c211b2a	0.009833137
63	0xbbff1455	-0.007784406
64	0xbbd2ea0a	-0.006436591
65	0x3c26331d	0.010144022
66	0xbce7aa7f	-0.028279541
67	0x3db66e07	0.08907705
68	0x3cc2a813	0.023761785
69	0x3d064648	0.03278187
70	0xbd99a540	-0.07502222
71	0x3e5e5847	0.21713363
72	0xbd997019	-0.07492084
73	0x3c341869	0.010992148
74	0xbd26514a	-0.040604867
75	0xbe88b815	-0.26702943
76	0xbc53b586	-0.0129216965
77	0x3d9352ec	0.071935505
78	0x3ca9ed7e	0.020743128
79	0x3dd950c9	0.10611112
80	0x3dd4f05a	0.10397406
81	0xbcd4589e	-0.025921162
82	0xbe070c93	-0.1318839
83	0xbd86111f	-0.06546234
84	0xbdff99a9	-0.1248048
85	0xb91b6104	-0.00014818093
86	0xbdf5feec	-0.12011513
87	0x3e16e281	0.14734842
88	0xbacbf1e8	-0.0015559765
89	0x3d47d754	0.048789337
90	0xbd73ffee	-0.059570245
91	0x3c9ca33b	0.019120803
92	0xbd820f9f	-0.06350636
93	0xbda18827	-0.07887297
94	0xbd861f61	-0.06548954
95	0x3dae7c4a	0.085198
96	0x3c91a9e6	0.01778121
97	0xbcaecda8	-0.021338299
98	0x3d832ab7	0.064046316
99	0x3da9dc4a	0.0829397
100	0xbd0e6532	-0.034764476
101	0xbd2334dd	-0.039845336
102	0xbe0cef76	-0.13763222
103	0xbd0d62d8	-0.034518093
104	0xbcc4a50d	-0.024004484
105	0xbdfb36cb	-0.1226631
106	0x3d28d628	0.04121986
107	0xbdca4f51	-0.0987841
108	0xbcecfcb0	-0.028929085
109	0x3d61af29	0.055098686
110	0xbd49d2d8	-0.049273342
111	0xbda9d84a	-0.08293207
112	0xbd88ff20	-0.06689286
113	0x3de2dc7e	0.11077212
114	0x3cc64abd	0.02420556
115	0xbbb29646	-0.005450043
116	0x3de3e9a9	0.111285515
117	0x3e133ab6	0.14377865
118	0x3dd25815	0.102707066
119	0x3d5ae4c8	0.05344084
120	0x3e352e66	0.17693481
121	0x3d8c3a40	0.06847048
122	0x3e05a2fb	0.13050453
123	0x3e1d90aa	0.15387216
124	0xbc2a80eb	-0.010406713
125	0xbcb618d8	-0.022228643
126	0x3ce804cf	0.028322605
127	0xbddc9d50	-0.107721925
128	0x3e126240	0.14295292
129	0xbd2b7642	-0.041860826
130	0x3d42232a	0.047396816
131	0xbd873dc2	-0.06603576
132	0xbe01d28c	-0.12677974
133	0x3e19718f	0.14984725
134	0x3e128c8c	0.14311427
135	0x3d0fae1e	0.03507816
136	0x3a9a6c76	0.0011781591
137	0x3cecb63a	0.028895486
138	0xbc1911ff	-0.0093426695
139	0x3d203718	0.03911504
140	0xbc94fec4	-0.018187888
141	0xbc5903ee	-0.013245566
142	0xbc97334e	-0.018457081
143	0xbd65b312	-0.056078978
144	0xbd929eec	-0.07159218
145	0x3db9a10e	0.09063922
146	0x3e4ff1f5	0.20307143
147	0xbd805cbb	-0.06267687
148	0xbdf343bd	-0.118781544
149	0xbd634be5	-0.0554923
150	0xbdf2f052	-0.11862244
151	0xbb359497	-0.0027706975
152	0xbd21d453	-0.03950913
153	0x3e58eb07	0.21183406
154	0xbcc52748	-0.024066582
155	0x3d804916	0.0626394
156	0x3cbc4418	0.022981688
157	0x3db71e12	0.08941282
158	0xbe23a0d3	-0.15979318
159	0xbc0970a7	-0.008388675
160	0xbcc8751d	-0.024469906
161	0x3e42b200	0.19013214
162	0xbe7c9824	-0.24667412
163	0x3e580f40	0.21099567
164	0xbda0f980	-0.07860088
165	0xbd210a94	-0.03931673
166	0xbdd3cae0	-0.1034143
167	0xbddd3ec3	-0.108029865
168	0x3bc8cbfe	0.0061278334
169	0xbda11af7	-0.07866471
170	0xbe19b139	-0.15009011
171	0xbdb7cea8	-0.089749634
172	0x3c278d36	0.010226538
173	0x3d51e50a	0.05124382
174	0x3da4ab86	0.08040528
175	0x3bc83850	0.0061102286
176	0x3ddd91d6	0.108188316
177	0xba82e22e	-0.000998562
178	0xbdd421c0	-0.10358
179	0xbe1d11ed	-0.1533887
180	0x3de9fec5	0.114255466
181	0x3dd987b9	0.1062159
182	0xbdc1aea0	-0.09457135
183	0xbd0ba92b	-0.034096878
184	0x3d1775ec	0.036977693
185	0xbcaf6ec1	-0.021415116
186	0x3de31c82	0.11089422
187	0xbe074cf4	-0.13212949
188	0xbcc16aa6	-0.023610424
189	0xbd75fc28	-0.060054928
190	0x3d84a0eb	0.06476005
191	0x3dbaad97	0.09115141
192	0x3cfd089f	0.0308879
193	0x3da2e387	0.07953554
194	0xbc88c9ea	-0.016697843
195	0x3dce5421	0.1007464
196	0x3d0b4263	0.03399886
197	0x3c377b3c	0.011198815
198	0xbdd73734	-0.10508576
199	0xbd095a8d	-0.03353362
200	0xbd46d7f7	-0.048545804
201	0x3ddcc640	0.10780001
202	0x3de65318	0.112463176
203	0x3e08a6f9	0.13344945
204	0xbd9553b0	-0.07291353
205	0xbe3e5168	-0.18585742
206	0x3d357a8d	0.044306327
207	0x3d7e0db3	0.062024783
208	0xbc03d7bf	-0.008047043
209	0xbb10dddc	-0.0022104895
210	0x3de0ee49	0.10982949
211	0x3d3c273c	0.045935854
212	0xbe0484cc	-0.12941283
213	0xbe0d2d6b	-0.13786857
214	0xbd606b26	-0.054789685
215	0x3e6c5a0b	0.23081224
216	0xbd01630b	-0.031588595
217	0x3d84f8cb	0.06492766
218	0xbe084412	-0.13307217
219	0x3d054e8a	0.032545604
220	0xbc75fe3e	-0.015014229
221	0xbe3c8476	-0.18409905
222	0xbd8e835f	-0.06958651
223	0x3d6b4284	0.05743648
224	0xbdcb09e1	-0.099139936
225	0x3d01f03f	0.031723257
226	0xbd9393a5	-0.07205895
227	0x3de28a4e	0.11061536
228	0xbe415c87	-0.18882953
229	0xbe281e35	-0.16417773
230	0xbd8a4ea9	-0.067532845
231	0xbd1f8930	-0.03894919
232	0xbdbefb49	-0.093252726
233	0xbd66c206	-0.05633738
234	0x3ddb8595	0.10718838
235	0x3d168a33	0.03675289
236	0xbd99d879	-0.07511992
237	0x3d2dce25	0.042432923
238	0xbd08eef3	-0.033431005
239	0x3c0e24f1	0.0086758
240	0xbe21897f	-0.15775107
241	0x3dbaf7a3	0.09129264
242	0xbd92a520	-0.07160401
243	0xbdde2187	-0.108462386
244	0xbc78a525	-0.015176092
245	0x3db1f5f0	0.08689487
246	0x3db38d35	0.087671675
247	0x3d36ec02	0.04465867
248	0xbde4fe05	-0.11181263
249	0x3e04d14a	0.12970462
250	0xbdb1ba51	-0.08678115
251	0x3bb538fb	0.0055304742
252	0xbd7bc3df	-0.061466094
253	0xbd166fcc	-0.03672771
254	0x3d4c5406	0.04988482
255	0x3dcab251	0.098972924

network_body._body_endoder.seq_layers.2.bias f4 [128]
0	0x00000000	0.0
1	0x00000000	0.0
2	0x00000000	0.0
3	0x00000000	0.0
4	0x00000000	0.0
5	0x00000000	0.0
6	0x00000000	0.0
7	0x00000000	0.0
8	0x00000000	0.0
9	0x00000000	0.0
10	0x00000000	0.0
11	0x00000000	0.0
12	0x00000000	0.0
13	0x00000000	0.0
14	0x00000000	0.0
15	0x00000000	0.0
16	0x00000000	0.0
17	0x00000000	0.0
18	0x00000000	0.0
19	0x00000000	0.0
20	0x00000000	0.0
21	0x00000000	0.0
22	0x00000000	0.0
23	0x00000000	0.0
24	0x00000000	0.0
25	0x00000000	0.0
26	0x00000000	0.0
27	0x00000000	0.0
28	0x00000000	0.0
29	0x00000000	0.0
30	0x00000000	0.0
31	0x00000000	0.0
32	0x00000000	0.0
33	0x00000000	0.0
34	0x00000000	0.0
35	0x00000000	0.0
36	0x00000000	0.0
37	0x00000000	0.0
38	0x00000000	0.0
39	0x00000000	0.0
40	0x00000000	0.0
41	0x00000000	0.0
42	0x00000000	0.0
43	0x00000000	0.0
44	0x00000000	0.0
45	0x00000000	0.0
46	0x00000000	0.0
47	0x00000000	0.0
48	0x00000000	0.0
49	0x00000000	0.0
50	0x00000000	0.0
51	0x00000000	0.0
52	0x00000000	0.0
53	0x00000000	0.0
54	0x00000000	0.0
55	0x00000000	0.0
56	0x00000000	0.0
57	0x00000000	0.0
58	0x00000000	0.0
59	0x00000000	0.0
60	0x00000000	0.0
61	0x00000000	0.0
62	0x00000000	0.0
63	0x00000000	0.0
64	0x00000000	0.0
65	0x00000000	0.0
66	0x00000000	0.0
67	0x00000000	0.0
68	0x00000000	0.0
69	0x00000000	0.0
70	0x00000000	0.0
71	0x00000000	0.0
72	0x00000000	0.0
73	0x00000000	0.0
74	0x00000000	0.0
75	0x00000000	0.0
76	0x00000000	0.0
77	0x00000000	0.0
78	0x00000000	0.0
79	0x00000000	0.0
80	0x00000000	0.0
81	0x00000000	0.0
82	0x00000000	0.0
83	0x00000000	0.0
84	0x00000000	0.0
85	0x00000000	0.0
86	0x00000000	0.0
87	0x00000000	0.0
88	0x00000000	0.0
89	0x00000000	0.0
90	0x00000000	0.0
91	0x00000000	0.0
92	0x00000000	0.0
93	0x00000000	0.0
94	0x00000000	0.0
95	0x00000000	0.0
96	0x00000000	0.0
97	0x00000000	0.0
98	0x00000000	0.0
99	0x00000000	0.0
100	0x00000000	0.0
101	0x00000000	0.0
102	0x00000000	0.0
103	0x00000000	0.0
104	0x00000000	0.0
105	0x00000000	0.0
106	0x00000000	0.0
107	0x00000000	0.0
108	0x00000000	0.0
109	0x00000000	0.0
110	0x00000000	0.0
111	0x00000000	0.0
112	0x00000000	0.0
113	0x00000000	0.0
114	0x00000000	0.0
115	0x00000000	0.0
116	0x00000000	0.0
117	0x00000000	0.0
118	0x00000000	0.0
119	0x00000000	0.0
120	0x00000000	0.0
121	0x00000000	0.0
122	0x00000000	0.0
123	0x00000000	0.0
124	0x00000000	0.0
125	0x00000000	0.0
126	0x00000000	0.0
127	0x00000000	0.0

value_heads.value_heads.extrinsic.weight f4 [1, 128]
0	0x3c5d74c0	0.013516605
1	0x3e3af3c0	0.18257046
2	0xbe238163	-0.15967326
3	0x3e4ae978	0.19815624
4	0xbdefd1f1	-0.11709965
5	0x3e5c356e	0.21504757
6	0xbc1ccdc0	-0.009570539
7	0xbe4dbf34	-0.2009247
8	0xbd375574	-0.04475923
9	0x3d382480	0.044956684
10	0xbd926f8a	-0.07150181
11	0xbd7636d8	-0.060110897
12	0xbdd85693	-0.10563388
13	0xbe0b4ba7	-0.13603078
14	0x3d445550	0.047932923
15	0xbba172a0	-0.0049269944
16	0xbd872c3a	-0.066002324
17	0xbe267f75	-0.16259558
18	0xbe2f5f92	-0.17126301
19	0x3cc7fc78	0.024412379
20	0xbe4ce183	-0.20007901
21	0xbd563ba4	-0.05230297
22	0xbe527641	-0.20552923
23	0x3d73b8a8	0.059502274
24	0xbe4051d8	-0.18781221
25	0xbe45a278	-0.19300258
26	0x3bb49800	0.005511284
27	0x3daf81a0	0.08569646
28	0x3e1183c2	0.14210418
29	0x3d92d65c	0.07169792
30	0x3d05a7b8	0.032630652
31	0xbdf21939	-0.11821217
32	0xbe5aae69	-0.21355595
33	0x3e1ff58e	0.15621015
34	0x3de38aa0	0.11110425
35	0x3e230260	0.15918875
36	0x3d098a50	0.03357917
37	0x3c818568	0.015810683
38	0xbcaff8f8	-0.021481022
39	0xbe1b3542	-0.15157035
40	0xbcaf0820	-0.021366179
41	0xbe2f5948	-0.17123902
42	0xbe4975cb	-0.1967384
43	0xbd62df98	-0.055389017
44	0x3e48ba0a	0.19602218
45	0xbcf19618	-0.029490516
46	0xbe0666ae	-0.13125107
47	0x3e4ef936	0.20212254
48	0x3e3518fc	0.17685312
49	0x3e51795c	0.20456451
50	0x3dd39dc4	0.10332826
51	0x3d76fda8	0.0603005
52	0x3e56b12a	0.2096602
53	0x3d79c570	0.060979307
54	0x3b45cac0	0.0030180663
55	0xbe386dcb	-0.18010633
56	0xbd5909dc	-0.05298792
57	0xbb9b7a60	-0.004744813
58	0xbd94039a	-0.072272494
59	0xbe04bdac	-0.12962979
60	0xbe2b521e	-0.16730544
61	0xbdb93b5e	-0.090445265
62	0xbdedaa3b	-0.116047345
63	0x3dc84910	0.097795606
64	0xbe5abb0f	-0.2136042
65	0xbda41000	-0.08010864
66	0xbe3396f1	-0.17538048
67	0x3d92e688	0.071728766
68	0xbd4d7ef8	-0.050169915
69	0xbdd6050a	-0.1045018
70	0x3dbfa49c	0.093575686
71	0x3dad7148	0.08468872
72	0xbe0299c2	-0.12753966
73	0xbd36cb8c	-0.04462771
74	0x3d655fc0	0.055999517
75	0xbd37d4c8	-0.04488066
76	0x3dc43bd4	0.09581724
77	0x3dc059ec	0.09392151
78	0x3cf19748	0.029491082
79	0x3e5a4130	0.2131393
80	0x3e258ef0	0.16167808
81	0x3d5b1c88	0.053494006
82	0xbe0b2c30	-0.13591075
83	0xbdf4340a	-0.11923988
84	0x3de2cab4	0.11073819
85	0xbe0a6e40	-0.1351862
86	0xbd021c80	-0.03176546
87	0x3a4e9f00	0.0007881969
88	0xbde53148	-0.1119104
89	0xbe025e91	-0.12731387
90	0x3d176688	0.036963016
91	0x3d64d8f8	0.05587098
92	0x3e460508	0.19337857
93	0x3e439bba	0.19102374
94	0xbe5412c3	-0.20710282
95	0x3dfb09f0	0.12257755
96	0xbe51b37a	-0.20478621
97	0x3e0ec6a2	0.1394296
98	0xbe3ed76b	-0.18636863
99	0xbe413ece	-0.18871614
100	0x3e4a12fc	0.19733804
101	0x3ce313a0	0.027719319
102	0xbe2616f3	-0.16219692
103	0x3de35694	0.11100498
104	0x3d2e2418	0.04251489
105	0x3e281b0a	0.16416565
106	0xbd5fa5b4	-0.054601386
107	0xbc991c18	-0.018690154
108	0x3e5123f6	0.20423874
109	0x3dc5fc14	0.09667221
110	0xbe0520af	-0.13000749
111	0xbd1f6570	-0.038915098
112	0xbe464879	-0.19363584
113	0x3d6b7228	0.057481915
114	0x3e55c5d2	0.20876244
115	0xbd7b2f68	-0.061324507
116	0x3d962d90	0.07332909
117	0x3d5b51a0	0.05354464
118	0x3e281e82	0.16417888
119	0x3d8cfbb4	0.06883946
120	0x3e01c2b8	0.12671936
121	0x3a274800	0.0006381273
122	0xbdd82eec	-0.10555825
123	0x3e1d857c	0.15382951
124	0xbe0db5c3	-0.13838868
125	0xbe08c6a4	-0.13357025
126	0x3ce61f50	0.028091103
127	0xbe10afbc	-0.14129537
