results/ppo/MoveToGoal/MoveToGoal-1582.pt (torch, 149081 bytes, 12 tensors)

network_body._body_endoder.seq_layers.0.weight f4 [128, 6]
000000 a2 82 3e bf 1f e1 7c bd fa ff 15 bd c3 6e 93 be
       -0.7441808 -0.06173813 -0.03662107 -0.28795442
000010 31 4a bb 3e ee c7 91 be d3 4d d1 bd fe 55 55 bd
       0.3658004 -0.28472847 -0.10219922 -0.05208396
000020 f8 ed 2b 3e f3 d6 40 3f 0e b1 73 bd 0c 5c a9 3e
       0.16789997 0.75327986 -0.059495024 0.3307804
000030 71 14 80 3e 38 5e fa bd c1 f7 b2 3e 97 ad a9 be
       0.25015596 -0.12225002 0.34954646 -0.3314025
000040 c2 9c 85 3e f6 d4 45 3d a4 05 ac bd 3d 01 3f 3e
       0.2609616 0.0482988 -0.08399513 0.18652816
000050 55 93 99 be 09 8b 26 3e 49 1c 97 3e a8 50 0b 3e
       -0.29995218 0.16263975 0.29513767 0.13604987
000060 b5 1f 62 3f ee 91 48 bc 41 06 f3 bd c6 63 5a bd
       0.8832963 -0.012241824 -0.11866427 -0.053317808
000070 9e 99 e4 bc 2c c5 87 bf cd 73 b6 bd 07 63 64 be
       -0.027905282 -1.0607047 -0.08908806 -0.22303401
000080 45 8e 31 3e 83 8d aa be 1e 83 c9 bc 83 f2 a0 3e
       0.17339428 -0.3331109 -0.024598654 0.31435022
000090 59 1e 9c 3e da f1 ff 3d 45 f8 d9 be ce a5 8d be
       0.30491903 0.124973014 -0.42572227 -0.2766556
0000a0 43 5b 02 bd e2 96 14 bd 95 ff 94 3e 52 fa 48 3d
       -0.031825315 -0.036276706 0.29101244 0.04906685
0000b0 fd 14 25 3e 23 9b a0 be ec fe dc be 71 11 f6 3c
       0.16121288 -0.3136836 -0.4316324 0.030037614
0000c0 0f 68 d4 3e 2d e3 b2 3e 61 e6 95 3e bd a0 b7 3e
       0.4148564 0.34938946 0.29277328 0.3586482
0000d0 48 c6 1e bf a6 4b 7a 3e aa be 83 bf e5 af 0d 3f
       -0.62021303 0.2444292 -1.0292561 0.5534652
0000e0 b2 f9 82 be 48 1b e5 3d 31 0b 98 bd bd cb ec be
       -0.25581127 0.11186844 -0.074240096 -0.4624919
0000f0 95 3e 64 3e 91 3b db 3e 4a c5 8c be 31 87 81 be
       0.22289498 0.42818883 -0.2749427 -0.25298455
000100 ae b8 15 3e a2 0b da 3e ad cf 12 3f 93 a8 8a 3d
       0.14621231 0.42587 0.5734814 0.06770434
000110 69 ab 8b bd fe f3 2e bf fd 41 08 bf da a1 82 bf
       -0.06819803 -0.6834105 -0.5322569 -1.0205643
000120 9a 22 8d be d0 93 99 3e 11 ca 61 bd c6 c5 15 3e
       -0.2756546 0.29995584 -0.055124346 0.14626226
000130 64 77 d0 be f1 27 43 3e 8c 61 b4 be 2b c2 06 be
       -0.40716088 0.19058205 -0.35230672 -0.13160007
000140 9e 52 5a 3f f1 51 69 3d 73 a3 6f 3e 30 2f b9 3e
       0.85282314 0.05696291 0.23402195 0.36168814
000150 eb ec c8 3c a7 ef ca 3e c6 15 82 3c eb 59 92 3e
       0.024527034 0.39635965 0.015879523 0.28584227
000160 ca d0 a3 3d c1 8f 85 bf 85 5e f7 be a3 d6 e9 3d
       0.07998808 -1.0434495 -0.483143 0.11417892
000170 f2 34 46 3d f8 68 25 3e 27 60 35 3d 7f c2 42 3f
       0.048390336 0.16153324 0.04428115 0.7607803
000180 43 8f 33 3e 91 c6 e2 be c4 ab 15 3d 7c 81 57 be
       0.17535119 -0.4429212 0.03654076 -0.21045488
000190 e3 bb ef be 7a 53 df 3e cf 0e 36 3f 09 ec 08 3e
       -0.46823034 0.43618375 0.71116346 0.1337129
0001a0 71 68 a7 3e d2 a5 00 bf ad 42 8e 3e 35 97 61 bf
       0.3269687 -0.5025302 0.27785245 -0.8812135
0001b0 63 d4 cc bd 0c a2 f9 3d ba c3 9c 3e 1e 4e 32 be
       -0.10001447 0.12189111 0.30618078 -0.17412612
0001c0 b0 39 65 bd b2 be 6b be d8 ce 4b bf 03 4a 98 be
       -0.05596322 -0.23021963 -0.79612494 -0.29743966
0001d0 83 e8 a7 3d 50 93 d7 3e d3 ae 87 3e 56 27 39 3f
       0.08198645 0.42104578 0.26500568 0.72325647
0001e0 f7 a1 bf be 94 4b 36 be 50 8c fe bd c2 ff 42 3e
       -0.37428257 -0.17802268 -0.12429106 0.19042876
0001f0 c2 48 d4 be f6 47 27 3d ee fb cf be 1a 54 45 bd
       -0.4146176 0.04084011 -0.40621895 -0.04817591
000200 8c b8 09 3f 8d a5 80 3e 62 d2 b9 be ab cf 9c 3e
       0.5379722 0.25126305 -0.36293322 0.30627188
000210 64 45 eb bc c8 cc 15 bf 8f b0 45 3f 1c 23 9e 3e
       -0.028719611 -0.58515596 0.7722253 0.3088616
000220 c2 27 62 3a 0f bb eb 3d 06 e9 90 be 56 30 f7 be
       0.000862714 0.11510288 -0.28302783 -0.48279065
000230 9e e8 e2 bd 57 13 72 3e dd 78 e5 3e 0d be 85 3e
       -0.110795245 0.2364019 0.44818774 0.2612156
000240 8e e1 53 be 17 27 c0 be bb 56 60 3e 73 28 8e 3e
       -0.20691511 -0.37529823 0.21908085 0.27765235
000250 dc 16 9b be d3 43 2b 3e ad 56 1f bf b9 1d 53 3e
       -0.30290878 0.16725092 -0.6224163 0.20616807
000260 5f 5f 83 3e 26 0c 88 be f4 d3 96 3e 51 e8 1e bf
       0.256587 -0.2657177 0.29458582 -0.62073237
000270 a6 75 b1 be ce 52 68 bb bf f4 22 be 33 54 d9 3e
       -0.3466007 -0.0035449746 -0.15913676 0.4244705
000280 7b d6 86 3d fa d9 37 3e c3 7a 0d bf d3 b7 fc 3e
       0.06583878 0.17954245 -0.55265445 0.49358997
000290 67 61 45 be ef 43 9a 3d df 0c bd be 0e 70 80 bf
       -0.19275437 0.075324886 -0.36923882 -1.0034196
0002a0 7c ef 96 be 19 2f e5 be 6b 00 d5 be d0 8d 3e 3f
       -0.29479587 -0.44762495 -0.4160188 0.7443514
0002b0 6d 41 2f bf ae 98 1b bf c8 fa 86 bf 7d 4b 5b 3e
       -0.68459207 -0.60779846 -1.0545282 0.21415515
0002c0 04 14 81 3f 61 0f 86 be 99 e4 aa be 6c 8b bc be
       1.0084233 -0.26183608 -0.3337753 -0.3682512
0002d0 8a 42 34 be e0 26 30 3e 5d 00 8e be b4 8c fb 3d
       -0.17603508 0.1720233 -0.27734652 0.12282696
0002e0 fa 20 b2 be 43 b4 ab 3c fe a9 97 3e 5f c8 00 3f
       -0.34790784 0.020959979 0.2962188 0.5030574
0002f0 be 28 f0 3d 4b cf 98 3d 2a 00 53 be 9f 52 83 3d
       0.11726521 0.07461413 -0.20605531 0.06412243
000300 60 69 15 bf b2 ad 21 bf 04 03 62 be 46 da 06 bf
       -0.58363914 -0.63155663 -0.22071463 -0.5267681
000310 3c 56 62 bd 0e e3 a2 bd a2 8d ac 3e 3c 00 08 3d
       -0.05525802 -0.079534635 0.33701807 0.03320335
000320 c1 46 00 bf cc 17 75 3e 40 e2 84 be cb 0e c4 3e
       -0.5010796 0.23934859 -0.25953865 0.38292536
000330 74 fe ed bb e5 85 b5 3e f1 8a dc be 4f b2 be 3e
       -0.007262999 0.35453716 -0.43074754 0.37245414
000340 0e 62 c9 bd e0 01 8d 3f a8 4e a3 3e d2 3f ed be
       -0.098331556 1.1016197 0.31895947 -0.46337754
000350 de 38 d9 be 97 7d dc be ce 85 8f 3d a6 a2 24 bd
       -0.424262 -0.43064567 0.07007943 -0.040194176
000360 1a 9d a4 3e 46 23 11 be 97 66 07 bf 4c 68 3d be
       0.3215111 -0.14173612 -0.52890915 -0.18496817
000370 cd ee b6 be cc 94 bd 3e e0 3e 1a bf 15 8e 5d be
       -0.35729066 0.37027586 -0.6025219 -0.21636231
000380 e8 f2 2d 3e da 50 cb 3e 01 cd 2b bd 41 cb 1d 3f
       0.16987193 0.39710122 -0.041943554 0.61638266
000390 03 03 ef 3d 72 35 d7 3e fd 9c 33 bf e3 2e dc be
       0.11670496 0.42032963 -0.7016142 -0.43004522
0003a0 67 a1 e1 3e e6 49 7d be 16 57 86 be 91 9e bf bd
       0.44068453 -0.24735221 -0.26238316 -0.09356416
0003b0 ec b5 a1 3e 87 83 5b 3e 67 ad 0c 3f 72 07 3d 3d
       0.31584108 0.21436892 0.5495209 0.04614968
0003c0 81 0b 55 3e c5 6a 92 bd 7b 98 42 3e 24 cc c2 bd
       0.2080517 -0.07149271 0.19003479 -0.09511593
0003d0 bc 46 11 be c3 c4 9d be c0 2a f4 3e 43 20 5a 3e
       -0.1418714 -0.3081418 0.47688866 0.2130137
0003e0 04 27 44 be 6f 8e b8 be a5 36 a6 be 08 4a ad bd
       -0.19155508 -0.36046168 -0.32463565 -0.08461386
0003f0 02 53 e2 bd 35 16 44 be 61 5e 04 be 11 7d 71 bd
       -0.11050989 -0.19149096 -0.12926628 -0.058957163

network_body._body_endoder.seq_layers.0.bias f4 [128]
000000 00 00 00 00 00 00 00 00 00 00 00 00 00 00 00 00
       0.0 0.0 0.0 0.0
000010 00 00 00 00 00 00 00 00 00 00 00 00 00 00 00 00
       0.0 0.0 0.0 0.0
000020 00 00 00 00 00 00 00 00 00 00 00 00 00 00 00 00
       0.0 0.0 0.0 0.0
000030 00 00 00 00 00 00 00 00 00 00 00 00 00 00 00 00
       0.0 0.0 0.0 0.0
000040 00 00 00 00 00 00 00 00 00 00 00 00 00 00 00 00
       0.0 0.0 0.0 0.0
000050 00 00 00 00 00 00 00 00 00 00 00 00 00 00 00 00
       0.0 0.0 0.0 0.0
000060 00 00 00 00 00 00 00 00 00 00 00 00 00 00 00 00
       0.0 0.0 0.0 0.0
000070 00 00 00 00 00 00 00 00 00 00 00 00 00 00 00 00
       0.0 0.0 0.0 0.0
000080 00 00 00 00 00 00 00 00 00 00 00 00 00 00 00 00
       0.0 0.0 0.0 0.0
000090 00 00 00 00 00 00 00 00 00 00 00 00 00 00 00 00
       0.0 0.0 0.0 0.0
0000a0 00 00 00 00 00 00 00 00 00 00 00 00 00 00 00 00
       0.0 0.0 0.0 0.0
0000b0 00 00 00 00 00 00 00 00 00 00 00 00 00 00 00 00
       0.0 0.0 0.0 0.0
0000c0 00 00 00 00 00 00 00 00 00 00 00 00 00 00 00 00
       0.0 0.0 0.0 0.0
0000d0 00 00 00 00 00 00 00 00 00 00 00 00 00 00 00 00
       0.0 0.0 0.0 0.0
0000e0 00 00 00 00 00 00 00 00 00 00 00 00 00 00 00 00
       0.0 0.0 0.0 0.0
0000f0 00 00 00 00 00 00 00 00 00 00 00 00 00 00 00 00
       0.0 0.0 0.0 0.0
000100 00 00 00 00 00 00 00 00 00 00 00 00 00 00 00 00
       0.0 0.0 0.0 0.0
000110 00 00 00 00 00 00 00 00 00 00 00 00 00 00 00 00
       0.0 0.0 0.0 0.0
000120 00 00 00 00 00 00 00 00 00 00 00 00 00 00 00 00
       0.0 0.0 0.0 0.0
000130 00 00 00 00 00 00 00 00 00 00 00 00 00 00 00 00
       0.0 0.0 0.0 0.0
000140 00 00 00 00 00 00 00 00 00 00 00 00 00 00 00 00
       0.0 0.0 0.0 0.0
000150 00 00 00 00 00 00 00 00 00 00 00 00 00 00 00 00
       0.0 0.0 0.0 0.0
000160 00 00 00 00 00 00 00 00 00 00 00 00 00 00 00 00
       0.0 0.0 0.0 0.0
000170 00 00 00 00 00 00 00 00 00 00 00 00 00 00 00 00
       0.0 0.0 0.0 0.0
000180 00 00 00 00 00 00 00 00 00 00 00 00 00 00 00 00
       0.0 0.0 0.0 0.0
000190 00 00 00 00 00 00 00 00 00 00 00 00 00 00 00 00
       0.0 0.0 0.0 0.0
0001a0 00 00 00 00 00 00 00 00 00 00 00 00 00 00 00 00
       0.0 0.0 0.0 0.0
0001b0 00 00 00 00 00 00 00 00 00 00 00 00 00 00 00 00
       0.0 0.0 0.0 0.0
0001c0 00 00 00 00 00 00 00 00 00 00 00 00 00 00 00 00
       0.0 0.0 0.0 0.0
0001d0 00 00 00 00 00 00 00 00 00 00 00 00 00 00 00 00
       0.0 0.0 0.0 0.0
0001e0 00 00 00 00 00 00 00 00 00 00 00 00 00 00 00 00
       0.0 0.0 0.0 0.0
0001f0 00 00 00 00 00 00 00 00 00 00 00 00 00 00 00 00
       0.0 0.0 0.0 0.0

network_body._body_endoder.seq_layers.2.weight f4 [128, 128]
000000 df 54 75 bd 42 39 81 3d fd 5b c7 bd 40 5c e7 3d
       -0.059895393 0.06309749 -0.09734342 0.11296892
000010 bb 36 29 bc 98 8d 97 bd 4a d8 14 be fe 01 68 3d
       -0.01032799 -0.07400054 -0.14535633 0.056642525
000020 a5 30 7a bc 66 0c 57 3c 9e 28 8a bd 3e 5f a1 bc
       -0.015270387 0.013125515 -0.06746028 -0.019698735
000030 78 37 64 3d ce 65 66 bd 64 c6 5c 3d 2b fa 03 be
       0.05571696 -0.056249432 0.053900138 -0.128884
000040 e4 63 cf 3d d7 f0 88 3d 43 26 80 bd 09 86 1d bc
       0.101264745 0.066865616 -0.06257298 -0.009614476
000050 45 25 d3 3d 41 d0 74 3d a2 73 1d 3c 2f ef 78 bd
       0.10309843 0.05976892 0.009610089 -0.06077498
000060 01 2e 54 bd ec 7f 26 3e c7 65 f4 3a 2d 76 5d 3d
       -0.051801685 0.16259736 0.0018646055 0.05406778
000070 66 73 19 3c 4a 7e 2a bd b7 4b 13 3d d6 ab c3 bd
       0.009365892 -0.041624345 0.03596088 -0.095542595
000080 4b 34 71 bc 66 d7 08 3e d9 d0 a6 bd 7e 1e ef 3c
       -0.01472194 0.13363418 -0.08145303 0.029189344
000090 33 07 ae bd 0c f3 82 bd d7 4f 54 be b8 73 4b bc
       -0.08497467 -0.06394014 -0.20733581 -0.012417726
0000a0 00 b1 1e bc 2b 30 86 bd 16 53 96 3c 06 81 ec 3d
       -0.009685755 -0.06552156 0.018350165 0.11548047
0000b0 5b 2d f2 bd 1b 10 24 3d 0c 3c d8 3b ab 41 ca 3d
       -0.11825057 0.040054422 0.006598955 0.098758064
0000c0 44 54 a8 38 46 03 ab bd 4a 43 bd bc 7a 14 ff 3d
       8.02656e-05 -0.08350234 -0.023103375 0.124550775
0000d0 84 4d 38 be ad 6d 47 3e 5f ad 69 bd 24 5c 2e be
       -0.1799832 0.19475432 -0.057050105 -0.17027336
0000e0 58 4c 93 3d f0 4b 00 3e bb c7 1b bc 97 7b 77 3d
       0.07192296 0.12528968 -0.009508069 0.0604206
0000f0 61 ea f1 3d 5b a5 8d bd c9 f9 4f 3d 45 84 10 be
       0.11812282 -0.06916305 0.050775323 -0.14112957
000100 e0 2c 36 3d 58 bb af bc b1 e8 35 3d f0 36 b2 3d
       0.04447639 -0.021451637 0.044411365 0.08701885
000110 11 52 66 bb 47 b1 c6 3c d1 8f dc 3d 00 56 11 3d
       -0.003514413 0.024254454 0.10769618 0.035482407
000120 b5 ca 5a bd ab 0e 18 be ce 15 24 bd 81 48 07 be
       -0.053415973 -0.14849345 -0.040059857 -0.13211252
000130 1b 3a 39 3c a5 75 4d bd 92 73 0f 3d 45 c5 99 3d
       0.011305357 -0.050161023 0.035022326 0.07508329
000140 fd 92 4b bc 10 2e 69 3d 7c 9d 74 3d 51 b8 b6 3d
       -0.012425181 0.056928694 0.0597205 0.08921874
000150 c6 01 27 be 1c 8b 6a 3d 39 f5 cc bd d4 59 66 3d
       -0.1630927 0.05726157 -0.1000771 0.05623801
000160 34 b3 05 3d ef 68 77 3d 50 dc 19 bd 92 85 9f 3c
       0.032641605 0.060402807 -0.037563622 0.019472871
000170 4f 34 df 3b 56 27 67 bd 3b 11 c6 3d 1e 2f e3 3d
       0.0068116556 -0.056433998 0.09671255 0.11092971
000180 f6 35 ee 3d a8 d0 86 bd 5b 01 19 3d b3 96 03 3d
       0.11631386 -0.06582767 0.03735481 0.03212614
000190 42 77 bd 3d d5 8b 85 3d 20 36 b5 3c 29 31 06 bc
       0.09251262 0.065208115 0.022120535 -0.008190432
0001a0 a5 8c 76 bc 7d 71 d0 3d bc f9 06 3e 67 d9 33 bd
       -0.015048181 0.10177896 0.13181204 -0.043908503
0001b0 62 16 2d bd 80 3a 36 bd ee 81 98 bd 42 71 5b bd
       -0.042257674 -0.044489384 -0.07446657 -0.053574808
0001c0 f7 95 65 3d 76 63 38 3d bb 76 33 3e b6 6a ee bc
       0.05605122 0.04501673 0.17525761 -0.029103618
0001d0 2a a7 ee 3c 50 ab 4e bc d7 7e 57 bc 45 6b 85 bd
       0.029132444 -0.012614086 -0.0131528 -0.06514601
0001e0 55 9f 8e 3d d2 db d8 bd 8c 0b a2 bd f4 62 a1 3d
       0.06963984 -0.105888024 -0.07912359 0.07880202
0001f0 7e 9f 61 be c3 fb 17 bd de 2e 24 3d b7 00 42 bd
       -0.22033498 -0.037105333 0.04008376 -0.047363963
000200 fc 83 ac bd a1 88 11 bd 52 37 39 3d f1 2f 52 3d
       -0.084236115 -0.03553069 0.045218773 0.05131525
000210 95 c7 aa bc 5e bb 89 bd cc d3 4e 3d de b4 7f 3d
       -0.020847121 -0.067251906 0.050494954 0.062428348
000220 ba 43 95 3c d7 92 6f 3d 47 83 55 3d 1c 54 3b be
       0.018220771 0.058489647 0.05212715 -0.18293804
000230 99 50 09 bd 88 4b 3e bc 48 dc 04 3d 64 fa bb 3d
       -0.03352413 -0.011614688 0.03243664 0.091786176
000240 b3 15 a9 3d 06 a0 a7 3d d8 66 47 3e 42 eb c9 3d
       0.08256092 0.08184819 0.19472826 0.09859325
000250 09 e4 05 3e 5a 24 4d be 51 e5 d8 3d ac b9 86 bd
       0.1307527 -0.20033398 0.10590614 -0.06578383
000260 0e e8 10 3d e8 52 ca bc 5e 93 98 bc 19 f5 50 bc
       0.035377555 -0.024697736 -0.018624958 -0.012753748
000270 ce 1c f5 3b b0 09 14 bd ab f1 47 bd 31 82 49 bc
       0.0074802404 -0.03614205 -0.048814457 -0.012299106
000280 b1 3b 60 3d 28 05 6d bd 1d 7b 37 3d e5 21 33 bd
       0.054744426 -0.057866246 0.044795144 -0.043733496
000290 a0 0b f5 3d a4 d2 4a bc a0 c2 eb 3d d3 8f d1 3c
       0.11965108 -0.012379322 0.11511731 0.025581276
0002a0 b5 44 24 bd 67 74 a9 3c 07 9b a8 bc 68 c1 bc 3c
       -0.040104587 0.020685388 -0.020581735 0.023041442
0002b0 2d b0 83 3d dc 75 83 bd 94 c0 67 3d cf 75 27 3d
       0.06430087 -0.06418964 0.05658014 0.040883835
0002c0 fa 38 e1 bd e0 9e 9a bc 72 df c4 3c 3f 28 8b 3d
       -0.109971955 -0.018874586 0.024032328 0.06794786
0002d0 83 b7 89 3d 37 34 eb 3c b9 32 2c 3c 71 44 d6 bc
       0.06724455 0.028711421 0.01051014 -0.026155682
0002e0 e8 ca ed 3d 65 1b ce bd a7 83 b1 bc 3e 72 1f bd
       0.11610967 -0.10063819 -0.021669222 -0.03892731
0002f0 d1 ae 4c bd 67 26 ab bd 53 96 23 3d 49 50 03 3e
       -0.049971405 -0.08356934 0.039938282 0.12823595
000300 d4 87 0b 3c ec 68 4f bc ea 55 aa bd a5 1e 61 bb
       0.008516271 -0.012659293 -0.08317168 -0.003435054
000310 40 d0 c1 bc 39 6a f9 3d 0c 4f 39 bd 09 c7 a9 bd
       -0.023658872 0.121784635 -0.0452414 -0.08289916
000320 e6 af b7 bd 79 a7 f0 3c f2 4f c4 3d 2e f8 ff bc
       -0.08969097 0.029376732 0.09585561 -0.031246271
000330 2f 26 cd 3b 8d b0 3f be f6 d0 35 3d da 41 b0 3c
       0.0062606554 -0.18719693 0.044388734 0.021515775
000340 91 bd 30 bc ff 45 fb 3d e9 fb 0a be 58 3f b4 bc
       -0.010787384 0.1226921 -0.13572659 -0.02200286
000350 ba d4 c3 bd 37 da 06 be 4a ff 22 be cd a1 f0 bd
       -0.09562059 -0.1316918 -0.15917698 -0.11749611
000360 73 3b a5 3d 32 75 15 bd 0c ce 3e 3e 7b 77 77 3c
       0.0806798 -0.03648872 0.18633288 0.01510417
000370 52 a7 18 3d 8e 83 91 3d b5 20 d7 3d e2 90 89 bd
       0.037268944 0.0710517 0.10504285 -0.06717087
000380 58 98 51 bc 91 87 1a bd 6b 98 08 bd 5d 52 93 bd
       -0.012792669 -0.037726942 -0.033348482 -0.07193444
000390 f7 d0 5d 3d 28 ec b3 bd 40 f4 4c bd 88 20 33 bc
       0.054154363 -0.087852776 -0.050037622 -0.010933049
0003a0 8e dc 96 bc 72 a4 56 bd 11 e9 01 3e fc 66 24 3d
       -0.018415716 -0.05240292 0.12686564 0.040137276
0003b0 c9 80 43 bd 97 6a 81 bc f3 d0 56 3d e4 7d 27 3e
       -0.04773024 -0.015797896 0.052445363 0.16356617
0003c0 8b d7 08 3e 67 e0 e3 3d 8f 30 aa bc 69 fb 1f bc
       0.13363473 0.11126786 -0.020775108 -0.009764531
0003d0 55 66 3e bc a9 ba 29 bd f9 7f 30 bc 35 1b 92 bd
       -0.011621078 -0.04143778 -0.010772699 -0.071340956
0003e0 85 a4 08 3e e0 7e 7e 3d 56 65 df b9 a9 5e 9a bd
       0.13344009 0.062132716 -0.00042609376 -0.07537586
0003f0 cd 93 2d 3e c6 09 e2 bd b6 57 9c 3c d0 90 16 3d
       0.16950913 -0.110370204 0.019084793 0.036759198

network_body._body_endoder.seq_layers.2.bias f4 [128]
000000 00 00 00 00 00 00 00 00 00 00 00 00 00 00 00 00
       0.0 0.0 0.0 0.0
000010 00 00 00 00 00 00 00 00 00 00 00 00 00 00 00 00
       0.0 0.0 0.0 0.0
000020 00 00 00 00 00 00 00 00 00 00 00 00 00 00 00 00
       0.0 0.0 0.0 0.0
000030 00 00 00 00 00 00 00 00 00 00 00 00 00 00 00 00
       0.0 0.0 0.0 0.0
000040 00 00 00 00 00 00 00 00 00 00 00 00 00 00 00 00
       0.0 0.0 0.0 0.0
000050 00 00 00 00 00 00 00 00 00 00 00 00 00 00 00 00
       0.0 0.0 0.0 0.0
000060 00 00 00 00 00 00 00 00 00 00 00 00 00 00 00 00
       0.0 0.0 0.0 0.0
000070 00 00 00 00 00 00 00 00 00 00 00 00 00 00 00 00
       0.0 0.0 0.0 0.0
000080 00 00 00 00 00 00 00 00 00 00 00 00 00 00 00 00
       0.0 0.0 0.0 0.0
000090 00 00 00 00 00 00 00 00 00 00 00 00 00 00 00 00
       0.0 0.0 0.0 0.0
0000a0 00 00 00 00 00 00 00 00 00 00 00 00 00 00 00 00
       0.0 0.0 0.0 0.0
0000b0 00 00 00 00 00 00 00 00 00 00 00 00 00 00 00 00
       0.0 0.0 0.0 0.0
0000c0 00 00 00 00 00 00 00 00 00 00 00 00 00 00 00 00
       0.0 0.0 0.0 0.0
0000d0 00 00 00 00 00 00 00 00 00 00 00 00 00 00 00 00
       0.0 0.0 0.0 0.0
0000e0 00 00 00 00 00 00 00 00 00 00 00 00 00 00 00 00
       0.0 0.0 0.0 0.0
0000f0 00 00 00 00 00 00 00 00 00 00 00 00 00 00 00 00
       0.0 0.0 0.0 0.0
000100 00 00 00 00 00 00 00 00 00 00 00 00 00 00 00 00
       0.0 0.0 0.0 0.0
000110 00 00 00 00 00 00 00 00 00 00 00 00 00 00 00 00
       0.0 0.0 0.0 0.0
000120 00 00 00 00 00 00 00 00 00 00 00 00 00 00 00 00
       0.0 0.0 0.0 0.0
000130 00 00 00 00 00 00 00 00 00 00 00 00 00 00 00 00
       0.0 0.0 0.0 0.0
000140 00 00 00 00 00 00 00 00 00 00 00 00 00 00 00 00
       0.0 0.0 0.0 0.0
000150 00 00 00 00 00 00 00 00 00 00 00 00 00 00 00 00
       0.0 0.0 0.0 0.0
000160 00 00 00 00 00 00 00 00 00 00 00 00 00 00 00 00
       0.0 0.0 0.0 0.0
000170 00 00 00 00 00 00 00 00 00 00 00 00 00 00 00 00
       0.0 0.0 0.0 0.0
000180 00 00 00 00 00 00 00 00 00 00 00 00 00 00 00 00
       0.0 0.0 0.0 0.0
000190 00 00 00 00 00 00 00 00 00 00 00 00 00 00 00 00
       0.0 0.0 0.0 0.0
0001a0 00 00 00 00 00 00 00 00 00 00 00 00 00 00 00 00
       0.0 0.0 0.0 0.0
0001b0 00 00 00 00 00 00 00 00 00 00 00 00 00 00 00 00
       0.0 0.0 0.0 0.0
0001c0 00 00 00 00 00 00 00 00 00 00 00 00 00 00 00 00
       0.0 0.0 0.0 0.0
0001d0 00 00 00 00 00 00 00 00 00 00 00 00 00 00 00 00
       0.0 0.0 0.0 0.0
0001e0 00 00 00 00 00 00 00 00 00 00 00 00 00 00 00 00
       0.0 0.0 0.0 0.0
0001f0 00 00 00 00 00 00 00 00 00 00 00 00 00 00 00 00
       0.0 0.0 0.0 0.0

action_model._continuous_distribution.log_sigma f4 [1, 2]
000000 00 00 00 00 00 00 00 00
       0.0 0.0

action_model._continuous_distribution.mu.weight f4 [2, 128]
000000 31 f8 b0 bb bb fe 7c bc fb b2 69 bc 6b 39 d8 3c
       -0.0054006805 -0.015441592 -0.014263864 0.026394567
000010 b1 fe 99 ba 45 62 d8 bc 4f 3e c3 3c 80 67 dd bb
       -0.0011748878 -0.026414046 0.023833422 -0.006756723
000020 0d 2c 5a bc 33 dd de 3a 2f 9f a3 bc fa 9b 7d 3c
       -0.013316167 0.0017003178 -0.019973366 0.015479082
000030 c3 a4 92 3b aa a6 f5 3b b6 a9 16 bd d6 6a 00 bd
       0.0044752075 0.0074966745 -0.036782943 -0.031351887
000040 eb 9b 96 bc 51 09 9f bc a0 3f 91 3c 9c f1 b6 bc
       -0.018384894 -0.019413622 0.017730534 -0.022332005
000050 df 51 bb bc d6 2d 10 3c 3a d5 d5 bc 4a 55 80 3c
       -0.022866188 0.008799991 -0.02610265 0.015665669
000060 9a 43 95 3c 84 ce ca 3a 11 e2 4b bc a5 20 d8 3c
       0.018220711 0.0015472923 -0.012444035 0.026382754
000070 a1 24 c0 bc b5 f2 19 3c d3 93 8a 3c f5 50 fc bc
       -0.023454966 0.009396245 0.016916191 -0.030800322
000080 c5 eb 1e 3d b6 55 8d 3b e3 19 03 bd f8 a6 8f bb
       0.038799066 0.004313196 -0.03200711 -0.004383918
000090 c6 99 47 bc 6b 02 6a bd 9b 1e 97 bc 98 1f f2 ba
       -0.012182659 -0.057131212 -0.018447211 -0.001847255
0000a0 a8 48 66 bb 6c a6 87 bc 13 35 c0 3c 33 fc 59 bb
       -0.0035138521 -0.016558848 0.023462808 -0.0033261895
0000b0 6f f4 1e bc fa f4 cb bc d8 53 1f 3c 55 19 9b 3c
       -0.009701832 -0.024897087 0.00972458 0.018932978
0000c0 04 65 07 3d 8d 2e 39 3a ca 22 c0 bc cf 5f db bc
       0.03305532 0.00070641265 -0.023454089 -0.026779084
0000d0 8d 34 75 bc 04 9c 13 3c 65 ed e8 38 09 07 22 bc
       -0.014966142 0.009009365 0.0001110684 -0.009889373
0000e0 cb 76 05 bc e1 22 89 bc 6d b9 54 b9 be d0 2a 3c
       -0.008145998 -0.016740264 -0.00020286972 0.010425745
0000f0 84 a2 9d 3b 93 96 d8 3c 5b 9d 9e 3c 94 d1 00 bc
       0.004810633 0.026438987 0.019362142 -0.007862467
000100 0b 23 1a 3d f0 fe 0f bc c5 06 10 3c e5 d8 19 bd
       0.037631076 -0.008788809 0.0087906765 -0.037560362
000110 ca 85 f6 3b c8 f2 4d 3c 4b d2 11 bb e5 ce 0e bc
       0.007523273 0.012570091 -0.0022250589 -0.00871632
000120 75 c4 30 3c 08 a8 75 bc 8b 7c ae bc 12 32 1d bd
       0.0107890265 -0.014993675 -0.021299621 -0.03837783
000130 ab f6 19 39 75 a4 22 3c c7 f1 06 3d d9 2e bf 3c
       0.00014683108 0.009926905 0.03294542 0.023337768
000140 0d eb cd 3c bf b2 41 3d c1 b2 19 3d f0 af 94 bc
       0.025136495 0.047289606 0.03752399 -0.0181503
000150 08 1a b5 bc 43 e7 52 3c 38 2c e8 3c 5f 92 c7 bc
       -0.02210714 0.01287252 0.028341398 -0.024361787
000160 cb 34 33 3b 48 72 e9 bb 1d 1a f3 bb d7 a6 c1 bc
       0.00273447 -0.007124219 -0.0074188844 -0.023639126
000170 fa 4e be 3b 35 7f b2 3c 9d 6d c6 3c 03 62 d1 bb
       0.0058077546 0.021789173 0.02422219 -0.0063898577
000180 26 76 bc 3c 8f 80 e6 bb 30 41 e2 3b a9 26 cc bc
       0.023005556 -0.0070343683 0.0069047436 -0.024920778
000190 ed 2a 60 3b 22 7d 2e 3c 4d a5 f4 bb 17 9f 5f 3c
       0.0034205273 0.010649951 -0.0074659945 0.01364877
0001a0 e2 b0 eb bb 86 fa 9a bb 18 1b 45 3c 38 8f ca bc
       -0.007192717 -0.0047295718 0.012030385 -0.024726495
0001b0 18 80 04 3d 1f fe ce bc 2b c0 ad 38 0d f0 64 bc
       0.032348722 -0.025267659 8.285077e-05 -0.013973248
0001c0 60 64 9e 3b 67 1b 21 bb 2b 8a 33 bc 70 69 58 bb
       0.004833743 -0.0024582983 -0.010958235 -0.003302183
0001d0 14 89 b7 3b cd 2f fd bb a5 b0 fe bb 1a 5f 88 3c
       0.005601058 -0.0077266456 -0.0077725225 0.01664691
0001e0 23 85 a0 3c 97 b0 94 bc a7 a7 cc bb 18 ec 35 3b
       0.019594735 -0.01815061 -0.0062455717 0.002775913
0001f0 aa 01 e1 3a 3f d9 89 3b 3d 72 e1 bc 1e b3 05 bd
       0.0017166634 0.004206806 -0.027520293 -0.032641523
000200 77 b4 9c bb 74 4a 19 3a 8b 61 c6 3b bd 2d 0d bd
       -0.0047822553 0.0005847581 0.0060541085 -0.034467448
000210 52 f6 c8 bc 65 48 36 3c 23 ee 08 bb fc dd a2 3c
       -0.024531517 0.011125659 -0.0020893894 0.019881241
000220 63 13 ba b9 bc 38 17 3c 2c a1 28 3c 31 38 a7 3c
       -0.0003549113 0.009229835 0.010292333 0.020412536
000230 4d 65 d3 3c 14 b5 49 bc 02 ba 0d 3c 6a 57 ca bc
       0.02580514 -0.012311239 0.008650305 -0.024699885
000240 4e 44 9f 3c f7 90 84 3c b9 74 38 bc 24 21 31 bc
       0.01944175 0.016182406 -0.011258298 -0.010811124
000250 d8 f7 ef bb a0 b3 7f bb 79 5c ab bc e8 a2 77 3b
       -0.0073232464 -0.0039016977 -0.020918118 0.0037786309
000260 1b 6e a1 bc 00 2a ab 3b eb cf 20 3c 8a 43 30 3b
       -0.019705823 0.0052235126 0.0098151965 0.0026895725
000270 65 45 b5 3c 28 e9 32 bd e8 f8 9e 3c fd d8 a8 3c
       0.022127816 -0.043679386 0.019405797 0.02061128
000280 76 3e 43 bb f0 09 59 bc 56 2f c3 3b 38 62 a7 bc
       -0.0029791868 -0.013246998 0.0059565706 -0.020432577
000290 10 44 77 3b f0 c9 c2 ba 89 6c be ba 5d 9f 09 3b
       0.0037729777 -0.0014861207 -0.0014528196 0.002099953
0002a0 22 fe a9 3c d1 f2 39 bc bf 8c 8c bc 3a 17 df 3c
       0.020751063 -0.011349396 -0.017156957 0.027232755
0002b0 88 18 0a bd 4d b9 11 bd eb 80 8c 3b 0f 0e 06 bd
       -0.0337148 -0.035577107 0.004287829 -0.03272825
0002c0 ea f6 0d bc 47 55 bb 3b 3f 51 d5 bc 94 79 89 bc
       -0.008664826 0.005716953 -0.026039718 -0.016781606
0002d0 d2 0d e3 bc db 5f 02 39 f6 55 89 bc 7d 10 5a bd
       -0.027716551 0.00012433475 -0.016764622 -0.05323838
0002e0 b4 b8 c0 bc 44 79 2a 3c a8 80 7e bc 0f fa 38 3b
       -0.023525573 0.010404889 -0.015533604 0.0028225218
0002f0 3f 15 c0 bb ed a9 90 3c cb 10 0d bc 54 53 1f 3c
       -0.0058619077 0.017659152 -0.008609961 0.009724457
000300 7e 7d 48 bb ce 8f 1e 3d 2f c5 16 bc 42 1e 9e ba
       -0.0030592377 0.03871136 -0.009202286 -0.0012063461
000310 f5 71 08 bb 63 2f 9f 3c 67 24 4e bc 45 4e d0 bc
       -0.0020819877 0.019431775 -0.012581921 -0.025427947
000320 d2 2e 14 bc 05 ee 71 bb 4c bb 94 bc 35 ca b4 bb
       -0.009044366 -0.0036915552 -0.018155716 -0.005517269
000330 b8 b2 59 ba 80 40 89 3c fe 31 91 bb 8e d2 35 3c
       -0.0008304524 0.016754389 -0.0044310084 0.011097563
000340 bf bc a9 bb f0 0c 18 bc 27 03 c9 3c cd b9 34 bc
       -0.005179971 -0.009280428 0.024537636 -0.0110306265
000350 39 a9 23 bc a8 de 3c 3b 25 1c f7 3b b8 a1 f3 3b
       -0.009989076 0.0028819237 0.007541197 0.00743505
000360 27 fa a5 3b 18 7b f8 3c 23 0f 4d 3c 7b 29 c3 bb
       0.005065221 0.030332133 0.012515816 -0.0059558726
000370 a5 15 ad 3a 5f 4d ea bc 7f c4 95 bc 57 01 2c bb
       0.0013205303 -0.028601347 -0.018282173 -0.0026245916
000380 a2 8f 1b bd 87 c9 09 bc 98 a3 fe 3b c7 2f db 3a
       -0.037978776 -0.008409864 0.0077709667 0.0016722613
000390 4c d6 21 3d 63 c6 27 bc b9 74 8a bb 4b e7 1e 3d
       0.03951101 -0.01024017 -0.00422534 0.038794797
0003a0 cf 8b cb bb ed f1 db bc 3f 7b a7 3c a7 51 a9 bb
       -0.006211735 -0.026848758 0.02044451 -0.0051672044
0003b0 6b d4 83 bb 03 cf 17 3c e9 c4 ad 3b 4f f3 19 bc
       -0.004023125 0.009265664 0.0053030145 -0.009396388
0003c0 a7 c9 d8 bc eb 4b 83 bc 48 2b 93 bc e7 5a a1 3c
       -0.026463343 -0.016027411 -0.017964974 0.019696666
0003d0 4f 67 b3 3c bb a9 6b 3c 31 72 9c 3b 33 24 a1 bc
       0.021899847 0.014383729 0.004774355 -0.019670581
0003e0 77 70 d4 bb d8 e4 39 3d 33 7b 00 3c d3 d9 da bb
       -0.0064831334 0.045384258 0.007841873 -0.0066787987
0003f0 f7 2c b8 3b 7b 72 11 bd 77 bf e9 3b 6b 42 99 3a
       0.0056205946 -0.035509568 0.00713342 0.0011692768

action_model._continuous_distribution.mu.bias f4 [2]
000000 00 00 00 00 00 00 00 00
       0.0 0.0

network_body._body_endoder.seq_layers.0.weight f4 [128, 6]
000000 af 19 2b 3e d4 47 10 3f e6 a5 34 bf 61 36 b5 be
       0.16709016 0.563596 -0.7056564 -0.3539305
000010 ca 7f d0 be 06 26 5d be 6f 75 9a 3e 22 f8 46 3d
       -0.40722495 -0.21596536 0.3016772 0.04857648
000020 2e 22 28 bd 79 91 fc be d8 40 b4 be 88 0c 1f bf
       -0.04104822 -0.49329737 -0.35205722 -0.62128496
000030 37 ff 9a 3e 50 3b 45 3f 3e 95 d5 3e 70 34 24 3f
       0.30272838 0.7704363 0.41715425 0.64142513
000040 51 ae 92 bf ff b0 9a 3e 76 2a af be 0b 2b a2 3c
       -1.1459447 0.30213162 -0.34212083 0.019795915
000050 f9 b6 eb 3d e5 e6 f2 3d 05 89 53 3c c8 10 93 3e
       0.11509509 0.11860446 0.012911086 0.2872374
000060 f2 5b 06 3f 41 d0 c3 be 56 c0 1f be aa df 53 3d
       0.5248405 -0.38244823 -0.15600714 0.051726975
000070 82 05 ec be 78 f1 a5 3d eb 5e 4b 3e a8 6a b3 be
       -0.46097952 0.08102697 0.19860427 -0.3504231
000080 d6 d9 24 3f 0d af 9a 3e 65 48 ed 3e 65 26 0c bf
       0.6439489 0.30211678 0.46344295 -0.54746085
000090 26 95 f9 bd 19 63 03 be e7 07 4e 3c 08 78 23 3f
       -0.12186651 -0.12830772 0.012575126 0.6385503
0000a0 3e f6 0d be ed 34 7b bf a7 99 81 be c2 64 48 be
       -0.13863465 -0.98127633 -0.2531254 -0.19569686
0000b0 32 50 e7 3e 35 79 ad bc 0d 00 d9 3e f3 08 0b bf
       0.45178372 -0.02117596 0.4238285 -0.5431053
0000c0 d9 28 51 bf 44 7f f9 3e 74 6f 19 3f 9f 1c 0d be
       -0.81702954 0.48729908 0.5993569 -0.1378045
0000d0 a1 d6 85 3c 8d 9d 9c be 00 3e a7 be e3 35 cd be
       0.016337695 -0.30588952 -0.3266449 -0.40080175
0000e0 9c 1f df 3e 12 7e 5c 3f 37 b0 18 3f 93 4f e9 be
       0.43578804 0.8612987 0.5964388 -0.45568523
0000f0 8d 53 4f 3f 09 44 83 3d 7d bc 2b bf 8e 97 5e 3e
       0.80986863 0.06409461 -0.67084485 0.21737501
000100 91 65 ab 3e 93 4a 77 bf b5 8b cf be 4e 1c c3 3d
       0.33475927 -0.96598166 -0.40536276 0.09526883
000110 9a 2f 30 3e 19 2a c0 3e f1 5d 57 bf ca e4 b3 3e
       0.17205659 0.37532118 -0.8412772 0.3513549
000120 8d 6e 00 3f 73 ec 89 bf 9e db c5 be 73 45 29 be
       0.5016869 -1.0775284 -0.38644117 -0.16530399
000130 98 8a 82 3e 4d 3e 69 3e eb e3 82 3e 09 30 4d 3e
       0.25496364 0.22777672 0.25564513 0.20037855
000140 ea 5b fa 3b 4e 5d 50 be 4f 59 10 3f 28 09 0a be
       0.0076403515 -0.20348093 0.56386274 -0.13480055
000150 71 3d f4 3d 62 7e 73 bf c2 90 3f bd 35 ee 44 3d
       0.119257815 -0.9511472 -0.04676891 0.048078734
000160 26 3c da 3e 61 ca d3 bd 66 c7 e3 3e 06 fd 4d 3f
       0.42624015 -0.10341335 0.44488066 0.8046421
000170 df 12 7f 3c a8 08 37 3f 81 96 10 3f 33 d2 f8 be
       0.015568464 0.71497583 0.5647965 -0.4859787
000180 d7 24 ce 3d 0d 5f 0e 3f 0f e4 68 be b1 b8 00 bd
       0.100656204 0.55613786 -0.22743247 -0.031426135
000190 85 1d 11 bf 53 f0 31 be d7 55 22 3e 11 bf b1 be
       -0.5668567 -0.17376833 0.15853058 -0.34716085
0001a0 db 2b 2e 3d aa 31 de be df 39 5a be cf 5e 35 3e
       0.042522293 -0.43397266 -0.21311139 0.17711948
0001b0 18 3f 3d bb b0 45 2b 3e 06 cf 16 bf 71 5d ea bb
       -0.0028876718 0.16725802 -0.5890964 -0.0071522524
0001c0 fd 7b 09 3f 61 02 f4 bd a8 02 b5 be 5f cb 6d 3e
       0.53704816 -0.11914516 -0.3535359 0.23222111
0001d0 cf 99 76 bd 57 f8 20 3f ab d2 cc be 5c 74 12 3f
       -0.060205277 0.62878937 -0.40004477 0.572088
0001e0 bc 8e 41 bf 3e 8b 2b 3e 85 3e b1 3e 3c 58 8d 3d
       -0.7560842 0.16752335 0.3461801 0.06901595
0001f0 43 2b 0f 3e 08 51 bd be be 74 b5 be a5 64 62 bf
       0.13981347 -0.36975884 -0.3544063 -0.8843482
000200 db e4 98 be cb ae 8e 3e d8 7d bc 3e 09 b2 76 be
       -0.29862103 0.2786773 0.3681476 -0.24091353
000210 96 84 1f be a1 ef 93 bc a7 34 91 be 18 c0 d6 bc
       -0.15577921 -0.0180586 -0.28360483 -0.026214644
000220 fd e3 d4 bb 95 45 3b 3c cb cb e0 3e 7f 0b 9c be
       -0.006496905 0.011430164 0.43905482 -0.3047752
000230 60 92 83 3e 26 a1 80 3e 19 fe 7f 3d fc c9 bc be
       0.25697613 0.25122947 0.062498186 -0.36872852
000240 9a 88 e0 3e 1b 1c 1f 3f 8c b6 97 bc b4 fd ee be
       0.4385422 0.6215226 -0.018519662 -0.46677935
000250 a4 49 43 be 74 12 bc bd b8 74 b9 3e 10 30 ab be
       -0.1907106 -0.09183207 0.36221862 -0.33435106
000260 5c 45 6d be 13 ba ab be 18 85 19 be be ba 41 bf
       -0.2317099 -0.335404 -0.14992177 -0.7567557
000270 1e f7 04 bf b2 ed 82 3e b8 7c b0 be 0f 43 75 3e
       -0.5193957 0.25571972 -0.34470153 0.23951362
000280 ce a5 4f bf 02 66 0b 3e ab 8f 0b 3f d9 07 b4 be
       -0.8111237 0.13613132 0.54516095 -0.35162237
000290 cb 30 b8 3e ec 0d d1 bd 00 f1 f7 3e 11 31 1a 3e
       0.35974726 -0.102077335 0.48426056 0.1505778
0002a0 eb 59 7c 3e 7b d4 86 3e 4e 20 b6 be 00 09 44 3f
       0.24643676 0.26333985 -0.35571522 0.7657623
0002b0 63 69 99 be 15 3e 8f 3e f1 a9 8a be 53 47 74 3f
       -0.29963216 0.27977052 -0.2708278 0.9542133
0002c0 db c5 91 3e da e0 1d be 15 15 86 bf 74 1a 28 bf
       0.28471264 -0.15417805 -1.0475184 -0.65665364
0002d0 86 f6 c0 be ff f7 0e 3e 7e da a5 3e 49 90 a2 3e
       -0.37688082 0.1396179 0.3239326 0.31750706
0002e0 b5 19 aa 3e 94 46 2c bc 37 ed a5 be 3a 8c 62 3d
       0.33222738 -0.010514874 -0.32407543 0.05530951
0002f0 d5 64 c1 bd 0e 89 60 3d 6b 02 40 be 87 03 4b 3e
       -0.0944306 0.054818206 -0.18750922 0.19825564
000300 dd a2 26 3e d9 08 17 be 3d 71 08 3e 4c cb 58 3e
       0.16273065 -0.14749469 0.13324447 0.21171302
000310 72 19 32 3e 8c 5a 17 3f 9c 68 29 bf a0 bb dc 3e
       0.17392519 0.5912254 -0.66175246 0.43111897
000320 4d f8 c3 3e cd 10 0d 3f 07 dc b1 ba ac 32 2a bf
       0.38275376 0.5510376 -0.0013569602 -0.6648357
000330 c9 e2 6e be 71 fb e7 3e 76 04 64 be fb b0 e7 be
       -0.23328699 0.45309022 -0.22267327 -0.45252213
000340 c6 86 00 3e 03 86 01 3c 1e ea 1d bf 0b 1f e5 be
       0.12551412 0.007905486 -0.6168536 -0.44750246
000350 08 c9 71 3f 1b eb 0d bf dc 59 24 be 96 13 76 be
       0.94447374 -0.5543687 -0.16049904 -0.24030909
000360 f9 74 a5 be 65 f6 14 3f 4a 41 f8 be 89 5c 4d be
       -0.32315806 0.5818847 -0.48487312 -0.2005483
000370 1e 33 85 3e 35 90 ed bd 70 b1 ad 3e 96 77 9f be
       0.26015562 -0.11599771 0.33924437 -0.31145924
000380 d5 ab 49 be 73 2a 9c 3e 0a a6 ae 3b 01 ab 7d 3e
       -0.19694455 0.30501136 0.005329852 0.24772264
000390 c0 96 b6 3d 2a c3 93 3e 2a b0 a8 be 82 d0 1c 3d
       0.08915472 0.28859836 -0.32946903 0.038284786
0003a0 c7 65 42 3e 91 72 81 bd 62 75 9b 3e d2 3c 15 bd
       0.18984137 -0.0632068 0.30362993 -0.036434956
0003b0 d9 df 21 3e 55 4a 27 be 1f 32 8b be b5 3f 39 bf
       0.15808047 -0.16336949 -0.27186677 -0.72362834
0003c0 55 67 fd bb e9 cb 47 3f 37 a0 d6 3e 01 ee fa 3e
       -0.0077332654 0.7804552 0.4191911 0.49009708
0003d0 ca b5 ec 3e c7 75 d7 3e b5 34 28 bd 16 be af 3e
       0.46232444 0.42082044 -0.04106589 0.34324712
0003e0 a5 c3 22 3f 8e 6c 14 3f 8d 82 b9 be e1 db 3c 3f
       0.6357978 0.5797814 -0.36232415 0.7377301
0003f0 5d 9d 09 be 8f 0c e2 3e 0d 6a a8 be 64 fd 08 3f
       -0.13438936 0.44150206 -0.3289341 0.53511643

network_body._body_endoder.seq_layers.0.bias f4 [128]
000000 00 00 00 00 00 00 00 00 00 00 00 00 00 00 00 00
       0.0 0.0 0.0 0.0
000010 00 00 00 00 00 00 00 00 00 00 00 00 00 00 00 00
       0.0 0.0 0.0 0.0
000020 00 00 00 00 00 00 00 00 00 00 00 00 00 00 00 00
       0.0 0.0 0.0 0.0
000030 00 00 00 00 00 00 00 00 00 00 00 00 00 00 00 00
       0.0 0.0 0.0 0.0
000040 00 00 00 00 00 00 00 00 00 00 00 00 00 00 00 00
       0.0 0.0 0.0 0.0
000050 00 00 00 00 00 00 00 00 00 00 00 00 00 00 00 00
       0.0 0.0 0.0 0.0
000060 00 00 00 00 00 00 00 00 00 00 00 00 00 00 00 00
       0.0 0.0 0.0 0.0
000070 00 00 00 00 00 00 00 00 00 00 00 00 00 00 00 00
       0.0 0.0 0.0 0.0
000080 00 00 00 00 00 00 00 00 00 00 00 00 00 00 00 00
       0.0 0.0 0.0 0.0
000090 00 00 00 00 00 00 00 00 00 00 00 00 00 00 00 00
       0.0 0.0 0.0 0.0
0000a0 00 00 00 00 00 00 00 00 00 00 00 00 00 00 00 00
       0.0 0.0 0.0 0.0
0000b0 00 00 00 00 00 00 00 00 00 00 00 00 00 00 00 00
       0.0 0.0 0.0 0.0
0000c0 00 00 00 00 00 00 00 00 00 00 00 00 00 00 00 00
       0.0 0.0 0.0 0.0
0000d0 00 00 00 00 00 00 00 00 00 00 00 00 00 00 00 00
       0.0 0.0 0.0 0.0
0000e0 00 00 00 00 00 00 00 00 00 00 00 00 00 00 00 00
       0.0 0.0 0.0 0.0
0000f0 00 00 00 00 00 00 00 00 00 00 00 00 00 00 00 00
       0.0 0.0 0.0 0.0
000100 00 00 00 00 00 00 00 00 00 00 00 00 00 00 00 00
       0.0 0.0 0.0 0.0
000110 00 00 00 00 00 00 00 00 00 00 00 00 00 00 00 00
       0.0 0.0 0.0 0.0
000120 00 00 00 00 00 00 00 00 00 00 00 00 00 00 00 00
       0.0 0.0 0.0 0.0
000130 00 00 00 00 00 00 00 00 00 00 00 00 00 00 00 00
       0.0 0.0 0.0 0.0
000140 00 00 00 00 00 00 00 00 00 00 00 00 00 00 00 00
       0.0 0.0 0.0 0.0
000150 00 00 00 00 00 00 00 00 00 00 00 00 00 00 00 00
       0.0 0.0 0.0 0.0
000160 00 00 00 00 00 00 00 00 00 00 00 00 00 00 00 00
       0.0 0.0 0.0 0.0
000170 00 00 00 00 00 00 00 00 00 00 00 00 00 00 00 00
       0.0 0.0 0.0 0.0
000180 00 00 00 00 00 00 00 00 00 00 00 00 00 00 00 00
       0.0 0.0 0.0 0.0
000190 00 00 00 00 00 00 00 00 00 00 00 00 00 00 00 00
       0.0 0.0 0.0 0.0
0001a0 00 00 00 00 00 00 00 00 00 00 00 00 00 00 00 00
       0.0 0.0 0.0 0.0
0001b0 00 00 00 00 00 00 00 00 00 00 00 00 00 00 00 00
       0.0 0.0 0.0 0.0
0001c0 00 00 00 00 00 00 00 00 00 00 00 00 00 00 00 00
       0.0 0.0 0.0 0.0
0001d0 00 00 00 00 00 00 00 00 00 00 00 00 00 00 00 00
       0.0 0.0 0.0 0.0
0001e0 00 00 00 00 00 00 00 00 00 00 00 00 00 00 00 00
       0.0 0.0 0.0 0.0
0001f0 00 00 00 00 00 00 00 00 00 00 00 00 00 00 00 00
       0.0 0.0 0.0 0.0

network_body._body_endoder.seq_layers.2.weight f4 [128, 128]
000000 21 1e 91 3e 95 8c ab bd e8 7c 53 bd 98 91 f9 3d
       0.283433 -0.08376423 -0.05163279 0.12185973
000010 81 e1 a4 bd 6c 5f d0 bc 19 e6 e5 3c ca 04 50 3d
       -0.08050824 -0.025436126 0.02806382 0.050785817
000020 4f 76 be 3d 15 12 71 bd 2c ac 55 bd 9b 7b c4 bd
       0.09299909 -0.058855135 -0.05216615 -0.09593888
000030 11 3c a9 bd f0 db 87 3d b7 1a 6c 3c 82 54 d4 bc
       -0.0826341 0.066337466 0.014410666 -0.025919203
000040 bd dd 73 3c ef 44 c3 bd dc 19 28 3d 2c 74 4d bd
       0.0148844095 -0.095346324 0.041040286 -0.05015962
000050 5d e0 a4 3d 66 dd 53 be 16 7f 35 bd 9a 61 29 3d
       0.080506064 -0.20689926 -0.04431065 0.041352846
000060 8c 5f b4 3d 90 b7 3c bd 81 a4 79 bb c3 17 52 3d
       0.088072866 -0.046073496 -0.0038092437 0.051292192
000070 42 86 ad bc 4d a4 1e 3d ac 6f 11 bd 17 63 ab bd
       -0.021182183 0.03873091 -0.03550689 -0.08368509
000080 69 a9 c4 bc 34 56 ac bd 56 b6 8a 3d ee 76 72 bd
       -0.024006562 -0.084148794 0.06773059 -0.05919545
000090 1b a8 be 3d 04 5b 0b be 77 39 77 bd fe 3b 0e 3e
       0.09309407 -0.13608938 -0.060357537 0.13890073
0000a0 e6 c1 b3 3b e6 fe b2 3d d9 67 95 3d 4a df c5 bd
       0.005485761 0.08740024 0.07295198 -0.0966173
0000b0 a5 3d 43 3d 37 1b bb 3c fc bb 33 be 2f e8 72 bd
       0.04766621 0.022840125 -0.17552179 -0.05930346
0000c0 06 6d 12 3d 49 0c f5 3d bc 70 84 bd 9f 4f 8b bd
       0.035748504 0.11965234 -0.06466815 -0.06802296
0000d0 73 ad c6 3d 27 36 48 be ea 11 cb 3c c2 6d 3c bc
       0.097010516 -0.19551907 0.024788816 -0.011500778
0000e0 fa 27 03 bd e1 65 39 3e 5c 29 f1 bd 89 6d 5d 3d
       -0.032020546 0.1810527 -0.11775467 0.05405954
0000f0 7f a9 b3 bd 89 b6 b8 3d 82 a9 77 bd e1 bc 1a 3e
       -0.08772563 0.09019191 -0.06046439 0.15111114
000100 8a b4 fb bd be db c1 bc dd f9 c9 3d 83 4b 3b 3c
       -0.122902945 -0.023664352 0.09862111 0.011431578
000110 dc 0b 1b be 49 d0 3f bb ea d4 29 be d4 6e 5d 3c
       -0.15141243 -0.0029268435 -0.16585127 0.013515193
000120 a4 6e 35 be 3a 1b d0 bd 34 22 c6 bc 2d 9b ad bd
       -0.17717987 -0.10161443 -0.024186231 -0.08476863
000130 3b 5b 5c bb f0 11 8c bb d7 66 4f bd af 76 0a 3d
       -0.0033623714 -0.0042745993 -0.050635185 0.03380459
000140 bc fd ea 3b a9 31 0a 3e 8b ce 03 be 94 b9 25 be
       0.007171361 0.13495506 -0.12871759 -0.16184074
000150 7a 11 b4 bc 66 df a9 3c 5a 03 70 bd 50 9b 16 3d
       -0.02198099 0.020736407 -0.058596946 0.03676921
000160 73 d9 8e bd ff 7e 96 be 9e db 1a 3d 0c 99 42 bd
       -0.06975069 -0.29393765 0.0378071 -0.047509238
000170 e7 e8 86 bc 92 f4 1c 3d ba 11 4e 3b 7e 46 6d bb
       -0.016468478 0.038319178 0.0031443671 -0.0036205347
000180 df 62 89 3d 58 3e bb 3d e9 99 57 3d 20 88 4e bc
       0.06708311 0.091427505 0.052637015 -0.012605697
000190 0c 63 2f bc ef 97 f6 3d da 7d 01 be b8 27 db 3c
       -0.010704767 0.12040698 -0.12645665 0.026752338
0001a0 f7 57 e5 3d 73 a0 22 3e b9 2c 2d 3c 21 0b 50 be
       0.111984186 0.15881519 0.010569745 -0.20316745
0001b0 10 04 00 be 76 26 88 3c 21 a7 d7 3c 86 0d 04 3e
       -0.1250155 0.016619902 0.02632481 0.12895784
0001c0 1d bd 4a 3e 14 56 82 bd be 07 a7 3d 74 5e b2 3c
       0.19798703 -0.06364074 0.081557736 0.021773554
0001d0 35 49 37 bd 2c ab 78 bd d1 e9 fd bd 6c 46 ed 3c
       -0.04474755 -0.060710117 -0.123981126 0.028964244
0001e0 b2 5f ec 3d 27 7e cf bc bb d8 82 bc 32 65 a9 3d
       0.1154169 -0.025328709 -0.015972486 0.082712546
0001f0 98 5f a4 3d f9 8f 0f bd 2d b3 a9 3c 16 83 d3 3d
       0.080260456 -0.035049412 0.02071532 0.10327737
000200 66 01 ad 3c cc 82 df bd b3 df 2d be 5f 10 c5 bc
       0.02111883 -0.109136194 -0.16979866 -0.024055658
000210 6d a5 d4 bd 7e 96 19 bd a6 32 2e 3d 16 af b8 bd
       -0.10383115 -0.037497036 0.04252877 -0.0901777
000220 aa 8a 0d be 19 3c eb bb c8 1f dd 3c e3 7a cd bc
       -0.13822427 -0.007178795 0.026992694 -0.025083011
000230 b4 63 98 bd de 6f 38 bd d1 53 d1 bb 8d 0f 15 3d
       -0.07440892 -0.04502856 -0.0063881655 0.036391784
000240 29 4c 26 bd 4a ed 2b 3c 56 51 f8 3d 25 ea 35 bd
       -0.040599976 0.010493586 0.121248886 -0.04441275
000250 ea c2 19 3e 0e dd 1b 3d 0b bd 02 3d 6f 01 12 bd
       0.1501576 0.03805261 0.031918567 -0.0356459
000260 3c 78 8c 3d ba 76 03 bc e1 5a e0 bd 8b 41 5b bd
       0.068588704 -0.008023912 -0.10954834 -0.053529304
000270 32 6a 13 be 42 8d 12 bc 5e 73 ad bd 05 e3 4c 3d
       -0.14395979 -0.008944811 -0.0846927 0.05002119
000280 ce ed 84 3c 30 0f 26 3d ef 73 98 3b 86 15 bb bd
       0.016226675 0.040541828 0.0046524922 -0.09134965
000290 9c 3c 53 be 99 ea 8d bc 11 e5 f7 bd cd 53 49 be
       -0.2062859 -0.017323779 -0.12104238 -0.19660874
0002a0 55 fa 37 bc 9a ad a0 3b aa c8 21 3d cd 06 27 be
       -0.011229117 0.0049035074 0.03949801 -0.16311188
0002b0 91 26 d6 3b e5 90 c6 3d 52 17 c4 3d a2 ac 20 bc
       0.006535359 0.09695605 0.095747605 -0.009806784
0002c0 bc 44 ac bd 66 87 e0 3d 29 10 d7 3d 98 8a c9 3d
       -0.084115475 0.10963325 0.10501129 0.09840888
0002d0 1a e0 8e 3d 24 aa b6 bb 7b d3 b2 bd e6 14 be bc
       0.06976338 -0.0055744816 -0.08731743 -0.023203325
0002e0 81 b2 44 bd 90 82 83 bd b9 21 3a 3e bf 68 00 be
       -0.048021797 -0.06421387 0.18176927 -0.12539957
0002f0 ab 50 1e bd 40 3d 0b be 50 d6 aa 3c 48 11 a0 bd
       -0.03865115 -0.13597584 0.020854145 -0.07815796
000300 5f b4 08 3c 39 90 53 3c a2 3f c6 ba a3 c1 94 3d
       0.008343785 0.012912803 -0.0015125165 0.07263496
000310 3a 9b 95 3d 45 ec c3 bd b4 35 d6 3c 41 49 1c 3e
       0.07304998 -0.09566549 0.026148655 0.15262319
000320 23 91 c6 bd 53 00 1b 3e 25 d5 14 3e 59 42 9d bd
       -0.096956514 0.15136842 0.14534433 -0.076786704
000330 41 f2 bd bc a6 4f 5a 3d 23 12 28 3d ec 85 51 bd
       -0.023186805 0.053298615 0.04103292 -0.05115311
000340 82 e6 81 bc a8 c4 42 bd b8 5d dc bd e5 0f de 3d
       -0.015856985 -0.047550827 -0.10760063 0.108428754
000350 96 76 37 bd 81 da 5b 3d bd af 3c 3d 65 79 1e 3c
       -0.044790827 0.05367518 0.046066035 0.009672497
000360 37 40 f2 bc 61 3e 99 3c 9e a7 39 3d 8c fc 5d 3c
       -0.029571636 0.018706502 0.045325868 0.013548981
000370 87 b3 a6 bd a6 ad 27 be eb 1d 9e bd 73 be 15 3e
       -0.08139711 -0.16374835 -0.0772055 0.14623432
000380 1f 76 fe bb 22 e3 d0 3d ba fd a6 bd 60 8f 66 3d
       -0.007765546 0.10199572 -0.08153863 0.056289077
000390 d6 74 25 3d 3e a7 65 3d a4 54 46 3d c6 8c 1c 3b
       0.040394627 0.056067698 0.048420563 0.0023887618
0003a0 e4 e7 12 3e 34 0f 2b bc c0 4b e1 bc 6f 07 b3 bd
       0.14346272 -0.010440636 -0.02750194 -0.08741652
0003b0 02 de 8d bd f3 97 43 bd 1e 33 51 3d fc e0 6f 3d
       -0.0692711 -0.047752332 0.05107414 0.05856417
0003c0 89 86 45 3d 7d 94 b1 3d 7a b6 6f bd d5 b0 96 bd
       0.048224006 0.086709 -0.058523633 -0.07357947
0003d0 02 b0 90 bd 1e 54 ed bc be f8 7b bd 6d 11 03 bd
       -0.07064821 -0.028970774 -0.061516516 -0.03199904
0003e0 90 4b ad bc 2a a3 48 3c 4b d1 d2 3d 27 b9 95 3d
       -0.021154195 0.012245933 0.10293826 0.07310706
0003f0 87 dc dd bd c4 38 2c bc c7 b1 15 3e b5 27 15 3c
       -0.10833078 -0.010511581 0.14618598 0.009103705

network_body._body_endoder.seq_layers.2.bias f4 [128]
000000 00 00 00 00 00 00 00 00 00 00 00 00 00 00 00 00
       0.0 0.0 0.0 0.0
000010 00 00 00 00 00 00 00 00 00 00 00 00 00 00 00 00
       0.0 0.0 0.0 0.0
000020 00 00 00 00 00 00 00 00 00 00 00 00 00 00 00 00
       0.0 0.0 0.0 0.0
000030 00 00 00 00 00 00 00 00 00 00 00 00 00 00 00 00
       0.0 0.0 0.0 0.0
000040 00 00 00 00 00 00 00 00 00 00 00 00 00 00 00 00
       0.0 0.0 0.0 0.0
000050 00 00 00 00 00 00 00 00 00 00 00 00 00 00 00 00
       0.0 0.0 0.0 0.0
000060 00 00 00 00 00 00 00 00 00 00 00 00 00 00 00 00
       0.0 0.0 0.0 0.0
000070 00 00 00 00 00 00 00 00 00 00 00 00 00 00 00 00
       0.0 0.0 0.0 0.0
000080 00 00 00 00 00 00 00 00 00 00 00 00 00 00 00 00
       0.0 0.0 0.0 0.0
000090 00 00 00 00 00 00 00 00 00 00 00 00 00 00 00 00
       0.0 0.0 0.0 0.0
0000a0 00 00 00 00 00 00 00 00 00 00 00 00 00 00 00 00
       0.0 0.0 0.0 0.0
0000b0 00 00 00 00 00 00 00 00 00 00 00 00 00 00 00 00
       0.0 0.0 0.0 0.0
0000c0 00 00 00 00 00 00 00 00 00 00 00 00 00 00 00 00
       0.0 0.0 0.0 0.0
0000d0 00 00 00 00 00 00 00 00 00 00 00 00 00 00 00 00
       0.0 0.0 0.0 0.0
0000e0 00 00 00 00 00 00 00 00 00 00 00 00 00 00 00 00
       0.0 0.0 0.0 0.0
0000f0 00 00 00 00 00 00 00 00 00 00 00 00 00 00 00 00
       0.0 0.0 0.0 0.0
000100 00 00 00 00 00 00 00 00 00 00 00 00 00 00 00 00
       0.0 0.0 0.0 0.0
000110 00 00 00 00 00 00 00 00 00 00 00 00 00 00 00 00
       0.0 0.0 0.0 0.0
000120 00 00 00 00 00 00 00 00 00 00 00 00 00 00 00 00
       0.0 0.0 0.0 0.0
000130 00 00 00 00 00 00 00 00 00 00 00 00 00 00 00 00
       0.0 0.0 0.0 0.0
000140 00 00 00 00 00 00 00 00 00 00 00 00 00 00 00 00
       0.0 0.0 0.0 0.0
000150 00 00 00 00 00 00 00 00 00 00 00 00 00 00 00 00
       0.0 0.0 0.0 0.0
000160 00 00 00 00 00 00 00 00 00 00 00 00 00 00 00 00
       0.0 0.0 0.0 0.0
000170 00 00 00 00 00 00 00 00 00 00 00 00 00 00 00 00
       0.0 0.0 0.0 0.0
000180 00 00 00 00 00 00 00 00 00 00 00 00 00 00 00 00
       0.0 0.0 0.0 0.0
000190 00 00 00 00 00 00 00 00 00 00 00 00 00 00 00 00
       0.0 0.0 0.0 0.0
0001a0 00 00 00 00 00 00 00 00 00 00 00 00 00 00 00 00
       0.0 0.0 0.0 0.0
0001b0 00 00 00 00 00 00 00 00 00 00 00 00 00 00 00 00
       0.0 0.0 0.0 0.0
0001c0 00 00 00 00 00 00 00 00 00 00 00 00 00 00 00 00
       0.0 0.0 0.0 0.0
0001d0 00 00 00 00 00 00 00 00 00 00 00 00 00 00 00 00
       0.0 0.0 0.0 0.0
0001e0 00 00 00 00 00 00 00 00 00 00 00 00 00 00 00 00
       0.0 0.0 0.0 0.0
0001f0 00 00 00 00 00 00 00 00 00 00 00 00 00 00 00 00
       0.0 0.0 0.0 0.0

value_heads.value_heads.extrinsic.weight f4 [1, 128]
000000 98 fa ea 3d 10 04 dc bd e8 a4 9a 3c 84 41 f4 bd
       0.11473578 -0.10742962 0.018877462 -0.119265586
000010 0c ed 3c bd 2e 52 1c be d2 4d 50 3e c4 a7 bb 3d
       -0.046124503 -0.15265724 0.20342186 0.09162858
000020 1e 1d 26 3e bc 4c e9 3d bc fd 30 be 4c e8 47 3e
       0.16222045 0.11391589 -0.17284292 0.19522208
000030 a0 85 5d 3d d2 3a d6 bd 74 c0 62 bd f6 d4 37 3e
       0.054082513 -0.10460438 -0.05535932 0.17952332
000040 a0 01 b6 3d d8 bb 38 3d c9 3e 39 be fc e3 4e 3e
       0.08887029 0.045101017 -0.18090357 0.20204157
000050 e4 fd 73 bd 9a 78 91 bd e2 85 44 3e 5e 84 13 3e
       -0.0595683 -0.07103081 0.19191697 0.14405963
000060 68 e1 1f 3d dc 57 9e bd d1 d0 c3 bd c2 1e d8 bd
       0.039033324 -0.077316016 -0.09561313 -0.105527416
000070 04 9d e5 3d 80 6c 86 bb b6 a1 4c 3e 04 5a f3 3d
       0.11211589 -0.0041022897 0.19983563 0.118824035
000080 44 70 07 be 46 45 8c bd d0 95 56 3c c8 27 5b be
       -0.1322642 -0.0684915 0.0130972415 -0.21401894
000090 ea ab 1b 3e c8 bb 9a 3d a8 be e2 bc e0 ca 8a 3b
       0.15202299 0.07555348 -0.027678803 0.0042356104
0000a0 d8 b8 da bd 4d 26 31 be 22 6f c8 bd f4 6a 06 bd
       -0.106797874 -0.17299767 -0.09786822 -0.032816842
0000b0 70 8e 31 be 57 aa c7 bd 10 69 6e 3d 30 28 28 bd
       -0.17339492 -0.097492866 0.058205664 -0.04105395
0000c0 42 f0 ae bd 0c 26 a8 3d 1e ec 13 3e b8 1f 71 bd
       -0.08541919 0.08210382 0.1444554 -0.05886814
0000d0 d0 70 1c 3d 2c 82 60 bd f4 bc 07 3e fc a5 d2 bd
       0.038193524 -0.05481164 0.13255674 -0.10285565
0000e0 8a b8 80 bd 80 09 58 3d 1f 43 3b be 1d 26 4d be
       -0.06285198 0.052743435 -0.18287323 -0.2003407
0000f0 50 50 67 3d 10 98 87 3d c8 85 03 be ba 1a 06 be
       0.056473076 0.066208005 -0.12844002 -0.13096133
000100 5c d2 9e 3d c0 48 20 3d e0 1e e6 bc a7 4a 0a be
       0.077549666 0.03913188 -0.028090894 -0.1350504
000110 c3 8e ea bd 0a 55 e0 bd 7f 60 45 be 58 9a be 3c
       -0.11453011 -0.1095372 -0.19275092 0.023266956
000120 0e 46 21 3e 20 4b 3a 3e a3 09 39 be a4 89 23 bd
       0.1574938 0.1819272 -0.18070082 -0.039926186
000130 3e 7c 21 3e 00 fc 73 bc e8 2d c7 bc 7c 4e 02 be
       0.15770051 -0.014891624 -0.024313882 -0.12725252
000140 b0 b6 1f bd 9c 72 d4 3d 9a 63 8e bd b0 c7 bc 3d
       -0.038992584 0.103734225 -0.06952591 0.09217775
000150 e7 b5 ed bd 62 26 8b bd 58 c8 9b 3c 00 c0 67 38
       -0.11606961 -0.0679443 0.01901643 5.5253506e-05
000160 0a 3a 09 be 44 bf 1f 3e 74 20 18 3e b4 9a 10 3e
       -0.13401046 0.15600306 0.1485613 0.14121515
000170 b4 d9 c7 bd b6 21 02 be 9c 81 31 be 80 b9 d5 ba
       -0.097583205 -0.12708172 -0.17334598 -0.0016305894
000180 00 ee ce 39 8e 4f 3c 3e e8 e0 31 3d ea 61 04 3e
       0.00039468706 0.18389723 0.043427378 0.12927976
000190 ee ab 3b 3e 2a 87 3b be 80 93 14 be 20 4d e3 3b
       0.18327305 -0.1831328 -0.14509392 0.0069366843
0001a0 36 a9 1a 3e 50 af 60 3c 78 56 23 3e 9e 1b 4e 3e
       0.15103611 0.013713673 0.15950954 0.20127723
0001b0 30 2c 5e 3d 18 06 35 be 71 8a 3f be 38 be 22 3d
       0.05424136 -0.17678106 -0.18705155 0.039732188
0001c0 40 7a 4a bc 92 1e 15 3e d8 58 d2 3d b8 d1 39 3d
       -0.012358248 0.14562443 0.10270852 0.04536602
0001d0 3c ce 53 be 28 de ff 3c 10 3f 36 bc 48 e8 79 3d
       -0.20684141 0.031233862 -0.011123434 0.061012536
0001e0 58 6b cb bd 48 65 55 3d 75 41 46 be 6d 40 3f be
       -0.099325836 0.052098542 -0.19360907 -0.1867692
0001f0 2c 58 57 be 0c 66 05 3d d8 57 a1 bc e1 1a 5a be
       -0.21029729 0.032568023 -0.019695207 -0.21299316
