results/ppo/MoveToGoal/MoveToGoal-93645.pt (torch, 441305 bytes, 36 tensors)

network_body._body_endoder.seq_layers.0.weight f4 [128, 6]
0	0x3ec91ccf	0.39279792
1	0x3f6b64d6	0.9195074
2	0xbef5ca4f	-0.48005912
3	0x3e7d26ba	0.24721804
4	0xbe2c622e	-0.16834328
5	0xbe1e8032	-0.1547859
6	0x3ed1ec0e	0.41000408
7	0xbeb509b9	-0.3535898
8	0x3e22acdc	0.15886253
9	0xbf29f6fc	-0.66392493
10	0x3c4037d4	0.01173206
11	0x3dc29aa2	0.0950215
12	0x3e383301	0.17988206
13	0xbdda4fb3	-0.10659733
14	0x3e2de970	0.1698358
15	0x3ea6015a	0.32422906
16	0xbebfde01	-0.37474063
17	0xbec58a4b	-0.38582072
18	0xbd97c40d	-0.074104406
19	0xbe2afb51	-0.16697432
20	0xbdac5a27	-0.08415633
21	0x3ef5a7c3	0.47979555
22	0xbef148fb	-0.47125992
23	0xbf0e5a7e	-0.5560683
24	0xbec0a0da	-0.3762272
25	0xbe6e8b0d	-0.23295231
26	0xbfa24f41	-1.2680436
27	0xbd403289	-0.046923194
28	0x3e9705c0	0.29496574
29	0xbd950f20	-0.072782755
30	0xbf12b80b	-0.5731208
31	0x3f1de20d	0.6167305
32	0x3df6b44d	0.120461084
33	0xbeddf756	-0.43352765
34	0x3f0771c7	0.52907985
35	0x3d8a9a0c	0.06767663
36	0xbe2fa641	-0.17153265
37	0x3c6a65a5	0.0143064605
38	0x3d94d353	0.072668694
39	0x3f49c4e6	0.7881607
40	0x3e64133c	0.22272962
41	0xbebc01e9	-0.36720207
42	0xbedf09f6	-0.43562287
43	0x3e814598	0.25248408
44	0x3d352280	0.044222355
45	0xbe9d2e70	-0.30699492
46	0x3f04b41a	0.51837313
47	0x3eec5528	0.4615872
48	0x3e76b004	0.24090582
49	0xbedbf45d	-0.42959872
50	0x3e85ac3a	0.2610796
51	0x3eb3fd4f	0.35154197
52	0xbe3551bc	-0.1770696
53	0xbedd8dab	-0.43272147
54	0x3c3260c6	0.01088733
55	0x3f258513	0.6465618
56	0x3e819e9a	0.25316316
57	0xbeda5851	-0.42645505
58	0x3c3d67d5	0.0115604
59	0x3ec90be1	0.39266875
60	0x3f283b44	0.6571543
61	0xbe8636ae	-0.26213592
62	0x3da1c699	0.078992076
63	0x3f639a62	0.88907444
64	0x3f0af209	0.54275566
65	0x3d339c4d	0.043850232
66	0x3e906ef0	0.2820964
67	0xbf1cd22b	-0.6125819
68	0x3eb3a5be	0.3508739
69	0x3e61b94f	0.22043346
70	0x3dae77ff	0.08518981
71	0xbe7cad8c	-0.24675578
72	0x3dca2d24	0.09871891
73	0xbdf6c5d9	-0.12049455
74	0xbe9a992e	-0.30194992
75	0x3f57d2e6	0.8430618
76	0xbdf57d02	-0.11986734
77	0xbf7fb004	-0.99877954
78	0x3eb768ce	0.35822147
79	0x3f1b075c	0.60558105
80	0x3e502f59	0.20330562
81	0x3f121da5	0.57076484
82	0x3f5f2452	0.87164795
83	0x3f12d3cf	0.57354444
84	0xbd87f918	-0.06639308
85	0xbeb9bdbc	-0.36277568
86	0xbe6275d2	-0.22115257
87	0x3dfc8fa9	0.123320885
88	0x3ed4ad7a	0.41538602
89	0x3ec49349	0.3839362
90	0xbe2a2fd9	-0.16619815
91	0xbf253d48	-0.6454663
92	0xbe2cd256	-0.16877112
93	0xbf1a0ea5	-0.60178596
94	0x3ecbbb75	0.39791456
95	0x3ef11b98	0.47091365
96	0xbf3444b7	-0.7041735
97	0xbea484cb	-0.32132563
98	0x3dbd4a86	0.0924273
99	0xbe0ed19e	-0.1394715
100	0xbeab0a06	-0.33406085
101	0x3eda8bd1	0.42684796
102	0xbf17c13c	-0.5927923
103	0x3d93baaa	0.07213338
104	0x3f092e7d	0.5358656
105	0xbf1cd7bc	-0.61266685
106	0x3ea4a2dd	0.32155505
107	0x3ecafef7	0.39647648
108	0xbf52fa58	-0.82413244
109	0x3f27f0ff	0.65602106
110	0xbf25002c	-0.6445339
111	0x3e311a42	0.17295173
112	0x3e18b3b0	0.14912295
113	0x3e42da79	0.19028653
114	0xbf1f4100	-0.6220856
115	0x3ead6406	0.33865374
116	0x3caff57e	0.021479364
117	0xbdd20e14	-0.102565914
118	0x3d7c75b5	0.06163569
119	0x3ee38c51	0.4444299
120	0x3f109329	0.5647455
121	0x3eec2ebc	0.46129405
122	0x3e12d9b8	0.14340866
123	0xbf34978e	-0.70543754
124	0xbe79ad0a	-0.24382415
125	0xbf18a2e8	-0.59623575
126	0x3e94f6d0	0.29094553
127	0x3e8858bc	0.266302
128	0xbeddcfc4	-0.43322575
129	0x3d0d2eec	0.034468576
130	0x3e800b8d	0.25008813
131	0x3e5fd68d	0.21859188
132	0x3f12e980	0.5738754
133	0x3f0dc5f5	0.55380183
134	0xbe10b1a8	-0.1413027
135	0x3e27acb8	0.1637448
136	0x3ef67939	0.4813936
137	0x3d8f5a57	0.06999653
138	0xbd1aa43f	-0.037754294
139	0xbe88f1e6	-0.26747054
140	0xbe00a79c	-0.12563938
141	0x3d912da7	0.070887856
142	0xbdda8681	-0.10670186
143	0xbf1c39ab	-0.61025494
144	0xbf0eec61	-0.55829436
145	0xbd346aee	-0.04404729
146	0xbf6eea6e	-0.9332646
147	0xbe9ce529	-0.30643585
148	0x3e84432d	0.258325
149	0x3d91951e	0.0710852
150	0xbe5d74a3	-0.21626525
151	0x3e228e2b	0.15874545
152	0xbf0ad30a	-0.5422827
153	0xbf11b0b7	-0.5691027
154	0xbf1cd216	-0.61258066
155	0x3d45cc37	0.048290458
156	0xbf8452da	-1.0337784
157	0xbe6ce10d	-0.23132725
158	0xbef1040f	-0.4707341
159	0x3ef3fc7c	0.47653568
160	0xbe7dfe7c	-0.2480411
161	0x39742620	0.00023283856
162	0xbf2de1e1	-0.6792279
163	0x3eb2087c	0.34772098
164	0xbd60689c	-0.054787263
165	0xbf6b8818	-0.9200454
166	0xbdfcebb6	-0.12349646
167	0x3d2f4018	0.042785734
168	0x3f51e49e	0.8198947
169	0x3f3e6a67	0.7438111
170	0x3ee5bb04	0.44869244
171	0x3e3d157f	0.18465231
172	0x3dd6ed5a	0.1049449
173	0x3e5e936f	0.21735929
174	0x3eea58a3	0.4577075
175	0xbf0b38a1	-0.54383284
176	0x3f110326	0.5664543
177	0xbd1f2054	-0.03884919
178	0xbe37ffa9	-0.1796862
179	0x3e9fbf95	0.31200853
180	0x3eb967d2	0.3621202
181	0xbe7dfaf2	-0.2480276
182	0x3dca6951	0.09883369
183	0xbcbaf139	-0.022820102
184	0x3ec9b797	0.3939788
185	0x3eba3487	0.363682
186	0x3e2ffeeb	0.17187087
187	0xbea847f4	-0.32867396
188	0xbe962910	-0.29328203
189	0xbdf72d64	-0.120692044
190	0x3d83eb0f	0.06441318
191	0x3e1cf1b3	0.15326576
192	0x3e12ebb4	0.14347726
193	0x3ca1172b	0.019664368
194	0x3eaa2e8f	0.33238646
195	0x3e156aa1	0.14591457
196	0xbe107914	-0.14108688
197	0xbf2af9ef	-0.6678762
198	0x3f51a177	0.81887
199	0x3dcd63ba	0.10028787
200	0x3cdbe545	0.026842723
201	0x3e711f1e	0.23547027
202	0x3f031abb	0.5121266
203	0x3d3bbfd5	0.045837242
204	0xbdb57a9f	-0.08861279
205	0x3ecc0a18	0.3985145
206	0xbe73059f	-0.23732613
207	0xbe54faeb	-0.20798843
208	0x3ed255ba	0.4108103
209	0x3e4bf227	0.19916593
210	0xbe9c0f17	-0.30480263
211	0x3f35dd7b	0.7104108
212	0x3f1ab132	0.6042663
213	0xbe762d16	-0.24040636
214	0x3f4e6885	0.80628234
215	0x3cf4ba1f	0.029873906
216	0x3e0b1aae	0.13584396
217	0xbcf43a52	-0.029812966
218	0xbd821faf	-0.063536994
219	0xbf22c955	-0.6358846
220	0x3e390de1	0.180717
221	0x3f0ab971	0.5418921
222	0xbf8e2ef5	-1.110808
223	0xbf19ae99	-0.6003204
224	0xbe947dd6	-0.29002255
225	0xbf0fcaf3	-0.5616905
226	0x3e2dcd69	0.16972889
227	0xbec389b7	-0.38191006
228	0xbea5d644	-0.32390034
229	0x3e2b1d88	0.16710484
230	0xbce3a6bd	-0.027789468
231	0xbf79f696	-0.97641885
232	0xbe46653b	-0.19374554
233	0x3c89f939	0.016842471
234	0xbf294c0f	-0.6613168
235	0xbd0d9091	-0.034561697
236	0x3de1d790	0.110274434
237	0xbd38c684	-0.045111194
238	0x3ecee14b	0.4040626
239	0x3ca47461	0.020075025
240	0x3f1b324a	0.6062361
241	0xbe3fe3ee	-0.18739292
242	0x3e914227	0.28370783
243	0xbeda14c9	-0.42593983
244	0xb98d3a71	-0.00026937158
245	0x3eab8ca1	0.3350573
246	0x3ec35cbb	0.38156685
247	0x3eb92180	0.3615837
248	0xbeab8dc0	-0.33506584
249	0xbde0b5fd	-0.109722115
250	0x3e918236	0.28419656
251	0x3e2ca535	0.16859896
252	0x3d03aed5	0.032149155
253	0xbee5a565	-0.4485275
254	0xbf2be121	-0.67140394
255	0x3ed39f7a	0.41332608

network_body._body_endoder.seq_layers.0.bias f4 [128]
0	0xbc584d29	-0.01320199
1	0xbc7f6d3e	-0.01559001
2	0x3c45c15a	0.012070024
3	0x3ca64194	0.020294942
4	0xbbaa4636	-0.005196358
5	0x3c2aa416	0.010415098
6	0x3c2ec2a4	0.010666523
7	0x3c81ed78	0.015860304
8	0xbbed24b4	-0.0072370414
9	0x3c81d37e	0.015847918
10	0x3c558af1	0.0130336145
11	0xbbdd6b2f	-0.006757162
12	0x3af5053c	0.0018693577
13	0x3c793c85	0.015212183
14	0x3c817b45	0.01580585
15	0x3c91c16d	0.017792428
16	0x3c8e975a	0.017406154
17	0x3c9d250d	0.019182706
18	0xbbc3451e	-0.005959167
19	0xbc07e4ea	-0.008294323
20	0x3b25d94a	0.0025306516
21	0xbc1d2bd3	-0.009592968
22	0x3c07ec5e	0.0082961
23	0x3c1d5b84	0.009604339
24	0x3c7f135d	0.015568581
25	0xbc8b61aa	-0.017014343
26	0xbbee3632	-0.007269644
27	0x3c566f69	0.013088086
28	0x3ae982c2	0.0017815458
29	0x3c54ac1a	0.012980485
30	0x3ca231f7	0.019799216
31	0x3ca8e16b	0.0206153
32	0x3c8d518a	0.017250795
33	0xbc89bc80	-0.016813517
34	0x3c6c1021	0.014408142
35	0x3b046dd5	0.0020207067
36	0x3c5dac5b	0.013529862
37	0x3ca8737c	0.02056288
38	0xbbe8ea9e	-0.0071080467
39	0x3c88ec79	0.016714321
40	0x3ba8ecae	0.0051551675
41	0x3c9f2ac7	0.019429578
42	0xbc708bea	-0.014681796
43	0x3c1e6dd5	0.009669741
44	0x3caa469b	0.02078562
45	0x3c3a44ee	0.011368973
46	0x3c2247a1	0.009904773
47	0x3c36bce5	0.011153434
48	0xbc53abf3	-0.012919414
49	0x3bd50511	0.006500848
50	0x3c48e857	0.012262425
51	0x3bc0c6de	0.005883082
52	0x3c56b308	0.013104208
53	0xbb5b5453	-0.003346701
54	0x3bdcf5bf	0.0067431624
55	0x3c357eb0	0.011077568
56	0x3c140eb2	0.009036707
57	0x3c3a18d7	0.011358461
58	0x3a92ce9c	0.001120049
59	0xbaf2b786	-0.0018517829
60	0xbbb1111e	-0.005403652
61	0xbca7e0ef	-0.020492999
62	0x3bddc08d	0.0067673386
63	0x3bf4ef3c	0.007474808
64	0x3c002ac8	0.0078227
65	0xbc0f8b86	-0.008761292
66	0xbbe943df	-0.0071186866
67	0xbc85a232	-0.016312692
68	0xb96f8c5e	-0.00022845107
69	0x3c6eb30a	0.014569053
70	0x3c8601bf	0.016358254
71	0xbc15aedf	-0.009135931
72	0x3c99f653	0.018794214
73	0xba1d6e6c	-0.0006005529
74	0xbbbaca8e	-0.005700416
75	0x3cb39a19	0.021924065
76	0xbc56821c	-0.013092544
77	0x3c737f66	0.014861917
78	0x3c2b5f3d	0.010459718
79	0xbc26e456	-0.0101862755
80	0xbb696c0f	-0.0035617386
81	0x3baa82e7	0.005203593
82	0x3cbe9717	0.023265405
83	0x3c6076f1	0.013700233
84	0x3c95b057	0.018272562
85	0xbc6c46a1	-0.014421136
86	0x3c53f4f7	0.012936822
87	0xbbc1f05e	-0.0059185466
88	0xbc4b8d69	-0.0124238515
89	0xbc45e1ec	-0.01207779
90	0xbc3c18d5	-0.01148053
91	0x3b3781fb	0.0028001058
92	0xbc382b1c	-0.011240747
93	0x3c84fb51	0.016233118
94	0xb9463c96	-0.00018905321
95	0xbc5644c4	-0.013077918
96	0xbc4aaa8f	-0.012369766
97	0xbc29068f	-0.010316505
98	0x3c7018c3	0.014654341
99	0xbbdcc5ae	-0.0067374324
100	0x3c160fdb	0.009159054
101	0x3c9e93e5	0.019357631
102	0x3c9540b0	0.018219322
103	0x3c3a9660	0.011388391
104	0xbc8ef0e8	-0.017448857
105	0x3c98c063	0.018646425
106	0x3c6a9f6d	0.014320237
107	0xbc1d84b4	-0.009614158
108	0xbc6feb63	-0.014643523
109	0x3c085541	0.008321107
110	0x3c9ac138	0.018890962
111	0xbbbb834c	-0.005722439
112	0x3cb3e8bd	0.021961564
113	0x3be261bb	0.006908623
114	0x3ca8ceaa	0.020606358
115	0x3c7315b2	0.0148367155
116	0x3c135168	0.008991577
117	0xbbf3ec1a	-0.007443917
118	0xbc72aabf	-0.014811217
119	0x3b8805b2	0.0041510696
120	0xbc7aad78	-0.015300147
121	0x3c833878	0.016018137
122	0x3ba9e216	0.0051844222
123	0x3b5f3bca	0.0034062737
124	0x3c28d1a0	0.010303885
125	0xbbc105ac	-0.0058905687
126	0x3c48a45d	0.0122462185
127	0x3c12201c	0.008918788

network_body._body_endoder.seq_layers.2.weight f4 [128, 128]
0	0x3d02cad5	0.031931717
1	0x3cfe8cf0	0.031073064
2	0xbdb16415	-0.08661667
3	0xbdf5b288	-0.11996943
4	0x3da02b23	0.07820728
5	0xbd55fc6e	-0.05224269
6	0x3d9a9849	0.07548577
7	0x3d8e7334	0.06955567
8	0xbdbd745b	-0.09250709
9	0x3dd6b4e4	0.10483721
10	0x3c8edc79	0.017439114
11	0x3cd12d1d	0.025534207
12	0x3d0452fb	0.0323057
13	0xbdbac64e	-0.09119855
14	0xbe3c68c6	-0.18399343
15	0x3e0c9874	0.13730031
16	0x3db363cc	0.08759269
17	0xbd68d51e	-0.05684387
18	0x3d900e19	0.07033939
19	0x3d0731da	0.033006527
20	0xbb4a7da6	-0.0030897646
21	0xbe669d73	-0.22521
22	0x3d2cf452	0.04222519
23	0xbd4b27e6	-0.049598597
24	0xbcd3b4de	-0.02584308
25	0xbe4e3788	-0.20138371
26	0xbdd6f097	-0.104951076
27	0x3cd8777d	0.026424164
28	0x3cd97010	0.026542693
29	0xbd280cd2	-0.04102785
30	0x3e578546	0.21046934
31	0xbd294e15	-0.04133423
32	0xbdebdcdd	-0.11516736
33	0x3cf2b20d	0.029625917
34	0x3c245b26	0.010031497
35	0xbdf18090	-0.117920995
36	0xbc8fee96	-0.017569821
37	0x3e1dcc29	0.15409912
38	0xbe2e0fd8	-0.16998231
39	0x3d663c89	0.056210075
40	0xbdfcb270	-0.12338722
41	0x3d937fe4	0.072021276
42	0xbcc867ad	-0.024463499
43	0xbd1e6845	-0.038673658
44	0x3dc75771	0.09733475
45	0x3b1d7001	0.0024023058
46	0xbd064d11	-0.03278834
47	0xbd40d502	-0.04707814
48	0xbd8819f1	-0.06645573
49	0xbd4ef4f6	-0.05052658
50	0xbdef8b7c	-0.116965264
51	0x3daee593	0.085398816
52	0x3e2422d2	0.16028908
53	0x3d4ed246	0.0504935
54	0xbd27ef98	-0.04099998
55	0x3c9b2154	0.01893679
56	0x3c544cce	0.012957765
57	0x3e34255a	0.17592373
58	0xbc9a44c4	-0.018831618
59	0xbdc20dbe	-0.09475277
60	0x3dc23c11	0.09484113
61	0xbcfcaf01	-0.030845167
62	0xbb6167b3	-0.0034394085
63	0x3d7035ec	0.058645174
64	0xbe4a9461	-0.19783165
65	0xbd52705e	-0.051376693
66	0x3bdba36e	0.006702832
67	0xbe1ce00d	-0.15319844
68	0xbe314959	-0.17313136
69	0x3da83fb2	0.08215274
70	0x3d9c1740	0.07621622
71	0xbe5ff5ca	-0.21871105
72	0xbe68a70c	-0.22719973
73	0x3d9d1566	0.07670097
74	0xbdb13e77	-0.08654492
75	0x3cb27876	0.021785956
76	0xbe3708c2	-0.17874435
77	0xbdc68c63	-0.096947454
78	0x3df0175e	0.11723207
79	0xbe07c3a0	-0.13258219
80	0x3e1204a0	0.14259577
81	0xbdd7027b	-0.1049852
82	0xbe2bb306	-0.16767511
83	0x3d55ee75	0.052229363
84	0x3e0b4dcb	0.13603894
85	0x3db9bc79	0.090691514
86	0xbc5628bb	-0.013071234
87	0xbdada9d4	-0.08479658
88	0x3dc29924	0.095018655
89	0x3d8c8a67	0.06862336
90	0xbdec734a	-0.11545427
91	0x3d10ab4a	0.035319604
92	0x3e043e2e	0.12914345
93	0x3dce2213	0.10065093
94	0xba91d30e	-0.0011125521
95	0x3c87738b	0.016534587
96	0x3dd33589	0.103129454
97	0xbccc01b8	-0.024903163
98	0xbc2211dd	-0.009891954
99	0x3d6fcc4c	0.058544442
100	0xbd3ef5ea	-0.04662124
101	0x3e341858	0.17587411
102	0x3db06572	0.08613099
103	0xbc88fb88	-0.016721502
104	0xbdb8c197	-0.09021299
105	0xbd7530d7	-0.05986103
106	0x3e09c7e1	0.13455154
107	0x3d3e915a	0.046525337
108	0xbddd6bad	-0.10811553
109	0x3d54e0e3	0.05197228
110	0x3cabaa7f	0.020955322
111	0x3d453392	0.048144884
112	0xbd8ec525	-0.06971196
113	0x3bbe1494	0.005800793
114	0x3cd49654	0.025950588
115	0xbaf894e2	-0.0018965269
116	0x3db212c2	0.08694984
117	0xbdb65cc5	-0.08904413
118	0x3cf237b0	0.02956757
119	0xbe04dc64	-0.12974697
120	0x3cbbfeca	0.022948641
121	0x3db0bd89	0.08629901
122	0xbe226d55	-0.1586202
123	0x3db8e5a3	0.09028175
124	0x3d4aea12	0.049539633
125	0x3cea5497	0.028604789
126	0xbd015969	-0.03157941
127	0xbcf52c0b	-0.029928228
128	0xbe1c4afd	-0.15262981
129	0xbd04bcbd	-0.032406557
130	0xbd5e43e2	-0.054263957
131	0xbe40f6fe	-0.1884422
132	0xbd62abf0	-0.055339754
133	0x3c1ad055	0.009449084
134	0x3d763a8e	0.060114436
135	0xbcae3f22	-0.021270338
136	0xbd390732	-0.045172878
137	0x3da6d4be	0.08146046
138	0xbd7e505f	-0.062088367
139	0x3c645143	0.01393539
140	0xbe17f4e9	-0.1483952
141	0x3ca11dd6	0.019667547
142	0x3d375a7f	0.04476404
143	0x3d3310bc	0.04371713
144	0x3daebe2f	0.085323684
145	0xbde30c6b	-0.11086353
146	0xbc7dc647	-0.0154891675
147	0xbd485ea9	-0.0489184
148	0xbd7fc36c	-0.06244223
149	0x3dda849c	0.106698245
150	0xbd09b06b	-0.03361551
151	0x3ae45ac1	0.0017422066
152	0xbc677990	-0.014128104
153	0x3de9a972	0.11409272
154	0x3e07fac2	0.1327925
155	0xbd8ea124	-0.06964329
156	0xbe059231	-0.13044049
157	0xbd6d385d	-0.05791508
158	0xbc9e6515	-0.019335309
159	0x3d4f40b6	0.050598823
160	0xbe36de3d	-0.17858215
161	0xbd75e3d0	-0.060031712
162	0x3d24fa9e	0.04027807
163	0xbda9ab74	-0.08284655
164	0xbca5be1b	-0.02023225
165	0xbe6abaa8	-0.22922766
166	0x3b602c50	0.00342061
167	0x3e231980	0.15927696
168	0xbcfad54e	-0.03061929
169	0x3e41ef97	0.18939053
170	0x3c2544ee	0.010087235
171	0x3c429b01	0.011877776
172	0x3daebcda	0.08532114
173	0xbdb70a64	-0.08937529
174	0xbd0b7b9c	-0.03405343
175	0xbcc6d5fb	-0.024271956
176	0x3d7ae996	0.06125792
177	0xbd4bca33	-0.04975338
178	0x3e2d56a8	0.16927588
179	0xbdce6e81	-0.10079671
180	0x3d72245a	0.0591167
181	0x3a6dce13	0.000907154
182	0x39830670	0.00024991063
183	0x3dcd48b3	0.10023632
184	0x3df6bdda	0.1204793
185	0x3e090412	0.13380459
186	0x3d4b2b0b	0.049601596
187	0xbcd4a41e	-0.025957163
188	0x3e066292	0.13123539
189	0x3d4b47d2	0.04962904
190	0xbdfaeaf5	-0.12251846
191	0xbd5ab197	-0.05339202
192	0xbde04bd5	-0.10951964
193	0xbd957267	-0.07297211
194	0x3e1e7c81	0.15477182
195	0x3e2b2a90	0.16715455
196	0xbd26b58c	-0.04070048
197	0x3d0863b6	0.033298217
198	0xbdc1fe59	-0.09472341
199	0x3c9d90e5	0.01923413
200	0xbe36171a	-0.1778225
201	0xbdaeff14	-0.08544746
202	0xbca1aa4e	-0.019734528
203	0xbd69b8d6	-0.05706104
204	0x3dcc485b	0.09974738
205	0x3e171f0f	0.14757942
206	0x3d6e4716	0.05817326
207	0x3d184f38	0.037184924
208	0xbde7b4d7	-0.11313789
209	0x3d8bc66e	0.06824957
210	0xbd8196e5	-0.06327609
211	0xbbbb8191	-0.0057222326
212	0x3c9a6597	0.01884727
213	0x3e0597a6	0.1304613
214	0x3e23b09d	0.15985341
215	0x3deff8f8	0.11717409
216	0xbd87e9f0	-0.06636417
217	0x3c948849	0.018131392
218	0x3e2ce3f6	0.16883835
219	0xbda59e51	-0.08086837
220	0x3c524567	0.01283393
221	0xbde935c1	-0.11387206
222	0xbd4af372	-0.049548574
223	0xbd62f66a	-0.05541078
224	0x3dc9ef8d	0.09860144
225	0x39b95287	0.00035347437
226	0xbd94b59a	-0.072612
227	0xbe38f517	-0.18062244
228	0xbd44a80d	-0.04801183
229	0x3ce3c8d7	0.027805729
230	0x3d68358d	0.056691695
231	0x3da137ce	0.07871972
232	0xbd96be55	-0.07360522
233	0x3b616ffd	0.0034399026
234	0xbdd16d35	-0.10225908
235	0xbc95c851	-0.018283995
236	0xbb1722c4	-0.0023061493
237	0x3d77adb9	0.06046841
238	0xbdbebbbd	-0.09313152
239	0xbdbed295	-0.09317509
240	0xbd9d4c64	-0.07680586
241	0x3dac4abe	0.084126934
242	0xbe0c32c1	-0.13691236
243	0x3e412581	0.18861963
244	0x3d0b8b9d	0.034068692
245	0xbd8927cc	-0.06697044
246	0xbdb878d0	-0.09007418
247	0x3cee44fc	0.029085629
248	0x3d82425b	0.063603126
249	0x3ce3c8a6	0.027805638
250	0xbd6d36ed	-0.05791371
251	0x3c05cce6	0.008166527
252	0xbd98540f	-0.07437908
253	0x3c7c9ad9	0.015417778
254	0xbca77527	-0.020441605
255	0xbd4fe74d	-0.050757695

network_body._body_endoder.seq_layers.2.bias f4 [128]
0	0x3c9d31d4	0.019188799
1	0x3c7eec42	0.015559258
2	0x3c7f82d9	0.015595161
3	0xbc29793f	-0.010343849
4	0xbc3abb6b	-0.011397223
5	0xbc34f185	-0.011043911
6	0xbc5d20c4	-0.013496581
7	0x3c822cf8	0.015890583
8	0x3be2e82b	0.0069246492
9	0xbbc620a5	-0.006046372
10	0xbb71b729	-0.0036882854
11	0x3c526cd7	0.012843332
12	0x3c67bed5	0.014144619
13	0xbc5c228b	-0.01343597
14	0xbc41d570	-0.011830673
15	0xbc825074	-0.015907504
16	0xbc43061e	-0.011903314
17	0xbc6c6159	-0.014427506
18	0xbc415a23	-0.011801275
19	0x3c83ed51	0.016104372
20	0x3c851ede	0.01625007
21	0xbc16f731	-0.009214208
22	0xbc61beb1	-0.0137783745
23	0x3c8aeeb0	0.016959518
24	0xbb5c88d7	-0.00336509
25	0xbc718b55	-0.014742692
26	0x3c28eed3	0.010310846
27	0xbc2c0026	-0.010498082
28	0x3c311470	0.010808095
29	0xbc547d8e	-0.012969388
30	0xbc5b16dd	-0.01337215
31	0xbb6706a6	-0.0035251766
32	0x3b34670f	0.0027527248
33	0x3c923d3f	0.01785147
34	0xbc1c0f9b	-0.009525205
35	0x3c1e5283	0.009663227
36	0x3c41b030	0.0118217915
37	0xbc2fe777	-0.010736338
38	0xbc5cc8b1	-0.013475583
39	0xbc501087	-0.012699253
40	0xbbf663c1	-0.007519216
41	0xbaf45c7b	-0.0018643284
42	0x3c703480	0.0146609545
43	0xbc6887e5	-0.014192556
44	0x3c5ccab9	0.013476067
45	0x3c72060a	0.014771948
46	0xbc274dbc	-0.010211404
47	0xbc5204f3	-0.012818563
48	0x3c0db978	0.008650176
49	0xbc389255	-0.011265357
50	0xbbe84453	-0.007088223
51	0x3c378f4c	0.011203598
52	0xbacebc9a	-0.001577276
53	0xbb90bc81	-0.0044170027
54	0xbc5639a4	-0.013075266
55	0xbbaa67d8	-0.0052003674
56	0x3b777e58	0.0037764516
57	0xbb842bc4	-0.0040335376
58	0xbc795b45	-0.015219514
59	0x3b5cb845	0.003367917
60	0x3c9e4701	0.019320967
61	0x3c77b9e7	0.015120006
62	0x3a1c1385	0.00059538364
63	0x3c193d95	0.009353061
64	0x3c66c9bc	0.014086183
65	0x3c8fbaa9	0.017545061
66	0x3c5c0b03	0.01343036
67	0xbbe7f19f	-0.007078364
68	0x3c4d89f6	0.0125450995
69	0xbc97b710	-0.018519908
70	0x3c818d32	0.015814397
71	0xbbdb4f82	-0.0066928277
72	0x3c44012d	0.011963171
73	0x3c870529	0.016481953
74	0xbc14342d	-0.009045643
75	0x3c88a2e4	0.016679235
76	0xbc52b83a	-0.012861306
77	0xbc5c3646	-0.013440674
78	0x3c78126c	0.015141111
79	0xbc3b2092	-0.01142134
80	0xbc412615	-0.011788865
81	0xbc61006a	-0.013733009
82	0xbc69c02d	-0.01426701
83	0xbc23c941	-0.009996713
84	0xbc68e95b	-0.0142157925
85	0x3c23c6be	0.009996114
86	0xbc6627a0	-0.014047533
87	0xbc523d97	-0.012832067
88	0xbc4d219b	-0.012520219
89	0xbc72542e	-0.014790578
90	0xbc16f920	-0.0092146695
91	0x3b8aa376	0.004230912
92	0x3b5fd06d	0.003415133
93	0xbc4abe39	-0.012374454
94	0x3a6768f4	0.000882759
95	0x3c5be1e0	0.013420552
96	0x3be75f45	0.0070609176
97	0x3b30d812	0.0026984257
98	0x3c6dfed7	0.014526091
99	0xbc5fcffa	-0.013660425
100	0xbbffd71d	-0.007807626
101	0xbc35c877	-0.011095158
102	0xbab78762	-0.0014002139
103	0x3c8fef08	0.017570034
104	0x3987c628	0.00025896844
105	0xbbbdf38b	-0.005796855
106	0x3c5b66d1	0.013391213
107	0xbc6273eb	-0.013821582
108	0xbc577d09	-0.013152369
109	0x3c91a246	0.017777573
110	0xbc1b7704	-0.009488825
111	0xbb8c56ad	-0.0042827935
112	0x3c8ac2a5	0.016938517
113	0x3c6a40eb	0.014297704
114	0x3ba69147	0.0050832364
115	0x3c6342c7	0.013870901
116	0x3baa0c58	0.00518946
117	0xbc1bc475	-0.009507288
118	0xbbdbb9fa	-0.0067055197
119	0x3c88105b	0.016609361
120	0xbc416eb8	-0.011806183
121	0xbc38df2a	-0.011283675
122	0x3c896922	0.016773764
123	0xbbfd9844	-0.0077390987
124	0xbb905d6a	-0.004405667
125	0x3c30f5b9	0.010800772
126	0xbbf94710	-0.0076073483
127	0xbc680dde	-0.014163462

action_model._continuous_distribution.log_sigma f4 [1, 2]
0	0x3a9c9505	0.0011946267
1	0xbcfcf9b4	-0.030880786

action_model._continuous_distribution.mu.weight f4 [2, 128]
0	0x3d11a674	0.035559133
1	0xbc1d7e53	-0.009612638
2	0xbba90105	-0.0051575922
3	0x3c0e9125	0.008701597
4	0xbc8e0077	-0.017334206
5	0x3c2d11ea	0.010563353
6	0xbc25d190	-0.010120764
7	0x3b89db4a	0.0042070495
8	0xbbafd43a	-0.0053658755
9	0x3d055471	0.032551233
10	0xbcd6e57d	-0.026232475
11	0x3bc4027a	0.0059817405
12	0x3d29aafe	0.041422836
13	0x3b4ababc	0.0030934056
14	0x3beeb72a	0.0072850185
15	0xbac74684	-0.001520351
16	0xbcad4197	-0.02114944
17	0x3c42100f	0.011844649
18	0x3c98dfe6	0.01866145
19	0xbbe339ef	-0.0069343965
20	0x3cc206bd	0.023684854
21	0x3cb3c72b	0.021945557
22	0x3b8ddd29	0.004329343
23	0x3d1876a8	0.037222534
24	0xbbb05e05	-0.0053823018
25	0x3c1fa866	0.009744739
26	0x3c06e10f	0.008232369
27	0x3cf8ce69	0.030371862
28	0x3ca26895	0.01982526
29	0xbcd90902	-0.026493553
30	0xbc7470e0	-0.01491949
31	0x3c2c672e	0.010522647
32	0xbca632df	-0.02028793
33	0x3ce9f979	0.02856134
34	0xbc5fde54	-0.013663847
35	0x3d0a5639	0.033773635
36	0xbd0f4d15	-0.03498562
37	0xbb14b002	-0.0022687917
38	0xbd05f986	-0.032708667
39	0x3b886938	0.0041629337
40	0xbc9e4d3a	-0.019323934
41	0xbca04d6a	-0.019568164
42	0x3c8b2ff8	0.016990647
43	0xbb9081ee	-0.00441002
44	0x3a09e426	0.0005260132
45	0xbd1f0dc3	-0.038831484
46	0xbc6082e0	-0.013703078
47	0x3cd68eab	0.026191076
48	0xbc977ee0	-0.018493116
49	0x3c254387	0.010086901
50	0xbc67cfb2	-0.0141486395
51	0xbcac0d77	-0.021002514
52	0xbd286b9b	-0.041118246
53	0x3cb67ab2	0.022275303
54	0xbb3369f4	-0.0027376385
55	0xbce5d65a	-0.028056312
56	0x3cb98bfb	0.022649756
57	0xb8833c82	-6.257837e-05
58	0x3b29bffd	0.0025901787
59	0x3d0a7e70	0.033811986
60	0xba8115b6	-0.0009848389
61	0x3d0ec440	0.034855127
62	0x3cbda730	0.02315101
63	0x3ce230d1	0.027611168
64	0xbcd72ff3	-0.026267981
65	0xbc703c8c	-0.014662873
66	0xbd00f9b2	-0.031488128
67	0xbc047684	-0.008084897
68	0xbc811799	-0.015758323
69	0xbbb26926	-0.0054446636
70	0x3c620595	0.013795276
71	0x3bf26d22	0.0073982636
72	0x3c88f88a	0.016720075
73	0x3abab5f2	0.0014244898
74	0x3cdac9c7	0.026707543
75	0xbce435d7	-0.027857704
76	0xbc24ec7d	-0.010066149
77	0x39de60b5	0.00042415192
78	0xbce9ee5d	-0.028556043
79	0x3b5bbf1a	0.0033530653
80	0x3c3de4bd	0.01159018
81	0xbc30a6c5	-0.010781948
82	0xbab0c749	-0.0013487126
83	0x3d1aa702	0.037756927
84	0x3bb6ff51	0.0055846353
85	0x3c923a1d	0.017849976
86	0x3b8fcb8d	0.004388279
87	0x3b2e2914	0.0026574777
88	0xbc4636b6	-0.012098005
89	0xbbc1ad8c	-0.005910581
90	0x3cd91203	0.026497846
91	0x3d28499f	0.041085836
92	0xbc31d339	-0.010853582
93	0xbc8b2e4a	-0.016989846
94	0xbc9aa68f	-0.01887825
95	0x3c16ed6a	0.009211877
96	0x3c648d7c	0.013949748
97	0x3bc8861f	0.006119504
98	0x3c60b8a5	0.013715898
99	0xbb2a90b1	-0.0026026184
100	0xbd3ddd06	-0.046353363
101	0x3c83fb18	0.016110942
102	0x3a07585b	0.00051630073
103	0x3b7333d3	0.0037109747
104	0x3c866b36	0.016408544
105	0x3ce51a8d	0.027966762
106	0x3ccbbe64	0.024871059
107	0x3ca6e3dc	0.020372324
108	0xbc555603	-0.013020995
109	0x3c5b48b3	0.013384032
110	0x3d178e82	0.03700114
111	0x3cbba957	0.022907896
112	0x3c0086dd	0.007844654
113	0xbc9775a7	-0.018488718
114	0xbbce4dc0	-0.0062958896
115	0xbced301c	-0.028953604
116	0xbd0e164c	-0.034689233
117	0x3b4cac1f	0.0031230522
118	0x3d01ffe2	0.03173817
119	0xbc7aaa40	-0.01529938
120	0xbc7e7b5d	-0.015532342
121	0x3c3187d0	0.010835603
122	0xb9d7bbec	-0.00041148008
123	0xba991173	-0.0011678174
124	0xbd19d083	-0.037552368
125	0x3baca1d4	0.005268315
126	0x3ad9155d	0.0016562153
127	0xbc19618a	-0.009361634
128	0x3d2cab3d	0.042155493
129	0x3ce27483	0.027643448
130	0x3c9df0ad	0.019279802
131	0xbd1383dc	-0.036014423
132	0xbc26898f	-0.010164632
133	0xbc9c9680	-0.019114733
134	0xbc337678	-0.010953538
135	0x3d3a3e3c	0.045469508
136	0xbb57e6b3	-0.0032943904
137	0xbc7b2621	-0.015328915
138	0xbd840d8b	-0.064478956
139	0x3d011c53	0.031521153
140	0x3d0fa809	0.03507236
141	0xbd0b1356	-0.033953987
142	0xbd00c894	-0.031441286
143	0xbd1619a5	-0.03664555
144	0xbbdf8c4c	-0.0068221446
145	0xbcab02a0	-0.020875275
146	0xbcbb0cd1	-0.02283326
147	0x3d0d40f2	0.034485765
148	0x3cdc87aa	0.026920158
149	0xbcd3d307	-0.025857462
150	0xbcac42f1	-0.021028014
151	0x3d1b7fb5	0.037963588
152	0xbcea517e	-0.028603312
153	0xbce9ed80	-0.028555632
154	0x3c89e0a9	0.01683076
155	0xbd0cc053	-0.034363102
156	0x3c84ce96	0.01621179
157	0xbc84ceb8	-0.016211852
158	0xbc8a106f	-0.01685354
159	0xbcff007f	-0.031128166
160	0xbbd9c30d	-0.0066455663
161	0x3cd163ee	0.025560346
162	0xbd40117a	-0.046891667
163	0x3c939738	0.018016443
164	0x3caec465	0.021333883
165	0xbc0b3298	-0.008495949
166	0xbd1e5bdf	-0.038661834
167	0xbcc5610a	-0.024094123
168	0xbb3d3872	-0.0028872755
169	0xbc50c081	-0.012741209
170	0x3cce1134	0.025154687
171	0xbcd03249	-0.025414603
172	0x3cfd4256	0.03091542
173	0x3d01040e	0.031498007
174	0xbd41f6dc	-0.047354564
175	0xbd22482d	-0.039619613
176	0xbc6b1775	-0.014348854
177	0xbd04de80	-0.032438755
178	0xbcca4676	-0.024691802
179	0x3c57e593	0.013177293
180	0xbd4067e7	-0.04697409
181	0xbd24b272	-0.04020924
182	0xbd00abc0	-0.031413794
183	0xbc9f0806	-0.019413006
184	0xba35c4e7	-0.0006933943
185	0xbc5727c4	-0.013132039
186	0xbcbaccde	-0.022802766
187	0x3bb338a4	0.0054693986
188	0x3d03880c	0.032112166
189	0x3c7f3b09	0.01557804
190	0x3c4b3d42	0.012404742
191	0x39090020	0.00013065385
192	0x3d1b943b	0.03798316
193	0x3d8fe22c	0.07025561
194	0x3d38ef7b	0.04515026
195	0xbcc83d95	-0.024443427
196	0x3c6f3ce6	0.014601922
197	0xbceb0740	-0.02868998
198	0x3d4afc65	0.04955711
199	0xbca43906	-0.020046722
200	0x3c325d08	0.010886438
201	0x3ca513fd	0.020151133
202	0xba34db6f	-0.0006899153
203	0x3ccde32c	0.025132738
204	0xbcbc1100	-0.022957325
205	0xbd016f53	-0.031600308
206	0x3d5e1d1d	0.054226983
207	0xbd1cca16	-0.03827866
208	0xbd2e133e	-0.04249882
209	0xbcf641bd	-0.030060643
210	0xbcaca410	-0.021074325
211	0xbd1d96a1	-0.03847373
212	0xbcfb07fe	-0.03064346
213	0x3c864ae0	0.016393125
214	0xbcbfd927	-0.023418976
215	0xbcee5d16	-0.029097121
216	0xbd1d1842	-0.038353212
217	0xbc8aa568	-0.016924575
218	0xbc3462a9	-0.011009851
219	0x3a45f33f	0.00075512
220	0xbcb61a95	-0.022229472
221	0xbd52b764	-0.051444426
222	0xbbcfe916	-0.0063449247
223	0x3b9496d0	0.00453458
224	0x3c54aae2	0.012980195
225	0x3c0a5c4f	0.00844486
226	0x3caaba86	0.020840894
227	0xbcf94cb9	-0.030432092
228	0xbd16aa8d	-0.036783744
229	0xbcfe8e59	-0.031073736
230	0x3b91039b	0.0044254786
231	0x3cd31564	0.025767036
232	0xbc1ef79c	-0.009702589
233	0xbc6c92a2	-0.014439257
234	0x3d1868c7	0.0372093
235	0xbcd3a093	-0.025833404
236	0xbc360246	-0.0111089405
237	0x3d1e3464	0.038624182
238	0xbc758987	-0.014986402
239	0xbd385a8a	-0.04500822
240	0x3d449449	0.04799298
241	0x3cc1115e	0.023567852
242	0xbc042d9e	-0.008067517
243	0x3cd3f4ce	0.025873568
244	0x3c05d10a	0.008167515
245	0xbc998e48	-0.018744603
246	0xbcaf3722	-0.021388594
247	0x3cc7a3ed	0.024370158
248	0xbc16188c	-0.009161126
249	0xbbc8f169	-0.006132294
250	0x3cdb1bc2	0.026746634
251	0xbd10efa7	-0.0353848
252	0xbcf02806	-0.02931596
253	0x3b8e4735	0.0043419846
254	0xbc88ea0c	-0.016713165
255	0xbc8d416d	-0.017243112

action_model._continuous_distribution.mu.bias f4 [2]
0	0xbb7491c5	-0.003731833
1	0x3c744f8a	0.014911542

exp_avg f4 [128, 6]
0	0xb53ac3de	-6.9575424e-07
1	0x00000000	0.0
2	0x38220f9e	3.8638354e-05
3	0x00000000	0.0
4	0x381dd86d	3.763328e-05
5	0x389dd86d	7.526656e-05
6	0xb69e7746	-4.722652e-06
7	0x00000000	0.0
8	0x37bbf026	2.2403965e-05
9	0x00000000	0.0
10	0x37cf855c	2.4738423e-05
11	0x384f855c	4.9476846e-05
12	0xb63d2210	-2.8183022e-06
13	0x00000000	0.0
14	0x37b083a6	2.1042139e-05
15	0x00000000	0.0
16	0x37eee6df	2.8479319e-05
17	0x386ee6df	5.6958637e-05
18	0xb5747bea	-9.10774e-07
19	0x00000000	0.0
20	0xb7ba7deb	-2.2231563e-05
21	0x00000000	0.0
22	0xb7eb907e	-2.8081467e-05
23	0xb86b907e	-5.6162935e-05
24	0xb68ef869	-4.2608485e-06
25	0x00000000	0.0
26	0x383edfe5	4.5508048e-05
27	0x00000000	0.0
28	0x3850b896	4.9762974e-05
29	0x38d0b896	9.952595e-05
30	0x351e623c	5.9002537e-07
31	0x00000000	0.0
32	0xb94043a6	-0.00018335748
33	0x00000000	0.0
34	0xb96b79a5	-0.00022456663
35	0xb9eb79a5	-0.00044913325
36	0x37a4b22b	1.963329e-05
37	0x00000000	0.0
38	0xb787ac32	-1.6173439e-05
39	0x00000000	0.0
40	0xb7a4658e	-1.9597614e-05
41	0xb824658e	-3.9195227e-05
42	0x372e5ee7	1.0393304e-05
43	0x00000000	0.0
44	0xba073dad	-0.0005159032
45	0x00000000	0.0
46	0xba2d3701	-0.00066076225
47	0xbaad3701	-0.0013215245
48	0x3707bfe0	8.091301e-06
49	0x00000000	0.0
50	0x38194f7c	3.655207e-05
51	0x00000000	0.0
52	0x384736fa	4.7496498e-05
53	0x38c736fa	9.4992996e-05
54	0x37b83af7	2.1961967e-05
55	0x00000000	0.0
56	0xb932fea7	-0.00017070268
57	0x00000000	0.0
58	0xb9600df5	-0.00021367504
59	0xb9e00df5	-0.00042735008
60	0xb79bc585	-1.8569417e-05
61	0x00000000	0.0
62	0xb8bb21fc	-8.923185e-05
63	0x00000000	0.0
64	0xb8c607f4	-9.442857e-05
65	0xb94607f4	-0.00018885714
66	0x3732033f	1.0610383e-05
67	0x00000000	0.0
68	0x384ca281	4.8788734e-05
69	0x00000000	0.0
70	0x3894bbd7	7.092178e-05
71	0x3914bbd7	0.00014184356
72	0x35cf2aa9	1.5435118e-06
73	0x00000000	0.0
74	0xb74c5702	-1.2179606e-05
75	0x00000000	0.0
76	0xb76ecca5	-1.4233553e-05
77	0xb7eecca5	-2.8467106e-05
78	0xb86945a5	-5.561639e-05
79	0x00000000	0.0
80	0xb9a9d8a8	-0.00032395613
81	0x00000000	0.0
82	0xb9cfdcf6	-0.00039646745
83	0xba4fdcf6	-0.0007929349
84	0xb8896620	-6.551691e-05
85	0x00000000	0.0
86	0xb9af69ca	-0.0003345742
87	0x00000000	0.0
88	0xb9d364e3	-0.00040320223
89	0xba5364e3	-0.00080640445
90	0xb6f59b80	-7.3196716e-06
91	0x00000000	0.0
92	0xba0b1118	-0.00053049764
93	0x00000000	0.0
94	0xba2d2e88	-0.000660636
95	0xbaad2e88	-0.001321272
96	0x37e7d9c1	2.7638745e-05
97	0x00000000	0.0
98	0xb9982d25	-0.00029025335
99	0x00000000	0.0
100	0xb9c239fc	-0.00037045765
101	0xba4239fc	-0.0007409153
102	0x37701581	1.43101215e-05
103	0x00000000	0.0
104	0xb99ff4b5	-0.00030509164
105	0x00000000	0.0
106	0xb9c42670	-0.0003741267
107	0xba442670	-0.0007482534
108	0x376da9bc	1.416582e-05
109	0x00000000	0.0
110	0x381ee70b	3.788531e-05
111	0x00000000	0.0
112	0x382a13e3	4.054968e-05
113	0x38aa13e3	8.109936e-05
114	0x37d6b8b2	2.5596793e-05
115	0x00000000	0.0
116	0xb860b85f	-5.357747e-05
117	0x00000000	0.0
118	0xb88a1b2b	-6.585413e-05
119	0xb90a1b2b	-0.00013170826
120	0x3300e396	3.000931e-08
121	0x00000000	0.0
122	0xb5de9398	-1.6583244e-06
123	0x00000000	0.0
124	0xb64fe821	-3.098052e-06
125	0xb6cfe821	-6.196104e-06
126	0xb7ac62e8	-2.0550055e-05
127	0x00000000	0.0
128	0x36417bbc	2.8831264e-06
129	0x00000000	0.0
130	0x37e1a5c5	2.6899283e-05
131	0x3861a5c5	5.3798565e-05
132	0x37538d9c	1.2609551e-05
133	0x00000000	0.0
134	0xb95fd599	-0.00021346509
135	0x00000000	0.0
136	0xb9865c0e	-0.00025627058
137	0xba065c0e	-0.00051254116
138	0xb5de1d46	-1.6548809e-06
139	0x00000000	0.0
140	0xb7172e57	-9.011091e-06
141	0x00000000	0.0
142	0xb7587e34	-1.2903987e-05
143	0xb7d87e34	-2.5807974e-05
144	0x36b9e122	5.5396386e-06
145	0x00000000	0.0
146	0x3813fc2a	3.5282377e-05
147	0x00000000	0.0
148	0x380ebf88	3.4033816e-05
149	0x388ebf88	6.806763e-05
150	0xb684b893	-3.955394e-06
151	0x00000000	0.0
152	0x38203880	3.8199592e-05
153	0x00000000	0.0
154	0x3839d791	4.43082e-05
155	0x38b9d791	8.86164e-05
156	0x373d9db4	1.1301996e-05
157	0x00000000	0.0
158	0x37f2215a	2.8864179e-05
159	0x00000000	0.0
160	0x381ff593	3.8137263e-05
161	0x389ff593	7.6274526e-05
162	0x381ad61c	3.6915866e-05
163	0x00000000	0.0
164	0x3781629c	1.5423917e-05
165	0x00000000	0.0
166	0x377c2a78	1.50302585e-05
167	0x37fc2a78	3.0060517e-05
168	0xb649bc24	-3.0060846e-06
169	0x00000000	0.0
170	0x37fdcf9d	3.0256628e-05
171	0x00000000	0.0
172	0x385d4b2f	5.2760526e-05
173	0x38dd4b2f	0.00010552105
174	0xb872d172	-5.7892357e-05
175	0x00000000	0.0
176	0xb8c59b78	-9.42265e-05
177	0x00000000	0.0
178	0xb8d91899	-0.00010351948
179	0xb9591899	-0.00020703896
180	0xb80aa121	-3.3051827e-05
181	0x00000000	0.0
182	0xb965ef7a	-0.00021928354
183	0x00000000	0.0
184	0xb97efe3a	-0.00024318034
185	0xb9fefe3a	-0.0004863607
186	0xb5e262a2	-1.6867018e-06
187	0x00000000	0.0
188	0xb8bf7206	-9.128828e-05
189	0x00000000	0.0
190	0xb8de98c2	-0.00010614238
191	0xb95e98c2	-0.00021228477
192	0x3675f1b4	3.6648535e-06
193	0x00000000	0.0
194	0x3618b650	2.2755885e-06
195	0x00000000	0.0
196	0x370ef49e	8.520814e-06
197	0x378ef49e	1.7041628e-05
198	0x373cfc61	1.1264435e-05
199	0x00000000	0.0
200	0x389c9a44	7.467394e-05
201	0x00000000	0.0
202	0x38bd2793	9.0195936e-05
203	0x393d2793	0.00018039187
204	0xb891e4c1	-6.9567475e-05
205	0x00000000	0.0
206	0xb92f2e89	-0.00016706636
207	0x00000000	0.0
208	0xb9442818	-0.00018706953
209	0xb9c42818	-0.00037413905
210	0xb737c8e5	-1.0954424e-05
211	0x00000000	0.0
212	0xb8dc1c3d	-0.00010495677
213	0x00000000	0.0
214	0xb8f994b6	-0.00011900945
215	0xb97994b6	-0.0002380189
216	0xb7aea242	-2.0817974e-05
217	0x00000000	0.0
218	0xb97d4523	-0.00024153716
219	0x00000000	0.0
220	0xb9983d5c	-0.00029037416
221	0xba183d5c	-0.0005807483
222	0xb4581b73	-2.0126554e-07
223	0x00000000	0.0
224	0xb7076b3c	-8.0715945e-06
225	0x00000000	0.0
226	0xb78059ae	-1.530055e-05
227	0xb80059ae	-3.06011e-05
228	0x37402fd1	1.1455225e-05
229	0x00000000	0.0
230	0x38743ddc	5.8231744e-05
231	0x00000000	0.0
232	0x38ac80e2	8.2256054e-05
233	0x392c80e2	0.00016451211
234	0x37abafa1	2.0466572e-05
235	0x00000000	0.0
236	0xb98ac7b8	-0.00026470213
237	0x00000000	0.0
238	0xb9b0ce0c	-0.00033722853
239	0xba30ce0c	-0.00067445706
240	0xb6d25273	-6.268086e-06
241	0x00000000	0.0
242	0xb864464c	-5.4424905e-05
243	0x00000000	0.0
244	0xb871c267	-5.763993e-05
245	0xb8f1c267	-0.00011527986
246	0xb701ddc7	-7.740636e-06
247	0x00000000	0.0
248	0xb98644ea	-0.00025609817
249	0x00000000	0.0
250	0xb99983a3	-0.0002928051
251	0xba1983a3	-0.0005856102
252	0xb5e2ab17	-1.6888106e-06
253	0x00000000	0.0
254	0x384a09b1	4.816958e-05
255	0x00000000	0.0

exp_avg_sq f4 [128, 6]
0	0x2f309d3a	1.6062965e-10
1	0x00000000	0.0
2	0x30d95b5d	1.5814795e-09
3	0x00000000	0.0
4	0x31980a24	4.424935e-09
5	0x32980a24	1.769974e-08
6	0x31a7c6ae	4.882927e-09
7	0x00000000	0.0
8	0x31fcf7d9	7.3623423e-09
9	0x00000000	0.0
10	0x31b2eb84	5.207257e-09
11	0x32b2eb84	2.0829027e-08
12	0x3141dcb4	2.8210652e-09
13	0x00000000	0.0
14	0x32dc1cf7	2.5624542e-08
15	0x00000000	0.0
16	0x316cd7a5	3.44651e-09
17	0x326cd7a5	1.378604e-08
18	0x2e552510	4.846351e-11
19	0x00000000	0.0
20	0x31021e75	1.8934803e-09
21	0x00000000	0.0
22	0x30d7d07e	1.5702566e-09
23	0x31d7d07e	6.2810264e-09
24	0x2f89fa3b	2.5097954e-10
25	0x00000000	0.0
26	0x31098be2	2.0015638e-09
27	0x00000000	0.0
28	0x3296913a	1.752834e-08
29	0x3396913a	7.011336e-08
30	0x3176804d	3.5870642e-09
31	0x00000000	0.0
32	0x343f1d2c	1.7798874e-07
33	0x00000000	0.0
34	0x340cdbd2	1.3118486e-07
35	0x350cdbd2	5.2473945e-07
36	0x30a392e9	1.1901565e-09
37	0x00000000	0.0
38	0x33025fef	3.0355235e-08
39	0x00000000	0.0
40	0x31a7d6d7	4.884764e-09
41	0x32a7d6d7	1.9539057e-08
42	0x330d3510	3.287738e-08
43	0x00000000	0.0
44	0x35a84640	1.2537421e-06
45	0x00000000	0.0
46	0x35888623	1.0171829e-06
47	0x36888623	4.0687314e-06
48	0x311103ff	2.1102549e-09
49	0x00000000	0.0
50	0x32a6d3b3	1.9421213e-08
51	0x00000000	0.0
52	0x31c4850f	5.719478e-09
53	0x32c4850f	2.2877911e-08
54	0x313ae931	2.7199116e-09
55	0x00000000	0.0
56	0x33ac9b20	8.037591e-08
57	0x00000000	0.0
58	0x33b0b897	8.229215e-08
59	0x34b0b897	3.291686e-07
60	0x30c390a9	1.4229232e-09
61	0x00000000	0.0
62	0x32dc5377	2.5649326e-08
63	0x00000000	0.0
64	0x32bdf761	2.211499e-08
65	0x33bdf761	8.845996e-08
66	0x318cb303	4.0948875e-09
67	0x00000000	0.0
68	0x3349ae60	4.6957553e-08
69	0x00000000	0.0
70	0x326705b9	1.3447271e-08
71	0x336705b9	5.3789083e-08
72	0x2e683e27	5.2805895e-11
73	0x00000000	0.0
74	0x304ecada	7.5230633e-10
75	0x00000000	0.0
76	0x2fd05df7	3.7901746e-10
77	0x30d05df7	1.5160698e-09
78	0x3286c904	1.5691064e-08
79	0x00000000	0.0
80	0x350c543e	5.227665e-07
81	0x00000000	0.0
82	0x34f66d99	4.5900813e-07
83	0x35f66d99	1.8360325e-06
84	0x32e53186	2.668163e-08
85	0x00000000	0.0
86	0x35298374	6.3148696e-07
87	0x00000000	0.0
88	0x3514db90	5.54538e-07
89	0x3614db90	2.218152e-06
90	0x32f335fb	2.831347e-08
91	0x00000000	0.0
92	0x358aff87	1.035617e-06
93	0x00000000	0.0
94	0x3587f423	1.0129337e-06
95	0x3687f423	4.051735e-06
96	0x3226a1be	9.699248e-09
97	0x00000000	0.0
98	0x34fc44ab	4.698862e-07
99	0x00000000	0.0
100	0x34a4570b	3.0610713e-07
101	0x35a4570b	1.2244285e-06
102	0x32118c8a	8.472066e-09
103	0x00000000	0.0
104	0x34c066fd	3.583772e-07
105	0x00000000	0.0
106	0x34a821e5	3.13171e-07
107	0x35a821e5	1.252684e-06
108	0x2ff1ab09	4.3959172e-10
109	0x00000000	0.0
110	0x31a4dbe3	4.7980264e-09
111	0x00000000	0.0
112	0x32ab1f78	1.992133e-08
113	0x33ab1f78	7.968532e-08
114	0x316179bc	3.2811007e-09
115	0x00000000	0.0
116	0x33fe80ef	1.18512496e-07
117	0x00000000	0.0
118	0x32b6beed	2.1274412e-08
119	0x33b6beed	8.5097646e-08
120	0x312746f1	2.4342024e-09
121	0x00000000	0.0
122	0x30aa33f7	1.2383897e-09
123	0x00000000	0.0
124	0x2f736c1e	2.2139132e-10
125	0x30736c1e	8.855653e-10
126	0x30985c2f	1.1085656e-09
127	0x00000000	0.0
128	0x31ee7e47	6.9410677e-09
129	0x00000000	0.0
130	0x329a8712	1.7989382e-08
131	0x339a8712	7.195753e-08
132	0x3307cdca	3.16193e-08
133	0x00000000	0.0
134	0x341d597b	1.4654317e-07
135	0x00000000	0.0
136	0x3413e5c4	1.377403e-07
137	0x3513e5c4	5.509612e-07
138	0x2edcf004	1.0047077e-10
139	0x00000000	0.0
140	0x310613b3	1.9510764e-09
141	0x00000000	0.0
142	0x3000d7e1	4.687291e-10
143	0x3100d7e1	1.8749164e-09
144	0x2f58106a	1.9650917e-10
145	0x00000000	0.0
146	0x30b2436c	1.2970367e-09
147	0x00000000	0.0
148	0x31be3860	5.536137e-09
149	0x32be3860	2.2144548e-08
150	0x2f2915f8	1.5378265e-10
151	0x00000000	0.0
152	0x3178d0b0	3.6207375e-09
153	0x00000000	0.0
154	0x31d9fafd	6.3440653e-09
155	0x32d9fafd	2.5376261e-08
156	0x3057087c	7.82286e-10
157	0x00000000	0.0
158	0x32307892	1.0271963e-08
159	0x00000000	0.0
160	0x32b7404f	2.1333248e-08
161	0x33b7404f	8.533299e-08
162	0x30e36dfa	1.6547681e-09
163	0x00000000	0.0
164	0x332194af	3.762096e-08
165	0x00000000	0.0
166	0x32a6a9df	1.9402192e-08
167	0x33a6a9df	7.760877e-08
168	0x31855ed3	3.8815897e-09
169	0x00000000	0.0
170	0x33b21d0e	8.294056e-08
171	0x00000000	0.0
172	0x32af1121	2.038047e-08
173	0x33af1121	8.152188e-08
174	0x3259a4ee	1.2668563e-08
175	0x00000000	0.0
176	0x34291c97	1.5749752e-07
177	0x00000000	0.0
178	0x33a80072	7.8231906e-08
179	0x34a80072	3.1292763e-07
180	0x3114fce5	2.1680588e-09
181	0x00000000	0.0
182	0x33a118b4	7.50164e-08
183	0x00000000	0.0
184	0x34122a29	1.3612647e-07
185	0x35122a29	5.445059e-07
186	0x311d3d0d	2.288121e-09
187	0x00000000	0.0
188	0x32da8957	2.5440995e-08
189	0x00000000	0.0
190	0x3306f93b	3.142598e-08
191	0x3406f93b	1.2570392e-07
192	0x303e99ff	6.934044e-10
193	0x00000000	0.0
194	0x3270f158	1.4024714e-08
195	0x00000000	0.0
196	0x30a50ee9	1.2009568e-09
197	0x31a50ee9	4.803827e-09
198	0x31f453f2	7.110878e-09
199	0x00000000	0.0
200	0x33986ea8	7.09818e-08
201	0x00000000	0.0
202	0x335844bc	5.0353933e-08
203	0x345844bc	2.0141573e-07
204	0x32c9c2ac	2.3488006e-08
205	0x00000000	0.0
206	0x34679256	2.1566788e-07
207	0x00000000	0.0
208	0x345c6a56	2.0527781e-07
209	0x355c6a56	8.2111126e-07
210	0x30bfd19c	1.3956654e-09
211	0x00000000	0.0
212	0x332c1a0b	4.0070557e-08
213	0x00000000	0.0
214	0x3341d08f	4.5125997e-08
215	0x3441d08f	1.8050399e-07
216	0x31c444de	5.71218e-09
217	0x00000000	0.0
218	0x3454805e	1.9790738e-07
219	0x00000000	0.0
220	0x345e7330	2.0717266e-07
221	0x355e7330	8.2869064e-07
222	0x2f744c63	2.2218809e-10
223	0x00000000	0.0
224	0x30c4faa8	1.4332118e-09
225	0x00000000	0.0
226	0x3096fa5c	1.0985093e-09
227	0x3196fa5c	4.394037e-09
228	0x30813b0c	9.402767e-10
229	0x00000000	0.0
230	0x331d7b4a	3.6666542e-08
231	0x00000000	0.0
232	0x32a24328	1.8889821e-08
233	0x33a24328	7.5559285e-08
234	0x3233f988	1.0475908e-08
235	0x00000000	0.0
236	0x34fc8b53	4.704003e-07
237	0x00000000	0.0
238	0x3499605d	2.8568584e-07
239	0x3599605d	1.1427434e-06
240	0x315586e0	3.1072247e-09
241	0x00000000	0.0
242	0x32d26ea1	2.4497526e-08
243	0x00000000	0.0
244	0x3265653f	1.3352575e-08
245	0x3365653f	5.34103e-08
246	0x31ae8354	5.078997e-09
247	0x00000000	0.0
248	0x3406c1f7	1.2550286e-07
249	0x00000000	0.0
250	0x3453fb68	1.9742367e-07
251	0x3553fb68	7.896947e-07
252	0x2f0e6e50	1.2954016e-10
253	0x00000000	0.0
254	0x31376010	2.668461e-09
255	0x00000000	0.0

exp_avg f4 [128]
0	0x381dd86c	3.7633275e-05
1	0x37cf855c	2.4738423e-05
2	0x37eee6df	2.8479319e-05
3	0xb7eb907e	-2.8081467e-05
4	0x3850b893	4.9762963e-05
5	0xb96b799f	-0.00022456654
6	0xb7a46591	-1.9597619e-05
7	0xba2d3703	-0.00066076237
8	0x384736fa	4.7496498e-05
9	0xb9600df5	-0.00021367504
10	0xb8c607f2	-9.442856e-05
11	0x3894bbd8	7.0921786e-05
12	0xb76ecca7	-1.4233555e-05
13	0xb9cfdcf6	-0.00039646745
14	0xb9d364e1	-0.00040320217
15	0xba2d2e8b	-0.0006606362
16	0xb9c23a00	-0.00037045777
17	0xb9c42671	-0.00037412674
18	0x382a13d9	4.0549643e-05
19	0xb88a1b28	-6.585411e-05
20	0xb64fe820	-3.0980518e-06
21	0x37e1a5ca	2.6899292e-05
22	0xb9865c0c	-0.00025627052
23	0xb7587e30	-1.2903984e-05
24	0x380ebf8b	3.4033827e-05
25	0x3839d78f	4.430819e-05
26	0x381ff595	3.813727e-05
27	0x377c2a90	1.503028e-05
28	0x385d4b2d	5.276052e-05
29	0xb8d91895	-0.00010351945
30	0xb97efe39	-0.00024318033
31	0xb8de98c4	-0.0001061424
32	0x370ef4a0	8.520816e-06
33	0x38bd2793	9.0195936e-05
34	0xb9442818	-0.00018706953
35	0xb8f994b4	-0.00011900943
36	0xb9983d59	-0.00029037407
37	0xb78059ac	-1.5300546e-05
38	0x38ac80dc	8.225601e-05
39	0xb9b0ce0c	-0.00033722853
40	0xb871c266	-5.7639925e-05
41	0xb99983a3	-0.0002928051
42	0x3855d849	5.098459e-05
43	0xb97ad81b	-0.00023922363
44	0xb79a3753	-1.8383993e-05
45	0xb84053b9	-4.585434e-05
46	0xb96cb454	-0.00022573891
47	0x38c6deb8	9.48286e-05
48	0x3988c8ad	0.00026089457
49	0x382c8c03	4.113839e-05
50	0xb9824517	-0.00024847008
51	0x3797461e	1.8033254e-05
52	0xb9c6b8b0	-0.00037903106
53	0x38261126	3.9593455e-05
54	0x38a1443c	7.689788e-05
55	0x388ad59f	6.620143e-05
56	0xb9521ad2	-0.00020037152
57	0xb9846b9a	-0.0002525717
58	0x396aebae	0.00022403777
59	0xb8f91c6c	-0.00011878539
60	0x35bb8624	1.3971626e-06
61	0x38972da8	7.208745e-05
62	0x376341ec	1.3545603e-05
63	0xb67ea5c2	-3.7945433e-06
64	0x385408fa	5.05531e-05
65	0x3973af9c	0.00023239705
66	0xb8045df8	-3.1558768e-05
67	0x3697d8d0	4.525391e-06
68	0x38676394	5.516743e-05
69	0xb95dbb0e	-0.00021145886
70	0xb93a00e0	-0.00017738668
71	0x372002d1	9.537399e-06
72	0xb7a0d41e	-1.9172261e-05
73	0xb9496664	-0.00019206997
74	0xb86364ad	-5.421478e-05
75	0xb7389f95	-1.100441e-05
76	0x389a3d33	7.3546915e-05
77	0xb99c6cdb	-0.00029835742
78	0xb827f26a	-4.004167e-05
79	0x36f0031e	7.1529203e-06
80	0x36442bb6	2.923172e-06
81	0xb933ea16	-0.00017157974
82	0xb7a0a808	-1.9151732e-05
83	0xb9837d6e	-0.0002507972
84	0xb95c72a6	-0.00021023545
85	0x380a5fcb	3.2990978e-05
86	0x3828d34d	4.025111e-05
87	0xb67bca9e	-3.7519853e-06
88	0x3806c8f6	3.213525e-05
89	0x38195048	3.655281e-05
90	0x39546bf6	0.00020258114
91	0xb8eebf04	-0.00011384304
92	0xb7ee73ec	-2.8425791e-05
93	0xb9ba2f85	-0.0003551209
94	0xb8d71d79	-0.000102574886
95	0xb6b16310	-5.2865435e-06
96	0x38780106	5.912876e-05
97	0x385c4df6	5.2524694e-05
98	0x381accb8	3.690712e-05
99	0x388531aa	6.351185e-05
100	0xb78d8a0f	-1.6872798e-05
101	0xb97c847c	-0.00024081947
102	0x372ea8da	1.0410522e-05
103	0xb9be9a38	-0.00036354526
104	0x3870ecb8	5.744092e-05
105	0xb97faa74	-0.00024382194
106	0xb9594092	-0.00020718787
107	0x392b58bd	0.00016340888
108	0x392c7ccc	0.00016449689
109	0xb91c6505	-0.00014914952
110	0xb98e5cdf	-0.00027153545
111	0x35ebbef3	1.7564438e-06
112	0xb7d554fe	-2.5431156e-05
113	0xb9de73e7	-0.00042429494
114	0xb7847a11	-1.5792468e-05
115	0x378f6a4f	1.7096432e-05
116	0xb84eafd0	-4.9277965e-05
117	0x3512629d	5.453274e-07
118	0x39389dc4	0.0001760638
119	0x361b71bb	2.3163e-06
120	0x38ae682d	8.316371e-05
121	0xb9bfb05b	-0.00036561754
122	0x38815830	6.1676255e-05
123	0x37c9125c	2.3969616e-05
124	0xb80bddac	-3.334663e-05
125	0xb85359b9	-5.038988e-05
126	0x373ae7d8	1.1140444e-05
127	0x38a06385	7.6479315e-05

exp_avg_sq f4 [128]
0	0x31980a22	4.424934e-09
1	0x31b2eb84	5.207257e-09
2	0x316cd7a5	3.44651e-09
3	0x30d7d07d	1.5702565e-09
4	0x3296913b	1.7528341e-08
5	0x340cdbd1	1.3118485e-07
6	0x31a7d6d7	4.884764e-09
7	0x35888623	1.0171829e-06
8	0x31c4850e	5.7194773e-09
9	0x33b0b895	8.229214e-08
10	0x32bdf761	2.211499e-08
11	0x326705bc	1.34472735e-08
12	0x2fd05df9	3.790175e-10
13	0x34f66d9b	4.590082e-07
14	0x3514db92	5.5453813e-07
15	0x3587f424	1.0129338e-06
16	0x34a4570b	3.0610713e-07
17	0x34a821e4	3.1317097e-07
18	0x32ab1f7a	1.9921334e-08
19	0x32b6beed	2.1274412e-08
20	0x2f736c21	2.2139136e-10
21	0x329a8713	1.7989384e-08
22	0x3413e5c4	1.377403e-07
23	0x3000d7e1	4.687291e-10
24	0x31be3861	5.5361373e-09
25	0x31d9faff	6.344066e-09
26	0x32b74051	2.1333252e-08
27	0x32a6a9df	1.9402192e-08
28	0x32af1122	2.0380472e-08
29	0x33a80074	7.823192e-08
30	0x34122a29	1.3612647e-07
31	0x3306f93b	3.142598e-08
32	0x30a50ee8	1.2009567e-09
33	0x335844bc	5.0353933e-08
34	0x345c6a56	2.0527781e-07
35	0x3341d090	4.5126e-08
36	0x345e7331	2.0717268e-07
37	0x3096fa5b	1.0985092e-09
38	0x32a2432b	1.8889827e-08
39	0x3499605e	2.8568587e-07
40	0x3265653b	1.33525715e-08
41	0x3453fb67	1.9742366e-07
42	0x3214a9aa	8.653311e-09
43	0x33c99718	9.387276e-08
44	0x32400edf	1.1179252e-08
45	0x33024aff	3.0336192e-08
46	0x33d76e99	1.0031835e-07
47	0x33907fd5	6.728775e-08
48	0x34867c09	2.5049692e-07
49	0x31b8be70	5.376755e-09
50	0x3456c5e3	2.0002294e-07
51	0x32488361	1.1671404e-08
52	0x34aa7a2e	3.1753865e-07
53	0x325f5752	1.3000163e-08
54	0x334eb89c	4.8131014e-08
55	0x32322c65	1.0371058e-08
56	0x33e0c903	1.0467377e-07
57	0x34255357	1.5397141e-07
58	0x341ebc5b	1.478342e-07
59	0x3323a2d8	3.80995e-08
60	0x31a70a67	4.8615223e-09
61	0x325d631a	1.2886426e-08
62	0x31764587	3.5837233e-09
63	0x31263b4d	2.4189888e-09
64	0x32117984	8.46774e-09
65	0x3400aa9a	1.1982993e-07
66	0x326b524f	1.3697515e-08
67	0x300e0605	5.1667853e-10
68	0x32089080	7.949097e-09
69	0x346022b4	2.087425e-07
70	0x3396cb4e	7.0219e-08
71	0x3029c795	6.1765465e-10
72	0x318b28d9	4.0500763e-09
73	0x33a23a37	7.554302e-08
74	0x328e06b3	1.6534022e-08
75	0x2fd5a27f	3.8859935e-10
76	0x33060bd5	3.1210067e-08
77	0x347036b1	2.2371638e-07
78	0x31d4f4bf	6.1978365e-09
79	0x2f033ac2	1.1935256e-10
80	0x2fb6782b	3.3190992e-10
81	0x33a51d5b	7.688751e-08
82	0x30124f30	5.3227023e-10
83	0x34195db5	1.4283326e-07
84	0x341f1898	1.4816976e-07
85	0x31e0a5fb	6.538128e-09
86	0x31f83e89	7.2248594e-09
87	0x30123e14	5.320271e-10
88	0x339b5aec	7.2342885e-08
89	0x3194cde8	4.3307757e-09
90	0x3439af9f	1.7293358e-07
91	0x339d34aa	7.320462e-08
92	0x3243c7bf	1.1395911e-08
93	0x34a049a3	2.98559e-07
94	0x32ac5da2	2.0066015e-08
95	0x2f8004ba	2.3286423e-10
96	0x328d4219	1.6444618e-08
97	0x31dd1b1b	6.435028e-09
98	0x325ef684	1.2978152e-08
99	0x325d56b1	1.2883604e-08
100	0x30aea7b9	1.2707836e-09
101	0x341cb408	1.4594127e-07
102	0x32085535	7.935616e-09
103	0x349a1c0c	2.8705142e-07
104	0x323ed265	1.1107294e-08
105	0x341e59d8	1.4747582e-07
106	0x342a567b	1.5863945e-07
107	0x3396f823	7.030055e-08
108	0x338cd85b	6.558613e-08
109	0x33345fa9	4.199652e-08
110	0x341beabd	1.4520897e-07
111	0x314ff2d4	3.0260496e-09
112	0x30c0f98c	1.4040764e-09
113	0x34ceff9b	3.8556468e-07
114	0x302fcd63	6.39565e-10
115	0x3166501f	3.3514949e-09
116	0x33a91943	7.874271e-08
117	0x2dfaa9df	2.8497147e-11
118	0x33fc457d	1.1747304e-07
119	0x314c738e	2.9751592e-09
120	0x3281ba42	1.5102277e-08
121	0x34d653e7	3.9921653e-07
122	0x320af0cb	8.087407e-09
123	0x313a8717	2.7143352e-09
124	0x3171a456	3.516353e-09
125	0x3296db1d	1.756194e-08
126	0x302ad263	6.214462e-10
127	0x32d1e33f	2.4434142e-08
