results/ppo/MoveToGoal/MoveToGoal-1208.onnx (onnx, 74608 bytes, 6 tensors)

network_body._body_endoder.seq_layers.0.weight f4 [128, 6]
000000 f7 4d 1c be 57 d7 3c 3e e4 c3 12 bd 62 56 e0 be
       -0.15264116 0.1844152 -0.035831347 -0.43815905
000010 b9 b0 9c 3e 8d 74 00 3f 9b e4 8a 3e 6c ee 90 bd
       0.3060358 0.5017784 0.27127537 -0.07076725
000020 8f dd 98 3e 01 10 be be 7c e8 40 be 12 63 d9 3e
       0.29856536 -0.37121585 -0.18838686 0.42458397
000030 16 20 b5 be 99 3d 0e 3f bf 78 b9 3e a6 cb 85 be
       -0.35376042 0.5556274 0.36224934 -0.26131934
000040 b8 f5 d2 bd f2 a5 e7 be b5 12 4e 3f d6 87 e3 3d
       -0.103007734 -0.45243794 0.80497295 0.11109893
000050 7f c2 c1 3e d5 c0 94 3f a3 42 a4 bc 56 03 dd bd
       0.378437 1.1621348 -0.020051306 -0.10791652
000060 5d e1 bf 3e 2b d3 7a be 23 32 0d 3f d3 fc 9d 3e
       0.37476626 -0.24494617 0.5515463 0.30856952
000070 63 c7 71 3d a6 d2 1f 3e 88 fa e8 3e 0d 21 98 be
       0.05902804 0.156077 0.4550364 -0.29712716
000080 6e d2 aa 3e 27 cb f5 3e fe f7 2b 3c 07 e7 c0 3e
       0.3336367 0.48006555 0.010496138 0.3767626
000090 96 7b d3 3d 19 71 5f be e1 76 18 bf dd d8 1c 3f
       0.103263065 -0.21820487 -0.59556395 0.6126841
0000a0 51 dd 97 3e c8 a1 03 3f 53 88 b0 be 10 1e a8 be
       0.2966104 0.51418734 -0.34479007 -0.32835436
0000b0 f9 0d b5 be 8e 7b b7 be c2 55 7b 3d 53 8d 91 3e
       -0.35362223 -0.35836452 0.061361082 0.28428134
0000c0 b7 96 6f 3e ff ca dd be 3e e9 c3 3d 11 68 9d be
       0.23397337 -0.43318936 0.09565972 -0.3074346
0000d0 ad c1 09 3f 69 df 73 be ab d8 ff 3e fa 33 ad be
       0.5381115 -0.23815693 0.49969992 -0.33828717
0000e0 20 b4 d3 bc 8f f5 07 bf 38 50 0c bf fe 35 89 3c
       -0.025842726 -0.5310907 -0.54809904 0.016749378
0000f0 47 3b fe 3e d0 28 b4 be 8f 1a f9 be 91 88 b6 3e
       0.496546 -0.35187387 -0.48653075 0.35651067
000100 43 32 93 be 4d bc 07 bf 33 0b 96 3e 78 ba 01 3d
       -0.28749284 -0.530217 0.2930542 0.03167197
000110 ec 9b c9 3d ed 27 58 be d5 eb 9b 3e f2 16 b9 3d
       0.09844193 -0.2110898 0.30453363 0.090375796
000120 58 0a 0f be 13 3d 40 be ae b1 3d 3e 83 55 21 3f
       -0.1396879 -0.18773298 0.1852481 0.63021106
000130 5b fc 3f bf af d2 a3 be f3 94 1d 3f b7 95 0b 3d
       -0.7499444 -0.31996676 0.61555403 0.034078326
000140 ae b5 f3 bd d1 70 44 3f d5 a6 cb 3e 1c b6 7c 3e
       -0.11899887 0.76734644 0.3977572 0.24678844
000150 8c de 97 bf 65 23 69 3d ed 4b 42 be 96 4c 3c 3f
       -1.1864791 0.05691852 -0.18974276 0.7355436
000160 93 78 41 bd 20 23 9a be 44 9b f9 be 4f a5 c4 be
       -0.04723413 -0.30104923 -0.4875127 -0.3840737
000170 93 18 77 3d 2e 76 1a 3f 31 6f bc be 74 39 8c bf
       0.06032617 0.6033658 -0.36803582 -1.0955033
000180 37 bd 2c 3f 0e 00 10 bf 88 7e 24 be e0 9b a3 3d
       0.6747622 -0.56250083 -0.16063893 0.07988715
000190 57 cf 12 3f c3 39 eb be 46 6c 9b 3e 87 88 54 3e
       0.57347625 -0.45942506 0.30356044 0.20755206
0001a0 6c b3 55 bf cc 6b 8e 3e 50 0d c4 be d0 99 25 bf
       -0.834769 0.27816617 -0.38291407 -0.64687824
0001b0 81 b6 e7 be 5e 2b 15 3f 55 7e 85 3e 5a 8b 34 bf
       -0.45256427 0.582693 0.26072946 -0.70525134
0001c0 4b bd 40 bd 1e d6 4c be 50 93 ae 3e cb d2 0f 3f
       -0.047055524 -0.20003554 0.34096766 0.5618102
0001d0 04 d0 0e 3d c1 9b 00 3f 82 3e 53 3d ad 5b b2 bd
       0.034866348 0.5023766 0.051573284 -0.08708892
0001e0 66 17 43 3d c3 43 22 3f 2b 2d 1d 3e aa c6 13 be
       0.047629736 0.63384646 0.15349261 -0.14431253
0001f0 e1 01 59 3f 89 82 4a bd ef 82 af 3e 96 16 01 bf
       0.8476849 -0.049440894 0.34279582 -0.5042509
000200 d5 8d 47 3f 22 d1 8b bd ea 06 81 be ed 90 21 3e
       0.77950794 -0.06826998 -0.25200588 0.15777941
000210 81 a7 81 be e5 11 40 3e c0 d0 ff be a9 7e 84 be
       -0.25323108 0.18756826 -0.4996395 -0.25877884
000220 8c 3a a4 bd aa 09 b0 be 9b a5 96 be b4 03 1c be
       -0.080189794 -0.34382373 -0.29423222 -0.15235788
000230 e1 39 17 3e 3e bb 18 be 8d 6b de be 14 ba d9 3e
       0.14768173 -0.14915177 -0.4344143 0.4252478
000240 53 cf 28 3e f0 de f5 be 1b 17 e3 3e d0 f6 81 3e
       0.16485338 -0.4802165 0.44353566 0.25383615
000250 49 fe 87 3f 59 8b fb 3e 6c da fe 3e a2 37 87 be
       1.0624477 0.4912975 0.49776018 -0.26409632
000260 f2 eb 73 3e b4 21 2c 3f 31 e2 a6 3e cc a8 d9 3e
       0.23820475 0.67238927 0.32594445 0.42511594
000270 ed 6d 8d 3e 14 5e df be b8 7f df be 7d 5a 10 bf
       0.2762293 -0.43626463 -0.4365213 -0.56388074
000280 62 c1 d2 3e fe b6 56 bc 26 94 83 bd 84 d0 56 3e
       0.41163164 -0.013105152 -0.064247414 0.2097798
000290 35 d4 58 3c 7b 33 d1 be 0a 3e bb 3e f1 62 23 3f
       0.013234188 -0.4085959 0.3657077 0.6382285
0002a0 a8 b5 a5 be 99 94 4e be eb cf 0a 3e 09 96 0c 3e
       -0.32365155 -0.20173873 0.13555877 0.13729109
0002b0 78 b4 0a bf 92 e9 ab 3e 61 f9 8d 3f 4a 39 ab be
       -0.54181623 0.33576638 1.1091729 -0.33442146
0002c0 57 77 95 be 5f b0 05 3f 63 6e 84 be e9 72 8f be
       -0.29192612 0.52222246 -0.25865468 -0.28017357
0002d0 aa 75 15 3f 60 33 37 3e 3f 7f ca 3e 2e 8d 9c 3e
       0.58382666 0.17890692 0.39550206 0.30576462
0002e0 14 5b d0 3e 9e fb 25 bf ff 67 e4 be 01 ea cf 3a
       0.40694487 -0.6483706 -0.44610593 0.0015862585
0002f0 a0 51 08 3f a9 ef 02 bf bf 94 f9 3e ab fd 0d be
       0.5324955 -0.5114694 0.48746297 -0.13866298
000300 62 a0 7d bd 56 5f 49 3b ee 4a c1 3e 97 fa 13 bf
       -0.06192053 0.003072699 0.3775248 -0.57804245
000310 56 56 93 be dc bd a2 3e 0a 24 8b 3d 73 7e 83 3d
       -0.28776807 0.31785476 0.06793983 0.06420603
000320 24 3e 10 3f f7 76 34 bf 10 eb 91 be 2f 77 ef 3c
       0.5634482 -0.70494026 -0.2849965 0.029231636
000330 57 1f 2a be b9 d8 30 3d 2b 13 31 bd 0a fa f7 3e
       -0.16613518 0.043175433 -0.04323117 0.48432952
000340 50 0f 60 bf 26 25 91 3e 39 65 aa 3e f4 af f3 be
       -0.87523365 0.28348655 0.33280352 -0.4759518
000350 25 5b 05 3f 90 1d b8 3e 82 83 20 3e f0 3c 58 3c
       0.520922 0.35960054 0.15675166 0.013198122
000360 46 c9 9d 3e 9a 5c ed be fa 4f 19 bf 01 cd 99 be
       0.30817622 -0.46359712 -0.5988766 -0.30039218
000370 75 e8 7a 3c fd 56 43 be 01 11 14 3f 7c f6 fe 3d
       0.015314211 -0.19076152 0.57838446 0.12449357
000380 3f e4 84 bd 56 20 6d 3e c9 1f 04 bd b1 19 be be
       -0.06488847 0.23156866 -0.032256875 -0.37128976
000390 e7 23 c7 3e bc 96 f6 3e 86 e0 f7 3e 62 2c 23 bf
       0.3889458 0.48161876 0.48413485 -0.637396
0003a0 a9 0e db 3c f4 cb 6b bf b4 39 22 bd 0c db e3 bd
       0.026740389 -0.9210808 -0.03960581 -0.11125764
0003b0 68 93 bd 3e 7b 16 cb bd c3 99 64 bd 6e 89 1d 3f
       0.37026525 -0.09916397 -0.0558107 0.61537826
0003c0 b0 25 22 bf ce 98 60 be 0f f1 20 3e 22 85 56 3d
       -0.63338757 -0.2193329 0.15716957 0.05237306
0003d0 f7 7d 52 bf 2c 77 b4 3d da ae 2d bf 1e c4 2b 3d
       -0.8222346 0.08811793 -0.6784493 0.04193508
0003e0 c8 ee 66 be 2f fe c2 3d d3 ed e2 3c 3c 0d ca 3e
       -0.22552025 0.09521138 0.027701294 0.39463222
0003f0 91 cb 1f bc e4 20 1a bd 4c 27 2a bf 2e c3 cc bd
       -0.009753124 -0.037629023 -0.6646621 -0.09998165

network_body._body_endoder.seq_layers.0.bias f4 [128]
000000 00 00 00 00 00 00 00 00 00 00 00 00 00 00 00 00
       0.0 0.0 0.0 0.0
000010 00 00 00 00 00 00 00 00 00 00 00 00 00 00 00 00
       0.0 0.0 0.0 0.0
000020 00 00 00 00 00 00 00 00 00 00 00 00 00 00 00 00
       0.0 0.0 0.0 0.0
000030 00 00 00 00 00 00 00 00 00 00 00 00 00 00 00 00
       0.0 0.0 0.0 0.0
000040 00 00 00 00 00 00 00 00 00 00 00 00 00 00 00 00
       0.0 0.0 0.0 0.0
000050 00 00 00 00 00 00 00 00 00 00 00 00 00 00 00 00
       0.0 0.0 0.0 0.0
000060 00 00 00 00 00 00 00 00 00 00 00 00 00 00 00 00
       0.0 0.0 0.0 0.0
000070 00 00 00 00 00 00 00 00 00 00 00 00 00 00 00 00
       0.0 0.0 0.0 0.0
000080 00 00 00 00 00 00 00 00 00 00 00 00 00 00 00 00
       0.0 0.0 0.0 0.0
000090 00 00 00 00 00 00 00 00 00 00 00 00 00 00 00 00
       0.0 0.0 0.0 0.0
0000a0 00 00 00 00 00 00 00 00 00 00 00 00 00 00 00 00
       0.0 0.0 0.0 0.0
0000b0 00 00 00 00 00 00 00 00 00 00 00 00 00 00 00 00
       0.0 0.0 0.0 0.0
0000c0 00 00 00 00 00 00 00 00 00 00 00 00 00 00 00 00
       0.0 0.0 0.0 0.0
0000d0 00 00 00 00 00 00 00 00 00 00 00 00 00 00 00 00
       0.0 0.0 0.0 0.0
0000e0 00 00 00 00 00 00 00 00 00 00 00 00 00 00 00 00
       0.0 0.0 0.0 0.0
0000f0 00 00 00 00 00 00 00 00 00 00 00 00 00 00 00 00
       0.0 0.0 0.0 0.0
000100 00 00 00 00 00 00 00 00 00 00 00 00 00 00 00 00
       0.0 0.0 0.0 0.0
000110 00 00 00 00 00 00 00 00 00 00 00 00 00 00 00 00
       0.0 0.0 0.0 0.0
000120 00 00 00 00 00 00 00 00 00 00 00 00 00 00 00 00
       0.0 0.0 0.0 0.0
000130 00 00 00 00 00 00 00 00 00 00 00 00 00 00 00 00
       0.0 0.0 0.0 0.0
000140 00 00 00 00 00 00 00 00 00 00 00 00 00 00 00 00
       0.0 0.0 0.0 0.0
000150 00 00 00 00 00 00 00 00 00 00 00 00 00 00 00 00
       0.0 0.0 0.0 0.0
000160 00 00 00 00 00 00 00 00 00 00 00 00 00 00 00 00
       0.0 0.0 0.0 0.0
000170 00 00 00 00 00 00 00 00 00 00 00 00 00 00 00 00
       0.0 0.0 0.0 0.0
000180 00 00 00 00 00 00 00 00 00 00 00 00 00 00 00 00
       0.0 0.0 0.0 0.0
000190 00 00 00 00 00 00 00 00 00 00 00 00 00 00 00 00
       0.0 0.0 0.0 0.0
0001a0 00 00 00 00 00 00 00 00 00 00 00 00 00 00 00 00
       0.0 0.0 0.0 0.0
0001b0 00 00 00 00 00 00 00 00 00 00 00 00 00 00 00 00
       0.0 0.0 0.0 0.0
0001c0 00 00 00 00 00 00 00 00 00 00 00 00 00 00 00 00
       0.0 0.0 0.0 0.0
0001d0 00 00 00 00 00 00 00 00 00 00 00 00 00 00 00 00
       0.0 0.0 0.0 0.0
0001e0 00 00 00 00 00 00 00 00 00 00 00 00 00 00 00 00
       0.0 0.0 0.0 0.0
0001f0 00 00 00 00 00 00 00 00 00 00 00 00 00 00 00 00
       0.0 0.0 0.0 0.0

network_body._body_endoder.seq_layers.2.weight f4 [128, 128]
000000 fb b5 15 bd d1 bb ff 3d bf 46 e6 3d 62 73 7d bd
       -0.036550503 0.12486995 0.112439625 -0.061877616
000010 54 e9 75 3d 2d 89 ff bd a3 16 22 be 97 09 bb bc
       0.060036972 -0.12477336 -0.15828948 -0.022831721
000020 c1 c1 0d 3e ce 7f f9 3c 49 72 1c 3e cb 3f 0d be
       0.13843442 0.03045645 0.15277971 -0.13793866
000030 82 c5 0f bd c6 a3 13 3e 49 be 01 bd b4 eb 98 bd
       -0.035100468 0.14417943 -0.03167561 -0.07466832
000040 51 17 f5 3b e5 20 69 3d 12 eb 16 bd c5 d5 28 bd
       0.007479586 0.056916136 -0.036845274 -0.04121949
000050 69 a1 eb 3c 98 cf a1 3d 80 8f a7 3c 96 de 40 bd
       0.02876349 0.079009235 0.020454168 -0.047087274
000060 72 16 31 bc 01 a2 6f 3e b1 54 fe bd a0 cf 91 bd
       -0.010808574 0.23401643 -0.12418497 -0.071196795
000070 db 41 14 3c b7 9f 89 3c bf 6a db 3d 5d 47 97 3c
       0.009048904 0.01679979 0.107137196 0.018466646
000080 92 f8 11 be 2f 6e 06 be 0d 34 03 3d 64 96 59 bd
       -0.14254978 -0.13127969 0.03203206 -0.05312194
000090 1f 96 e2 3d 70 e4 23 3e 08 a0 7e 3c d3 d0 1d 3e
       0.110637896 0.1600511 0.015541084 0.15411691
0000a0 2f f8 6f 3d 9c bd f1 bd 3e ea 7f bc e8 d9 1a 3e
       0.058586296 -0.11803743 -0.0156198125 0.15122187
0000b0 df 51 ca 3c 60 63 39 3c e3 5f 78 bd 64 94 2a 3e
       0.024697242 0.011315197 -0.06063832 0.16658169
0000c0 09 01 ed bd c1 1d 36 3d 8f 9f 0c be 9f dc 71 3d
       -0.11572463 0.04446197 -0.13732742 0.05904829
0000d0 e2 03 63 bd 21 87 f8 3c 4f 59 d9 bc 44 ba ea bd
       -0.055423625 0.030337872 -0.026531843 -0.114613086
0000e0 96 bc a0 3d d3 88 b0 bd 09 e2 2c bb bc af 8f bd
       0.0784847 -0.08619847 -0.0026379845 -0.070159405
0000f0 00 c7 46 bd 14 08 07 bd ac ab 28 bd 28 15 69 3c
       -0.048529625 -0.03296669 -0.041179344 0.014226235
000100 2f 3e e6 3d f3 6f 12 be 2d b6 e0 bc 71 b3 bb 3d
       0.11242329 -0.14300518 -0.027430618 0.09165085
000110 af 34 21 be 39 5d 12 be 5f 64 7c bc 01 17 74 3d
       -0.15742753 -0.14293374 -0.01540479 0.05959225
000120 6a a9 cb bc eb 13 5b 3d 63 99 a5 bd b3 e2 93 3d
       -0.024861056 0.053485792 -0.08085897 0.07220974
000130 1c f7 ea bd f0 d5 a0 bd 50 66 ec bd e5 7e fd bc
       -0.114729136 -0.07853305 -0.11542952 -0.030944297
000140 7f 55 e7 bd cb 93 d0 3d b9 06 4a 3e 6c 6e ae bc
       -0.11295604 0.10184439 0.19729127 -0.021292888
000150 64 13 c8 3b 4a 48 b5 3d 08 cc 92 bd fa 72 ca bc
       0.006105827 0.08851679 -0.07167822 -0.024713028
000160 8f 59 b7 3a 96 25 fe 3c d9 72 17 bd 82 fa 03 bd
       0.0013988483 0.031023782 -0.03697476 -0.032221325
000170 63 06 5d 3d 3f be 16 3c b0 86 c6 3d ef d1 e3 3b
       0.05396117 0.009200632 0.09693658 0.0069525163
000180 d0 9a c6 3b 9b 0c 87 bd 09 f3 3a bd 5e 5b a2 ba
       0.0060609356 -0.06594201 -0.045641933 -0.0012386849
000190 e9 6c a3 3c cc 68 9c 3c 94 78 c7 bd ba 06 da bd
       0.019949393 0.01909294 -0.09739795 -0.10645814
0001a0 b3 ae 28 bc 20 80 93 3d 60 11 3e bd 54 5f f8 bc
       -0.010295558 0.07202172 -0.04640329 -0.030318893
0001b0 a7 f5 73 3d c2 ed b6 bd 93 fb 83 be 75 3b 23 3d
       0.059560444 -0.089320675 -0.25777873 0.039851625
0001c0 8f 50 fb 3c 45 d2 8a be 84 f9 96 bc 3e a0 71 3a
       0.030678062 -0.27113548 -0.018429525 0.00092172984
0001d0 03 4c 42 bd cc 70 eb ba f9 27 62 bd 57 86 cd bd
       -0.04743577 -0.0017962693 -0.055213902 -0.10035389
0001e0 96 d1 30 be c1 c8 09 bd e8 45 02 bd 4a 85 b1 3d
       -0.1726745 -0.03363872 -0.03180495 0.08668001
0001f0 fc ba 5e 3e 59 f6 55 3d 14 ff 02 bb 66 33 e2 bc
       0.21751016 0.05223689 -0.0019988464 -0.0276124
000200 00 31 5a 3d 55 ee ea bd 0a 24 ef bd 51 7d a6 3c
       0.053269386 -0.114712395 -0.11676796 0.020323427
000210 d5 92 b0 3c e1 81 ef 3d 2e ac 94 bd 8d c3 a9 3d
       0.02155439 0.11694694 -0.07259403 0.082892515
000220 9d e6 d0 bd f1 24 60 3d 84 51 84 3d ac e0 90 bd
       -0.10200236 0.05472273 0.0646086 -0.07074103
000230 0f 73 87 3c 3f b8 8c 3d 94 bf 39 bd 45 9b 86 3c
       0.016534356 0.0687108 -0.04534872 0.01643146
000240 4f b1 82 3e df df 02 be c8 ea b2 bd 46 51 e6 3d
       0.255259 -0.12780713 -0.08736187 0.112459704
000250 8c cd 0a 3c 02 a2 c1 3d 29 62 b8 bc 49 ae 46 3d
       0.008471858 0.09454729 -0.022507744 0.048506055
000260 48 a7 3b 3e 33 7e 6d 3d 85 92 e3 3d 72 3e da bc
       0.18325531 0.05798168 0.11111931 -0.026641104
000270 29 95 4b be d2 a9 48 bd c3 66 12 3d ad 34 b4 3c
       -0.19881119 -0.04899008 0.035742532 0.021997774
000280 db bb e9 3c 8e 64 9a 3a 1a c2 ae 3c ff 43 8c bd
       0.02853196 0.0011779235 0.02133279 -0.06848907
000290 d1 bd 28 3e 48 af a3 bd db 8f 0e be 8c 18 89 3c
       0.16478659 -0.079924166 -0.13922064 0.016735338
0002a0 17 b9 11 3d c9 50 5e bd 47 86 25 bd 2f af f1 bd
       0.035576906 -0.05427626 -0.04041126 -0.11800992
0002b0 25 39 ab bd a6 3d 14 3d 58 c8 89 bb f7 40 ed 3d
       -0.08360509 0.036191605 -0.004204791 0.11584657
0002c0 92 3e 26 bc c4 3c 10 bc db 1f 17 be 19 25 3d 3c
       -0.010146754 -0.00880355 -0.14758246 0.011544489
0002d0 17 0f 34 bd ed 10 37 3e 1f af f5 3d b6 2c 3b 3d
       -0.043959703 0.1787755 0.11996292 0.045696937
0002e0 8a 81 87 bd d9 39 28 bd b3 1c e7 3d d1 1d f6 bd
       -0.066165045 -0.041070793 0.11284771 -0.12017406
0002f0 92 d3 c3 3d 23 71 cf bd 94 e6 8c 3d e4 af 3d 3a
       0.09561838 -0.10129001 0.06879917 0.00072359876
000300 ea 52 0d bd 10 fd 53 bd 5e 31 28 bd 2e 88 12 be
       -0.0345029 -0.05175501 -0.041062705 -0.14309761
000310 77 32 50 be db 37 de 3d 53 9a 05 bd 1a ea 63 bd
       -0.20331751 0.10850497 -0.03261788 -0.05564318
000320 7e 70 cb bd c8 6e 2a be 47 30 8b bc 36 dc a5 3d
       -0.099335656 -0.16643822 -0.016990794 0.080986425
000330 fd 9d 27 bd 67 a6 e1 3d cd f0 85 3d c4 58 f6 bd
       -0.040922154 0.11018067 0.0654007 -0.120286494
000340 55 ee 43 bd c5 f4 72 3c b3 5c 2f 3d 6d 9c e2 3d
       -0.047834713 0.014828865 0.042813014 0.11064992
000350 17 d7 8d bd bc cf e0 3b a7 aa d8 bd 96 99 09 3e
       -0.06925791 0.0068607014 -0.10579424 0.13437495
000360 6c ae a4 bc 65 72 07 3e fd 24 86 3c 69 2e 21 3c
       -0.020102702 0.13227232 0.01637506 0.009837725
000370 96 45 d1 bd 72 33 28 bd f3 f1 68 3d 8f a1 04 3d
       -0.102183506 -0.041064687 0.056871366 0.032380637
000380 6d 4d 28 3d 6c 17 04 bd ea 1d 7a ba 91 6a 30 bd
       0.041089464 -0.0322489 -0.00095412007 -0.04307038
000390 77 b8 34 bc 78 40 96 3d 45 74 27 3d 2d 3f 5d 3d
       -0.011030308 0.07336515 0.040882368 0.054015327
0003a0 6b e7 10 3d f5 be 4f 3d cf 2c 3f 3d 87 49 4d bb
       0.035376947 0.05071922 0.046673592 -0.0031324343
0003b0 ac b0 92 3d 3e 19 ad bd 47 66 0c 3d 74 71 3a 3d
       0.07162604 -0.0845208 0.034277227 0.045518354
0003c0 e8 d8 07 3e 1b 5e 60 3c 8a 55 81 3c 5a ba e6 bd
       0.13266337 0.0136943115 0.015787859 -0.112660125
0003d0 e1 49 0b 3d e9 f8 20 be 01 28 12 bc 5a 4f 0a 3e
       0.034006003 -0.15719952 -0.0089206705 0.13506833
0003e0 cd 13 b1 39 50 e8 8b 3d c3 f5 20 3d 7f ef 21 be
       0.00033774824 0.068314195 0.039296877 -0.15814017
0003f0 63 01 8b 3d d1 9a 71 3d 00 6c a9 bd b7 67 fc bc
       0.06787374 0.058985535 -0.082725525 -0.030811174

action_model._continuous_distribution.log_sigma f4 [1, 2]
000000 00 00 00 00 00 00 00 00
       0.0 0.0

action_model._continuous_distribution.mu.weight f4 [2, 128]
000000 4d 62 52 bd f3 99 ef 3c c5 1c d2 3c 15 a9 e2 bc
       -0.05136328 0.029248213 0.025648484 -0.027668515
000010 63 3b de bc 9f 56 2d bd 5b b4 0a bc a3 dc 4c 3c
       -0.027127927 -0.042318936 -0.008465852 0.012503776
000020 bc 00 a5 3c eb 3a 2a bd 05 45 4f 3a 69 0a 38 bc
       0.020141952 -0.041560095 0.0007906708 -0.011232951
000030 75 3b 7a bb bc d6 90 3c b5 c5 de bc ef 9c 44 bc
       -0.0038182412 0.017680518 -0.027193883 -0.0120003065
000040 3f 64 63 3c e0 7d f1 3c 79 d6 2e 3c 4a fb 6d 3c
       0.013878881 0.029478967 0.010671251 0.014525244
000050 43 05 77 3b 75 ff 4c 3c e3 db 98 bb aa 07 54 bc
       0.0037692345 0.012512078 -0.0046648844 -0.01294128
000060 d7 d3 41 ba 4b d7 d6 3a db dc 13 bc 83 06 59 bb
       -0.00073939323 0.0016391067 -0.009024824 -0.0033115454
000070 93 33 50 3b a8 05 ef bc fe 66 2d bb ec 07 22 3c
       0.0031769022 -0.029177502 -0.0026459093 0.009889584
000080 6b 73 30 bc 67 59 ba 3b 0f 33 9d 3b 0d bf 2d ba
       -0.010769705 0.005686927 0.0047973464 -0.0006627895
000090 bb d9 b5 3c 82 04 a1 bc d0 2d 7c bc 89 aa 81 3b
       0.022198549 -0.01965547 -0.015391782 0.003957097
0000a0 8d 65 0a 3b d9 be 3c bb 86 15 96 3b b8 87 7d bb
       0.0021117658 -0.0028800278 0.0045802025 -0.003868563
0000b0 0c 54 9a 3c 62 37 82 3c 11 fe 27 3c 8f 48 4f bc
       0.018838905 0.01589555 0.010253445 -0.012651577
0000c0 2d e0 26 3c 63 46 91 bb c8 fc ae 3b e5 e0 69 3c
       0.010185284 -0.0044334396 0.0053401925 0.01427481
0000d0 02 44 61 ba c8 bc 00 bb 53 ad 9f bb 7d cd 42 bb
       -0.0008593203 -0.0019643772 -0.004872957 -0.0029724531
0000e0 01 f7 3c 3b 4f 2b c7 3c 0f 47 d0 3b bd 42 df 3c
       0.002883375 0.024312643 0.006356127 0.027253503
0000f0 18 1c f8 bc 27 74 b1 bc 82 61 c9 3b cc b4 26 3c
       -0.030286834 -0.021661831 0.006145657 0.010174941
000100 00 03 14 3c d7 0d 03 bc 6a 02 b1 bb 60 63 3a bc
       0.009033918 -0.007998905 -0.005401899 -0.011376232
000110 c9 ba b7 3c 0d be a4 bc 68 44 08 3c 15 f0 51 3c
       0.022427933 -0.020110155 0.008317091 0.012813588
000120 0f ce 4f 3b 1d 49 03 bc 4b dc dd bc 80 77 cd bc
       0.0031708514 -0.008013037 -0.027082583 -0.025081396
000130 c5 9c 44 bb c3 94 81 3b 57 17 74 3c 63 11 d4 bb
       -0.0030000668 0.0039545014 0.014898143 -0.006471799
000140 ad d0 b7 3c 11 4e 32 3c 7d f7 0c 3b 63 7f c9 bc
       0.022438372 0.01088287 0.002150982 -0.024596876
000150 40 bb 99 ba c8 ac 4b bc e6 63 02 bd 2a 3d da bb
       -0.0011728778 -0.012431331 -0.03183355 -0.0066601234
000160 f3 39 96 3b 60 74 e9 bc 75 d4 8f 3c cf 61 07 bc
       0.004584545 -0.028497875 0.017557362 -0.0082630655
000170 9b bc d4 bb d2 b2 0c 3d 29 be 49 bc 9c a5 2d bc
       -0.00649221 0.034350224 -0.012313404 -0.010598566
000180 db 8b 34 bc 23 3c 95 3b e5 1a d1 bb b7 77 30 bc
       -0.011019672 0.004554288 -0.00638138 -0.01077073
000190 1f 93 4e 3c 5b 47 8d bc 02 a8 91 3c 87 4b 55 bc
       0.012608319 -0.017245939 0.017780308 -0.013018495
0001a0 f8 72 e5 bc ac ea 82 bc 7a 12 f9 3c 67 e4 0b bc
       -0.028008923 -0.01598104 0.030404318 -0.008538342
0001b0 b4 14 8e 3c 43 3e 38 3c 5a 47 f8 bc e7 7e 9e bc
       0.017343856 0.011245313 -0.03030746 -0.019347621
0001c0 06 53 82 3c f3 e1 bf bb 77 2d 55 3c da 70 a3 bc
       0.01590873 -0.0058557927 0.013011328 -0.019951273
0001d0 4e e4 88 bc c5 fe ca 3c 8f 9b 98 bb 5b 3a 0a bc
       -0.016710427 0.024779687 -0.004657216 -0.008436765
0001e0 4f a2 5b bb 87 25 03 3a bf d2 80 3b 95 83 1d 3b
       -0.0033513492 0.00050028454 0.003931373 0.0024034728
0001f0 b0 1e 9a 3c c2 74 c0 bc e2 b8 15 bb 1a d7 5a b9
       0.018813461 -0.023493174 -0.0022845794 -0.00020870232
000200 6a 70 c0 3b 5b 77 42 3c 11 d6 c7 bc 4e 17 15 3b
       0.005872776 0.011869277 -0.024394067 0.0022749486
000210 83 7a 4e 3c 15 17 72 b9 97 f2 c4 bc 1f c2 1a 3b
       0.012602451 -0.00023087517 -0.024041457 0.002361424
000220 35 4d 08 bd 50 03 a3 3c 3a 31 88 ba 27 25 f6 3a
       -0.033276755 0.01989904 -0.0010390647 0.0018779383
000230 da 60 50 bc fd b9 42 3c 2c d7 3f bc 2a c4 a0 bc
       -0.012718404 0.011885163 -0.011709016 -0.019624788
000240 7a 0b 75 bc 1f 2a 83 3a ab a6 31 bc 87 a7 e3 3c
       -0.0149563495 0.001000706 -0.010842959 0.027789844
000250 8f 5c 74 bc f0 d0 f8 bc e3 2b a1 bb 8d cb dc 3b
       -0.014914646 -0.030373067 -0.004918562 0.0067381323
000260 43 1f be bb 8e 71 0b bc 79 3f 05 3b 0e 56 32 3c
       -0.0058020665 -0.00851096 0.0020332022 0.010884775
000270 8a 2e 07 3d b7 44 02 3b fb 4e 1a 3c 1a 53 f0 bb
       0.033003367 0.0019877383 0.0094182445 -0.007334125
000280 ba de db bc ce 4e a2 3c e8 35 55 3c 67 0c 83 3c
       -0.026839603 0.019812968 0.0130133405 0.015997125
000290 8e 28 81 ba f2 67 12 3c 82 60 db 3b 97 5c 17 3c
       -0.0009854005 0.008935915 0.0066948542 0.009238384
0002a0 ec 92 b1 bb 1c f5 a0 3c 93 4f dd bb c0 68 d9 3c
       -0.005419126 0.019648127 -0.0067538708 0.026539207
0002b0 06 9c a5 ba 7d a9 64 3c 07 8b 03 3d 23 d5 d2 3b
       -0.0012635 0.013956425 0.03211501 0.0064340993
0002c0 0a 36 60 3c 47 1b cb 3c 27 04 88 3c 0d 80 09 bd
       0.013684759 0.02479328 0.016603542 -0.033569384
0002d0 32 7f 41 bc d9 3f 4b bb 54 f7 15 bb b7 bb e6 bc
       -0.011810111 -0.0031013398 -0.0022883015 -0.028165681
0002e0 ea 42 53 3d d8 85 62 bc 33 55 a8 3c 6f 49 df 3b
       0.051577486 -0.013825856 0.020548439 0.006814174
0002f0 55 53 1f 3c 42 19 81 3c eb c6 5f bc ca 8e 70 3c
       0.009724458 0.015759114 -0.013658266 0.014682481
000300 2c f1 06 bd 66 69 bb 3c da f1 77 bc f8 89 7e bc
       -0.032944843 0.022877406 -0.0151333455 -0.015535824
000310 d7 aa 85 bc e9 12 06 bc 02 d5 5b bc 18 13 cf 3a
       -0.016316814 -0.0081832195 -0.013417484 0.0015798537
000320 67 d4 54 3c f7 82 cc bb e1 d4 b1 bb 41 4a 81 bc
       0.012990094 -0.006241198 -0.0054269885 -0.015782477
000330 ea e4 b3 3b f1 e1 a2 bc 8f 01 a8 3c 0b 1d 9c bc
       0.005489935 -0.019883128 0.020508556 -0.019056818
000340 99 30 b7 3b fb a8 09 bb ff 3c 38 bb 72 f9 2d 3c
       0.00559051 -0.0021005261 -0.0028112528 0.010618554
000350 94 90 1c 3d 71 ab bb ba c7 e0 22 3c 15 26 46 3c
       0.038223818 -0.0014318061 0.009941286 0.01209404
000360 b2 49 78 bc 3f 73 11 bc ce d9 93 3b 6b 59 23 bc
       -0.015154289 -0.0088775745 0.0045120483 -0.009970049
000370 38 3b e9 bc 0f 6a b6 3c e2 5d 40 bc 07 45 0a bc
       -0.02847062 0.02226737 -0.011741133 -0.008439309
000380 6f 3f 23 bc 6d 45 f0 bc cf 1a 32 bc 42 be 8f 3c
       -0.009963854 -0.02932998 -0.0108706495 0.017546777
000390 83 c6 7b 3c 7a 2c 60 bc 23 3c 45 bc 7f 93 87 3c
       0.015367153 -0.013682479 -0.0120382635 0.016549824
0003a0 0e 50 1f 3c f0 bc 7e 3c a7 f9 99 bb 76 33 95 bc
       0.009723676 0.015547976 -0.0046989503 -0.018213015
0003b0 5a c1 d4 3b fb 37 c4 3c 95 c4 06 bc d0 df 73 3c
       0.006492776 0.023952475 -0.00822558 0.014884904
0003c0 ff a6 d4 bc 42 89 70 3c 50 8d 91 bc 3f b5 8e 3c
       -0.025958536 0.014681162 -0.017767578 0.01742041
0003d0 28 55 a8 ba 17 e6 a3 3c 56 9f 2c 3b f0 ad fb 3c
       -0.0012842761 0.020007176 0.0026340089 0.030722588
0003e0 ca f3 9a bc 60 8b 6d bb 27 e4 50 bc d5 5c 93 ba
       -0.018915076 -0.0036246404 -0.012749708 -0.0011242876
0003f0 ca 3f 54 3c c3 d7 32 bc 3a 46 f6 bb f2 fa b0 bb
       0.012954662 -0.010915699 -0.007515696 -0.0054010088

action_model._continuous_distribution.mu.bias f4 [2]
000000 00 00 00 00 00 00 00 00
       0.0 0.0
