results/ppo/MoveToGoal/MoveToGoal-97115.pt (torch, 441305 bytes, 36 tensors)

network_body._body_endoder.seq_layers.0.weight f4 [128, 6]
0	0xbe64bd12	-0.2233775
1	0x3ec928b9	0.3928888
2	0x3e9400a3	0.28906736
3	0xbc1e2d34	-0.009654332
4	0x3db141d1	0.086551316
5	0xbdd22957	-0.10261791
6	0xbea3466d	-0.31889668
7	0x3f17041e	0.5899066
8	0x3e8b540c	0.2721256
9	0xbf26bb9f	-0.6513004
10	0xbe95d6aa	-0.29265338
11	0x3cdb8ae4	0.026799627
12	0xbf012e0d	-0.5046089
13	0x3ea855d0	0.3287797
14	0xbce35c2f	-0.027753918
15	0x3e9fa7dd	0.31182757
16	0xbf5de0a6	-0.8667091
17	0xbf207727	-0.6268181
18	0x3efc2637	0.49247906
19	0xbee27955	-0.44233194
20	0x3ea45f51	0.3210397
21	0xbef2e90d	-0.4744343
22	0xbec39664	-0.38200676
23	0x3f195090	0.59888554
24	0x3dfb7e4b	0.12279948
25	0x3e45aa05	0.19303139
26	0xbe8cc1dd	-0.27491656
27	0xbe8e869d	-0.27837077
28	0x3e8d1c2b	0.27560553
29	0xbf0e88a0	-0.55677223
30	0xbe31fbac	-0.17381161
31	0xbe319a75	-0.17344077
32	0x3f1d076a	0.6133944
33	0xbf3a1708	-0.7269139
34	0x3ed239ec	0.41059816
35	0xbd225261	-0.039629344
36	0xbee6962a	-0.4503644
37	0xbe21198e	-0.15732405
38	0xba971961	-0.0011527949
39	0xbeec6f82	-0.46178824
40	0x3f94612c	1.1592155
41	0xbc912c51	-0.017721327
42	0xbe8ba175	-0.2727162
43	0xbe74e242	-0.23914436
44	0xbf053108	-0.5202794
45	0xbe2f3694	-0.17110664
46	0xbe011a3a	-0.12607661
47	0xbf40e577	-0.75350136
48	0x3c6b5f50	0.014365986
49	0x3c64945b	0.013951386
50	0x3ea0a762	0.31377703
51	0x3e97618c	0.2956661
52	0x3ebed722	0.37273508
53	0x3e62a103	0.22131734
54	0x3ea8d80f	0.3297734
55	0x3f4c0279	0.7969127
56	0x3dc1e0a0	0.09466672
57	0x3e57bd87	0.21068393
58	0x3f0abd58	0.54195166
59	0xbe3074b0	-0.17232013
60	0x3f018f78	0.5060954
61	0xbf0500ea	-0.5195452
62	0xbc8ebb9d	-0.017423445
63	0xbdea30e9	-0.1143511
64	0x3f553a4e	0.8329209
65	0xbe6862ed	-0.22693987
66	0xbec76891	-0.38946965
67	0x3ec4bd9a	0.38425905
68	0xbecb6a83	-0.397297
69	0x3d0cd329	0.034381066
70	0x3f134a4a	0.5753523
71	0x3e8e25f9	0.27763346
72	0x3e905373	0.28188667
73	0x3e987360	0.29775524
74	0x3e0d6036	0.13806233
75	0xbe3ea91d	-0.18619199
76	0x3cc92981	0.024555923
77	0xbdb178c8	-0.08665615
78	0xbe9f6d09	-0.31137875
79	0x3edfe959	0.43732718
80	0xbef40529	-0.47660187
81	0x3eff218b	0.4983028
82	0x3da7e629	0.081981964
83	0xbee3c6cb	-0.44487604
84	0xbd8127ef	-0.06306445
85	0x3e9f1d45	0.31077018
86	0xbded846b	-0.11597522
87	0x3e08b1f1	0.1334913
88	0x3d6f393c	0.058404192
89	0xbe9ddb3b	-0.30831322
90	0xbf04ac0c	-0.5182502
91	0x3ee2e5b9	0.4431589
92	0x3e1626ba	0.1466321
93	0xbef54d30	-0.47910452
94	0xbd4f6244	-0.050630823
95	0x3f57e213	0.84329337
96	0x3c9ec347	0.019380225
97	0x3f1994f5	0.59992915
98	0x3f393a22	0.7235433
99	0x3e8604d4	0.2617556
100	0xbf64acb5	-0.8932603
101	0xbeb3a424	-0.35086167
102	0x3eabbbb3	0.3354164
103	0x3e7bad7e	0.24577901
104	0xbf3bfbcf	-0.73431104
105	0x3ea7247e	0.3264503
106	0x3ce9b313	0.028527772
107	0xbf4db2e9	-0.8035112
108	0x3f808fd7	1.0043896
109	0x3e1ea5e5	0.15492971
110	0xbe3da582	-0.18520167
111	0xbe802255	-0.25026193
112	0x3ef399aa	0.47578174
113	0x3f03d278	0.51493025
114	0xbe49bac5	-0.19700153
115	0x3f7a809b	0.97852486
116	0x3e06b59b	0.13155214
117	0xbe9b577c	-0.30340183
118	0xbe74adba	-0.23894396
119	0x3f83a4f4	1.0284715
120	0xbe1a2d21	-0.15056278
121	0xbe82a9f1	-0.2552028
122	0x3ef03e5a	0.4692257
123	0x3f1d7395	0.6150449
124	0x3d992f74	0.07479754
125	0x3cda4682	0.026644949
126	0xbe61e98c	-0.22061747
127	0x3d739412	0.059467383
128	0x3e1cbbfa	0.15306082
129	0x3e89d93b	0.26923546
130	0x3e927ce1	0.286109
131	0xbf344541	-0.70418173
132	0xbdd75a81	-0.10515309
133	0x3e48c4ed	0.19606371
134	0xbeddafe2	-0.4329825
135	0xbeaadba6	-0.33370703
136	0x3e7bbc26	0.24583492
137	0xbf8803c3	-1.0626148
138	0xbd8891bb	-0.06668421
139	0x3e21664f	0.15761684
140	0xbdf4865c	-0.119396895
141	0x3d84999c	0.06474611
142	0xbf3fcd72	-0.7492286
143	0x3edc6dcb	0.43052515
144	0xbea9feeb	-0.332023
145	0xbe4a4da2	-0.19756177
146	0x3e52d3b6	0.20588574
147	0xbf0793db	-0.52959985
148	0x3f0bcb4d	0.5460709
149	0x3e06fce1	0.13182403
150	0x3eeece4c	0.46641767
151	0xbedd1354	-0.4317881
152	0xbed43308	-0.41445184
153	0xbcb7f2f7	-0.022454722
154	0xbe951b61	-0.2912245
155	0x3e1e8cf1	0.15483452
156	0xbe04f340	-0.12983418
157	0x3d03e564	0.032201186
158	0xbd0b6530	-0.034032047
159	0x3d59de91	0.05319077
160	0xbe15e2a7	-0.14637242
161	0x3e6be608	0.23036969
162	0xbd6d3187	-0.05790856
163	0x3e5d6b43	0.21622948
164	0xbebdda1f	-0.37080476
165	0x3ee5159c	0.4474305
166	0xbea22cf5	-0.31674924
167	0x3f0fec06	0.5621952
168	0xbe925f31	-0.2858825
169	0x3f747a2b	0.95498914
170	0x3d2900db	0.04126058
171	0xbe7ad311	-0.24494578
172	0xbe016bc7	-0.1263877
173	0xbd8c28f3	-0.06843748
174	0x3eb08dd3	0.34483203
175	0x3ec53d6e	0.3852343
176	0x3b68ad18	0.0035503563
177	0xbf1f5a6a	-0.62247336
178	0xbe1d44fe	-0.1535835
179	0xbdf3e145	-0.11908201
180	0x3f2b0495	0.66803867
181	0x3dcd3880	0.10020542
182	0xbdddba7d	-0.108265854
183	0xbe006042	-0.1253672
184	0xbeb88457	-0.36038467
185	0x3dcba72a	0.099439934
186	0xbe6abca9	-0.2292353
187	0x3e49effb	0.19720452
188	0x3f5c5b39	0.86076695
189	0xbe3bb519	-0.18330802
190	0x3efa2ac3	0.4886075
191	0xbe03c6b5	-0.1286877
192	0xbf01292e	-0.5045346
193	0xbe6c58d4	-0.2308076
194	0x3a5accc0	0.000834655
195	0xbe8a24da	-0.2698124
196	0xbe5643af	-0.20924257
197	0x3d983067	0.07431107
198	0xbe4f339b	-0.2023453
199	0x3dfbaaa7	0.12288409
200	0xbdaddef0	-0.084897876
201	0xbe1bd79a	-0.15218964
202	0xbea74e5b	-0.32676968
203	0x3e11272e	0.14175102
204	0xbf092863	-0.5357725
205	0xbc76eda7	-0.015071309
206	0x3f2cab94	0.6744931
207	0xbd9f2f9b	-0.07772752
208	0xbdeb90db	-0.11502238
209	0x3d26a20b	0.04068188
210	0xbdb35f53	-0.08758416
211	0xbe87fbd8	-0.2655933
212	0x3f18c550	0.59676075
213	0x3ed8ed0c	0.42368352
214	0x3eb9343c	0.36172664
215	0x3b7fdd45	0.00390418
216	0xbca031e7	-0.019555045
217	0xbe231b76	-0.15928444
218	0xbee3e9a0	-0.4451418
219	0x3ea9eaae	0.3318686
220	0xbf0b8a16	-0.5450758
221	0x3c3a4df7	0.011371127
222	0xbeaf2b76	-0.34212846
223	0xbeb3eea4	-0.35143006
224	0x3f4823ea	0.781798
225	0x3cfd5a38	0.030926809
226	0xbeb806b0	-0.35942602
227	0xbe902e6c	-0.28160417
228	0xbf402566	-0.75057065
229	0xbeb46b1f	-0.35237977
230	0xbde37c4b	-0.111076914
231	0xbbb2cd6d	-0.0054566176
232	0xbebe892b	-0.37214026
233	0xbecee38d	-0.40407982
234	0x3e814f91	0.25256017
235	0xbd307754	-0.04308255
236	0x3f19cda6	0.6007942
237	0xbcd5638c	-0.026048444
238	0xbf1e9527	-0.6194634
239	0xbef58552	-0.47953278
240	0xbe8a6e2b	-0.27037176
241	0xbf04c76d	-0.518668
242	0x3d16bb6f	0.036799844
243	0xbe0c419e	-0.13696906
244	0x3eeab618	0.45842052
245	0x3e2bec8e	0.16789457
246	0x3eba8c18	0.36435008
247	0xbf1d6c98	-0.61493826
248	0xbd0e378c	-0.034720942
249	0x3e85dc7e	0.26144785
250	0xbe9eea30	-0.31038046
251	0x3ea3d228	0.31996274
252	0xbe2b11ea	-0.16706052
253	0x3ce0c3ef	0.027437178
254	0xbe0fe233	-0.14051132
255	0x3e5d09a5	0.2158571

network_body._body_endoder.seq_layers.0.bias f4 [128]
0	0x3bc5f5d5	0.0060412684
1	0xbc0b1fa9	-0.008491435
2	0xbbea1469	-0.0071435464
3	0xbbc4e4c9	-0.0060087186
4	0x3b8efa29	0.0043633175
5	0x3b96b52f	0.0045992355
6	0x3a26ebee	0.0006367554
7	0x3c35a1dc	0.011085954
8	0xbc42a995	-0.011881252
9	0xbb479d85	-0.003045888
10	0xbc415bee	-0.011801703
11	0x3b019a41	0.001977578
12	0xbc14f1bc	-0.009090837
13	0x3bf7d89e	0.0075636646
14	0xbb4ec8fb	-0.00315529
15	0xbac9fa2c	-0.001540964
16	0x3c8bb7d5	0.017055431
17	0xbc314df6	-0.01082181
18	0x3b8b6ee8	0.0042551644
19	0xbbdcaf3d	-0.006734757
20	0xbbb7a33d	-0.0056041763
21	0x3c1fbd36	0.009749701
22	0xbc0c39c4	-0.008558694
23	0xbb88d7ba	-0.0041761072
24	0x3bd817b5	0.006594623
25	0x3a8302a2	0.0009995291
26	0xbc5a2802	-0.013315203
27	0xba520427	-0.0008011483
28	0x3c44f7fe	0.012022017
29	0xbbc7e152	-0.0060998583
30	0x3c0fdcee	0.008780701
31	0x3b5b780c	0.0033488302
32	0xb7aad210	-2.0363397e-05
33	0x3c2ee52b	0.010674755
34	0xbb90e848	-0.0044222213
35	0xbc32f4be	-0.010922609
36	0x3b9c89b3	0.004777157
37	0x3b9f8a3f	0.004868775
38	0xbc4badc8	-0.012431569
39	0x3bb2d46a	0.0054574506
40	0x3be853e0	0.007090077
41	0xbc4b7c7a	-0.012419814
42	0x3c2c2218	0.010506175
43	0x3b8852a5	0.0041602426
44	0x3c937812	0.01800159
45	0x3b4e1da4	0.0031450773
46	0xbb778bce	-0.003777254
47	0x3aeaabbe	0.0017903966
48	0x3ad4aa4f	0.0016225072
49	0xbc8a6edd	-0.016898567
50	0x3b671969	0.0035262948
51	0x3bc1597f	0.0059005613
52	0x3b20b1dd	0.0024520077
53	0x3bfe2ac3	0.0077565624
54	0xba9b2398	-0.0011836169
55	0xbbce271a	-0.0062912824
56	0x3c46b126	0.012127196
57	0x3ba71fd1	0.0051002284
58	0x3bbc5808	0.005747799
59	0x3b598dc5	0.0033196073
60	0xbc4caa4f	-0.012491777
61	0xbc4ab1e9	-0.012371519
62	0xbb8c4810	-0.0042810515
63	0xbba41945	-0.005007895
64	0xba1e4917	-0.0006038113
65	0xb985bb4b	-0.0002550728
66	0x3bf4a6bd	0.007466166
67	0x3afd41cc	0.0019321977
68	0x3c001249	0.0078168595
69	0xbb939675	-0.00450402
70	0x3a147ffa	0.0005664822
71	0x3bd95b03	0.006633164
72	0x3c1853c6	0.009297317
73	0x3c8bfc40	0.017088056
74	0x3b6c7fdf	0.003608696
75	0xbb0a61b5	-0.0021115367
76	0xbb48fad8	-0.0030667093
77	0xbbae0841	-0.0053110425
78	0x3b770100	0.0037689805
79	0xbba2f2f3	-0.0049728095
80	0x3ba66ed9	0.005079132
81	0x3b87da82	0.004145921
82	0xbc57703b	-0.013149316
83	0x3badd63e	0.0053050807
84	0x3b08852b	0.0020831327
85	0x3c993a1b	0.018704465
86	0x3c84dd68	0.016218856
87	0x3be052fc	0.00684583
88	0xbc1e32d7	-0.009655676
89	0x3c2eaca8	0.010661282
90	0xbc361c45	-0.011115138
91	0x3bc22935	0.0059253224
92	0xbb89a1ca	-0.004200195
93	0x3c73be8a	0.014876971
94	0x3c02f932	0.007993983
95	0x3b85336b	0.0040649674
96	0xbc68a857	-0.014200292
97	0x3ba1823b	0.0049288548
98	0x3c38d085	0.011280184
99	0xbc1d355f	-0.009595244
100	0xbb4871e0	-0.0030585453
101	0xbbe80610	-0.007080801
102	0xbc79b88a	-0.015241751
103	0xbc1eab0c	-0.009684335
104	0x3c119499	0.008885526
105	0xbb3404fd	-0.0027468794
106	0xbc660741	-0.014039815
107	0xbb995a40	-0.004679948
108	0x3c8947cf	0.016757874
109	0x3b70b2d2	0.003672768
110	0x3bdd838b	0.006760066
111	0xbb89f4ea	-0.0042101042
112	0xba3cb18e	-0.00071980886
113	0xb9e91c61	-0.00044462367
114	0xbc46f604	-0.012143616
115	0x3ba04010	0.0048904493
116	0x3b67425e	0.003528736
117	0xbbf26084	-0.0073967595
118	0xba514684	-0.0007983225
119	0x3bcee4ea	0.00631391
120	0x3af7ce3e	0.001890607
121	0x3b968073	0.004592949
122	0xbb754c32	-0.003742945
123	0xbc277224	-0.010220084
124	0x399cb406	0.00029888767
125	0x3c13e929	0.009027758
126	0x3c32f9b6	0.010923794
127	0x3b75587a	0.003743677

network_body._body_endoder.seq_layers.2.weight f4 [128, 128]
0	0x3b1f2f6f	0.0024289747
1	0xbdfd36b4	-0.123639494
2	0x3d0592fa	0.03261087
3	0x3dda9d2e	0.10674511
4	0x3c484630	0.012223765
5	0xbe2dd589	-0.16975988
6	0xbd3de71f	-0.046362992
7	0xbd1984c5	-0.037480135
8	0xbdb18982	-0.08668806
9	0x3dbe803e	0.09301804
10	0x3e2adf4c	0.16686743
11	0x3e256550	0.16151929
12	0x3d283ef0	0.041075647
13	0x3d625668	0.055258185
14	0x3d81ea13	0.06343474
15	0x3d0a06b3	0.033697795
16	0x3d6b0a24	0.057382718
17	0xbd548658	-0.051885933
18	0xbd622992	-0.055215426
19	0xbcd259d1	-0.025677593
20	0xbd903063	-0.07040479
21	0x3c419bf8	0.011816971
22	0x3cbf161e	0.023325976
23	0xbd89fc24	-0.06737545
24	0xbe026d54	-0.12737018
25	0xbdc19da2	-0.09453894
26	0x3da0aeb7	0.07845824
27	0x3da3c515	0.07996575
28	0xbc64a62d	-0.013955635
29	0x3e431bc7	0.19053565
30	0x3d190eee	0.037367754
31	0xbd2759d9	-0.04085717
32	0x3e08ddf5	0.1336592
33	0xbdf0f124	-0.11764744
34	0xbc4339c7	-0.011915631
35	0xbc15c04a	-0.009140084
36	0xbe2fc295	-0.17164071
37	0xbcdf4c71	-0.02725813
38	0xbd6ed33e	-0.058306925
39	0xbd976b25	-0.07393483
40	0xbd5be406	-0.053684257
41	0xbb9fc4b3	-0.0048757433
42	0x3d74fa74	0.059809163
43	0xbcf8d683	-0.030375725
44	0xbd870488	-0.06592661
45	0x3b5c83ee	0.0033647972
46	0xbdb45fde	-0.08807348
47	0x3dc16a08	0.09444052
48	0x3dcb9376	0.09940235
49	0x3e1daed7	0.15398727
50	0x3d45b68e	0.0482698
51	0xbc51e790	-0.012811556
52	0xbc1cc98b	-0.009569536
53	0x3d873037	0.06600993
54	0x3c467cff	0.012114762
55	0x3e0b0ed3	0.13579874
56	0x3d1d5949	0.038415227
57	0x3c249f71	0.010047779
58	0xbd3f31e0	-0.046678424
59	0x3cc0254a	0.02345528
60	0x3dba0a72	0.090840235
61	0xbdb67d98	-0.08910674
62	0xbcf3f0f3	-0.02977798
63	0x3c1b0542	0.009461703
64	0x3c53879f	0.012910753
65	0xbcaca6d6	-0.021075647
66	0xbe0e516d	-0.13898249
67	0x3b599604	0.0033200989
68	0x3d774be2	0.060375102
69	0x3d7fba32	0.06243343
70	0x3dccb135	0.09994737
71	0x3d69f055	0.057113964
72	0x3ab37d3e	0.0013693941
73	0x3daafa80	0.0834856
74	0xbda00015	-0.07812516
75	0x3db6d530	0.08927381
76	0xbd52780b	-0.051384013
77	0xbb1a523e	-0.0023547555
78	0x3d2f55cd	0.042806435
79	0xbdc5584a	-0.096359804
80	0x3cd17af0	0.025571316
81	0xbd01eaa7	-0.031717923
82	0x3dde6b16	0.10860269
83	0xbe7db439	-0.2477578
84	0x3d478cfc	0.048718438
85	0x3e55e061	0.20886375
86	0xbe21d9be	-0.15805718
87	0xbd718dd4	-0.05897315
88	0xbd08dc55	-0.03341325
89	0xbd1d0c08	-0.038341552
90	0xbd28c141	-0.041199926
91	0xbde2ad1b	-0.110681735
92	0xbe309c64	-0.17247158
93	0x3da8c564	0.08240774
94	0x3daa67c0	0.0832057
95	0xbce47513	-0.027887857
96	0xbd56f5ad	-0.05248039
97	0xbe0cdc74	-0.13755971
98	0xbe08695d	-0.13321443
99	0xbe287dda	-0.16454259
100	0x3d21db5e	0.039515845
101	0xbdba3bb7	-0.09093421
102	0xbc8bb31c	-0.01705318
103	0xbda64b0d	-0.081197836
104	0x3d824bd9	0.06362123
105	0x3e211ee8	0.15734446
106	0xbd556db4	-0.052106574
107	0x3dd6e257	0.1049239
108	0xbdc7d603	-0.09757616
109	0x3debcae7	0.1151331
110	0xbda2e371	-0.07953537
111	0xbd370192	-0.044679232
112	0x3e8050f4	0.25061762
113	0xbdea60d2	-0.11444248
114	0xbdd93069	-0.10604937
115	0x3db4971e	0.08817886
116	0xbdf3fa2e	-0.11912952
117	0x3d7e0287	0.06201413
118	0x3e4ff5e4	0.20308644
119	0x3d172c91	0.036907736
120	0xbdbbd6d4	-0.091718346
121	0x3cd72577	0.026262982
122	0xbc5dc4e8	-0.013535716
123	0xbd71f169	-0.059068117
124	0xbd9eea5e	-0.07759546
125	0xbc60d682	-0.013723018
126	0xbc5ab043	-0.013347688
127	0x3e380427	0.17970334
128	0xbdafa7a6	-0.08576898
129	0xbe0ccfa3	-0.13751082
130	0xbd8564d1	-0.0651337
131	0x3d944823	0.072403215
132	0x3cf2869a	0.029605199
133	0x3df045f5	0.11732093
134	0xbd97ec7d	-0.074181534
135	0x3d5ea3b2	0.05435533
136	0x3cdc3d27	0.026884628
137	0xbd572a7b	-0.052530747
138	0x3ce3158c	0.027720235
139	0xbd5fd56a	-0.054646887
140	0xbd785eb5	-0.060637195
141	0xbe28b422	-0.16474965
142	0xbdbb991b	-0.09160062
143	0x3c82a83d	0.015949363
144	0x3cbd3be4	0.023099847
145	0xbd9c5263	-0.076329015
146	0x3dbd04c9	0.09229428
147	0x3d05406d	0.032532144
148	0x3dc071da	0.093967155
149	0xbcdca288	-0.02693297
150	0xbd97f8dd	-0.07420514
151	0xbd076467	-0.033054736
152	0x3c6e1502	0.014531376
153	0x3db35bf8	0.08757776
154	0x3d28848a	0.041142024
155	0x3e1f1b67	0.15537797
156	0xbd16c5f1	-0.036809865
157	0xbdf00eb4	-0.117215544
158	0xbe09e577	-0.1346644
159	0x3e15d2b1	0.14631154
160	0x3d023ad0	0.03179437
161	0x3d9240da	0.07141276
162	0xbdc59007	-0.09646612
163	0xbe238c64	-0.15971524
164	0x3cf572a4	0.029961891
165	0xbdafa5d3	-0.0857655
166	0xbd7c3bf7	-0.061580624
167	0x3d1bc120	0.038025975
168	0x3d9d30c3	0.07675316
169	0x3dde22f5	0.10846511
170	0xbdff65fa	-0.12470622
171	0xbddf60b7	-0.10907119
172	0x3e184ad2	0.14872292
173	0x3e05d745	0.130704
174	0x3d3915b0	0.0451867
175	0x3e2a4015	0.16626008
176	0x3b07a3a9	0.0020696914
177	0xbc744ead	-0.014911336
178	0x3d53cb67	0.05170765
179	0x3e474bfb	0.19462578
180	0xbc7730df	-0.015087335
181	0xbe00d4d0	-0.12581182
182	0xbe0ff52a	-0.14058366
183	0xbd8aefac	-0.06783995
184	0xbd91cb5d	-0.071188666
185	0xbd850712	-0.06495489
186	0xbe49a795	-0.19692834
187	0xbdb772dd	-0.08957455
188	0x3d875c92	0.06609453
189	0x3d9a7e6e	0.07543646
190	0xbb2d5cbf	-0.0026452986
191	0xbd343f01	-0.044005398
192	0xbd5a9b80	-0.053370953
193	0x3d8e2cfa	0.06942172
194	0x3d226874	0.039650396
195	0x3d8666b1	0.065625556
196	0xbda2c68e	-0.079480276
197	0xbe0f168b	-0.13973443
198	0xbd33e440	-0.043918848
199	0xbc84075e	-0.016116794
200	0x3e680311	0.2265742
201	0xbe310588	-0.17287266
202	0x3d4f4792	0.050605364
203	0x3d835d41	0.06414271
204	0x3e19b2ab	0.15009563
205	0xbca7c2cd	-0.02047863
206	0xbda2e391	-0.07953561
207	0xbc869410	-0.016428024
208	0x3dfcd8d5	0.12346045
209	0x3d7af46c	0.061268255
210	0x3d39dc2f	0.045376
211	0x3c2634c8	0.01014442
212	0xbd08bb61	-0.033381823
213	0x3dac3cca	0.08410032
214	0xbbce76ce	-0.0063007837
215	0x3d382f88	0.044967204
216	0x3dbf7309	0.09348113
217	0x3b9e815d	0.0048371986
218	0xbc945bd7	-0.018110199
219	0x3dfb030e	0.12256442
220	0xbbb76b1d	-0.0055974857
221	0x3db70832	0.0893711
222	0xbd8b2e1c	-0.06795904
223	0x3d7d2896	0.061806284
224	0x3c9d1b25	0.019177983
225	0x3d620ebc	0.055189833
226	0xbda92d67	-0.08260613
227	0x3c21332d	0.009838861
228	0xbd6ce85a	-0.057838775
229	0x3d7870b1	0.060654346
230	0x3dc927d8	0.09822053
231	0xbcc32144	-0.023819573
232	0xbdae4500	-0.085092545
233	0xbde204ab	-0.110360466
234	0x3d834de1	0.064113386
235	0xbe026d21	-0.12736942
236	0x3d8521a2	0.065005556
237	0xbdfe09f0	-0.12404239
238	0x3c9e513c	0.019325845
239	0xbcde1e46	-0.027114045
240	0x3d8d1305	0.06888393
241	0xbc39f39a	-0.011349583
242	0xbd55b2fe	-0.052172653
243	0x3dd23106	0.10263257
244	0x3d25eea1	0.040510777
245	0xbea2ed34	-0.31821597
246	0x3bd0acc3	0.006368251
247	0x3b94a9f0	0.0045368597
248	0xbae305e7	-0.0017320485
249	0xbdfb0189	-0.12256152
250	0x3e2e98a1	0.17050411
251	0x3d80fdc3	0.06298401
252	0x3da78127	0.08178931
253	0x3d603c69	0.05474511
254	0xbda9363f	-0.082623
255	0x3db75db1	0.08953417

network_body._body_endoder.seq_layers.2.bias f4 [128]
0	0xbbe77b9b	-0.0070642955
1	0x3c401c65	0.01172552
2	0x3b8fa231	0.0043833484
3	0x3c387d47	0.011260337
4	0xb81ccc06	-3.738331e-05
5	0x3c0597b9	0.008153849
6	0xbab3ebd2	-0.0013726896
7	0x3b8f22cb	0.0043681613
8	0xbc0c0977	-0.0085471785
9	0xbc472b75	-0.012156357
10	0xbbb4e7c2	-0.0055207917
11	0xbb2ddf4f	-0.0026530807
12	0x3b5359ef	0.003224965
13	0x3b1f6531	0.002432179
14	0x3be05798	0.0068463795
15	0x3c23aceb	0.009989957
16	0xbadac101	-0.00166896
17	0x3b3c18f3	0.0028701394
18	0xbc101134	-0.008793164
19	0xba9a17cc	-0.001175636
20	0xbb8a625c	-0.004223151
21	0x3bb2195b	0.0054351515
22	0xbbc2cc8c	-0.005944794
23	0xbc28faa3	-0.010313663
24	0xbc229185	-0.00992239
25	0x3b2edb50	0.0026681013
26	0xbc1b5866	-0.009481525
27	0xbc44f814	-0.012022037
28	0xbc06feb0	-0.008239433
29	0xbbe8d323	-0.0071052476
30	0x3b269907	0.0025420801
31	0x3bc59532	0.0060297484
32	0x3bd99935	0.006640578
33	0xba316e57	-0.0006768456
34	0x3bb7255e	0.0055891713
35	0xba3b8e74	-0.0007154711
36	0xbc4842e9	-0.012222984
37	0xbc571353	-0.013127166
38	0xbc2bccb4	-0.010485817
39	0xbbfa7749	-0.0076436144
40	0x3c07fefc	0.008300539
41	0x3b0ada0d	0.0021187097
42	0x3c2e2526	0.010628974
43	0xbbc67e27	-0.006057519
44	0xbc0ed903	-0.008718732
45	0xbba8d302	-0.005152107
46	0xbc49b2dd	-0.012310711
47	0xbc4b81b4	-0.01242106
48	0x3b845cf5	0.0040394017
49	0xb804113a	-3.1487296e-05
50	0xbbc9e07e	-0.0061607948
51	0xbbcfa386	-0.006336632
52	0xbc392909	-0.011301287
53	0x3bb34690	0.005471058
54	0x3bc62bf7	0.0060477215
55	0xbc25e85c	-0.0101262
56	0x3c0e6e6d	0.00869332
57	0x3b2f6b7d	0.002676695
58	0x3a9faa7a	0.0012181543
59	0x3c289f2b	0.010291855
60	0xbb41220a	-0.0029469752
61	0xbba61d37	-0.0050694006
62	0xbc108a44	-0.008822028
63	0x3ae6ca85	0.0017607963
64	0x3c67cea4	0.014148388
65	0x3ac0847b	0.001468792
66	0x3c351a75	0.011053671
67	0x3c514945	0.0127738165
68	0x3b8961a0	0.004192546
69	0x3c505d62	0.012717577
70	0x3bb6af20	0.0055750757
71	0x3b1c659e	0.002386428
72	0x3bda68b3	0.006665313
73	0xbc5aa0a5	-0.013343965
74	0x3c0051db	0.007832016
75	0xbb33ef5d	-0.0027455904
76	0x3bc49920	0.0059996992
77	0xbc255c9d	-0.0100928815
78	0xbb4d00b4	-0.0031280937
79	0xbba60979	-0.005067047
80	0x3b6f3458	0.0036499705
81	0x3a951a58	0.0011375649
82	0x3bc0145c	0.005861802
83	0x3be0f5aa	0.006865223
84	0xbb9ecbf9	-0.004846093
85	0xbb8b40c5	-0.0042496645
86	0xbbbe7c55	-0.0058131614
87	0xbc4f5637	-0.012654833
88	0x3c19dedf	0.0093915155
89	0x3c22ccc2	0.009936513
90	0x3b8f26c0	0.004368633
91	0x3c087bc6	0.008330291
92	0xbc418a96	-0.011812827
93	0xbc50264d	-0.012704444
94	0x3b8cda5e	0.0042984923
95	0xbc04fb28	-0.008116521
96	0x3c260e69	0.010135272
97	0x399ff491	0.0003050906
98	0x3a0960e3	0.00052405725
99	0x3adb2cdd	0.0016721744
100	0xbc236d55	-0.009974797
101	0xbbb2ad2f	-0.005452774
102	0xbc2a36bb	-0.010389025
103	0x3c79fb5d	0.015257684
104	0x3ad1fb70	0.0016020369
105	0x3aaf6f94	0.0013384693
106	0xbc184126	-0.009292876
107	0xbc69007d	-0.014221308
108	0xbb4d0138	-0.0031281244
109	0x3c0d8140	0.008636773
110	0xbc55c12a	-0.013046542
111	0xbbf9459e	-0.007607176
112	0xbb0f9f5a	-0.002191505
113	0x39b9a8e4	0.00035411783
114	0x3bc3ce52	0.005975523
115	0x3b336d36	0.0027378327
116	0xbc5e6f84	-0.013576392
117	0x3b833615	0.00400425
118	0x3bd9a1d3	0.0066416054
119	0x3c500384	0.012696151
120	0xbb16b47b	-0.0022995758
121	0xbbc84a8c	-0.0061124023
122	0x3a42619c	0.00074150576
123	0x3bb7b921	0.005606786
124	0x3c1e61a4	0.009666834
125	0x39839d77	0.00025103588
126	0xba80b31a	-0.0009819001
127	0xbc063ba5	-0.008192931

action_model._continuous_distribution.log_sigma f4 [1, 2]
0	0xbc82b29b	-0.015954306
1	0xbc9a0a38	-0.0188037

action_model._continuous_distribution.mu.weight f4 [2, 128]
0	0x3c98e819	0.01866536
1	0x3c219d42	0.009864153
2	0xbc9f2509	-0.01942684
3	0x3c3cbe01	0.01151991
4	0x3ccd5284	0.02506376
5	0x3c653029	0.013988533
6	0x3b22f980	0.0024867952
7	0xbca401b4	-0.020020343
8	0xbc652d38	-0.013987832
9	0xbc09993a	-0.008398348
10	0xbc99939b	-0.018747142
11	0x3abe3b7c	0.0014513577
12	0x3c8aa61f	0.016924916
13	0x3b7d49f9	0.0038648827
14	0x3c56578b	0.013082395
15	0xbc1f6327	-0.00972823
16	0xbccd77af	-0.025081484
17	0xbce08e6c	-0.027411662
18	0x3baf2da2	0.005346016
19	0x3c403675	0.011731734
20	0xbc9602be	-0.018311854
21	0x3b127613	0.002234821
22	0x3be7333b	0.0070556677
23	0x3c22f788	0.009946711
24	0xbbcc8436	-0.0062413467
25	0xbd02fc53	-0.031978916
26	0x3bdad778	0.006678518
27	0xbc8a9715	-0.016917745
28	0xbbe07adc	-0.0068505835
29	0x3cc51a12	0.024060283
30	0xbb8f547f	-0.0043740864
31	0xbc1b7a3c	-0.009489592
32	0xbb5ba0a3	-0.0033512495
33	0xbcfc90a9	-0.030830698
34	0xbc635902	-0.013876202
35	0xbd495145	-0.04914977
36	0xbb94fde4	-0.0045468677
37	0xbbe00814	-0.0068369005
38	0x3b09365e	0.0020936946
39	0xbb843557	-0.004034679
40	0x3bf85792	0.0075787986
41	0xbbac488f	-0.005257673
42	0x3c26662d	0.010156197
43	0x3cc9115f	0.024544416
44	0x3c5d7ff6	0.013519278
45	0xbcd820f4	-0.0263829
46	0xbafbf0e6	-0.0019221574
47	0x3b9e7a73	0.0048363744
48	0xbc80084d	-0.015628958
49	0x3cd12d6e	0.025534358
50	0xbce2b665	-0.027674863
51	0x3c62cb56	0.013842424
52	0x3be7a20d	0.0070688785
53	0xbd198951	-0.03748447
54	0x3d2a03a5	0.041507382
55	0xbc149ef6	-0.009071102
56	0xbac51864	-0.0015037176
57	0xbd28d32a	-0.041217007
58	0xbc244c3b	-0.01002794
59	0x3bcfe129	0.00634398
60	0x3c303abf	0.010756194
61	0x3c8cb8df	0.017177997
62	0x3aa9be7c	0.0012950446
63	0xbcffe61b	-0.031237653
64	0x3cd77694	0.02630166
65	0xbc562d3f	-0.013072311
66	0xbc2f9dff	-0.010718822
67	0x3cf18532	0.029482458
68	0x3c3c89fa	0.011507506
69	0x3cb32923	0.021870201
70	0x3d14d330	0.036334217
71	0xb9ed3392	-0.00045242585
72	0xbc16b3d5	-0.009198149
73	0xbc1efa7a	-0.009703273
74	0xbc32e17e	-0.010918019
75	0x3bfd84ca	0.007736777
76	0xbc4156b9	-0.011800461
77	0xb9e1dfbc	-0.0004308204
78	0xbc4653d2	-0.012104945
79	0x3c6b761d	0.014371422
80	0xbd05ee2d	-0.032697845
81	0x3c8e8060	0.017395198
82	0x3c2dfbcf	0.010619118
83	0x3c77ad0e	0.015116943
84	0x3cad3603	0.021143919
85	0x3cecb5ce	0.028895285
86	0x3c68ddea	0.014213065
87	0x39a0d4c0	0.0003067609
88	0xbac2a847	-0.0014851176
89	0x3ce64214	0.02810768
90	0x3cccdbaa	0.025007088
91	0x3c360364	0.011109207
92	0x3c027485	0.007962351
93	0xbb16e133	-0.0023022413
94	0x3c156253	0.009117681
95	0x3c745948	0.014913864
96	0xbd036373	-0.032077264
97	0xbcb017b6	-0.021495681
98	0xbd51dc8a	-0.051235713
99	0x3b97714e	0.0046216613
100	0x3b1e7a91	0.0024181942
101	0xbb830790	-0.0039987043
102	0x3b49210a	0.0030689859
103	0x3c5037b7	0.012708596
104	0x3c5cfee3	0.013488504
105	0x3c9f53af	0.019449083
106	0xbc2fe674	-0.010736097
107	0xbb637d69	-0.0034712201
108	0xbc391bfa	-0.011298174
109	0x3cedc2bf	0.029023526
110	0x3b7f74f1	0.0038979615
111	0xba8a7d1c	-0.001056585
112	0xbcb138e9	-0.021633582
113	0x3cadd7a0	0.021220982
114	0x3d5d8495	0.05408152
115	0xbca84631	-0.020541282
116	0xbc396b1b	-0.01131704
117	0xbb97c957	-0.004632156
118	0x3d43c1d2	0.047792263
119	0xbceef421	-0.029169144
120	0xbcb5997b	-0.022167912
121	0x3bce69aa	0.006299217
122	0xbcb69c09	-0.0222912
123	0xbbff83af	-0.0077976803
124	0x3b971d66	0.004611659
125	0x3c01f588	0.007932074
126	0x3c5def2b	0.013545792
127	0x3b9f9a6f	0.004870705
128	0xbcb06659	-0.021533178
129	0x3d16c2f7	0.036807027
130	0x3cc351b1	0.023842664
131	0x3cd42bb3	0.025899744
132	0xbd15ef51	-0.036605183
133	0xbbecb7b7	-0.007224049
134	0xbb968819	-0.004593861
135	0xbbe7ad48	-0.0070702173
136	0xbc6f19ec	-0.014593583
137	0xbbf6fc82	-0.0075374255
138	0xbca40aaf	-0.020024626
139	0x3c0429db	0.00806662
140	0x3b9d13a3	0.0047936006
141	0xbba73e4c	-0.005103862
142	0x3b9012da	0.0043967785
143	0x3c035efd	0.008018252
144	0x3b9c586e	0.004771284
145	0x3bdde578	0.0067717396
146	0xbcf7bf9c	-0.030242734
147	0xbc4fec45	-0.012690608
148	0x3b754b38	0.0037428867
149	0x3c78ff62	0.015197607
150	0xbd32f0bf	-0.043686625
151	0xbc711f03	-0.014716866
152	0xbc96f258	-0.018426105
153	0x3b2f5bf8	0.0026757699
154	0xbc8f0b84	-0.017461546
155	0xbd056604	-0.032567993
156	0xbb74c4cd	-0.0037348748
157	0xbc5626db	-0.013070787
158	0xbb2be30a	-0.0026227855
159	0x3a8dacbf	0.0010808929
160	0x3bd82a68	0.006596852
161	0xbc54806b	-0.01297007
162	0x3c8c02d6	0.017091196
163	0x3c424610	0.0118575245
164	0xbcaa9a49	-0.020825522
165	0xbc0fe4f8	-0.008782618
166	0xbb8a7b4e	-0.004226125
167	0xbc59ab72	-0.013285505
168	0x3ca67279	0.020318257
169	0x3bb53e69	0.0055311215
170	0x3b301e91	0.0026873688
171	0xbc44d488	-0.012013562
172	0xbb82e8fa	-0.003995058
173	0xbbb00cc7	-0.005372617
174	0xbbf37293	-0.00742943
175	0x3815ceb0	3.571686e-05
176	0x3c9859f6	0.018597584
177	0x3b3c66e5	0.0028747853
178	0xbc15db61	-0.009146542
179	0xbd0a207c	-0.033722386
180	0xbcccf037	-0.025016887
181	0x3b27b4a1	0.002558984
182	0x3cda268a	0.026629705
183	0xbc4709de	-0.012148349
184	0x3c3427de	0.010995833
185	0x3c6d2876	0.014474979
186	0x3b8b46f2	0.0042504007
187	0x3cb5fe48	0.022215977
188	0x3adca1b0	0.0016832855
189	0xbc5a57b2	-0.013326572
190	0xbc5d6f26	-0.013515269
191	0xbc03c1d6	-0.00804182
192	0xbbdccac7	-0.00673804
193	0x3c6969ca	0.0142464135
194	0x3c89eadc	0.016835622
195	0xbcfb1907	-0.030651582
196	0xbb8cf7b2	-0.0043019885
197	0x3cfebcc5	0.031095872
198	0x3ce08ee1	0.02741188
199	0x3c2bda9f	0.010489135
200	0x3c7609d5	0.015016993
201	0xbcbe8143	-0.023254996
202	0x3c97f4e5	0.018549392
203	0xbcd28be4	-0.02570147
204	0xbbf4bf5d	-0.0074691013
205	0xbc8e7789	-0.017390983
206	0xbc0e37fa	-0.008680338
207	0xbb179f62	-0.002313577
208	0x3be5bc8f	0.0070110033
209	0x3b971178	0.0046102367
210	0xbb38b205	-0.002818228
211	0x3b7b0224	0.0038300836
212	0xbc033b6f	-0.008009776
213	0xbd5ae85b	-0.053444248
214	0xbcca000d	-0.024658227
215	0x390bc10c	0.00013327989
216	0x3c2761cc	0.010216188
217	0x3ad526e6	0.0016262203
218	0xbd19985b	-0.037498813
219	0x3c2eb290	0.01066269
220	0xbd045ea5	-0.032316823
221	0xbb0852a7	-0.0020801218
222	0xbb6565ca	-0.0035003298
223	0xbcf73472	-0.030176375
224	0x3ce0263a	0.027361978
225	0x3bdf2899	0.0068102595
226	0x3c99278c	0.018695615
227	0x3c0310c2	0.007999601
228	0xba572f19	-0.0008208617
229	0x3b43c678	0.0029872935
230	0xbc83710a	-0.016045112
231	0xba146458	-0.00056607043
232	0xbaf71f30	-0.0018853899
233	0xbd1085a3	-0.035283696
234	0xbd808b4a	-0.06276567
235	0xbc697575	-0.014249195
236	0xbc07c6d5	-0.008287151
237	0xbca3e3c5	-0.02000607
238	0xbbb4d568	-0.005518604
239	0xbc3a4043	-0.01136786
240	0xbcd24d7d	-0.025671715
241	0x3ba205a9	0.0049445224
242	0x3bea0244	0.0071413834
243	0x3c15a3f9	0.009133332
244	0xbc5ca72e	-0.013467593
245	0xbae47d2f	-0.0017432327
246	0x3cd9a1a5	0.026566336
247	0x3c4e9c7b	0.01261055
248	0x3bf1569c	0.007365061
249	0xbc20745e	-0.009793369
250	0x3ba7af72	0.0051173503
251	0x3bba9278	0.00569373
252	0x3d0185fd	0.03162192
253	0xbc0a251a	-0.008431697
254	0xbd3aa1b1	-0.045564357
255	0xbccdddbf	-0.02513015

action_model._continuous_distribution.mu.bias f4 [2]
0	0x3acac250	0.0015469287
1	0x3c47692d	0.012171072

exp_avg f4 [128, 6]
0	0x3739a3ee	1.1065027e-05
1	0x00000000	0.0
2	0x362906c8	2.518691e-06
3	0x00000000	0.0
4	0xb7e355b0	-2.710041e-05
5	0xb86355b0	-5.420082e-05
6	0xb5c3f47a	-1.4599784e-06
7	0x00000000	0.0
8	0x37ed6bac	2.830274e-05
9	0x00000000	0.0
10	0x379f1e86	1.896849e-05
11	0x381f1e86	3.793698e-05
12	0x3667908d	3.4505822e-06
13	0x00000000	0.0
14	0xb55ea080	-8.2935003e-07
15	0x00000000	0.0
16	0xb7394f9d	-1.1045396e-05
17	0xb7b94f9d	-2.2090791e-05
18	0x37457f7e	1.1771799e-05
19	0x00000000	0.0
20	0x364d07e8	3.0551982e-06
21	0x00000000	0.0
22	0xb7baba4f	-2.2259685e-05
23	0xb83aba4f	-4.451937e-05
24	0xb4f51070	-4.5646766e-07
25	0x00000000	0.0
26	0xb3893f5e	-6.391086e-08
27	0x00000000	0.0
28	0x366aba27	3.4977072e-06
29	0x36eaba27	6.9954144e-06
30	0x3752dbbe	1.2568138e-05
31	0x00000000	0.0
32	0xb7ab4f7a	-2.0421798e-05
33	0x00000000	0.0
34	0xb84fdc21	-4.9557657e-05
35	0xb8cfdc21	-9.9115314e-05
36	0x37eab245	2.7977987e-05
37	0x00000000	0.0
38	0xb8369284	-4.3528635e-05
39	0x00000000	0.0
40	0xb8dc0e52	-0.00010493085
41	0xb95c0e52	-0.0002098617
42	0xb48bec31	-2.606262e-07
43	0x00000000	0.0
44	0xb65c6482	-3.2841058e-06
45	0x00000000	0.0
46	0xb5fe6336	-1.8953349e-06
47	0xb67e6336	-3.7906698e-06
48	0x3703243d	7.816646e-06
49	0x00000000	0.0
50	0x36b09b5c	5.263295e-06
51	0x00000000	0.0
52	0xb7d9031d	-2.5869866e-05
53	0xb859031d	-5.173973e-05
54	0xb7362acd	-1.0858011e-05
55	0x00000000	0.0
56	0x37345bb0	1.0750184e-05
57	0x00000000	0.0
58	0x383064da	4.2055595e-05
59	0x38b064da	8.411119e-05
60	0xb6a96880	-5.048758e-06
61	0x00000000	0.0
62	0x37c1d6b5	2.3107374e-05
63	0x00000000	0.0
64	0x37f34f70	2.9004848e-05
65	0x38734f70	5.8009697e-05
66	0x37b4ffbb	2.1576756e-05
67	0x00000000	0.0
68	0xb7eb5d92	-2.8057755e-05
69	0x00000000	0.0
70	0xb8a77661	-7.98523e-05
71	0xb9277661	-0.0001597046
72	0xb6dff6c8	-6.674647e-06
73	0x00000000	0.0
74	0x35e584d0	1.7100483e-06
75	0x00000000	0.0
76	0x37ae6268	2.078824e-05
77	0x382e6268	4.157648e-05
78	0xb575b1af	-9.1528176e-07
79	0x00000000	0.0
80	0x36b9db36	5.538949e-06
81	0x00000000	0.0
82	0x36ef6bb2	7.1352924e-06
83	0x376f6bb2	1.4270585e-05
84	0xb706a1a9	-8.024662e-06
85	0x00000000	0.0
86	0x37198b01	9.151875e-06
87	0x00000000	0.0
88	0x38053029	3.1754524e-05
89	0x38853029	6.350905e-05
90	0x3704fd99	7.926858e-06
91	0x00000000	0.0
92	0xb76ce9f6	-1.4121169e-05
93	0x00000000	0.0
94	0xb7cab371	-2.4163835e-05
95	0xb84ab371	-4.832767e-05
96	0x35664b68	8.579141e-07
97	0x00000000	0.0
98	0x3671d6d8	3.6036854e-06
99	0x00000000	0.0
100	0x36888f0e	4.0697696e-06
101	0x37088f0e	8.139539e-06
102	0xb481d900	-2.418601e-07
103	0x00000000	0.0
104	0x34b05031	3.2840902e-07
105	0x00000000	0.0
106	0x35101fd0	5.3690474e-07
107	0x35901fd0	1.0738095e-06
108	0xb7aeb4f3	-2.0826677e-05
109	0x00000000	0.0
110	0xb6183ce0	-2.26852e-06
111	0x00000000	0.0
112	0x38a708c8	7.964816e-05
113	0x392708c8	0.00015929632
114	0xb83c4f96	-4.4896813e-05
115	0x00000000	0.0
116	0x38851494	6.345767e-05
117	0x00000000	0.0
118	0x393f2842	0.00018230177
119	0x39bf2842	0.00036460353
120	0x37e9fb04	2.7892653e-05
121	0x00000000	0.0
122	0x376df2b6	1.4182811e-05
123	0x00000000	0.0
124	0xb8816950	-6.170815e-05
125	0xb9016950	-0.0001234163
126	0x36331b56	2.668899e-06
127	0x00000000	0.0
128	0xb64b9525	-3.033617e-06
129	0x00000000	0.0
130	0xb6f778a1	-7.3752167e-06
131	0xb77778a1	-1.4750433e-05
132	0x360e2426	2.118069e-06
133	0x00000000	0.0
134	0x35ea44cc	1.7454381e-06
135	0x00000000	0.0
136	0xb6cc0063	-6.079719e-06
137	0xb74c0063	-1.2159438e-05
138	0x372612df	9.898765e-06
139	0x00000000	0.0
140	0xb67d4d6c	-3.7745003e-06
141	0x00000000	0.0
142	0xb81ac058	-3.6895595e-05
143	0xb89ac058	-7.379119e-05
144	0x380f13bd	3.411224e-05
145	0x00000000	0.0
146	0xb87f05c2	-6.08021e-05
147	0x00000000	0.0
148	0xb90919bb	-0.00013074923
149	0xb98919bb	-0.00026149847
150	0xb51b86ec	-5.7938337e-07
151	0x00000000	0.0
152	0x36c3cc4f	5.8352375e-06
153	0x00000000	0.0
154	0x36cb4c1b	6.0587313e-06
155	0x374b4c1b	1.2117463e-05
156	0x34cbbe4e	3.795016e-07
157	0x00000000	0.0
158	0x3721d295	9.645378e-06
159	0x00000000	0.0
160	0x36a0b9d7	4.790006e-06
161	0x3720b9d7	9.580012e-06
162	0x3603c34e	1.9634203e-06
163	0x00000000	0.0
164	0xb79df3bd	-1.8829358e-05
165	0x00000000	0.0
166	0xb775a4df	-1.4641525e-05
167	0xb7f5a4df	-2.928305e-05
168	0x374813ee	1.1925569e-05
169	0x00000000	0.0
170	0xb733dded	-1.07209025e-05
171	0x00000000	0.0
172	0xb82e412d	-4.1545532e-05
173	0xb8ae412d	-8.3091065e-05
174	0xb6d2af48	-6.278893e-06
175	0x00000000	0.0
176	0x36ccfa08	6.1087812e-06
177	0x00000000	0.0
178	0x37c4e968	2.3473709e-05
179	0x3844e968	4.6947418e-05
180	0xb7418960	-1.1535682e-05
181	0x00000000	0.0
182	0x34c986a0	3.753712e-07
183	0x00000000	0.0
184	0x383bee18	4.4806016e-05
185	0x38bbee18	8.961203e-05
186	0x37e5ec12	2.7408856e-05
187	0x00000000	0.0
188	0xb7f5cd92	-2.9302002e-05
189	0x00000000	0.0
190	0xb8c0e666	-9.1981885e-05
191	0xb940e666	-0.00018396377
192	0x371ee78b	9.471444e-06
193	0x00000000	0.0
194	0xb67fad20	-3.8098733e-06
195	0x00000000	0.0
196	0xb8243be4	-3.9156424e-05
197	0xb8a43be4	-7.831285e-05
198	0x37350755	1.0790148e-05
199	0x00000000	0.0
200	0xb813db0b	-3.525153e-05
201	0x00000000	0.0
202	0xb8595422	-5.1815186e-05
203	0xb8d95422	-0.00010363037
204	0xb5df5e4e	-1.6642241e-06
205	0x00000000	0.0
206	0x37eda87c	2.8331058e-05
207	0x00000000	0.0
208	0x37aa6de5	2.0316753e-05
209	0x382a6de5	4.0633506e-05
210	0xb69e7f82	-4.723611e-06
211	0x00000000	0.0
212	0x38492fc2	4.7966612e-05
213	0x00000000	0.0
214	0x38402433	4.581008e-05
215	0x38c02433	9.162016e-05
216	0x3503fd68	4.917006e-07
217	0x00000000	0.0
218	0xb40d58f2	-1.3164006e-07
219	0x00000000	0.0
220	0xb6c1b631	-5.773058e-06
221	0xb741b631	-1.1546116e-05
222	0x366ca2f7	3.5261598e-06
223	0x00000000	0.0
224	0x37fc1e0f	3.0054738e-05
225	0x00000000	0.0
226	0x37a12c38	1.9213287e-05
227	0x38212c38	3.8426573e-05
228	0xb632f094	-2.6664102e-06
229	0x00000000	0.0
230	0x37075044	8.065315e-06
231	0x00000000	0.0
232	0x3719431e	9.135138e-06
233	0x3799431e	1.8270275e-05
234	0xb5363157	-6.787208e-07
235	0x00000000	0.0
236	0xb68f126e	-4.2638776e-06
237	0x00000000	0.0
238	0xb634edd8	-2.6960533e-06
239	0xb6b4edd8	-5.3921067e-06
240	0x37d7ebde	2.5739831e-05
241	0x00000000	0.0
242	0xb84311b3	-4.6508107e-05
243	0x00000000	0.0
244	0xb8e82a8a	-0.000110705456
245	0xb9682a8a	-0.00022141091
246	0xb5704a1e	-8.951482e-07
247	0x00000000	0.0
248	0x3749ca81	1.2027683e-05
249	0x00000000	0.0
250	0x3717c101	9.045239e-06
251	0x3797c101	1.8090477e-05
252	0x34b9fc8e	3.4642693e-07
253	0x00000000	0.0
254	0xb4737cbc	-2.2676517e-07
255	0x00000000	0.0

exp_avg_sq f4 [128, 6]
0	0x31b84722	5.3631917e-09
1	0x00000000	0.0
2	0x32c1321b	2.2490942e-08
3	0x00000000	0.0
4	0x3247b079	1.162345e-08
5	0x3347b079	4.64938e-08
6	0x3104fc74	1.935203e-09
7	0x00000000	0.0
8	0x32d53f8a	2.4825358e-08
9	0x00000000	0.0
10	0x3280b478	1.4983229e-08
11	0x3380b478	5.9932916e-08
12	0x2e12f150	3.3410885e-11
13	0x00000000	0.0
14	0x301e5043	5.7594124e-10
15	0x00000000	0.0
16	0x2fc78cc7	3.6297917e-10
17	0x30c78cc7	1.4519167e-09
18	0x3147772d	2.9026055e-09
19	0x00000000	0.0
20	0x3265b8c5	1.3371566e-08
21	0x00000000	0.0
22	0x3222eba7	9.483222e-09
23	0x3322eba7	3.793289e-08
24	0x2f7daa0f	2.3070633e-10
25	0x00000000	0.0
26	0x3065e540	8.36355e-10
27	0x00000000	0.0
28	0x2fd82b84	3.932109e-10
29	0x30d82b84	1.5728436e-09
30	0x31163576	2.1858262e-09
31	0x00000000	0.0
32	0x330f4322	3.335584e-08
33	0x00000000	0.0
34	0x32eaeb12	2.7348083e-08
35	0x33eaeb12	1.0939233e-07
36	0x31ad3189	5.040594e-09
37	0x00000000	0.0
38	0x33aaa579	7.946341e-08
39	0x00000000	0.0
40	0x337de195	5.911132e-08
41	0x347de195	2.3644527e-07
42	0x2e7de2fd	5.7727146e-11
43	0x00000000	0.0
44	0x304adae9	7.379826e-10
45	0x00000000	0.0
46	0x2feb24e0	4.2772452e-10
47	0x30eb24e0	1.7108981e-09
48	0x30c6b1ff	1.4456986e-09
49	0x00000000	0.0
50	0x31b9850c	5.3993343e-09
51	0x00000000	0.0
52	0x3189a209	4.005646e-09
53	0x3289a209	1.6022584e-08
54	0x306b10aa	8.5516183e-10
55	0x00000000	0.0
56	0x31ebd841	6.8639854e-09
57	0x00000000	0.0
58	0x318f0184	4.16202e-09
59	0x328f0184	1.664808e-08
60	0x30c7da12	1.4541135e-09
61	0x00000000	0.0
62	0x31dae28d	6.370391e-09
63	0x00000000	0.0
64	0x31aa2481	4.951801e-09
65	0x32aa2481	1.9807205e-08
66	0x3186d223	3.923803e-09
67	0x00000000	0.0
68	0x33138bb1	3.4353153e-08
69	0x00000000	0.0
70	0x32d9380a	2.5287608e-08
71	0x33d9380a	1.01150434e-07
72	0x2fba8a78	3.393159e-10
73	0x00000000	0.0
74	0x31348a76	2.6272153e-09
75	0x00000000	0.0
76	0x30d32ba8	1.5364678e-09
77	0x31d32ba8	6.1458714e-09
78	0x2f3c62ec	1.7133645e-10
79	0x00000000	0.0
80	0x302cb6d9	6.283308e-10
81	0x00000000	0.0
82	0x2f3688b4	1.660137e-10
83	0x303688b4	6.640548e-10
84	0x30f3ef60	1.7748611e-09
85	0x00000000	0.0
86	0x31a015a7	4.6590745e-09
87	0x00000000	0.0
88	0x314cf35f	2.9824248e-09
89	0x324cf35f	1.1929699e-08
90	0x32a336c5	1.9000604e-08
91	0x00000000	0.0
92	0x336f5893	5.572708e-08
93	0x00000000	0.0
94	0x3339c4b1	4.325256e-08
95	0x3439c4b1	1.7301024e-07
96	0x2f05a5a5	1.2155128e-10
97	0x00000000	0.0
98	0x309c06ee	1.1352463e-09
99	0x00000000	0.0
100	0x30171430	5.496217e-10
101	0x31171430	2.1984867e-09
102	0x2d7afe49	1.4267317e-11
103	0x00000000	0.0
104	0x2f007837	1.1684241e-10
105	0x00000000	0.0
106	0x2e07421e	3.075417e-11
107	0x2f07421e	1.2301668e-10
108	0x31acae6b	5.025688e-09
109	0x00000000	0.0
110	0x337796f2	5.7646453e-08
111	0x00000000	0.0
112	0x3320cae5	3.7437434e-08
113	0x3420cae5	1.4974974e-07
114	0x33879e27	6.315195e-08
115	0x00000000	0.0
116	0x346f5613	2.2289923e-07
117	0x00000000	0.0
118	0x340c2daf	1.3055136e-07
119	0x350c2daf	5.222054e-07
120	0x31a931e0	4.9242175e-09
121	0x00000000	0.0
122	0x338c86de	6.54379e-08
123	0x00000000	0.0
124	0x333b1b4d	4.356416e-08
125	0x343b1b4d	1.7425664e-07
126	0x2f9302ab	2.674104e-10
127	0x00000000	0.0
128	0x30897e96	1.000404e-09
129	0x00000000	0.0
130	0x300e0cd6	5.167754e-10
131	0x310e0cd6	2.0671016e-09
132	0x2f47147c	1.8106222e-10
133	0x00000000	0.0
134	0x305010ed	7.569401e-10
135	0x00000000	0.0
136	0x2fd91a6c	3.9490844e-10
137	0x30d91a6c	1.5796338e-09
138	0x313bade8	2.7310936e-09
139	0x00000000	0.0
140	0x321df717	9.1947845e-09
141	0x00000000	0.0
142	0x31e11dab	6.5517347e-09
143	0x32e11dab	2.6206939e-08
144	0x324ae305	1.1809566e-08
145	0x00000000	0.0
146	0x344f42f6	1.9302738e-07
147	0x00000000	0.0
148	0x341b0dab	1.4440472e-07
149	0x351b0dab	5.776189e-07
150	0x2f1c9c81	1.4243719e-10
151	0x00000000	0.0
152	0x309d9cbf	1.1467803e-09
153	0x00000000	0.0
154	0x3086722b	9.782232e-10
155	0x3186722b	3.9128927e-09
156	0x311aded4	2.2536613e-09
157	0x00000000	0.0
158	0x31c88a59	5.8364944e-09
159	0x00000000	0.0
160	0x314f5ef9	3.017645e-09
161	0x324f5ef9	1.207058e-08
162	0x31c451d5	5.713654e-09
163	0x00000000	0.0
164	0x3287efce	1.5825119e-08
165	0x00000000	0.0
166	0x32413387	1.12457945e-08
167	0x33413387	4.4983178e-08
168	0x31978407	4.409688e-09
169	0x00000000	0.0
170	0x3246851b	1.15553815e-08
171	0x00000000	0.0
172	0x31ed9c00	6.915343e-09
173	0x32ed9c00	2.7661372e-08
174	0x2f6412f8	2.0743218e-10
175	0x00000000	0.0
176	0x31bb46d8	5.4504703e-09
177	0x00000000	0.0
178	0x319129f1	4.2248236e-09
179	0x329129f1	1.6899294e-08
180	0x3002a33b	4.752569e-10
181	0x00000000	0.0
182	0x32064b7c	7.81699e-09
183	0x00000000	0.0
184	0x31c02120	5.5917013e-09
185	0x32c02120	2.2366805e-08
186	0x319002d9	4.1912753e-09
187	0x00000000	0.0
188	0x335c3e5a	5.127945e-08
189	0x00000000	0.0
190	0x331d271a	3.6589974e-08
191	0x341d271a	1.463599e-07
192	0x30a5bfae	1.2059809e-09
193	0x00000000	0.0
194	0x320da531	8.24484e-09
195	0x00000000	0.0
196	0x3199a4f5	4.4716395e-09
197	0x3299a4f5	1.7886558e-08
198	0x31443a6d	2.8554965e-09
199	0x00000000	0.0
200	0x32e07a5b	2.6132673e-08
201	0x00000000	0.0
202	0x32a2af18	1.8938906e-08
203	0x33a2af18	7.575562e-08
204	0x314f159e	3.0134752e-09
205	0x00000000	0.0
206	0x3316694a	3.5020356e-08
207	0x00000000	0.0
208	0x32b9fc58	2.1651587e-08
209	0x33b9fc58	8.660635e-08
210	0x31b04b84	5.1308593e-09
211	0x00000000	0.0
212	0x338d4ccc	6.5797934e-08
213	0x00000000	0.0
214	0x332f19b6	4.0768747e-08
215	0x342f19b6	1.6307499e-07
216	0x30ad68a9	1.2617153e-09
217	0x00000000	0.0
218	0x31910b7e	4.221362e-09
219	0x00000000	0.0
220	0x30a515c3	1.2011515e-09
221	0x31a515c3	4.804606e-09
222	0x31104b7f	2.0997672e-09
223	0x00000000	0.0
224	0x3320de20	3.7454924e-08
225	0x00000000	0.0
226	0x32adb7c9	2.0223426e-08
227	0x33adb7c9	8.0893706e-08
228	0x2fd2ddf6	3.835649e-10
229	0x00000000	0.0
230	0x2ff2ce70	4.4166226e-10
231	0x00000000	0.0
232	0x2fa360f8	2.9718428e-10
233	0x30a360f8	1.1887371e-09
234	0x2e9e912f	7.210798e-11
235	0x00000000	0.0
236	0x3090e0ac	1.0541235e-09
237	0x00000000	0.0
238	0x3017dcd4	5.5247296e-10
239	0x3117dcd4	2.2098918e-09
240	0x3229e0ac	9.888179e-09
241	0x00000000	0.0
242	0x33bbf0a9	8.751642e-08
243	0x00000000	0.0
244	0x33890223	6.379948e-08
245	0x34890223	2.5519793e-07
246	0x303c5fba	6.8530037e-10
247	0x00000000	0.0
248	0x31aec844	5.086834e-09
249	0x00000000	0.0
250	0x3163d454	3.3153542e-09
251	0x3263d454	1.3261417e-08
252	0x300a94d3	5.04156e-10
253	0x00000000	0.0
254	0x307c86b7	9.186851e-10
255	0x00000000	0.0

exp_avg f4 [128]
0	0xb7e355af	-2.7100408e-05
1	0x379f1e86	1.896849e-05
2	0xb7394f94	-1.10453875e-05
3	0xb7baba43	-2.2259663e-05
4	0x366aba23	3.4977063e-06
5	0xb84fdc30	-4.955771e-05
6	0xb8dc0e52	-0.00010493085
7	0xb5fe6342	-1.8953363e-06
8	0xb7d9031a	-2.586986e-05
9	0x383064d8	4.2055588e-05
10	0x37f34f6f	2.9004847e-05
11	0xb8a77662	-7.985231e-05
12	0x37ae626c	2.0788248e-05
13	0x36ef6bb1	7.135292e-06
14	0x38053026	3.1754513e-05
15	0xb7cab360	-2.4163804e-05
16	0x36888f0c	4.0697687e-06
17	0x35101fcc	5.369045e-07
18	0x38a708c1	7.964811e-05
19	0x393f283c	0.00018230168
20	0xb881695a	-6.1708226e-05
21	0xb6f778a2	-7.375217e-06
22	0xb6cc005c	-6.0797156e-06
23	0xb81ac059	-3.68956e-05
24	0xb90919bd	-0.00013074926
25	0x36cb4c1e	6.0587327e-06
26	0x36a0b9c9	4.79e-06
27	0xb775a4f7	-1.4641547e-05
28	0xb82e4130	-4.1545543e-05
29	0x37c4e968	2.3473709e-05
30	0x383bee1c	4.480603e-05
31	0xb8c0e668	-9.19819e-05
32	0xb8243bed	-3.9156457e-05
33	0xb8595422	-5.1815186e-05
34	0x37aa6dec	2.0316766e-05
35	0x38402434	4.5810084e-05
36	0xb6c1b62f	-5.773057e-06
37	0x37a12c3c	1.9213294e-05
38	0x3719431d	9.135137e-06
39	0xb634eddd	-2.6960545e-06
40	0xb8e82a8b	-0.00011070546
41	0x3717c103	9.04524e-06
42	0xb62fb4ef	-2.618235e-06
43	0xb8d43742	-0.0001011924
44	0xb91a9b71	-0.00014744491
45	0xb9269eba	-0.00015890124
46	0x3890f8c1	6.912789e-05
47	0x37b8ca5b	2.2028738e-05
48	0xb8bfbe9a	-9.143092e-05
49	0x3817bcc2	3.6177e-05
50	0xb859ba0c	-5.19101e-05
51	0xb89d01d9	-7.4866875e-05
52	0x35608df0	8.365305e-07
53	0xb80cfcf2	-3.3614175e-05
54	0x3672c052	3.6172755e-06
55	0x36373f24	2.7305878e-06
56	0x36ff15a6	7.6021124e-06
57	0xb6f03191	-7.1583277e-06
58	0xb72b6a49	-1.0217141e-05
59	0x35a2aedb	1.212083e-06
60	0x3854b710	5.071523e-05
61	0x385d48f2	5.275844e-05
62	0xb79ffa1f	-1.9070749e-05
63	0xb883ea09	-6.290159e-05
64	0xb785fbb8	-1.5972051e-05
65	0x3818a54b	3.6393565e-05
66	0x3755a380	1.2733857e-05
67	0x3902578e	0.00012430383
68	0xb81163c6	-3.4663615e-05
69	0xb8591dc3	-5.176455e-05
70	0x37d3a453	2.522968e-05
71	0xb73083b2	-1.052108e-05
72	0xb97947f4	-0.00023773295
73	0xb80cb5fb	-3.3548084e-05
74	0xb8c48a7f	-9.371805e-05
75	0xb80e2686	-3.3891316e-05
76	0xb72e80c9	-1.0401193e-05
77	0x37973c7c	1.8028768e-05
78	0x35ae458c	1.2984251e-06
79	0x386df260	5.6730933e-05
80	0xb81f9364	-3.8045822e-05
81	0xb907fa58	-0.00012967864
82	0xb8168963	-3.589074e-05
83	0x33ac8a00	8.034476e-08
84	0xb91c803d	-0.00014925092
85	0xb6726bb3	-3.61235e-06
86	0xb6fe8241	-7.5849534e-06
87	0xb4283e8c	-1.5668974e-07
88	0x3649f69c	3.009488e-06
89	0xb88c4c02	-6.689878e-05
90	0x34d9cc88	4.0568216e-07
91	0xb7db21d8	-2.6122594e-05
92	0xb7af3873	-2.0887912e-05
93	0xb9512110	-0.0001994411
94	0xb66fc81c	-3.5730254e-06
95	0xb916961f	-0.00014361039
96	0xb5a3a978	-1.2193768e-06
97	0x33d206e0	9.7801376e-08
98	0x3686d72b	4.01856e-06
99	0xb58ce072	-1.0496135e-06
100	0xb7c54672	-2.3517034e-05
101	0x374251d6	1.1582355e-05
102	0x36ded8ee	6.6413695e-06
103	0x381aa098	3.6866026e-05
104	0x35924037	1.0896537e-06
105	0xb63c23e0	-2.8035065e-06
106	0x3596ebb8	1.1244474e-06
107	0x3804c325	3.1652995e-05
108	0xb74f4155	-1.2353373e-05
109	0x3793265e	1.7541632e-05
110	0xb79f198c	-1.8966173e-05
111	0xb8a3538e	-7.788009e-05
112	0xb710b35e	-8.624831e-06
113	0xb88e51d3	-6.7863286e-05
114	0x379106f4	1.7288585e-05
115	0xb8929e17	-6.991269e-05
116	0x38534f11	5.0379957e-05
117	0x3854bf9b	5.0723185e-05
118	0x36863ffb	4.0009595e-06
119	0xb795317a	-1.7785223e-05
120	0xb8e058c8	-0.00010697689
121	0xb89b077a	-7.3923686e-05
122	0x38515aae	4.9913935e-05
123	0xb79c5d31	-1.8640045e-05
124	0xb480a752	-2.39636e-07
125	0x37a884c2	2.008898e-05
126	0x37fecbfc	3.0374147e-05
127	0xb6ce92d6	-6.1563724e-06

exp_avg_sq f4 [128]
0	0x3247b079	1.162345e-08
1	0x3280b478	1.4983229e-08
2	0x2fc78cc5	3.6297912e-10
3	0x3222eba6	9.483221e-09
4	0x2fd82b84	3.932109e-10
5	0x32eaeb11	2.7348081e-08
6	0x337de198	5.911133e-08
7	0x2feb24df	4.277245e-10
8	0x3189a20c	4.0056474e-09
9	0x318f0184	4.16202e-09
10	0x31aa2481	4.951801e-09
11	0x32d9380c	2.5287612e-08
12	0x30d32bac	1.5364683e-09
13	0x2f3688b7	1.6601374e-10
14	0x314cf35f	2.9824248e-09
15	0x3339c4b0	4.3252555e-08
16	0x30171430	5.496217e-10
17	0x2e07421e	3.075417e-11
18	0x3320cae3	3.7437427e-08
19	0x340c2daf	1.3055136e-07
20	0x333b1b4e	4.3564164e-08
21	0x300e0cd7	5.1677546e-10
22	0x2fd91a6a	3.9490838e-10
23	0x31e11da9	6.551734e-09
24	0x341b0daa	1.4440471e-07
25	0x3086722b	9.782232e-10
26	0x314f5ef9	3.017645e-09
27	0x32413386	1.1245794e-08
28	0x31ed9bff	6.9153425e-09
29	0x319129f1	4.2248236e-09
30	0x31c0211f	5.591701e-09
31	0x331d271b	3.6589977e-08
32	0x3199a4f3	4.4716386e-09
33	0x32a2af17	1.8938904e-08
34	0x32b9fc58	2.1651587e-08
35	0x332f19b6	4.0768747e-08
36	0x30a515c4	1.2011516e-09
37	0x32adb7ca	2.0223428e-08
38	0x2fa360f6	2.9718422e-10
39	0x3017dcd5	5.52473e-10
40	0x33890221	6.379947e-08
41	0x3163d453	3.315354e-09
42	0x2fcde107	3.7449174e-10
43	0x3330889c	4.110244e-08
44	0x334dee01	4.7946745e-08
45	0x3408ebca	1.2751767e-07
46	0x32a59d76	1.9280133e-08
47	0x31e0171c	6.5218853e-09
48	0x3352a417	4.9043674e-08
49	0x323d0818	1.1003088e-08
50	0x31f74df6	7.1975093e-09
51	0x327c1258	1.4672501e-08
52	0x30379976	6.6793093e-10
53	0x31840266	3.8419783e-09
54	0x3083475b	9.551785e-10
55	0x2ff39d56	4.4313236e-10
56	0x2f86150f	2.438942e-10
57	0x304245df	7.067608e-10
58	0x30a15954	1.173968e-09
59	0x2e8de0a8	6.4518446e-11
60	0x31f89581	7.2347466e-09
61	0x3301781a	3.0144385e-08
62	0x32e21ea5	2.6323798e-08
63	0x3309d77b	3.2093777e-08
64	0x31770197	3.5944134e-09
65	0x3349fed1	4.7030714e-08
66	0x325a95dd	1.2723345e-08
67	0x3411e109	1.3586045e-07
68	0x315191ff	3.0496492e-09
69	0x31d5d8aa	6.2237477e-09
70	0x321b624d	9.0445385e-09
71	0x2ff97405	4.5375273e-10
72	0x34aeda61	3.2568917e-07
73	0x3186cc0f	3.923112e-09
74	0x3343eea7	4.561903e-08
75	0x329a1cfc	1.794114e-08
76	0x2fb56f0c	3.3002612e-10
77	0x30b0507c	1.282856e-09
78	0x2eb30ebb	8.142594e-11
79	0x32899f1a	1.602125e-08
80	0x3183203e	3.8162673e-09
81	0x33baef77	8.704858e-08
82	0x328ff10f	1.6757012e-08
83	0x30f16cee	1.7566018e-09
84	0x339f188e	7.408481e-08
85	0x310b265c	2.0248967e-09
86	0x30d5cadd	1.5555447e-09
87	0x2d989234	1.7345327e-11
88	0x331b0478	3.6092814e-08
89	0x32267a5d	9.690294e-09
90	0x2e0b776d	3.1711012e-11
91	0x3145a8fa	2.8763325e-09
92	0x3030b591	6.428645e-10
93	0x3409a817	1.282027e-07
94	0x30450021	7.1668366e-10
95	0x33f8ee8c	1.1591791e-07
96	0x31e34fda	6.6156476e-09
97	0x30208526	5.8396876e-10
98	0x2fafe623	3.1995837e-10
99	0x2e5381df	4.8091194e-11
100	0x3314c9e3	3.464255e-08
101	0x31a3c038	4.765777e-09
102	0x2f208bb7	1.4601552e-10
103	0x32d6635d	2.4958064e-08
104	0x2ce27aad	6.436926e-12
105	0x2fcfe54f	3.7816014e-10
106	0x2f26ff0e	1.5188226e-10
107	0x3178b4e2	3.619157e-09
108	0x30aacac1	1.2426754e-09
109	0x30a74db7	1.2172937e-09
110	0x32389cd6	1.074587e-08
111	0x33436e0f	4.5502073e-08
112	0x30d1a409	1.5253373e-09
113	0x328ac9bd	1.6157054e-08
114	0x3278782e	1.4462826e-08
115	0x32d94db9	2.5297469e-08
116	0x32f5b8f6	2.8605864e-08
117	0x341e0a9c	1.4718756e-07
118	0x2ee817e4	1.05543824e-10
119	0x3114d2f2	2.1656743e-09
120	0x3364ad01	5.3242733e-08
121	0x33050208	3.0968323e-08
122	0x32aa79d9	1.9846015e-08
123	0x31998ad4	4.468669e-09
124	0x2eeaf0da	1.0683872e-10
125	0x311770a3	2.2037419e-09
126	0x318ebb17	4.1540136e-09
127	0x2f36942c	1.6605445e-10
