results/ppo/MoveToGoal/MoveToGoal-500007.onnx (onnx, 75061 bytes, 7 tensors)

network_body._body_endoder.seq_layers.0.weight f4 [128, 6]
0	0x3f22ca19	0.63589627
1	0x3dbc368b	0.09190091
2	0xbda8acd9	-0.08236093
3	0x3e18f838	0.14938438
4	0xbeb5e216	-0.35524052
5	0xbd4be1dd	-0.049775947
6	0x3ef05d4f	0.4694619
7	0x3e234261	0.1594329
8	0xbdada144	-0.084780246
9	0x3ea95209	0.330704
10	0xbe82040e	-0.25393718
11	0xbe912eb9	-0.2835596
12	0xbe76658e	-0.24062178
13	0xbe8f6a66	-0.28010863
14	0x3e854451	0.26028684
15	0x3f2c94d6	0.67414606
16	0x3f110a98	0.5665679
17	0x3e43916d	0.19098444
18	0xbe9e7a3a	-0.30952626
19	0xbdefeada	-0.11714716
20	0x3f054af9	0.52067524
21	0xbe1c0770	-0.15237212
22	0x3eab895a	0.33503228
23	0xbd8b3d7b	-0.06798836
24	0xbf137728	-0.57603693
25	0xbe82da68	-0.25557256
26	0x3edeacf0	0.43491316
27	0xbf11804b	-0.56836385
28	0xbf1c13bd	-0.6096762
29	0x3f933d42	1.1503069
30	0x3e35f0fa	0.17767707
31	0xbea4ea30	-0.3220992
32	0xbe96d8b4	-0.29462206
33	0x3d9e8998	0.07741088
34	0xbe9fee5b	-0.31236538
35	0x3e9eeb49	0.31038883
36	0xbeb9cf02	-0.36290747
37	0xbee41373	-0.4454609
38	0x3f8895e3	1.0670742
39	0x3db9acc1	0.09066153
40	0xbdd734ea	-0.105081394
41	0x3ea10e1e	0.31456083
42	0x3f14a0b1	0.58057696
43	0xbf21506d	-0.63013345
44	0x3e3c6552	0.18398026
45	0xbef75aea	-0.4831155
46	0xbef6b8fc	-0.48188007
47	0x3f35d95a	0.7103478
48	0x3e0cd34f	0.13752483
49	0xbed25100	-0.41077423
50	0x3f074150	0.52834034
51	0xbf02661c	-0.50937057
52	0xbe0f99ed	-0.14023562
53	0x3f0a8374	0.5410683
54	0xbf8cce61	-1.1000482
55	0x3e8f8dfa	0.28038007
56	0xbddcae5e	-0.107754454
57	0x3c4f9697	0.012670181
58	0xbe9ef621	-0.31047156
59	0x3efc950b	0.4933246
60	0x3e2f71b3	0.17133217
61	0x3e92eba9	0.2869542
62	0x3cf5c62f	0.030001728
63	0x3eb4d760	0.35320568
64	0x3eaddbf7	0.33956882
65	0x3efaca3b	0.48982415
66	0xbe57a0cc	-0.21057433
67	0x3f10a109	0.5649572
68	0xbea49a06	-0.3214876
69	0x3e5ea444	0.2174235
70	0xbec24856	-0.37945813
71	0x3e0a2149	0.1348926
72	0x3e4a31e7	0.19745599
73	0x3f18acbf	0.5963859
74	0x3eb355c5	0.35026374
75	0x3f5f9338	0.87334013
76	0xbe44c8cf	-0.19217227
77	0x3e3f87f5	0.18704207
78	0xbe8e68e1	-0.2781439
79	0xbea6dd28	-0.32590604
80	0xbe96f35d	-0.29482546
81	0x3d41a3aa	0.047275223
82	0xbbcab887	-0.006186548
83	0x3e82837d	0.25490943
84	0x3e8c7175	0.2743031
85	0x3ecdd48a	0.40201217
86	0xbe77926d	-0.24176951
87	0xbf7f7cc3	-0.99799746
88	0xbeef61a8	-0.46754193
89	0xbe82cbbe	-0.25546068
90	0xbf002966	-0.5006317
91	0xbea0fcd3	-0.3144289
92	0x3eafdcb3	0.34348068
93	0xbd8053d9	-0.06265993
94	0xbf4870d3	-0.78297156
95	0xbedf59fc	-0.4362334
96	0xbd5622fa	-0.05227945
97	0x3f089959	0.5335899
98	0xbeb4781b	-0.35247883
99	0xbe702614	-0.23452026
100	0xbf440448	-0.7656903
101	0x3e990dd2	0.29893357
102	0x3e8d2b92	0.27572304
103	0x3eadb876	0.33929795
104	0xbe219aac	-0.15781659
105	0xbda077b7	-0.07835334
106	0x3cd21cd1	0.025648506
107	0xbe0d4293	-0.13794927
108	0x3da608d7	0.08107155
109	0xbea0af39	-0.31383684
110	0x3ee4edd3	0.44712695
111	0x3ddfd13d	0.10928581
112	0x3e096359	0.13416804
113	0xbf3fc430	-0.74908733
114	0xbf2d97c6	-0.6780971
115	0xbf04084f	-0.5157518
116	0x3ddaab60	0.106772184
117	0x3ed2f75a	0.4120434
118	0x3cf1ac2b	0.029501041
119	0xbda7ab46	-0.08186965
120	0xbe61464a	-0.2199947
121	0xbf07838e	-0.5293511
122	0x3ebcce86	0.36876315
123	0xbe84d55a	-0.25944024
124	0x3eb4686d	0.3523592
125	0xbe912e1b	-0.28355488
126	0x3f2c9945	0.6742137
127	0xbedb21b4	-0.4279915
128	0xbe894e73	-0.26817665
129	0x3f1b51b1	0.60671526
130	0xbdc4849a	-0.09595604
131	0x3e4f9cdd	0.20274682
132	0x3e7d3523	0.24727301
133	0xbbea2ea5	-0.0071466737
134	0x3ea0bdba	0.3139475
135	0x3e9feb1c	0.31234062
136	0x3eea854f	0.4580483
137	0xbeeb802b	-0.45996222
138	0x3f3d7f58	0.74022436
139	0x3e9bd924	0.30439103
140	0xbc3051c1	-0.010761679
141	0x3ec6e524	0.38846695
142	0xbdfd40b8	-0.1236586
143	0x3ea612ba	0.32436162
144	0x3ebca988	0.36848092
145	0xbdf3dc10	-0.11907208
146	0xbdcb161a	-0.09916325
147	0xbe82e902	-0.25568396
148	0xbe75404a	-0.23950306
149	0xbe786369	-0.24256672
150	0x3e776b22	0.24161962
151	0x3f03d39c	0.51494765
152	0x3e6ecf52	0.23321274
153	0x3f724e11	0.9465037
154	0xbd622ba3	-0.055217396
155	0xbe239a32	-0.1597679
156	0x3df03e1e	0.11730598
157	0xbf2ea3f4	-0.6821892
158	0xbe633eae	-0.22191879
159	0x3eade9ed	0.33967534
160	0x3e27b9a6	0.16379413
161	0xbea94db9	-0.3306711
162	0xbe96a2b1	-0.29421
163	0x3e6eff2b	0.23339526
164	0x3d5b713d	0.05357479
165	0x3ed17ecb	0.40917048
166	0x3e7c9e2e	0.24669716
167	0x3d1f60e0	0.038910747
168	0xbde20400	-0.11035919
169	0x3eeb729f	0.45985886
170	0x3f55b8a5	0.8348487
171	0xbee60ed3	-0.44933185
172	0x3e068ed9	0.1314043
173	0x3eb3cd03	0.3511735
174	0x3f0109f6	0.50405824
175	0x3e7906b5	0.24318965
176	0x3e4a0538	0.19728553
177	0x3eb640bf	0.35596272
178	0x3ef116d5	0.47087732
179	0x3e493ac9	0.19651331
180	0xbe1b4677	-0.15163599
181	0x3c6d3f7f	0.014480471
182	0x3f00bc43	0.50287265
183	0xbf247b6a	-0.64250815
184	0xbcf0fa99	-0.02941637
185	0xbeabdfee	-0.33569282
186	0xbee7ac8a	-0.45248824
187	0xbe9637db	-0.2933949
188	0x3dd59985	0.10429672
189	0xbe0e89ac	-0.13919705
190	0xbf0216d3	-0.50816077
191	0x3eb8158c	0.3595394
192	0xbd853f8a	-0.0650626
193	0xbea11044	-0.31457722
194	0x3bc60f2d	0.0060442896
195	0xbc1e162c	-0.009648841
196	0x3e965449	0.2936118
197	0x3fa2e8d8	1.2727308
198	0xbd8fea46	-0.07027106
199	0xbee7a6cc	-0.45244443
200	0x3e28b3ac	0.1647479
201	0xbdf9f6e1	-0.122052915
202	0xbe835456	-0.2565028
203	0xbf070152	-0.5273639
204	0x3e35021d	0.17676587
205	0x3d3a1f54	0.045440033
206	0x3e71fe2b	0.23632114
207	0xbf0dbc00	-0.5536499
208	0xbe88a907	-0.26691458
209	0xbe2af5ca	-0.16695324
210	0xbeff7be6	-0.49899215
211	0xbeca0468	-0.39456487
212	0x3dbd409d	0.0924084
213	0xbef0b2b6	-0.47011346
214	0x3e385cad	0.18004103
215	0xbeaec040	-0.3413105
216	0xbed5ff0b	-0.41796145
217	0xbf00e5ae	-0.50350463
218	0x3f83fd33	1.0311645
219	0xbebbfbe0	-0.36715603
220	0xbe83d681	-0.2574959
221	0x3f3215c5	0.6956447
222	0x3e957f3e	0.2919864
223	0x3f14c59d	0.58114034
224	0xbe47c099	-0.19507064
225	0x3edfbc43	0.4369832
226	0xbf562237	-0.8364596
227	0x3f1ea86b	0.61975735
228	0xbf072b15	-0.5280011
229	0xbf180a78	-0.59390974
230	0x3e8ffed9	0.2812412
231	0x3c16202a	0.009162942
232	0xbe4fc2b2	-0.20289114
233	0x3f068cc8	0.52558565
234	0xbf045c28	-0.5170312
235	0x3d37a28d	0.044832755
236	0x3d866cc1	0.06563712
237	0x3ebe761c	0.37199485
238	0x3e48abbf	0.19596766
239	0xbe8263ad	-0.25466672
240	0x3d1bf3be	0.038074248
241	0x3e953523	0.29142103
242	0xbee04b18	-0.43807292
243	0xbd952cb6	-0.072839186
244	0xbd03a4b3	-0.03213949
245	0xbe3f7942	-0.186986
246	0xbeb43d3a	-0.35202962
247	0x3e0ea90d	0.13931675
248	0x3e5b0951	0.21390273
249	0x3d8c5fdd	0.06854222
250	0x3ee49653	0.44645938
251	0xbdf5ae6b	-0.11996158
252	0x3e7700ca	0.24121395
253	0x3f155dcd	0.58346254
254	0xbea3fd24	-0.32029068
255	0x3eaa78ca	0.3329528

network_body._body_endoder.seq_layers.0.bias f4 [128]
0	0x3c09d550	0.008412674
1	0xbb199e40	-0.0023440272
2	0xbb318372	-0.0027086404
3	0xbc1256d6	-0.008931836
4	0xbb936f10	-0.0044993237
5	0x3b64b58a	0.0034898245
6	0x3c0ca084	0.008583192
7	0xbb2cadb1	-0.0026348645
8	0xbb95e492	-0.004574367
9	0x3bd30732	0.0064400667
10	0x3b27742a	0.0025551417
11	0x3b32f445	0.002730624
12	0x3c13478f	0.008989229
13	0x3c3c0f08	0.011478193
14	0xba12480f	-0.00055801956
15	0x3bbba09b	0.005725933
16	0xba889ff7	-0.001042365
17	0x3ba3c476	0.004997785
18	0x3b9a3640	0.004706174
19	0xbb57f6cd	-0.0032953501
20	0x3af69a6f	0.0018814335
21	0xbb8e9a04	-0.004351856
22	0xba0a1786	-0.00052677875
23	0xbc9fb676	-0.019496184
24	0xbb46e8c4	-0.0030351141
25	0xbb5308e5	-0.0032201346
26	0x39e8f170	0.00044430373
27	0xba6c2480	-0.00090081245
28	0xbc1f5944	-0.009725872
29	0x3c3a8fc9	0.01138682
30	0xbb16bff5	-0.00230026
31	0xbba2c3ed	-0.004967204
32	0x3c44fd36	0.012023261
33	0x3ba2f033	0.0049724816
34	0xbb9bd690	-0.0047558025
35	0xbc53b3fa	-0.012921328
36	0xbaa61117	-0.0012669888
37	0x3c3d790d	0.011564505
38	0xbc20c61b	-0.009812857
39	0x3bc41b6c	0.0059847143
40	0x3bc192b6	0.005907382
41	0x3b5f90cf	0.0034113412
42	0xbbd78ee8	-0.006578315
43	0x3bb7865f	0.005600735
44	0xbb8df779	-0.0043324796
45	0xbb90cc99	-0.004418921
46	0xbb91111b	-0.004427088
47	0xbb8fb84c	-0.0043859836
48	0x3b37b6b6	0.0028032488
49	0x3c35fddf	0.011107891
50	0x3c4a9979	0.012365692
51	0xba81b3c6	-0.0009895496
52	0xbbea5e35	-0.0071523436
53	0x3c02b101	0.007976771
54	0x3b0d09b4	0.0021520676
55	0x3bf44967	0.0074550393
56	0x3be0deaa	0.006862481
57	0xbca4e4d6	-0.020128649
58	0x3c0f1d80	0.008735061
59	0xbab3ebb2	-0.0013726859
60	0xb97f26f1	-0.00024333202
61	0x3adcecbd	0.0016855221
62	0xba8660fb	-0.0010252291
63	0x3be32196	0.006931494
64	0x3b2c91fe	0.0026332135
65	0x3a1e73e2	0.00060444896
66	0xbabe0317	-0.001449677
67	0x3bbfe515	0.005856166
68	0x3c81e749	0.015857356
69	0xbaab7441	-0.0013080911
70	0xbb0c50d2	-0.0021410477
71	0x3abecd51	0.0014557039
72	0xbb2dece4	-0.0026538903
73	0x3b2040e4	0.002445274
74	0xbc6195b6	-0.013768604
75	0x3b5cb032	0.0033674357
76	0xbb8e070b	-0.0043343357
77	0x3b16bd0c	0.0023000864
78	0x3ba440aa	0.0050125914
79	0xbb8abc32	-0.0042338604
80	0xbc014a55	-0.007891257
81	0xbc374071	-0.011184798
82	0xbbd1cc16	-0.006402503
83	0x3b2b0972	0.002609816
84	0xbb3c4234	-0.0028725984
85	0x399f41e5	0.00030375939
86	0xbb9d366f	-0.0047977488
87	0xbc1baf19	-0.009502196
88	0xb9da5c62	-0.0004164903
89	0x3bff3eec	0.0077894833
90	0x3b180ef1	0.0023202265
91	0x3986f2a4	0.00025739253
92	0xbbd651f8	-0.006540533
93	0x3a9580ea	0.0011406217
94	0x3bde25e2	0.0067794183
95	0xba05685a	-0.0005089097
96	0x3ba411a2	0.005006985
97	0x3b03f913	0.0020137473
98	0x3a4dc8ac	0.0007850032
99	0x3a7604c6	0.00093848666
100	0xbc13d63b	-0.0090232445
101	0x39eb9afc	0.00044938165
102	0xb93e108a	-0.00018125973
103	0xbb3d532a	-0.002888868
104	0x3bc05114	0.0058690403
105	0xbaf15e5c	-0.0018414962
106	0xbbe90ebc	-0.007112352
107	0xbb57fefb	-0.0032958377
108	0xbb5817bb	-0.003297313
109	0xbc766d09	-0.015040644
110	0x3ba1ddaf	0.004939757
111	0xbb6ad604	-0.003583313
112	0x3c01f836	0.007932713
113	0xb8c8422f	-9.549071e-05
114	0xbb2a63e7	-0.0025999488
115	0xbbf6fcd7	-0.007537465
116	0x39e2d7fd	0.00043267003
117	0xbab71908	-0.0013969252
118	0xbc190fe4	-0.0093421675
119	0x3bb43dd4	0.0055005345
120	0x3b3b8579	0.0028613491
121	0xba9e5384	-0.0012079333
122	0xba82f1e1	-0.0009990298
123	0x3aeec22f	0.001821583
124	0x3be21a3c	0.0069001
125	0x3c78ec64	0.015193079
126	0xbc18f514	-0.009335775
127	0x3b501180	0.0031748712

network_body._body_endoder.seq_layers.2.weight f4 [128, 128]
0	0x3d76a1cf	0.060212906
1	0xbd6b2766	-0.05741062
2	0x3d6ea6a1	0.05826438
3	0x3d206a32	0.039163776
4	0xbcd53141	-0.026024463
5	0xbcb96bfc	-0.022634499
6	0xbe063380	-0.13105583
7	0x3dbc5cad	0.09197364
8	0xbcd005b0	-0.025393337
9	0x3d2d4db1	0.04231042
10	0xbdefb12c	-0.11703715
11	0xbcc4331c	-0.023950152
12	0xbd49a220	-0.04922688
13	0x3d62e204	0.055391327
14	0xbd54af4b	-0.051924985
15	0x3d139452	0.03603012
16	0xbd9c24a9	-0.0762418
17	0xbd0dd9de	-0.034631602
18	0x3c882725	0.016620228
19	0xbd52396a	-0.051324286
20	0xbde01d38	-0.10943073
21	0xbe116330	-0.14197993
22	0x3e0c7b3d	0.13718887
23	0xbdea1c69	-0.114312
24	0x3de1318b	0.10995778
25	0xbd20fb25	-0.03930201
26	0xbe79bde7	-0.24388848
27	0xbdf8c61d	-0.12147162
28	0x3e08bd5d	0.13353486
29	0x3d9dc900	0.07704353
30	0x3e15f332	0.14643553
31	0x3e7dfa3d	0.2480249
32	0xbd074433	-0.033024024
33	0xbd098a3e	-0.033579104
34	0xbde42d99	-0.111415096
35	0x3d6d1ab6	0.0578868
36	0xbe33c93b	-0.17557232
37	0x3dd0518f	0.10171806
38	0xbc4d62b2	-0.012535738
39	0x3c9f572f	0.019450752
40	0x3d804e05	0.06264881
41	0xbc406617	-0.01174309
42	0x3d494093	0.04913385
43	0xbd3d5484	-0.04622318
44	0xbbd2cacb	-0.006432866
45	0x3d187ca1	0.03722823
46	0x3d1e27a2	0.038612016
47	0x3d8f68d2	0.07002415
48	0xbdbe241c	-0.09284231
49	0xbd72b8bb	-0.059258204
50	0xbda95c88	-0.08269602
51	0xbd708f7c	-0.058730587
52	0x3ddd1572	0.10795106
53	0xbe03c6c1	-0.12868787
54	0xbe1422f4	-0.14466459
55	0x3daa3db5	0.08312551
56	0xbc46eb94	-0.012141127
57	0x3dbf3c0d	0.09337626
58	0xbdaf9b1f	-0.08574509
59	0x3dcddc89	0.10051829
60	0xbd96bdcc	-0.0736042
61	0x3dbf69ed	0.093463756
62	0x3ddb6d7e	0.10714243
63	0xbc0f339d	-0.008740333
64	0x3bd37b6a	0.006453921
65	0x3c1750b7	0.0092355525
66	0x3d145c72	0.036220975
67	0xbdbc6263	-0.09198453
68	0x3d197dd1	0.037473504
69	0x3ea9beab	0.3315328
70	0xbcf2407f	-0.02957177
71	0x3be070e4	0.006849395
72	0x3dc3f6c1	0.09568549
73	0xbdb6e227	-0.08929854
74	0xbdaebe98	-0.085324466
75	0xbd3b32a4	-0.04570259
76	0x3d35777a	0.044303395
77	0xbe2f8348	-0.17139924
78	0xbcdc3151	-0.026878985
79	0xbc2e60a7	-0.010643161
80	0xbdbddd40	-0.09270716
81	0xbc95b7e8	-0.01827617
82	0x3e7650ad	0.24054213
83	0xbc4bd8ed	-0.012441856
84	0x3dc05fbc	0.0939326
85	0xbd096e1c	-0.033552274
86	0xbc851ec6	-0.016250025
87	0x3da73efc	0.0816631
88	0x3ca61569	0.020273881
89	0x3de16c45	0.11006979
90	0xbe47ea00	-0.19522858
91	0xbe0d2efc	-0.13787454
92	0x3d0323e7	0.03201666
93	0xbdd10d98	-0.10207671
94	0xbd35c9e0	-0.044381976
95	0x3d4231eb	0.047410887
96	0xbccfffc3	-0.025390511
97	0x3d07c314	0.033145025
98	0xbd683ce1	-0.056698684
99	0xbd18d9b7	-0.037317004
100	0x39c3b131	0.00037325316
101	0xbe40ab24	-0.18815285
102	0xbe4a923f	-0.19782351
103	0xbd251142	-0.04029966
104	0xbdb98483	-0.09058478
105	0x3ddee551	0.108835824
106	0xbc39bfc6	-0.011337226
107	0xbd29ef8e	-0.041488223
108	0xbda0bd98	-0.07848662
109	0x3c0f8995	0.008760829
110	0x3d901736	0.07035677
111	0xbd031f08	-0.032012016
112	0x3ceae6f4	0.02867458
113	0xbd6dd488	-0.058064014
114	0x3d42c915	0.047555048
115	0x3d433e14	0.047666624
116	0x3b8a6806	0.0042238263
117	0xbdce645c	-0.10077736
118	0x3a56104e	0.0008165882
119	0xbd788639	-0.06067488
120	0x3e1cdb5b	0.15318052
121	0xbc87d99a	-0.016583253
122	0xbd5b9077	-0.05360457
123	0xbcabb889	-0.020962017
124	0x3b5959cd	0.0033165098
125	0xbbed0c75	-0.007234151
126	0x3d894a1e	0.0670359
127	0x3cd42d52	0.025900517
128	0x3dc43dd9	0.09582109
129	0x3dfa8afe	0.12233542
130	0xbd10d190	-0.035356104
131	0xbe203c49	-0.15647997
132	0xbdc5e76a	-0.09663279
133	0xbdf9117a	-0.121615365
134	0x3d54715c	0.05186592
135	0x3dd69efc	0.104795426
136	0xbd1782b8	-0.036989897
137	0x3d915758	0.070967376
138	0x3da8aa31	0.082355864
139	0x3d3edab0	0.046595275
140	0x3db90f90	0.090361714
141	0x3d908e97	0.07058447
142	0x3cf44b4d	0.029821062
143	0xbd496dfb	-0.04917715
144	0xba533400	-0.000805676
145	0xbd899365	-0.067175664
146	0xbe163f97	-0.14672695
147	0x3e32be3b	0.1745538
148	0x3dd44c89	0.103661604
149	0x3db3d373	0.08780565
150	0xbcfb4eaf	-0.030677168
151	0xbd2e8ee2	-0.042616732
152	0xbd070c9d	-0.032971013
153	0x3daa8d15	0.083276905
154	0x3b6a7354	0.0035774307
155	0xbd901cb8	-0.07036728
156	0xbe308d52	-0.1724141
157	0xbd84cc43	-0.06484272
158	0x3d474fe3	0.04866017
159	0x3e1c80de	0.15283534
160	0xbdea3be4	-0.114372045
161	0x3e058bdb	0.13041632
162	0x3c9c4208	0.019074455
163	0x3dcc0730	0.099623084
164	0x3dca835b	0.09888335
165	0xbcb332d4	-0.021874823
166	0xbdfcc55d	-0.123423316
167	0x3d0eaa7d	0.03483056
168	0x3d334e0e	0.04377561
169	0xbda113b6	-0.07865088
170	0xbc8eb205	-0.01741887
171	0xbdf500db	-0.11963054
172	0x3bc95298	0.006143879
173	0xbd2cb5bd	-0.042165507
174	0x3dcb04dc	0.09913036
175	0xbd906170	-0.07049835
176	0xbe1a120f	-0.15045951
177	0x3e05c5a0	0.13063669
178	0x3bc83ae1	0.0061105345
179	0x3e80e61a	0.25175554
180	0x3c92c13b	0.017914405
181	0x3d49c8d5	0.049263794
182	0xbe092d4a	-0.13396183
183	0xbdf14d9f	-0.11782383
184	0xbd7f344f	-0.062305745
185	0xbd504494	-0.05084665
186	0xbd90dbf3	-0.07073202
187	0xbe007ebc	-0.12548345
188	0x3dd44207	0.10364156
189	0xbe349683	-0.1763554
190	0x3d96e4c5	0.07367853
191	0x3e3b2a92	0.18277958
192	0xbd94f445	-0.07273153
193	0x3ce2ea4d	0.027699614
194	0xbc8c1a0b	-0.017102262
195	0xbd816398	-0.06317824
196	0xbdc0a4da	-0.09406443
197	0x3d57a04a	0.052643098
198	0xbd9225dc	-0.07136127
199	0xbd5482ab	-0.051882427
200	0x3ce2420f	0.02761939
201	0x3da8f69f	0.08250164
202	0xbcacd174	-0.021095969
203	0x3ddd2614	0.107982785
204	0xbca5bd8c	-0.020231985
205	0x3ddb43c2	0.10706283
206	0xbd090c0f	-0.033458766
207	0xbd483823	-0.04888166
208	0x3e0e7519	0.13911857
209	0x3da2f82d	0.07957492
210	0xbdb41723	-0.087934755
211	0x3cd359c2	0.025799636
212	0x3db73f2b	0.08947595
213	0xbd56fd3d	-0.0524876
214	0xbe29fb05	-0.16599663
215	0xbd228200	-0.03967476
216	0xbc9a4d24	-0.018835612
217	0x3cf9c2a9	0.030488329
218	0xbc4f595a	-0.01265558
219	0xbdb444a7	-0.08802157
220	0xbcc12f16	-0.023582023
221	0xbd8d0ea9	-0.06887562
222	0xbe06f529	-0.13179459
223	0x3c98c166	0.018646907
224	0xbd0dfe72	-0.034666486
225	0xbc85686e	-0.016285148
226	0x3d457a11	0.048212115
227	0xbd759adc	-0.05996214
228	0x3c03d3b6	0.008046081
229	0xbe1702a2	-0.14747098
230	0xbbe64ce7	-0.0070282104
231	0xbdb4f972	-0.088366404
232	0xbcbfcd45	-0.02341331
233	0xbb56e1fd	-0.0032788508
234	0xb98d2af8	-0.0002692563
235	0x3e11fa21	0.14255573
236	0xbd58bc88	-0.052914172
237	0x3d5ef1b5	0.05442973
238	0x3db12ff6	0.08651726
239	0xbd549557	-0.051900234
240	0xbd4f55be	-0.05061888
241	0xbcf3cd5b	-0.029761007
242	0x3ca881b8	0.020569667
243	0xbda8ac08	-0.08235937
244	0xbdde9789	-0.10868747
245	0xbbbadec1	-0.005702824
246	0xbdd6ca6c	-0.10487828
247	0x3bac6cee	0.005262009
248	0xbe807e07	-0.2509615
249	0x3d717f79	0.058959458
250	0x3e0a62d7	0.13514267
251	0xbdced7d3	-0.10099759
252	0xbd8f3fc1	-0.06994582
253	0x3debd968	0.11516076
254	0xbe1441f1	-0.1447828
255	0xbb5f161e	-0.0034040282

network_body._body_endoder.seq_layers.2.bias f4 [128]
0	0xbae7e5dc	-0.0017692405
1	0xbb2fe36c	-0.0026838435
2	0x3b629124	0.0034571374
3	0xbadd5c57	-0.0016888481
4	0xbb8e187d	-0.0043364153
5	0x3be32b2c	0.0069326367
6	0xba9123b2	-0.001107326
7	0x3b4d0233	0.0031281828
8	0x3b9d9f31	0.004810237
9	0xbbaf36fa	-0.00534713
10	0xbbafd806	-0.005366328
11	0xbbb923dd	-0.005650027
12	0xbbb89b11	-0.0056337197
13	0xbbc80c0c	-0.0061049517
14	0xbb94e205	-0.004543545
15	0xbaf9d9e4	-0.0019062129
16	0xbbc14d00	-0.0058990717
17	0x3b940b82	0.0045179734
18	0x3aeb6c11	0.0017961283
19	0x3bf69b97	0.007525872
20	0xbae5420d	-0.0017490998
21	0x3bd23e13	0.006416091
22	0x3c2c7599	0.010526084
23	0x3b02f747	0.0019983815
24	0xbc0389eb	-0.008028488
25	0xbb43e82f	-0.002989303
26	0xb87a70d9	-5.9709742e-05
27	0xbb95d3e5	-0.004572379
28	0xbc5e7af9	-0.013579124
29	0x3a2572fb	0.0006311384
30	0xbb94aa45	-0.0045368993
31	0x3c024d31	0.007952974
32	0xbb00aa60	-0.0019632801
33	0x3bf2a7d4	0.0074052606
34	0x3b0de30e	0.0021650228
35	0x3c31f573	0.010861742
36	0x3b9c71d2	0.0047743106
37	0x3bbcca99	0.005761456
38	0xbbc3d1b2	-0.0059759254
39	0x3ba8f3ca	0.005156015
40	0xbbe596e5	-0.0070065134
41	0xbb83fc5c	-0.0040278863
42	0xbba91340	-0.0051597655
43	0xbc0a0946	-0.0084250625
44	0xbb1db7de	-0.0024065892
45	0xbc0f3541	-0.008740724
46	0xbb647575	-0.003486005
47	0xbc162851	-0.009164886
48	0xbb121540	-0.0022290498
49	0xbb8d8530	-0.0043188557
50	0x3c2ec686	0.010667449
51	0xbc49760e	-0.012296213
52	0xbc037f92	-0.008026021
53	0xbb9c0d50	-0.004762329
54	0xbb36c16e	-0.002788629
55	0xbb70fbd8	-0.0036771204
56	0xbc1af05a	-0.009456718
57	0xb90cf113	-0.00013441248
58	0xbb93348e	-0.004492349
59	0x3b463db3	0.0030249178
60	0xbb2886d7	-0.0025715136
61	0xbb9d9e14	-0.004810104
62	0x3c08a202	0.008339407
63	0x3a53e448	0.0008083028
64	0xbaab6e37	-0.0013079111
65	0xbbb601ea	-0.0055544274
66	0xb9d96516	-0.0004146478
67	0xbb21830c	-0.002464476
68	0xbb9eaf87	-0.004842702
69	0x3b061756	0.0020460687
70	0xbb62f8d5	-0.0034633179
71	0xba6cbee4	-0.00090311305
72	0x3bc4cb91	0.0060057123
73	0xba71086d	-0.0009194676
74	0xbb181f19	-0.0023211895
75	0xbbb8c0f7	-0.0056382376
76	0xbb86782e	-0.004103682
77	0xbaae1ba7	-0.0013283388
78	0xbc0928cf	-0.008371546
79	0x3ba9020f	0.005157716
80	0x3bb590d4	0.0055409465
81	0xbaf6f49f	-0.0018841213
82	0x3b8b8539	0.0042578247
83	0xbb75fd89	-0.0037535152
84	0x3bb08fc1	0.0053882306
85	0xbbf7caa8	-0.0075620003
86	0xbb894323	-0.0041889115
87	0xbbbcf993	-0.0057670563
88	0x3a004c53	0.00048941857
89	0xbbbad95c	-0.005702181
90	0x3be32ccd	0.006932831
91	0xbb89553b	-0.0041910685
92	0xbb9f7df4	-0.0048673097
93	0x3b3a6da6	0.0028446703
94	0xbb5734cc	-0.0032837866
95	0x3b2895d5	0.0025724072
96	0xbbd94a8d	-0.0066312016
97	0x3b8e06ed	0.0043343217
98	0x3af46996	0.001864719
99	0x3b7fdff3	0.0039043396
100	0xbc29d2ef	-0.010365232
101	0x3b09dacf	0.002103496
102	0x3b392036	0.002824796
103	0xbc10ea66	-0.008844947
104	0xbb2c4b94	-0.0026290165
105	0xbc186274	-0.009300817
106	0x3c613b65	0.013747071
107	0xbbc1241c	-0.005894197
108	0x3951bdaa	0.00020002449
109	0xbbe7c2f0	-0.007072799
110	0xbb5d58cd	-0.0033774853
111	0xbb8e81b6	-0.004348959
112	0x3af3fd09	0.0018614839
113	0xbbaf6c71	-0.0053535034
114	0xbc072e5b	-0.008250798
115	0xbb57fb77	-0.0032956281
116	0x3c30cd33	0.010791111
117	0xbc46fbcc	-0.012144994
118	0x3b1d1871	0.0023970867
119	0xbb85bfef	-0.004081718
120	0xbafbddde	-0.0019215902
121	0xba8e5f9b	-0.0010862233
122	0xbc00fc9a	-0.007872725
123	0xba85e50f	-0.001021536
124	0x3bbd1f72	0.005771571
125	0xb8439127	-4.6626807e-05
126	0xbbc2d041	-0.005945236
127	0xbbe4e1e8	-0.006984938

action_model._continuous_distribution.log_sigma f4 [1, 2]
0	0xba6293b7	-0.0008643227
1	0x3c9b5aa4	0.01896412

action_model._continuous_distribution.mu.weight f4 [2, 128]
0	0xbd18d03e	-0.03730797
1	0x3bb21f4a	0.005435859
2	0xbc4c42a8	-0.012467064
3	0xbc785328	-0.015156545
4	0xbd2157bd	-0.039390314
5	0xbc01edec	-0.00793026
6	0xbc31af26	-0.010844981
7	0xbc6d1426	-0.014470136
8	0xbc9c5f06	-0.01908828
9	0xbcc493cc	-0.023996256
10	0xbbde2e7b	-0.0067804432
11	0x3cb624a6	0.022234272
12	0x3c775413	0.015095728
13	0xbc03d4e4	-0.008046363
14	0x3c26f933	0.01019125
15	0xbbf62445	-0.007511648
16	0xbc2893a8	-0.01028911
17	0x3c84b403	0.016199118
18	0x3d10912d	0.0352947
19	0x3d1ecdc5	0.038770456
20	0x3bbfb7a1	0.0058507477
21	0x3bcfd55e	0.006342574
22	0xbd0f2372	-0.034945913
23	0xbc262aa3	-0.010142001
24	0xbbca0246	-0.006164822
25	0x3a9a5196	0.0011773582
26	0x3c28e094	0.01030745
27	0x3c022201	0.0079426775
28	0x3bbd96b2	0.0057857865
29	0xbd594bfc	-0.05305098
30	0x3c2ac5b0	0.010423109
31	0xba4b3523	-0.00077517534
32	0x3c4ba618	0.012429737
33	0xbd2a571d	-0.041586984
34	0x3ccfa00b	0.02534487
35	0xbcbab789	-0.022792595
36	0xbb41d3f7	-0.0029575804
37	0x3c83d9cf	0.01609507
38	0xbbcbb3d9	-0.006216508
39	0xbc90bde6	-0.017668676
40	0x3d01f88a	0.031731166
41	0x3c964886	0.018345129
42	0xbd066c6e	-0.03281825
43	0xbbc6a15e	-0.006061717
44	0xbcf88321	-0.030335965
45	0x3ac0bd48	0.0014704848
46	0x3d42e3b5	0.04758044
47	0xbb46540f	-0.0030262505
48	0xbc45ce3a	-0.012073094
49	0x3d14d185	0.036332626
50	0xbcfa5941	-0.030560138
51	0x3a689071	0.0008871621
52	0x3ce0585d	0.027385885
53	0xbc831b78	-0.016004309
54	0x3c7ec08d	0.015548837
55	0x3bf978db	0.007613284
56	0x3cc0abb2	0.02351937
57	0xbb02e8dd	-0.0019975223
58	0xbc368ebf	-0.011142432
59	0xbc60e493	-0.013726371
60	0xbc9c2ab3	-0.01906333
61	0xbb59f5c5	-0.0033258062
62	0xbba08c35	-0.0048995265
63	0x3bf85fe1	0.007579789
64	0x3cc30adc	0.02380889
65	0xbc513a44	-0.012770239
66	0x3c43cf70	0.011951312
67	0x3a5bdcd1	0.0008387091
68	0xbbd3ed3d	-0.00646749
69	0x3c5e6d53	0.01357587
70	0x3b43abc7	0.0029857026
71	0xbc58a736	-0.01322346
72	0x3c4b836a	0.012421468
73	0xbc50665a	-0.012719715
74	0x3bade2e0	0.0053065866
75	0x3c6bbf07	0.014388806
76	0x3c4ed2ed	0.012623531
77	0xbd230634	-0.039800838
78	0x3afadc0c	0.0019139065
79	0x3c0c9ff5	0.008583059
80	0x3d3a0d95	0.04542311
81	0xba7006e2	-0.0009156299
82	0x3c1485c2	0.0090650935
83	0xbccf5077	-0.025306923
84	0x3d066fc6	0.03282144
85	0x3a21cdca	0.00061723276
86	0x3b605bd3	0.003423442
87	0xbb824eea	-0.0039766924
88	0xbc05728f	-0.008144989
89	0xbb8f0a4d	-0.0043652416
90	0x3d131a70	0.035913885
91	0x3bc12216	0.005893956
92	0x3bd41b0b	0.0064729503
93	0x3d22bea0	0.039732575
94	0x3d3482fe	0.044070236
95	0x3d3f1712	0.04665286
96	0xbbe43645	-0.0069644772
97	0x3c518c3a	0.01278978
98	0xbc9eb019	-0.01937108
99	0xbd41d0a2	-0.04731811
100	0xbc5af584	-0.0133642
101	0xbd45945f	-0.0482372
102	0xbcb84fed	-0.02249905
103	0x3c49df19	0.012321257
104	0x3c3d3574	0.011548389
105	0x3ac21a6a	0.0014808897
106	0x3c806941	0.015675189
107	0x3bb205d6	0.0054328246
108	0xbbf8d520	-0.007593766
109	0xbb140985	-0.0022588682
110	0x3bfc015e	0.0076905927
111	0xbb1e751c	-0.002417869
112	0xbd271f22	-0.040801175
113	0xbcdd5aef	-0.0270209
114	0x3aff9f8d	0.0019502506
115	0xbb18bc11	-0.0023305456
116	0x3bfe3133	0.00775733
117	0x3cdf7f43	0.027282363
118	0x3bd8def6	0.006618376
119	0x3c79b23f	0.015240251
120	0xbc445146	-0.011982268
121	0x3c0a0fbd	0.008426604
122	0xbc1d870c	-0.009614717
123	0xbbde00b8	-0.006774988
124	0xbd6e21c5	-0.058137674
125	0xbc7971ad	-0.015224856
126	0xbc4afb41	-0.012389005
127	0x3c48e45c	0.012261476
128	0xbc645265	-0.01393566
129	0xbba173b9	-0.0049271253
130	0xbc885426	-0.016641688
131	0x3c1a25f8	0.0094084665
132	0xbbc4a00e	-0.0060005253
133	0x3c2b34d8	0.010449611
134	0x3ca380b0	0.019958824
135	0xbcc1fd89	-0.023680465
136	0x3c5c7b62	0.013457151
137	0xbcc753bb	-0.024331918
138	0xb8cfdcb9	-9.911642e-05
139	0xbadd4524	-0.0016881567
140	0xbb8a61f4	-0.0042231027
141	0x3c19c577	0.009385458
142	0x3930a14c	0.00016844756
143	0xbbc74e7b	-0.0060823536
144	0xbbabf346	-0.0052475063
145	0xbcf7fc03	-0.030271536
146	0x3c965347	0.018350257
147	0x3c304323	0.010758194
148	0x3c9561b7	0.01823507
149	0x3ce94862	0.028476898
150	0xbc5bbecc	-0.013412189
151	0xbb90321e	-0.0044005057
152	0x3c07184e	0.008245541
153	0x3c8d76ee	0.017268624
154	0xbc76ced8	-0.015063964
155	0x3bdfc030	0.0068283305
156	0x3c60c862	0.01371965
157	0xbd059939	-0.032616828
158	0xbc9ea559	-0.019365953
159	0xbc8a4020	-0.01687628
160	0xbc0c6471	-0.008568869
161	0xbb38f179	-0.00282201
162	0x3b5ff759	0.003417453
163	0x3cc0a268	0.023514941
164	0xbc9ca60b	-0.019122144
165	0xbb690745	-0.0035557311
166	0x3ca249ee	0.019810643
167	0xbb85e080	-0.0040856004
168	0xbc92150d	-0.017832303
169	0x3c94aae5	0.018147895
170	0x3bcf7454	0.006331006
171	0xba94042d	-0.0011292748
172	0x3cce8677	0.025210602
173	0xbb9c6502	-0.0047727833
174	0x3b963207	0.0045836004
175	0x3bd983f0	0.0066380426
176	0xbcf20cf4	-0.029547192
177	0x3bcfe321	0.0063442145
178	0xbc3a1564	-0.011357639
179	0x3c38a61b	0.011270071
180	0xbcdc65c1	-0.026903989
181	0x3b8e8b5b	0.0043501086
182	0x3bade9df	0.0053074206
183	0xbc0dd527	-0.0086567765
184	0x3ca134a8	0.019678429
185	0x3c9bcbe5	0.019018123
186	0x3ce8046e	0.028322425
187	0xbd221af6	-0.039576493
188	0xbc3c0e97	-0.011478088
189	0xbba6a3ac	-0.005085429
190	0xbd1e7690	-0.03868729
191	0xbc86efe6	-0.016471814
192	0xbbec8c8a	-0.007218902
193	0x3d37b347	0.044848707
194	0xbc6c2691	-0.014413492
195	0xbb417092	-0.002951656
196	0x3ccef77a	0.02526449
197	0xbcd4a84d	-0.025959158
198	0x3c87a17c	0.016556494
199	0x3c603365	0.013684128
200	0xbca3f1d2	-0.02001277
201	0x3d25553c	0.04036449
202	0x3bbe2cb6	0.00580367
203	0xb8fccfdb	-0.000120550125
204	0xbc859358	-0.01630561
205	0x3b98e7d4	0.004666308
206	0x3c027ec1	0.007964791
207	0xbc293e3e	-0.010329781
208	0xbcaf4a01	-0.021397592
209	0xbcbe8bad	-0.023259962
210	0x3c96eb06	0.018422615
211	0x3cb15f2a	0.021651823
212	0xbbe3b1d7	-0.0069486904
213	0x3b678194	0.0035325037
214	0xbcff7d22	-0.031187598
215	0x3c63205a	0.013862694
216	0xbbb00215	-0.005371342
217	0x3b90a25f	0.0044138874
218	0xba3c01e4	-0.00071719126
219	0xbb995710	-0.004679568
220	0xbb9fa825	-0.0048723393
221	0x3ba10d20	0.0049148947
222	0x3c8fe8d9	0.017567085
223	0xbc25345d	-0.010083285
224	0x3c79fcf1	0.01525806
225	0xbbdcff0c	-0.006744271
226	0x3cd1591f	0.025555192
227	0x3ba74e52	0.005105772
228	0x3be8767f	0.007094204
229	0x3cb3de51	0.021956595
230	0x3c8d6be3	0.017263358
231	0x3cfd1b0b	0.030896684
232	0x3b9d73c1	0.0048050587
233	0xbb3cc9c4	-0.0028806785
234	0xbb792d6e	-0.0038021463
235	0xb9f6bc03	-0.00047060856
236	0x3c7b1626	0.015325105
237	0xbbbd05be	-0.005768507
238	0x3c6d6169	0.014488556
239	0x3c9777c8	0.018489733
240	0xbb59c84f	-0.0033230965
241	0xbcdf55a9	-0.027262526
242	0xbc8e0316	-0.017335456
243	0xbbc3ebce	-0.005979038
244	0x3cca6ea6	0.024710964
245	0x3b3069fc	0.002691864
246	0x3c1badf3	0.009501922
247	0x3c31ed19	0.010859751
248	0x3b9a5d42	0.004710824
249	0x3b3144f5	0.0027049158
250	0x3af4937d	0.0018659678
251	0xbcb87c88	-0.022520319
252	0x3c3dd49f	0.011586337
253	0xbc971bb9	-0.018445836
254	0xbcb2efd7	-0.02184288
255	0xbbb2cb86	-0.005456391

action_model._continuous_distribution.mu.bias f4 [2]
0	0xbb31e12a	-0.0027142265
1	0xbb46a69f	-0.0030311716
