results/ppo/MoveToGoal/MoveToGoal-93645.onnx (onnx, 75061 bytes, 7 tensors)

network_body._body_endoder.seq_layers.0.weight f4 [128, 6]
00000000: cf1c c93e d664 6b3f 4fca f5be ba26 7d3e
00000010: 2e62 2cbe 3280 1ebe 0eec d13e b909 b5be
00000020: dcac 223e fcf6 29bf d437 403c a29a c23d
00000030: 0133 383e b34f dabd 70e9 2d3e 5a01 a63e
00000040: 01de bfbe 4b8a c5be 0dc4 97bd 51fb 2abe
00000050: 275a acbd c3a7 f53e fb48 f1be 7e5a 0ebf
00000060: daa0 c0be 0d8b 6ebe 414f a2bf 8932 40bd
00000070: c005 973e 200f 95bd 0bb8 12bf 0de2 1d3f
00000080: 4db4 f63d 56f7 ddbe c771 073f 0c9a 8a3d
00000090: 41a6 2fbe a565 6a3c 53d3 943d e6c4 493f
000000a0: 3c13 643e e901 bcbe f609 dfbe 9845 813e
000000b0: 8022 353d 702e 9dbe 1ab4 043f 2855 ec3e
000000c0: 04b0 763e 5df4 dbbe 3aac 853e 4ffd b33e
000000d0: bc51 35be ab8d ddbe c660 323c 1385 253f
000000e0: 9a9e 813e 5158 dabe d567 3d3c e10b c93e
000000f0: 443b 283f ae36 86be 99c6 a13d 629a 633f
00000100: 09f2 0a3f 4d9c 333d f06e 903e 2bd2 1cbf
00000110: bea5 b33e 4fb9 613e ff77 ae3d 8cad 7cbe
00000120: 242d ca3d d9c5 f6bd 2e99 9abe e6d2 573f
00000130: 027d f5bd 04b0 7fbf ce68 b73e 5c07 1b3f
00000140: 592f 503e a51d 123f 5224 5f3f cfd3 123f
00000150: 18f9 87bd bcbd b9be d275 62be a98f fc3d
00000160: 7aad d43e 4993 c43e d92f 2abe 483d 25bf
00000170: 56d2 2cbe a50e 1abf 75bb cb3e 981b f13e
00000180: b744 34bf cb84 a4be 864a bd3d 9ed1 0ebe
00000190: 060a abbe d18b da3e 3cc1 17bf aaba 933d
000001a0: 7d2e 093f bcd7 1cbf dda2 a43e f7fe ca3e
000001b0: 58fa 52bf fff0 273f 2c00 25bf 421a 313e
000001c0: b0b3 183e 79da 423e 0041 1fbf 0664 ad3e
000001d0: 7ef5 af3c 140e d2bd b575 7c3d 518c e33e
000001e0: 2993 103f bc2e ec3e b8d9 123e 8e97 34bf
000001f0: 0aad 79be e8a2 18bf d0f6 943e bc58 883e
00000200: c4cf ddbe ec2e 0d3d 8d0b 803e 8dd6 5f3e
00000210: 80e9 123f f5c5 0d3f a8b1 10be b8ac 273e
00000220: 3979 f63e 575a 8f3d 3fa4 1abd e6f1 88be
00000230: 9ca7 00be a72d 913d 8186 dabd ab39 1cbf
00000240: 61ec 0ebf ee6a 34bd 6eea 6ebf 29e5 9cbe
00000250: 2d43 843e 1e95 913d a374 5dbe 2b8e 223e
00000260: 0ad3 0abf b7b0 11bf 16d2 1cbf 37cc 453d
00000270: da52 84bf 0de1 6cbe 0f04 f1be 7cfc f33e
00000280: 7cfe 7dbe 2026 7439 e1e1 2dbf 7c08 b23e
00000290: 9c68 60bd 1888 6bbf b6eb fcbd 1840 2f3d
000002a0: 9ee4 513f 676a 3e3f 04bb e53e 7f15 3d3e
000002b0: 5aed d63d 6f93 5e3e a358 ea3e a138 0bbf
000002c0: 2603 113f 5420 1fbd a9ff 37be 95bf 9f3e
000002d0: d267 b93e f2fa 7dbe 5169 ca3d 39f1 babc
000002e0: 97b7 c93e 8734 ba3e ebfe 2f3e f447 a8be
000002f0: 1029 96be 642d f7bd 0feb 833d b3f1 1c3e
00000300: b4eb 123e 2b17 a13c 8f2e aa3e a16a 153e
00000310: 1479 10be eff9 2abf 77a1 513f ba63 cd3d
00000320: 45e5 db3c 1e1f 713e bb1a 033f d5bf 3b3d
00000330: 9f7a b5bd 180a cc3e 9f05 73be ebfa 54be
00000340: ba55 d23e 27f2 4b3e 170f 9cbe 7bdd 353f
00000350: 32b1 1a3f 162d 76be 8568 4e3f 1fba f43c
00000360: ae1a 0b3e 523a f4bc af1f 82bd 55c9 22bf
00000370: e10d 393e 71b9 0a3f f52e 8ebf 99ae 19bf
00000380: d67d 94be f3ca 0fbf 69cd 2d3e b789 c3be
00000390: 44d6 a5be 881d 2b3e bda6 e3bc 96f6 79bf
000003a0: 3b65 46be 39f9 893c 0f4c 29bf 9190 0dbd
000003b0: 90d7 e13d 84c6 38bd 4be1 ce3e 6174 a43c
000003c0: 4a32 1b3f eee3 3fbe 2742 913e c914 dabe
000003d0: 713a 8db9 a18c ab3e bb5c c33e 8021 b93e
000003e0: c08d abbe fdb5 e0bd 3682 913e 35a5 2c3e
000003f0: d5ae 033d 65a5 e5be 21e1 2bbf 7a9f d33e
0.39279792 0.9195074 -0.48005912 0.24721804 -0.16834328 -0.1547859 0.41000408 -0.3535898
0.15886253 -0.66392493 0.01173206 0.0950215 0.17988206 -0.10659733 0.1698358 0.32422906
-0.37474063 -0.38582072 -0.074104406 -0.16697432 -0.08415633 0.47979555 -0.47125992 -0.5560683
-0.3762272 -0.23295231 -1.2680436 -0.046923194 0.29496574 -0.072782755 -0.5731208 0.6167305
0.120461084 -0.43352765 0.52907985 0.06767663 -0.17153265 0.0143064605 0.072668694 0.7881607
0.22272962 -0.36720207 -0.43562287 0.25248408 0.044222355 -0.30699492 0.51837313 0.4615872
0.24090582 -0.42959872 0.2610796 0.35154197 -0.1770696 -0.43272147 0.01088733 0.6465618
0.25316316 -0.42645505 0.0115604 0.39266875 0.6571543 -0.26213592 0.078992076 0.88907444
0.54275566 0.043850232 0.2820964 -0.6125819 0.3508739 0.22043346 0.08518981 -0.24675578
0.09871891 -0.12049455 -0.30194992 0.8430618 -0.11986734 -0.99877954 0.35822147 0.60558105
0.20330562 0.57076484 0.87164795 0.57354444 -0.06639308 -0.36277568 -0.22115257 0.123320885
0.41538602 0.3839362 -0.16619815 -0.6454663 -0.16877112 -0.60178596 0.39791456 0.47091365
-0.7041735 -0.32132563 0.0924273 -0.1394715 -0.33406085 0.42684796 -0.5927923 0.07213338
0.5358656 -0.61266685 0.32155505 0.39647648 -0.82413244 0.65602106 -0.6445339 0.17295173
0.14912295 0.19028653 -0.6220856 0.33865374 0.021479364 -0.102565914 0.06163569 0.4444299
0.5647455 0.46129405 0.14340866 -0.70543754 -0.24382415 -0.59623575 0.29094553 0.266302
-0.43322575 0.034468576 0.25008813 0.21859188 0.5738754 0.55380183 -0.1413027 0.1637448
0.4813936 0.06999653 -0.037754294 -0.26747054 -0.12563938 0.070887856 -0.10670186 -0.61025494
-0.55829436 -0.04404729 -0.9332646 -0.30643585 0.258325 0.0710852 -0.21626525 0.15874545
-0.5422827 -0.5691027 -0.61258066 0.048290458 -1.0337784 -0.23132725 -0.4707341 0.47653568
-0.2480411 0.00023283856 -0.6792279 0.34772098 -0.054787263 -0.9200454 -0.12349646 0.042785734
0.8198947 0.7438111 0.44869244 0.18465231 0.1049449 0.21735929 0.4577075 -0.54383284
0.5664543 -0.03884919 -0.1796862 0.31200853 0.3621202 -0.2480276 0.09883369 -0.022820102
0.3939788 0.363682 0.17187087 -0.32867396 -0.29328203 -0.120692044 0.06441318 0.15326576
0.14347726 0.019664368 0.33238646 0.14591457 -0.14108688 -0.6678762 0.81887 0.10028787
0.026842723 0.23547027 0.5121266 0.045837242 -0.08861279 0.3985145 -0.23732613 -0.20798843
0.4108103 0.19916593 -0.30480263 0.7104108 0.6042663 -0.24040636 0.80628234 0.029873906
0.13584396 -0.029812966 -0.063536994 -0.6358846 0.180717 0.5418921 -1.110808 -0.6003204
-0.29002255 -0.5616905 0.16972889 -0.38191006 -0.32390034 0.16710484 -0.027789468 -0.97641885
-0.19374554 0.016842471 -0.6613168 -0.034561697 0.110274434 -0.045111194 0.4040626 0.020075025
0.6062361 -0.18739292 0.28370783 -0.42593983 -0.00026937158 0.3350573 0.38156685 0.3615837
-0.33506584 -0.109722115 0.28419656 0.16859896 0.032149155 -0.4485275 -0.67140394 0.41332608

network_body._body_endoder.seq_layers.0.bias f4 [128]
00000000: 294d 58bc 3e6d 7fbc 5ac1 453c 9441 a63c
00000010: 3646 aabb 16a4 2a3c a4c2 2e3c 78ed 813c
00000020: b424 edbb 7ed3 813c f18a 553c 2f6b ddbb
00000030: 3c05 f53a 853c 793c 457b 813c 6dc1 913c
00000040: 5a97 8e3c 0d25 9d3c 1e45 c3bb eae4 07bc
00000050: 4ad9 253b d32b 1dbc 5eec 073c 845b 1d3c
00000060: 5d13 7f3c aa61 8bbc 3236 eebb 696f 563c
00000070: c282 e93a 1aac 543c f731 a23c 6be1 a83c
00000080: 8a51 8d3c 80bc 89bc 2110 6c3c d56d 043b
00000090: 5bac 5d3c 7c73 a83c 9eea e8bb 79ec 883c
000000a0: aeec a83b c72a 9f3c ea8b 70bc d56d 1e3c
000000b0: 9b46 aa3c ee44 3a3c a147 223c e5bc 363c
000000c0: f3ab 53bc 1105 d53b 57e8 483c dec6 c03b
000000d0: 08b3 563c 5354 5bbb bff5 dc3b b07e 353c
000000e0: b20e 143c d718 3a3c 9cce 923a 86b7 f2ba
000000f0: 1e11 b1bb efe0 a7bc 8dc0 dd3b 3cef f43b
00000100: c82a 003c 868b 0fbc df43 e9bb 32a2 85bc
00000110: 5e8c 6fb9 0ab3 6e3c bf01 863c dfae 15bc
00000120: 53f6 993c 6c6e 1dba 8eca babb 199a b33c
00000130: 1c82 56bc 667f 733c 3d5f 2b3c 56e4 26bc
00000140: 0f6c 69bb e782 aa3b 1797 be3c f176 603c
00000150: 57b0 953c a146 6cbc f7f4 533c 5ef0 c1bb
00000160: 698d 4bbc ece1 45bc d518 3cbc fb81 373b
00000170: 1c2b 38bc 51fb 843c 963c 46b9 c444 56bc
00000180: 8faa 4abc 8f06 29bc c318 703c aec5 dcbb
00000190: db0f 163c e593 9e3c b040 953c 6096 3a3c
000001a0: e8f0 8ebc 63c0 983c 6d9f 6a3c b484 1dbc
000001b0: 63eb 6fbc 4155 083c 38c1 9a3c 4c83 bbbb
000001c0: bde8 b33c bb61 e23b aace a83c b215 733c
000001d0: 6851 133c 1aec f3bb bfaa 72bc b205 883b
000001e0: 78ad 7abc 7838 833c 16e2 a93b ca3b 5f3b
000001f0: a0d1 283c ac05 c1bb 5da4 483c 1c20 123c
-0.01320199 -0.01559001 0.012070024 0.020294942 -0.005196358 0.010415098 0.010666523 0.015860304
-0.0072370414 0.015847918 0.0130336145 -0.006757162 0.0018693577 0.015212183 0.01580585 0.017792428
0.017406154 0.019182706 -0.005959167 -0.008294323 0.0025306516 -0.009592968 0.0082961 0.009604339
0.015568581 -0.017014343 -0.007269644 0.013088086 0.0017815458 0.012980485 0.019799216 0.0206153
0.017250795 -0.016813517 0.014408142 0.0020207067 0.013529862 0.02056288 -0.0071080467 0.016714321
0.0051551675 0.019429578 -0.014681796 0.009669741 0.02078562 0.011368973 0.009904773 0.011153434
-0.012919414 0.006500848 0.012262425 0.005883082 0.013104208 -0.003346701 0.0067431624 0.011077568
0.009036707 0.011358461 0.001120049 -0.0018517829 -0.005403652 -0.020492999 0.0067673386 0.007474808
0.0078227 -0.008761292 -0.0071186866 -0.016312692 -0.00022845107 0.014569053 0.016358254 -0.009135931
0.018794214 -0.0006005529 -0.005700416 0.021924065 -0.013092544 0.014861917 0.010459718 -0.0101862755
-0.0035617386 0.005203593 0.023265405 0.013700233 0.018272562 -0.014421136 0.012936822 -0.0059185466
-0.0124238515 -0.01207779 -0.01148053 0.0028001058 -0.011240747 0.016233118 -0.00018905321 -0.013077918
-0.012369766 -0.010316505 0.014654341 -0.0067374324 0.009159054 0.019357631 0.018219322 0.011388391
-0.017448857 0.018646425 0.014320237 -0.009614158 -0.014643523 0.008321107 0.018890962 -0.005722439
0.021961564 0.006908623 0.020606358 0.0148367155 0.008991577 -0.007443917 -0.014811217 0.0041510696
-0.015300147 0.016018137 0.0051844222 0.0034062737 0.010303885 -0.0058905687 0.0122462185 0.008918788

network_body._body_endoder.seq_layers.2.weight f4 [128, 128]
00000000: d5ca 023d f08c fe3c 1564 b1bd 88b2 f5bd
00000010: 232b a03d 6efc 55bd 4998 9a3d 3473 8e3d
00000020: 5b74 bdbd e4b4 d63d 79dc 8e3c 1d2d d13c
00000030: fb52 043d 4ec6 babd c668 3cbe 7498 0c3e
00000040: cc63 b33d 1ed5 68bd 190e 903d da31 073d
00000050: a67d 4abb 739d 66be 52f4 2c3d e627 4bbd
00000060: deb4 d3bc 8837 4ebe 97f0 d6bd 7d77 d83c
00000070: 1070 d93c d20c 28bd 4685 573e 154e 29bd
00000080: dddc ebbd 0db2 f23c 265b 243c 9080 f1bd
00000090: 96ee 8fbc 29cc 1d3e d80f 2ebe 893c 663d
000000a0: 70b2 fcbd e47f 933d ad67 c8bc 4568 1ebd
000000b0: 7157 c73d 0170 1d3b 114d 06bd 02d5 40bd
000000c0: f119 88bd f6f4 4ebd 7c8b efbd 93e5 ae3d
000000d0: d222 243e 46d2 4e3d 98ef 27bd 5421 9b3c
000000e0: ce4c 543c 5a25 343e c444 9abc be0d c2bd
000000f0: 113c c23d 01af fcbc b367 61bb ec35 703d
00000100: 6194 4abe 5e70 52bd 6ea3 db3b 0de0 1cbe
00000110: 5949 31be b23f a83d 4017 9c3d caf5 5fbe
00000120: 0ca7 68be 6615 9d3d 773e b1bd 7678 b23c
00000130: c208 37be 638c c6bd 5e17 f03d a0c3 07be
00000140: a004 123e 7b02 d7bd 06b3 2bbe 75ee 553d
00000150: cb4d 0b3e 79bc b93d bb28 56bc d4a9 adbd
00000160: 2499 c23d 678a 8c3d 4a73 ecbd 4aab 103d
00000170: 2e3e 043e 1322 ce3d 0ed3 91ba 8b73 873c
00000180: 8935 d33d b801 ccbc dd11 22bc 4ccc 6f3d
00000190: eaf5 3ebd 5818 343e 7265 b03d 88fb 88bc
000001a0: 97c1 b8bd d730 75bd e1c7 093e 5a91 3e3d
000001b0: ad6b ddbd e3e0 543d 7faa ab3c 9233 453d
000001c0: 25c5 8ebd 9414 be3b 5496 d43c e294 f8ba
000001d0: c212 b23d c55c b6bd b037 f23c 64dc 04be
000001e0: cafe bb3c 89bd b03d 556d 22be a3e5 b83d
000001f0: 12ea 4a3d 9754 ea3c 6959 01bd 0b2c f5bc
00000200: fd4a 1cbe bdbc 04bd e243 5ebd fef6 40be
00000210: f0ab 62bd 55d0 1a3c 8e3a 763d 223f aebc
00000220: 3207 39bd bed4 a63d 5f50 7ebd 4351 643c
00000230: e9f4 17be d61d a13c 7f5a 373d bc10 333d
00000240: 2fbe ae3d 6b0c e3bd 47c6 7dbc a95e 48bd
00000250: 6cc3 7fbd 9c84 da3d 6bb0 09bd c15a e43a
00000260: 9079 67bc 72a9 e93d c2fa 073e 24a1 8ebd
00000270: 3192 05be 5d38 6dbd 1565 9ebc b640 4f3d
00000280: 3dde 36be d0e3 75bd 9efa 243d 74ab a9bd
00000290: 1bbe a5bc a8ba 6abe 502c 603b 8019 233e
000002a0: 4ed5 fabc 97ef 413e ee44 253c 019b 423c
000002b0: dabc ae3d 640a b7bd 9c7b 0bbd fbd5 c6bc
000002c0: 96e9 7a3d 33ca 4bbd a856 2d3e 816e cebd
000002d0: 5a24 723d 13ce 6d3a 7006 8339 b348 cd3d
000002e0: dabd f63d 1204 093e 0b2b 4b3d 1ea4 d4bc
000002f0: 9262 063e d247 4b3d f5ea fabd 97b1 5abd
00000300: d54b e0bd 6772 95bd 817c 1e3e 902a 2b3e
00000310: 8cb5 26bd b663 083d 59fe c1bd e590 9d3c
00000320: 1a17 36be 14ff aebd 4eaa a1bc d6b8 69bd
00000330: 5b48 cc3d 0f1f 173e 1647 6e3d 384f 183d
00000340: d7b4 e7bd 6ec6 8b3d e596 81bd 9181 bbbb
00000350: 9765 9a3c a697 053e 9db0 233e f8f8 ef3d
00000360: f0e9 87bd 4988 943c f6e3 2c3e 519e a5bd
00000370: 6745 523c c135 e9bd 72f3 4abd 6af6 62bd
00000380: 8def c93d 8752 b939 9ab5 94bd 17f5 38be
00000390: 0da8 44bd d7c8 e33c 8d35 683d ce37 a13d
000003a0: 55be 96bd fd6f 613b 356d d1bd 51c8 95bc
000003b0: c422 17bb b9ad 773d bdbb bebd 95d2 bebd
000003c0: 644c 9dbd be4a ac3d c132 0cbe 8125 413e
000003d0: 9d8b 0b3d cc27 89bd d078 b8bd fc44 ee3c
000003e0: 5b42 823d a6c8 e33c ed36 6dbd e6cc 053c
000003f0: 0f54 98bd d99a 7c3c 2775 a7bc 4de7 4fbd
0.031931717 0.031073064 -0.08661667 -0.11996943 0.07820728 -0.05224269 0.07548577 0.06955567
-0.09250709 0.10483721 0.017439114 0.025534207 0.0323057 -0.09119855 -0.18399343 0.13730031
0.08759269 -0.05684387 0.07033939 0.033006527 -0.0030897646 -0.22521 0.04222519 -0.049598597
-0.02584308 -0.20138371 -0.104951076 0.026424164 0.026542693 -0.04102785 0.21046934 -0.04133423
-0.11516736 0.029625917 0.010031497 -0.117920995 -0.017569821 0.15409912 -0.16998231 0.056210075
-0.12338722 0.072021276 -0.024463499 -0.038673658 0.09733475 0.0024023058 -0.03278834 -0.04707814
-0.06645573 -0.05052658 -0.116965264 0.085398816 0.16028908 0.0504935 -0.04099998 0.01893679
0.012957765 0.17592373 -0.018831618 -0.09475277 0.09484113 -0.030845167 -0.0034394085 0.058645174
-0.19783165 -0.051376693 0.006702832 -0.15319844 -0.17313136 0.08215274 0.07621622 -0.21871105
-0.22719973 0.07670097 -0.08654492 0.021785956 -0.17874435 -0.096947454 0.11723207 -0.13258219
0.14259577 -0.1049852 -0.16767511 0.052229363 0.13603894 0.090691514 -0.013071234 -0.08479658
0.095018655 0.06862336 -0.11545427 0.035319604 0.12914345 0.10065093 -0.0011125521 0.016534587
0.103129454 -0.024903163 -0.009891954 0.058544442 -0.04662124 0.17587411 0.08613099 -0.016721502
-0.09021299 -0.05986103 0.13455154 0.046525337 -0.10811553 0.05197228 0.020955322 0.048144884
-0.06971196 0.005800793 0.025950588 -0.0018965269 0.08694984 -0.08904413 0.02956757 -0.12974697
0.022948641 0.08629901 -0.1586202 0.09028175 0.049539633 0.028604789 -0.03157941 -0.029928228
-0.15262981 -0.032406557 -0.054263957 -0.1884422 -0.055339754 0.009449084 0.060114436 -0.021270338
-0.045172878 0.08146046 -0.062088367 0.01393539 -0.1483952 0.019667547 0.04476404 0.04371713
0.085323684 -0.11086353 -0.0154891675 -0.0489184 -0.06244223 0.106698245 -0.03361551 0.0017422066
-0.014128104 0.11409272 0.1327925 -0.06964329 -0.13044049 -0.05791508 -0.019335309 0.050598823
-0.17858215 -0.060031712 0.04027807 -0.08284655 -0.02023225 -0.22922766 0.00342061 0.15927696
-0.03061929 0.18939053 0.010087235 0.011877776 0.08532114 -0.08937529 -0.03405343 -0.024271956
0.06125792 -0.04975338 0.16927588 -0.10079671 0.0591167 0.000907154 0.00024991063 0.10023632
0.1204793 0.13380459 0.049601596 -0.025957163 0.13123539 0.04962904 -0.12251846 -0.05339202
-0.10951964 -0.07297211 0.15477182 0.16715455 -0.04070048 0.033298217 -0.09472341 0.01923413
-0.1778225 -0.08544746 -0.019734528 -0.05706104 0.09974738 0.14757942 0.05817326 0.037184924
-0.11313789 0.06824957 -0.06327609 -0.0057222326 0.01884727 0.1304613 0.15985341 0.11717409
-0.06636417 0.018131392 0.16883835 -0.08086837 0.01283393 -0.11387206 -0.049548574 -0.05541078
0.09860144 0.00035347437 -0.072612 -0.18062244 -0.04801183 0.027805729 0.056691695 0.07871972
-0.07360522 0.0034399026 -0.10225908 -0.018283995 -0.0023061493 0.06046841 -0.09313152 -0.09317509
-0.07680586 0.084126934 -0.13691236 0.18861963 0.034068692 -0.06697044 -0.09007418 0.029085629
0.063603126 0.027805638 -0.05791371 0.008166527 -0.07437908 0.015417778 -0.020441605 -0.050757695

network_body._body_endoder.seq_layers.2.bias f4 [128]
00000000: d431 9d3c 42ec 7e3c d982 7f3c 3f79 29bc
00000010: 6bbb 3abc 85f1 34bc c420 5dbc f82c 823c
00000020: 2be8 e23b a520 c6bb 29b7 71bb d76c 523c
00000030: d5be 673c 8b22 5cbc 70d5 41bc 7450 82bc
00000040: 1e06 43bc 5961 6cbc 235a 41bc 51ed 833c
00000050: de1e 853c 31f7 16bc b1be 61bc b0ee 8a3c
00000060: d788 5cbb 558b 71bc d3ee 283c 2600 2cbc
00000070: 7014 313c 8e7d 54bc dd16 5bbc a606 67bb
00000080: 0f67 343b 3f3d 923c 9b0f 1cbc 8352 1e3c
00000090: 30b0 413c 77e7 2fbc b1c8 5cbc 8710 50bc
000000a0: c163 f6bb 7b5c f4ba 8034 703c e587 68bc
000000b0: b9ca 5c3c 0a06 723c bc4d 27bc f304 52bc
000000c0: 78b9 0d3c 5592 38bc 5344 e8bb 4c8f 373c
000000d0: 9abc ceba 81bc 90bb a439 56bc d867 aabb
000000e0: 587e 773b c42b 84bb 455b 79bc 45b8 5c3b
000000f0: 0147 9e3c e7b9 773c 8513 1c3a 953d 193c
00000100: bcc9 663c a9ba 8f3c 030b 5c3c 9ff1 e7bb
00000110: f689 4d3c 10b7 97bc 328d 813c 824f dbbb
00000120: 2d01 443c 2905 873c 2d34 14bc e4a2 883c
00000130: 3ab8 52bc 4636 5cbc 6c12 783c 9220 3bbc
00000140: 1526 41bc 6a00 61bc 2dc0 69bc 41c9 23bc
00000150: 5be9 68bc bec6 233c a027 66bc 973d 52bc
00000160: 9b21 4dbc 2e54 72bc 20f9 16bc 76a3 8a3b
00000170: 6dd0 5f3b 39be 4abc f468 673a e0e1 5b3c
00000180: 455f e73b 12d8 303b d7fe 6d3c facf 5fbc
00000190: 1dd7 ffbb 77c8 35bc 6287 b7ba 08ef 8f3c
000001a0: 28c6 8739 8bf3 bdbb d166 5b3c eb73 62bc
000001b0: 097d 57bc 46a2 913c 0477 1bbc ad56 8cbb
000001c0: a5c2 8a3c eb40 6a3c 4791 a63b c742 633c
000001d0: 580c aa3b 75c4 1bbc fab9 dbbb 5b10 883c
000001e0: b86e 41bc 2adf 38bc 2269 893c 4498 fdbb
000001f0: 6a5d 90bb b9f5 303c 1047 f9bb de0d 68bc
0.019188799 0.015559258 0.015595161 -0.010343849 -0.011397223 -0.011043911 -0.013496581 0.015890583
0.0069246492 -0.006046372 -0.0036882854 0.012843332 0.014144619 -0.01343597 -0.011830673 -0.015907504
-0.011903314 -0.014427506 -0.011801275 0.016104372 0.01625007 -0.009214208 -0.0137783745 0.016959518
-0.00336509 -0.014742692 0.010310846 -0.010498082 0.010808095 -0.012969388 -0.01337215 -0.0035251766
0.0027527248 0.01785147 -0.009525205 0.009663227 0.0118217915 -0.010736338 -0.013475583 -0.012699253
-0.007519216 -0.0018643284 0.0146609545 -0.014192556 0.013476067 0.014771948 -0.010211404 -0.012818563
0.008650176 -0.011265357 -0.007088223 0.011203598 -0.001577276 -0.0044170027 -0.013075266 -0.0052003674
0.0037764516 -0.0040335376 -0.015219514 0.003367917 0.019320967 0.015120006 0.00059538364 0.009353061
0.014086183 0.017545061 0.01343036 -0.007078364 0.0125450995 -0.018519908 0.015814397 -0.0066928277
0.011963171 0.016481953 -0.009045643 0.016679235 -0.012861306 -0.013440674 0.015141111 -0.01142134
-0.011788865 -0.013733009 -0.01426701 -0.009996713 -0.0142157925 0.009996114 -0.014047533 -0.012832067
-0.012520219 -0.014790578 -0.0092146695 0.004230912 0.003415133 -0.012374454 0.000882759 0.013420552
0.0070609176 0.0026984257 0.014526091 -0.013660425 -0.007807626 -0.011095158 -0.0014002139 0.017570034
0.00025896844 -0.005796855 0.013391213 -0.013821582 -0.013152369 0.017777573 -0.009488825 -0.0042827935
0.016938517 0.014297704 0.0050832364 0.013870901 0.00518946 -0.009507288 -0.0067055197 0.016609361
-0.011806183 -0.011283675 0.016773764 -0.0077390987 -0.004405667 0.010800772 -0.0076073483 -0.014163462

action_model._continuous_distribution.log_sigma f4 [1, 2]
00000000: 0595 9c3a b4f9 fcbc
0.0011946267 -0.030880786

action_model._continuous_distribution.mu.weight f4 [2, 128]
00000000: 74a6 113d 537e 1dbc 0501 a9bb 2591 0e3c
00000010: 7700 8ebc ea11 2d3c 90d1 25bc 4adb 893b
00000020: 3ad4 afbb 7154 053d 7de5 d6bc 7a02 c43b
00000030: feaa 293d bcba 4a3b 2ab7 ee3b 8446 c7ba
00000040: 9741 adbc 0f10 423c e6df 983c ef39 e3bb
00000050: bd06 c23c 2bc7 b33c 29dd 8d3b a876 183d
00000060: 055e b0bb 66a8 1f3c 0fe1 063c 69ce f83c
00000070: 9568 a23c 0209 d9bc e070 74bc 2e67 2c3c
00000080: df32 a6bc 79f9 e93c 54de 5fbc 3956 0a3d
00000090: 154d 0fbd 02b0 14bb 86f9 05bd 3869 883b
000000a0: 3a4d 9ebc 6a4d a0bc f82f 8b3c ee81 90bb
000000b0: 26e4 093a c30d 1fbd e082 60bc ab8e d63c
000000c0: e07e 97bc 8743 253c b2cf 67bc 770d acbc
000000d0: 9b6b 28bd b27a b63c f469 33bb 5ad6 e5bc
000000e0: fb8b b93c 823c 83b8 fdbf 293b 707e 0a3d
000000f0: b615 81ba 40c4 0e3d 30a7 bd3c d130 e23c
00000100: f32f d7bc 8c3c 70bc b2f9 00bd 8476 04bc
00000110: 9917 81bc 2669 b2bb 9505 623c 226d f23b
00000120: 8af8 883c f2b5 ba3a c7c9 da3c d735 e4bc
00000130: 7dec 24bc b560 de39 5dee e9bc 1abf 5b3b
00000140: bde4 3d3c c5a6 30bc 49c7 b0ba 02a7 1a3d
00000150: 51ff b63b 1d3a 923c 8dcb 8f3b 1429 2e3b
00000160: b636 46bc 8cad c1bb 0312 d93c 9f49 283d
00000170: 39d3 31bc 4a2e 8bbc 8fa6 9abc 6aed 163c
00000180: 7c8d 643c 1f86 c83b a5b8 603c b190 2abb
00000190: 06dd 3dbd 18fb 833c 5b58 073a d333 733b
000001a0: 366b 863c 8d1a e53c 64be cb3c dce3 a63c
000001b0: 0356 55bc b348 5b3c 828e 173d 57a9 bb3c
000001c0: dd86 003c a775 97bc c04d cebb 1c30 edbc
000001d0: 4c16 0ebd 1fac 4c3b e2ff 013d 40aa 7abc
000001e0: 5d7b 7ebc d087 313c ecbb d7b9 7311 99ba
000001f0: 83d0 19bd d4a1 ac3b 5d15 d93a 8a61 19bc
00000200: 3dab 2c3d 8374 e23c adf0 9d3c dc83 13bd
00000210: 8f89 26bc 8096 9cbc 7876 33bc 3c3e 3a3d
00000220: b3e6 57bb 2126 7bbc 8b0d 84bd 531c 013d
00000230: 09a8 0f3d 5613 0bbd 94c8 00bd a519 16bd
00000240: 4c8c dfbb a002 abbc d10c bbbc f240 0d3d
00000250: aa87 dc3c 07d3 d3bc f142 acbc b57f 1b3d
00000260: 7e51 eabc 80ed e9bc a9e0 893c 53c0 0cbd
00000270: 96ce 843c b8ce 84bc 6f10 8abc 7f00 ffbc
00000280: 0dc3 d9bb ee63 d13c 7a11 40bd 3897 933c
00000290: 65c4 ae3c 9832 0bbc df5b 1ebd 0a61 c5bc
000002a0: 7238 3dbb 81c0 50bc 3411 ce3c 4932 d0bc
000002b0: 5642 fd3c 0e04 013d dcf6 41bd 2d48 22bd
000002c0: 7517 6bbc 80de 04bd 7646 cabc 93e5 573c
000002d0: e767 40bd 72b2 24bd c0ab 00bd 0608 9fbc
000002e0: e7c4 35ba c427 57bc decc babc a438 b33b
000002f0: 0c88 033d 093b 7f3c 423d 4b3c 2000 0939
00000300: 3b94 1b3d 2ce2 8f3d 7bef 383d 953d c8bc
00000310: e63c 6f3c 4007 ebbc 65fc 4a3d 0639 a4bc
00000320: 085d 323c fd13 a53c 6fdb 34ba 2ce3 cd3c
00000330: 0011 bcbc 536f 01bd 1d1d 5e3d 16ca 1cbd
00000340: 3e13 2ebd bd41 f6bc 10a4 acbc a196 1dbd
00000350: fe07 fbbc e04a 863c 27d9 bfbc 165d eebc
00000360: 4218 1dbd 68a5 8abc a962 34bc 3ff3 453a
00000370: 951a b6bc 64b7 52bd 16e9 cfbb d096 943b
00000380: e2aa 543c 4f5c 0a3c 86ba aa3c b94c f9bc
00000390: 8daa 16bd 598e febc 9b03 913b 6415 d33c
000003a0: 9cf7 1ebc a292 6cbc c768 183d 93a0 d3bc
000003b0: 4602 36bc 6434 1e3d 8789 75bc 8a5a 38bd
000003c0: 4994 443d 5e11 c13c 9e2d 04bc cef4 d33c
000003d0: 0ad1 053c 488e 99bc 2237 afbc eda3 c73c
000003e0: 8c18 16bc 69f1 c8bb c21b db3c a7ef 10bd
000003f0: 0628 f0bc 3547 8e3b 0cea 88bc 6d41 8dbc
0.035559133 -0.009612638 -0.0051575922 0.008701597 -0.017334206 0.010563353 -0.010120764 0.0042070495
-0.0053658755 0.032551233 -0.026232475 0.0059817405 0.041422836 0.0030934056 0.0072850185 -0.001520351
-0.02114944 0.011844649 0.01866145 -0.0069343965 0.023684854 0.021945557 0.004329343 0.037222534
-0.0053823018 0.009744739 0.008232369 0.030371862 0.01982526 -0.026493553 -0.01491949 0.010522647
-0.02028793 0.02856134 -0.013663847 0.033773635 -0.03498562 -0.0022687917 -0.032708667 0.0041629337
-0.019323934 -0.019568164 0.016990647 -0.00441002 0.0005260132 -0.038831484 -0.013703078 0.026191076
-0.018493116 0.010086901 -0.0141486395 -0.021002514 -0.041118246 0.022275303 -0.0027376385 -0.028056312
0.022649756 -6.257837e-05 0.0025901787 0.033811986 -0.0009848389 0.034855127 0.02315101 0.027611168
-0.026267981 -0.014662873 -0.031488128 -0.008084897 -0.015758323 -0.0054446636 0.013795276 0.0073982636
0.016720075 0.0014244898 0.026707543 -0.027857704 -0.010066149 0.00042415192 -0.028556043 0.0033530653
0.01159018 -0.010781948 -0.0013487126 0.037756927 0.0055846353 0.017849976 0.004388279 0.0026574777
-0.012098005 -0.005910581 0.026497846 0.041085836 -0.010853582 -0.016989846 -0.01887825 0.009211877
0.013949748 0.006119504 0.013715898 -0.0026026184 -0.046353363 0.016110942 0.00051630073 0.0037109747
0.016408544 0.027966762 0.024871059 0.020372324 -0.013020995 0.013384032 0.03700114 0.022907896
0.007844654 -0.018488718 -0.0062958896 -0.028953604 -0.034689233 0.0031230522 0.03173817 -0.01529938
-0.015532342 0.010835603 -0.00041148008 -0.0011678174 -0.037552368 0.005268315 0.0016562153 -0.009361634
0.042155493 0.027643448 0.019279802 -0.036014423 -0.010164632 -0.019114733 -0.010953538 0.045469508
-0.0032943904 -0.015328915 -0.064478956 0.031521153 0.03507236 -0.033953987 -0.031441286 -0.03664555
-0.0068221446 -0.020875275 -0.02283326 0.034485765 0.026920158 -0.025857462 -0.021028014 0.037963588
-0.028603312 -0.028555632 0.01683076 -0.034363102 0.01621179 -0.016211852 -0.01685354 -0.031128166
-0.0066455663 0.025560346 -0.046891667 0.018016443 0.021333883 -0.008495949 -0.038661834 -0.024094123
-0.0028872755 -0.012741209 0.025154687 -0.025414603 0.03091542 0.031498007 -0.047354564 -0.039619613
-0.014348854 -0.032438755 -0.024691802 0.013177293 -0.04697409 -0.04020924 -0.031413794 -0.019413006
-0.0006933943 -0.013132039 -0.022802766 0.0054693986 0.032112166 0.01557804 0.012404742 0.00013065385
0.03798316 0.07025561 0.04515026 -0.024443427 0.014601922 -0.02868998 0.04955711 -0.020046722
0.010886438 0.020151133 -0.0006899153 0.025132738 -0.022957325 -0.031600308 0.054226983 -0.03827866
-0.04249882 -0.030060643 -0.021074325 -0.03847373 -0.03064346 0.016393125 -0.023418976 -0.029097121
-0.038353212 -0.016924575 -0.011009851 0.00075512 -0.022229472 -0.051444426 -0.0063449247 0.00453458
0.012980195 0.00844486 0.020840894 -0.030432092 -0.036783744 -0.031073736 0.0044254786 0.025767036
-0.009702589 -0.014439257 0.0372093 -0.025833404 -0.0111089405 0.038624182 -0.014986402 -0.04500822
0.04799298 0.023567852 -0.008067517 0.025873568 0.008167515 -0.018744603 -0.021388594 0.024370158
-0.009161126 -0.006132294 0.026746634 -0.0353848 -0.02931596 0.0043419846 -0.016713165 -0.017243112

action_model._continuous_distribution.mu.bias f4 [2]
00000000: c591 74bb 8a4f 743c
-0.003731833 0.014911542
