results/ppo/MoveToGoal/MoveToGoal-412673.pt (torch, 441366 bytes, 36 tensors)

network_body._body_endoder.seq_layers.0.weight f4 [128, 6]
000000 4f 3c e0 3d d2 64 8c 3e 35 b9 37 bf ce e7 70 be
       0.10949003 0.2742067 -0.7176698 -0.23525926
000010 f5 58 f9 be da 0d 06 bf 9a 10 23 3d 8f 56 39 be
       -0.4870068 -0.52364886 0.039810754 -0.18099426
000020 6b 5e 0a bf 26 b3 c0 3e 3d e5 bb be ec 90 23 bf
       -0.5405032 0.3763668 -0.36698332 -0.6389301
000030 99 74 2b 3e f0 46 99 3e 7d 0c c5 3d 4c 65 85 bd
       0.16743697 0.29936934 0.096215226 -0.065134615
000040 03 16 bb be d2 1e ce be bd f7 3b 3e 3a 0d 3a bd
       -0.3654023 -0.4025789 0.18356223 -0.04542277
000050 fd 75 cf 3e 17 86 fe 3d 72 ef 98 3d cf ad 9a be
       0.40519705 0.12427919 0.074675456 -0.3021073
000060 3b b0 3f bf c5 4d e9 3e 04 5d b7 3e 54 16 de 3e
       -0.7487828 0.45567146 0.35813153 0.4337641
000070 97 d0 bd 3e 78 73 cb bd 83 a3 c0 be a4 22 e5 be
       0.37073204 -0.09934133 -0.3762475 -0.4475299
000080 ac 36 89 bd 4d 63 7e be 55 f6 a7 3e 87 f1 24 bd
       -0.06699881 -0.24842568 0.32805124 -0.0402694
000090 9f 36 03 bd 5f 7d 84 3e b4 66 83 be ff 86 c1 bd
       -0.032034513 0.258769 -0.25664294 -0.094495766
0000a0 29 a3 4c 3e da 0c 62 3e 97 6d c9 bd fb cb e5 be
       0.19984116 0.22075215 -0.09835356 -0.44882187
0000b0 1e 0a de be af 8d 3b bc fd e5 d6 bd a1 2b 69 be
       -0.43367094 -0.011447354 -0.104930855 -0.2277055
0000c0 c7 55 bd 3e cd 42 a2 3e 94 c4 c2 be 54 b3 3d 3d
       0.36979505 0.3169159 -0.38040602 0.0463136
0000d0 b0 e1 f9 3c a5 18 74 bf 98 0d 18 bf 61 59 c3 be
       0.030503124 -0.95350105 -0.5939574 -0.38154128
0000e0 9d b5 aa be 38 c6 13 bf 8e 2c 13 bd 0d 11 11 3f
       -0.33341685 -0.5772433 -0.035931163 0.5666664
0000f0 00 b0 00 3e 54 37 87 be 2c ff 1e bf 1e 84 a7 be
       0.12567139 -0.264094 -0.6210811 -0.32717985
000100 ea 50 38 3e bf 1d 25 3d 05 e3 34 be 32 e5 c9 bd
       0.17999616 0.04031157 -0.17664726 -0.09858169
000110 26 90 a5 be 04 42 3d bf 29 19 86 be b3 8b 5c bf
       -0.3233654 -0.73928857 -0.2619107 -0.86150664
000120 98 43 06 bf 49 2b 4a 3d 67 ce 0e 3d c8 e1 1f bf
       -0.5244689 0.049357686 0.03486481 -0.6245389
000130 11 de 1b bd 97 13 fd 3d 31 b7 54 be f9 dc b7 be
       -0.038053576 0.12357252 -0.20773007 -0.35910776
000140 17 b0 89 be fa 59 39 bd 49 e3 c3 3d 8d 8b dd bd
       -0.26892158 -0.045251824 0.095648356 -0.10817633
000150 b6 fe 9e be 0e f9 bf 3d f7 78 05 bf d5 14 b9 3e
       -0.31053704 0.09373675 -0.521377 0.36148706
000160 58 51 4b 3f 6d 83 a6 be 64 04 0d bd 48 9d 1e bf
       0.79420996 -0.32522145 -0.034428015 -0.6195874
000170 c2 48 ed bd 50 f2 38 bf 39 52 b6 3e e1 77 04 bd
       -0.11586143 -0.7224474 0.35609606 -0.032340888
000180 7f 79 d3 be 96 91 ff 3e 1f 2e 09 bf 95 17 1b 3c
       -0.41303632 0.4991576 -0.53586 0.009466072
000190 3e 0a 01 be e1 42 35 be 08 a6 43 3e d5 97 f8 be
       -0.12601563 -0.17701294 0.19106305 -0.4855334
0001a0 18 11 c5 be 94 3e 86 3e 8e b5 1f be 65 fa 3e 3c
       -0.38489604 0.26219618 -0.15596601 0.011656378
0001b0 15 82 19 be 4c 43 a3 be bb ed 17 be 06 a5 cb bb
       -0.14991029 -0.3188728 -0.1483678 -0.0062147407
0001c0 56 fd ca 3d 10 be ee 3e 1b 2d 1b bf 5e 99 02 3f
       0.09911601 0.4662938 -0.606157 0.5101527
0001d0 88 58 a4 bd 42 a2 9d bd 7b bd 91 bd e1 d4 94 bb
       -0.080246985 -0.07696964 -0.07116219 -0.0045419787
0001e0 1e 12 44 bd cd eb 4f bd 70 a8 5d 3e 02 72 4b bd
       -0.04786884 -0.050761987 0.21646285 -0.049669273
0001f0 8f 5a 54 3d 0d 79 61 3e 86 ed 20 3f 9b 36 8d be
       0.051844176 0.22018833 0.6286243 -0.27580723
000200 d6 03 0e 3e 69 50 bd 3d d8 df 69 3f 2e c9 31 bf
       0.13868651 0.09243853 0.91357183 -0.694476
000210 cc 5d bf 3e 27 b8 c3 3e 55 9d 2f bf 88 ae 62 be
       0.3737625 0.38226435 -0.68599445 -0.22136891
000220 01 50 35 3e 48 b7 71 be d0 25 af 3e 49 e4 94 3d
       0.177063 -0.23605072 0.34208536 0.072701044
000230 0b cf 48 3e a8 88 13 bf c0 d6 c1 be f7 21 f0 be
       0.1961023 -0.57630396 -0.37859154 -0.46900913
000240 eb 58 2b bf 9b 94 3e 3e bc 25 d5 be 7a 07 25 be
       -0.66932553 0.18611376 -0.41630352 -0.16116133
000250 48 35 58 bf 52 98 65 bd 95 10 d5 3e 50 5a e3 bb
       -0.844563 -0.056053467 0.41614214 -0.0069382563
000260 c6 28 4d 3d 97 1f c2 bd 34 8c 0d 3f 52 b9 74 bf
       0.050087713 -0.094786815 0.5529206 -0.95595276
000270 28 c9 a3 bd 33 d4 2f be dd e9 b3 bd a9 19 04 3f
       -0.07997352 -0.17170791 -0.0878484 0.51601654
000280 1e 2f b9 be 6b 06 b4 bd c4 8c 15 3e bf 15 e6 3e
       -0.3616876 -0.08790287 0.14604479 0.44938466
000290 ff e1 25 bf 0b b3 33 3f de b0 0d bf f3 48 ac 3e
       -0.6479797 0.7019507 -0.55348 0.33649406
0002a0 52 46 3e be 03 df 6c 3e 8e 6b 7a 3d be e3 f6 bd
       -0.18581513 0.23131947 0.06113773 -0.12055157
0002b0 93 45 ff bc bb 75 df be 0d 82 13 be a9 2f 32 3f
       -0.031161105 -0.4364451 -0.14405079 0.69603974
0002c0 97 5c a2 3e 51 f0 92 3e 0e 6e 8b be b2 6b e9 bd
       0.31711265 0.28698972 -0.27232403 -0.113974944
0002d0 8d c9 9d 3d ac 69 99 be ac 6b 50 be e9 c6 d0 bd
       0.077044584 -0.29963434 -0.20353574 -0.10194189
0002e0 79 51 07 3f f1 b9 3a 3e 9b 18 d1 3d e9 cf 69 be
       0.5285869 0.18234994 0.10209771 -0.22833218
0002f0 2d 62 ac 3d e8 57 1d be 34 1e 41 be 97 98 05 bd
       0.08417163 -0.15365565 -0.18859178 -0.032616224
000300 88 d8 0e be 9c b6 7f 3e 5f 87 03 bf 47 a5 e6 bd
       -0.13949788 0.24972004 -0.51378435 -0.11261993
000310 b4 92 08 bf 20 8f 85 3d 78 7f 18 3f aa cb 1a bc
       -0.5334885 0.065214396 0.595695 -0.009447971
000320 34 fa a4 be 2d ff 3c bc 0b f6 14 3e f2 7c ce 3d
       -0.3222214 -0.011535448 0.14546983 0.10082425
000330 e9 eb 00 bf 18 8b eb be a3 3e 5f 3f b9 2a a1 3e
       -0.5035997 -0.46004558 0.8720495 0.31477907
000340 47 67 9d be a2 72 a3 3e 6f b6 f7 bd fe 86 43 be
       -0.30742857 0.31923395 -0.12095343 -0.19094464
000350 82 8f 97 3e 67 72 f5 be ad cf cc be b2 98 12 bf
       0.29601675 -0.47938845 -0.40002194 -0.57264245
000360 f3 cf 2c 3f b9 88 01 bf fe eb 90 3e d7 3f 87 be
       0.67504805 -0.5059925 0.28305048 -0.26415893
000370 94 b2 87 3d 04 ad d2 be 21 d5 c3 3c d6 3e ce be
       0.06625858 -0.41147625 0.023905339 -0.40282315
000380 45 3c fc be 54 0a 04 3f a7 2a 31 be 2f df 10 bc
       -0.49264732 0.5157826 -0.17301427 -0.008842274
000390 c2 6a 6c be bf 51 ec 3d 9c 06 d0 be a9 4d 83 3e
       -0.230876 0.11539029 -0.40630043 0.25645187
0003a0 36 69 10 3f 02 8c b7 bb 77 0c f6 3b 08 c4 3e be
       0.5641054 -0.005601407 0.00750881 -0.18629467
0003b0 66 e6 03 3f 36 1b 8c bd 51 51 b2 3e 58 59 26 bf
       0.51523435 -0.068411276 0.34827664 -0.6498008
0003c0 cf f3 3a be 1d 3e a6 3c 29 9a 15 3f 79 76 d4 3e
       -0.18257068 0.02029329 0.58438355 0.41496637
0003d0 66 d7 f7 3e e6 3e 29 3f f9 ad 00 3f 7c b9 8d 3a
       0.48406523 0.661116 0.5026546 0.0010812725
0003e0 e7 25 6d 3c 94 92 69 3e 49 05 66 be 6c dd c6 be
       0.014474369 0.22809821 -0.22462954 -0.38840806
0003f0 13 85 b5 be f6 0c 32 be 0d 15 ea 3d 1b 78 27 3e
       -0.3545309 -0.17387757 0.11429796 0.1635441

network_body._body_endoder.seq_layers.0.bias f4 [128]
000000 34 99 05 3a 85 54 0f bc 76 27 64 3c e5 88 45 3b
       0.00050963764 -0.008748178 0.013925424 0.003014141
000010 71 7c 27 3b 78 cb 3d 3a 9f d6 0e 3b be 38 23 ba
       0.002555635 0.0007240097 0.0021795405 -0.0006226412
000020 48 78 bf 3a 01 a1 0b bc 24 08 71 3b 1e 08 e4 b8
       0.001460799 -0.008522273 0.0036778534 -0.00010873399
000030 1b 96 35 3c 31 eb e6 bb f7 59 9b bb cf 4d 3e 3c
       0.011083151 -0.00704708 -0.0047409493 0.011615231
000040 a0 e5 ea b8 9b 68 c3 3a 48 91 5b bb b4 0b 59 3b
       -0.000112007605 0.0014908494 -0.0033503342 0.0033118548
000050 c3 5b 73 3c bb 12 3d b9 0a 17 01 bb 89 6f 9f bb
       0.014853421 -0.00018031422 -0.001969757 -0.004865591
000060 5c cf b0 3a 62 78 b9 bb 68 a0 78 bb 00 06 e1 bb
       0.0013489532 -0.0056601027 -0.0037937406 -0.0068671703
000070 27 4d ef bb c7 0a 50 bb e0 22 e3 3b e6 3c 04 3c
       -0.0073028984 -0.0031744705 0.0069316477 0.00807116
000080 b5 f3 2a 3a 76 25 f4 3b f4 d2 e7 bb 0a d7 9e ba
       0.00065213005 0.0074507548 -0.007074708 -0.001211853
000090 90 11 a8 bc a1 7a cf bb e8 d0 bf 3b e8 b0 c4 3b
       -0.020516187 -0.006331757 0.005853761 0.006002534
0000a0 3c b6 51 bb 73 65 7c 3b 99 f6 58 ba de 49 8c 3c
       -0.003199949 0.0038512617 -0.0008276492 0.017125066
0000b0 e4 fd ef bb 08 90 2d bc f3 ed 30 ba 52 14 84 bb
       -0.0073239673 -0.010593422 -0.00067493244 -0.0040307427
0000c0 d6 4e 7a 3c 74 35 be 3b b7 d5 8c bc 1a 99 00 bc
       0.015277585 0.005804712 -0.01719175 -0.007849002
0000d0 55 90 a3 bc 75 7f 9d 3b 2c 85 a4 bb ff ac b8 b9
       -0.019966284 0.004806454 -0.005020758 -0.00035224107
0000e0 a8 ab cf 3b cf d2 b0 3a fd b1 a2 3b a6 71 4d bc
       0.0063376017 0.001349056 0.0049650655 -0.012539303
0000f0 67 97 e0 3a a4 0f c9 bb 77 a7 d5 ba fe 0d e8 ba
       0.0017134965 -0.0061358977 -0.0016300519 -0.0017704365
000100 92 e6 dd bb 26 ac b1 3b a2 59 18 bb 63 c9 90 3b
       -0.006771871 0.005422133 -0.0023246785 0.0044185384
000110 ab 5e 2c bc 03 7a 3a ba c0 ae 5a ba 78 49 80 bb
       -0.0105206175 -0.0007113518 -0.000834208 -0.003915008
000120 34 bb 7b 3b 5a cb 77 3b 58 c8 8e 3b a5 f6 3b 3b
       0.0038411142 0.0037810416 0.004357379 0.0028680947
000130 d0 82 0a bc d7 f1 20 bc 2b d6 dc 3b ec e2 8b 39
       -0.00845404 -0.009823284 0.006739398 0.00026681216
000140 ee ea af ba e5 f6 2e bc a9 26 cf 3b a1 34 6a bb
       -0.0013421455 -0.010678981 0.0063217473 -0.0035736936
000150 26 6f 11 3c 2e e7 b5 3b 13 51 8f 3a a0 c4 6b bb
       0.0088765975 0.0055512404 0.0010934196 -0.0035975352
000160 f8 1a 8b bc 83 2b 09 bc a1 2a d1 3a 34 61 49 bb
       -0.016980633 -0.00837219 0.0015958139 -0.0030728104
000170 02 73 fc bb 91 5d 17 39 d9 78 03 bb 18 94 73 bb
       -0.0077041397 0.00014435338 -0.0020061044 -0.0037167128
000180 d0 36 89 3b 11 17 17 bc 6f 42 2e 3a 4c 2f ba bb
       0.0041874424 -0.009221808 0.00066474726 -0.0056819078
000190 e8 47 56 b9 fc 01 40 bc d3 5e 1a 39 b0 6d 83 ba
       -0.00020435418 -0.011719223 0.00014721909 -0.0010027196
0001a0 35 7d 93 3c 42 02 68 bc 87 cd 4e 3c 7c ca 0d bc
       0.01800404 -0.014160695 0.012622244 -0.008654233
0001b0 b5 b5 b1 b9 ad 57 25 3a b4 1a db bb d3 27 0a 3c
       -0.00033895453 0.0006307315 -0.006686533 0.008432346
0001c0 a8 86 ee bb f4 a9 b6 3b 41 5f 56 3b e8 3a 54 3b
       -0.007279236 0.005574459 0.0032710584 0.0032383744
0001d0 62 30 8e 3c 23 01 5f bc e7 03 2b bb f6 20 3c bc
       0.017357055 -0.013611111 -0.0026094855 -0.011482468
0001e0 ef 24 fa ba 02 3b 03 bc 26 78 23 bc 18 1e cc bc
       -0.0019084493 -0.008009674 -0.009977376 -0.024916694
0001f0 65 e5 61 bc 2d f4 7f 3c a4 69 b3 bb 59 29 27 bc
       -0.013787602 0.015622181 -0.00547524 -0.010202729

network_body._body_endoder.seq_layers.2.weight f4 [128, 128]
000000 8d 8e f6 bd ad 2d c9 bb 2c 29 da bd 8f f4 9d 3d
       -0.12038908 -0.006139478 -0.10652384 0.077126615
000010 cd 63 01 bd f2 9b 8b bd 81 72 ff bb b6 f5 fe bd
       -0.031589318 -0.068168536 -0.0077956324 -0.124492094
000020 7c 17 ae 3c d4 1c 92 bd c9 69 99 3d b9 d3 b7 3d
       0.021251433 -0.07134405 0.0749088 0.0897593
000030 90 d2 b8 bd 24 a7 35 3e 9c 51 d5 3c 8b 76 7b bd
       -0.090245366 0.1773954 0.026039891 -0.06139235
000040 ef b1 89 bd f8 80 be 3d e2 f2 5d bd e9 99 24 3d
       -0.06723391 0.093019426 -0.05418671 0.040185843
000050 76 69 27 3d fa 32 f0 bc 29 c9 4c bd ee b3 6a bd
       0.04087206 -0.029321183 -0.04999653 -0.0573005
000060 95 9d 06 bd 1e 84 6f bc ad 47 1c 3e 8a 1f d4 3d
       -0.032865126 -0.014618902 0.15261717 0.10357578
000070 32 ee aa bd 97 ec ef 3c 6c a2 95 3d 3a 4e f8 bc
       -0.083462134 0.02928762 0.0730637 -0.030310739
000080 46 b1 19 3e 2f 29 f5 3c d0 5b 8a ba 5d ea 1e 3e
       0.1500903 0.029926864 -0.0010555927 0.1551909
000090 74 19 b4 3d 49 d9 9e 3d f3 7d 1f bb 9e 9f 3e 3e
       0.08793917 0.077562876 -0.0024336546 0.18615577
0000a0 bf 93 b4 bd 7c ae 24 be 56 61 ec bb 90 9b 50 3d
       -0.08817243 -0.16082186 -0.007213752 0.050929606
0000b0 f2 98 bd bd 7d e6 a3 3d 5a 78 a6 3d 18 41 cf 3c
       -0.09257688 0.080029465 0.08128424 0.025299594
0000c0 22 e4 71 3d d7 36 8c 3d 86 fd 21 3e 25 c6 b9 3d
       0.059055455 0.06846397 0.15819368 0.09070996
0000d0 73 35 c3 3b 81 7f 57 be 1f 27 01 bd 8b 9a 0b 3d
       0.0059572994 -0.21044733 -0.03153145 0.03408293
0000e0 52 47 48 bd d9 41 a3 bd 8f f2 1b bd 18 5b 96 3c
       -0.04889614 -0.07971544 -0.03807312 0.018353984
0000f0 5a 05 a7 bd 98 fe 24 bc 64 d9 05 3e 52 21 ca 3d
       -0.081553176 -0.0100704655 0.13071209 0.098696366
000100 03 ae 7e bb ad 5f 04 be b0 2c 52 3b 70 a3 ba bd
       -0.0038861043 -0.12927122 0.0032070093 -0.091132045
000110 49 f1 87 bd ff cf 47 3d 4a 64 58 3c 8a b5 94 3b
       -0.06637818 0.048782345 0.0132075045 0.0045382427
000120 a8 9d 7d 3d 6e 7f 27 bc 06 9f ab bd 48 bf 24 be
       0.06191793 -0.010223253 -0.08379941 -0.16088593
000130 86 42 27 bd 81 b7 67 bd a3 e2 9d 3d f5 d8 d4 bd
       -0.040834926 -0.056571487 0.07709243 -0.10392944
000140 79 b3 08 3b 66 a9 32 bd d4 37 48 3d be fd 80 bc
       0.0020858927 -0.043618582 0.048881367 -0.015745994
000150 72 40 08 3d 92 cf 80 bd 1e 98 cf 3d 2d 99 f4 bd
       0.033264585 -0.06289591 0.10136436 -0.119432785
000160 6e b6 38 be 74 07 b6 bc d9 63 38 be 64 6d 93 bc
       -0.18038341 -0.02222035 -0.18006839 -0.017996497
000170 bc 28 09 3e b0 32 64 be ba ea 23 bd a5 e6 80 3d
       0.13394445 -0.22284961 -0.040018775 0.06293992
000180 30 99 81 3d 9f 99 0a bd 1b f0 c4 bd 30 0d 5f bd
       0.06328046 -0.03383791 -0.09616109 -0.054455936
000190 6f 7a d2 bd 2a cb 4d 3d bb f2 88 3d 74 82 e6 3c
       -0.102772586 0.05024258 0.06686922 0.028138377
0001a0 2a 1e be bc e3 b6 06 3e 87 5d a5 bd e5 5c f3 bd
       -0.023207743 0.13155703 -0.080744796 -0.118829526
0001b0 6a 33 d6 bd 91 51 1c bc 63 e0 cc bd 7c d1 3d 3c
       -0.10459025 -0.009540931 -0.10003736 0.0115855895
0001c0 14 1c d5 3d c0 a4 da bd 1a 32 80 3e 42 58 1f 3e
       0.10405746 -0.10675955 0.25038224 0.15561011
0001d0 9d 2e 4e be 9e ac f6 3d fb 2d 2c 3d 05 55 99 bc
       -0.20134969 0.12044643 0.042036038 -0.018717298
0001e0 f7 46 4a 3d c4 e7 58 bd 70 01 0a 3e e6 85 3e 3d
       0.049384084 -0.052955404 0.13477111 0.046514414
0001f0 8e 65 0f bd 44 e6 a1 bd ed e4 fe bd fc c8 63 bd
       -0.03500896 -0.07905248 -0.12446008 -0.055611596
000200 42 bd fb 3c 26 ee 87 bb c8 63 23 bd ab fd 6e be
       0.030729894 -0.0041482626 -0.03989008 -0.23338954
000210 c3 bb 34 3b 9c c5 17 3d 5a 29 16 3e 7c ba ad bd
       0.0027577735 0.03705369 0.14664212 -0.08482835
000220 43 a1 d2 3d 6b 68 30 3d 76 cb e8 3c f4 da 00 be
       0.102846645 0.04306833 0.02841733 -0.12583524
000230 cc 86 ef bd 3d de c6 3d 1a 6b 97 3d 80 40 ab bd
       -0.11695632 0.09710357 0.07393475 -0.08361912
000240 cc 59 c8 3d 0d f9 18 3d 74 3d 13 3d 06 a3 0a be
       0.097827524 0.03734689 0.03594728 -0.13538751
000250 ae ae 36 3c 55 8d 80 3d 9f 4c 26 3e f1 10 14 be
       0.011150045 0.06276957 0.16240166 -0.14459588
000260 be 4f 01 be 29 9a 52 3d 30 5a 37 be 7a 60 2e 3d
       -0.12628075 0.05141655 -0.17905498 0.042572476
000270 29 ab 16 be 93 2f 47 3c bc 72 be bc 8d 2a c0 bd
       -0.1471373 0.012157339 -0.023248069 -0.09383116
000280 e3 5e 28 be 77 cc 8d bc 50 2a c6 3c a8 92 7d 3d
       -0.16442446 -0.01730941 0.024190098 0.06190744
000290 dd f3 d0 bc a4 24 d0 3d 81 1d 9c 3d 2c f8 ff bb
       -0.025506908 0.10163239 0.07622815 -0.007811567
0002a0 51 ba 4c bd 3c ce 32 3d ba f5 11 3e 92 6f e8 3d
       -0.049982373 0.04365371 0.14253893 0.11349405
0002b0 9b 71 83 bc f6 93 4f bd 87 00 e2 bd 01 fc 9d 3c
       -0.016045382 -0.050678216 -0.11035257 0.019285204
0002c0 a8 10 11 be 19 27 7a 3d 6e 45 9d bd 6b 34 1c 3d
       -0.1416651 0.061072443 -0.07679258 0.038135927
0002d0 ea 6f ab 3d ea f0 93 3d 75 42 22 3e 8a cb 82 3d
       0.08370955 0.07223685 0.15845664 0.06386478
0002e0 57 3b d7 bd fe 93 15 3b 47 55 9a 3d 29 49 89 3d
       -0.10509365 0.0022823806 0.075357966 0.06703407
0002f0 0e b0 f9 bc ea 47 10 be 94 ab 95 3d 77 d0 91 bb
       -0.030479457 -0.14089933 0.073081166 -0.0044499
000300 40 18 3e 3e 49 5e 44 bc 15 8e 37 bd 2e fc d7 3d
       0.18563938 -0.01198537 -0.044813234 0.10546146
000310 10 90 f3 bd c5 8b 6d bd 74 e8 48 3c f2 31 0a 3e
       -0.11892712 -0.057994623 0.012262452 0.13495615
000320 59 35 bd 3c a3 39 2b be 89 42 1d 3e ff 17 16 3b
       0.023096727 -0.16721205 0.15357412 0.0022902486
000330 5f 2d 09 3e 7d 96 7b 3d 68 e7 e9 bb 1d ba 45 bc
       0.13396214 0.061422814 -0.0071381815 -0.012068299
000340 cb 06 1a bd 2b 04 f9 bd f4 b4 20 3e 34 46 ee 3b
       -0.037604135 -0.12158998 0.15694028 0.0072715525
000350 78 d3 10 be 1d 65 b6 bb b2 b0 34 bc 5d 62 9a bd
       -0.14143169 -0.005566253 -0.011028456 -0.075382926
000360 d8 1f 01 3d 35 68 94 3d 3e 15 b2 bd c7 6a 6b bd
       0.03152451 0.072464384 -0.08695458 -0.057474878
000370 e7 02 9a bd 91 2c 8e bd 53 85 6c 3e 1c 90 31 3d
       -0.07520085 -0.06942094 0.23097734 0.043350324
000380 c2 5a 54 3d 02 1e 53 3d 98 f8 d4 3d c4 4e b6 bd
       0.051844366 0.05154229 0.10398978 -0.08901742
000390 32 33 21 be ff 0e 96 bc 97 94 1b 3e a3 54 03 bc
       -0.15742186 -0.018317698 0.15193401 -0.008015784
0003a0 5a fe 98 bc 68 dd 89 3e a2 71 20 bd 66 c8 c8 bd
       -0.018675972 0.26926732 -0.03917087 -0.09803848
0003b0 44 95 1f 3d a0 b5 8b 3d 90 05 71 bc bf a7 b0 bd
       0.03896071 0.068217516 -0.014710799 -0.08625745
0003c0 35 48 93 3d 04 29 8e 3d 8e c8 c8 3d 5e 29 47 3c
       0.07191507 0.06941417 0.09803878 0.012155859
0003d0 7b 55 90 3d 11 61 d2 bc 46 e8 29 3d 4b e6 8a bd
       0.07047554 -0.02568105 0.04148128 -0.06782206
0003e0 6d fa ca bc 6c 6f 89 3e 3e 28 79 3d e5 63 19 3e
       -0.024777615 0.2684282 0.060829394 0.14979513
0003f0 f7 4f e0 bd 54 db 64 3c bb d5 8c 3d a7 42 7f 3d
       -0.10952752 0.0139683075 0.06876703 0.062319424

network_body._body_endoder.seq_layers.2.bias f4 [128]
000000 cf c2 b3 3b 34 f2 c3 ba dc 46 60 3b 38 5b 12 bb
       0.0054858695 -0.0014949501 0.0034221923 -0.0022332203
000010 b5 3e 67 3b ed dd 02 bc fd 39 fa 3a 16 7b 08 bb
       0.003528518 -0.007987482 0.0019090768 -0.0020825318
000020 c7 4d ef ba af f8 f7 ba 8f 77 b7 bb b5 bc b4 bb
       -0.0018257432 -0.0018918718 -0.0055989693 -0.0055156597
000030 35 f7 14 ba f9 4c e6 ba d5 5e 1c 3b de 11 31 bc
       -0.00056825887 -0.0017570547 0.0023860235 -0.0108074825
000040 b8 19 51 3b d8 b0 17 bb d0 25 12 bc 6d f7 3e 3b
       0.0031906199 -0.0023146179 -0.008920148 0.0029139176
000050 1c 52 fa 3c cb bb e1 3c 5d b1 5b bb 70 09 86 bb
       0.03055673 0.027555367 -0.0033522465 -0.0040904805
000060 97 58 c8 bb 56 8d f4 ba 18 0f d4 38 be 70 af bb
       -0.0061140764 -0.0018657844 0.00010111759 -0.005354016
000070 c4 17 23 ba b0 ea 8c bb af 96 a9 3a 9c 45 ef 3b
       -0.0006221498 -0.004300438 0.0012938584 0.0073019993
000080 9e bd 44 3b c7 ae 17 bb fb 9b 48 bc 71 0f c0 3a
       0.0030020247 -0.0023144947 -0.01224422 0.0014653039
000090 07 07 bd bb 49 90 d4 bb ec 0b 28 3b 6b d8 48 bc
       -0.00576866 -0.0064869267 0.0025641872 -0.012258629
0000a0 18 7b 47 3b 6c b7 61 bb d7 6a cf b9 5a e3 b9 3b
       0.003043836 -0.0034441603 -0.0003956172 0.0056728544
0000b0 ca 36 46 3c 84 0b ac bb 9d b7 a6 ba ce 78 9d ba
       0.012098024 -0.005250396 -0.0012719516 -0.0012014152
0000c0 ce 02 31 3c 4a e6 25 bb 1b 57 14 3b 62 87 d8 bb
       0.010803891 -0.0025314265 0.0022634927 -0.0066079358
0000d0 44 43 ef 3a 93 63 0a bc ac 05 cb bb ee ff 6f ba
       0.00182543 -0.008446592 -0.0061957445 -0.0009155263
0000e0 54 5f 0d 3a c3 55 71 ba 6d 12 87 39 90 19 84 3b
       0.0005392928 -0.00092062 0.00025762935 0.0040313676
0000f0 e4 fc 09 bc 65 8f 0a bb 89 e3 1a bb 75 b8 1c bb
       -0.00842211 -0.0021142599 -0.0023634157 -0.0023913656
000100 85 e8 8a bc 03 87 ce bb dd 7a d5 ba 7b d0 d7 bb
       -0.016956577 -0.0063027157 -0.0016287226 -0.006586132
000110 85 f0 17 3b 17 d3 cc bb 72 eb eb 39 8b 4d e9 bb
       0.0023184132 -0.00625075 0.00044998113 -0.0071198395
000120 0e 8b c8 ba 0f 44 1e 3a a9 70 1a ba 5e 16 96 b9
       -0.0015300231 0.0006037363 -0.00058914215 -0.00028626894
000130 72 09 e5 b9 d6 8f 85 ba 78 51 dd bb 38 c6 b5 bb
       -0.0004368532 -0.0010189961 -0.0067540966 -0.005547311
000140 d1 83 a8 bb ca 0f 62 3b 49 aa ae ba aa 28 92 ba
       -0.005142667 0.0034494274 -0.0013325895 -0.0011151035
000150 4e ac 1c 3c 35 0f 2e bb 7c 91 22 bc 54 70 00 3a
       0.009562565 -0.0026559357 -0.0099223815 0.00048995507
000160 c0 42 61 39 25 09 cd 3b 4e 5c f9 39 cc e3 ae 3b
       0.00021482538 0.0062571936 0.00047561753 0.005337214
000170 fd 2f 46 bb b3 76 11 bc 97 be c3 ba 4d 50 0d bb
       -0.0030241006 -0.008878398 -0.001493412 -0.0021562756
000180 54 14 13 bc 8e c7 64 bb e6 32 9e bb b0 f7 a7 bb
       -0.008977015 -0.0034908983 -0.004827845 -0.005125962
000190 66 0b df 3b 0c 3a 4e bb f7 3c d2 ba 2c ef 25 bc
       0.0068067787 -0.0031467704 -0.0016039897 -0.010127824
0001a0 c8 99 b7 3a ea e6 76 3b fd b1 29 3b 83 cd fd 3a
       0.0014007622 0.0037674257 0.0025893443 0.0019363615
0001b0 15 4d 6e 3a 19 4b 35 bc 08 26 fd ba d8 7f 49 3b
       0.00090904656 -0.011065268 -0.0019313702 0.0030746367
0001c0 08 17 b0 bb 1e 56 24 3b d4 34 bb 3b 5f 6c 09 3b
       -0.0053738393 0.0025075744 0.0057130847 0.0020969135
0001d0 71 0b 25 bc 74 aa 28 3b fb a2 8e bb 35 dd 3f 3b
       -0.010073529 0.0025736364 -0.004352925 0.0029276137
0001e0 9f 4a bf ba 8b 20 c7 bb 14 3e e1 bb 92 ae f9 bb
       -0.0014594382 -0.0060768775 -0.0068738554 -0.0076196874
0001f0 21 89 d4 ba 57 7e 75 bb bd bb 64 bb a9 38 30 3c
       -0.0016215184 -0.0037459338 -0.003490194 0.010755696

action_model._continuous_distribution.log_sigma f4 [1, 2]
000000 5e be 69 3c 77 8d eb 3b
       0.0142665785 0.007188495

action_model._continuous_distribution.mu.weight f4 [2, 128]
000000 5b f8 16 3c 20 a1 09 3a b2 a9 d3 3a d0 16 76 bc
       0.009214486 0.0005250145 0.0016148596 -0.015020087
000010 39 c1 56 3c 44 da 10 bc d3 0c 3d bc f0 c8 a4 3b
       0.013107591 -0.008841101 -0.011538702 0.0050288364
000020 f0 1a 24 3c d1 0c a9 3c 18 5f 58 bc 71 ca 9f 3b
       0.010016188 0.020635994 -0.013206266 0.004876428
000030 9f ec da bb cb 80 4d 3a 13 2c c5 3c bb 01 93 ba
       -0.0066810395 0.0007839321 0.024068868 -0.0011215726
000040 a5 b1 17 3c 17 cd 5d 3b 8c 07 de 3a 4a 4d 71 3c
       0.009258662 0.0033844167 0.0016939505 0.0147279
000050 f1 8c 07 bc ad 2f c8 bc 37 89 14 3c b1 84 fc 3b
       -0.008273349 -0.024436796 0.009065918 0.0077062477
000060 6e 48 c2 bc 83 05 62 bc fa f6 9d 3c f5 7f 4a bc
       -0.023716178 -0.013795259 0.019282807 -0.012359609
000070 13 6a 17 bd 8c 38 8d bc f4 6e 6b bc 78 eb 34 bb
       -0.036966395 -0.017238878 -0.014369715 -0.002760617
000080 b8 99 00 3c dc 03 87 bb f8 07 c0 bc b5 b8 87 bc
       0.007849149 -0.004120333 -0.0234413 -0.016567567
000090 3f 75 7e bc f3 48 e1 3c 7b 60 a0 3c 32 c0 05 bc
       -0.015530883 0.027500605 0.019577255 -0.008163499
0000a0 c9 5f ad 3c 6c 3e 81 3c c5 62 8e 3b 00 6b 7e bb
       0.021163838 0.015776835 0.0043452703 -0.0038821101
0000b0 b8 2e 34 bd 1a ee 3b bb b5 e8 08 3c 39 13 68 bb
       -0.043989867 -0.0028675855 0.008356263 -0.0035411848
0000c0 b7 7a 36 bc e5 dd ea bb d2 0f c8 3c ac 93 85 bc
       -0.011137656 -0.007167565 0.024421606 -0.016305767
0000d0 14 f7 56 bb fc 5a 7d 3b d6 a8 51 bc 7e df 3b bb
       -0.0032801079 0.0038658967 -0.012796601 -0.0028667147
0000e0 ba 4b cb bc 3b fc 34 bc 3f ed 17 bc 25 ce 16 3d
       -0.024816383 -0.011046465 -0.0092728725 0.03681769
0000f0 fc 5f fe bc db d9 80 3c ff 9d a6 bc c2 29 f8 3c
       -0.031051628 0.015728882 -0.02033901 0.03029335
000100 68 96 62 bc c3 75 a0 3c cf 84 2d 3c 55 72 76 3c
       -0.013829805 0.019587403 0.010590746 0.015041907
000110 d6 6b 94 3b d6 59 25 3b 3e 96 a7 3b e8 43 18 bc
       0.0045294566 0.0025230548 0.005114346 -0.009293534
000120 86 3c 44 3c 73 93 8f 3b e4 b8 94 bb e0 0f 69 bc
       0.011977321 0.004381591 -0.0045386422 -0.014224976
000130 8f ac 59 3c 48 da a7 3c dd e4 b9 3a 7d e9 7a bb
       0.01328577 0.020489827 0.0014182586 -0.0038286143
000140 8e 29 c9 bc 42 6f ae ba 67 09 5e 3c 47 78 d6 3c
       -0.024555948 -0.0013308304 0.013552046 0.0261804
000150 c5 8f b5 bc 51 33 1d 3c 62 53 ec bc 5f 4b 81 bb
       -0.022163281 0.009594754 -0.028848354 -0.0039457525
000160 55 ef 46 bc 65 81 ff 3c d1 be 37 bc 69 81 9c bc
       -0.012142022 0.03118963 -0.011214928 -0.019104676
000170 33 51 f6 3b 3c 75 82 bc 48 e6 1d 3d 39 c0 59 bc
       0.007517004 -0.015925042 0.03854969 -0.013290458
000180 8c 00 28 bc bb 4e 96 bc 2b 50 b9 bc 61 c3 48 3c
       -0.010254037 -0.018348088 -0.022621235 0.012253613
000190 33 ed 32 3c 15 af 1e bb 03 ce 04 3c e9 b4 09 39
       0.0109208105 -0.0024213244 0.008105758 0.00013132732
0001a0 1a b8 0e 3c 88 cd 05 3c 8c 23 16 bb e0 23 32 3d
       0.008710885 0.008166678 -0.0022909371 0.043491244
0001b0 a0 19 83 3c 3f 55 25 bc dc 31 59 bc 04 49 d8 3a
       0.01600343 -0.010091125 -0.013256516 0.0016501253
0001c0 98 3b fa 3b 71 22 ab 3c 41 fc 9d 3c ab dc fd bb
       0.0076364987 0.020890446 0.019285323 -0.007747253
0001d0 e4 02 02 bc 4e 10 ba bc e0 2f 95 bb a8 3e 2d 3d
       -0.0079352595 -0.022712853 -0.0045528263 0.04229608
0001e0 51 38 74 bb e1 33 bf 3c 26 64 25 bb 89 fc 9a bb
       -0.0037265013 0.023340167 -0.0025236695 -0.0047298116
0001f0 06 fa 85 bb 07 fe 4e bb 74 2c 33 3c f7 bb 1e bd
       -0.004088643 -0.0031584518 0.010935891 -0.038753476
000200 a1 8f 52 3c af f3 e2 bc 68 ed 90 3c 01 24 1a 3d
       0.012851627 -0.027704088 0.01769133 0.037631992
000210 15 f2 26 3c b6 08 56 bb 2a 5e 51 3c 5b 19 ae bc
       0.010189553 -0.0032659 0.012778798 -0.021252325
000220 e7 f5 b9 ba 26 fc b3 bc 42 17 2f bd dc 10 81 ba
       -0.0014187664 -0.02197082 -0.04274679 -0.0009846943
000230 80 b8 ff bc 60 d5 94 bc 26 62 32 3c ae a0 08 b9
       -0.031215906 -0.018168151 0.010887658 -0.00013029829
000240 4a 92 b4 bc c4 0d b1 bc ba f7 f8 3b 38 3b bc 3c
       -0.022042412 -0.02161301 0.0075978907 0.022977456
000250 50 82 00 bd d6 ef 56 bd 5c 9b 2f 3c 99 c8 fa 3c
       -0.031374276 -0.05247482 0.010718193 0.03061323
000260 da 7e b4 bc 60 0e 08 bd ad 98 27 ba 7a 0a 31 bc
       -0.022033144 -0.033216834 -0.0006393295 -0.01080572
000270 b1 0f 34 bc b2 8a 6a 3c cf c4 61 3c 14 87 8d 3c
       -0.010990069 0.014315294 0.013779833 0.017276324
000280 79 1e d3 bc 42 9a 68 bc f0 a3 99 bc d3 76 61 3b
       -0.025771366 -0.014196934 -0.01875493 0.00344031
000290 f2 49 7f bb be 16 c6 3c 92 df 86 3c e9 3b 01 bc
       -0.0038953987 0.024180766 0.016464029 -0.007887819
0002a0 8f d8 6e bc 75 a8 8b bc 27 03 82 bb 5d b7 f3 3c
       -0.014577999 -0.0170481 -0.003967661 0.02975052
0002b0 73 0c 98 bc 16 6c 0e bc 42 98 15 bd cd fb f7 bb
       -0.018560624 -0.008692762 -0.036522157 -0.007567859
0002c0 24 5d 41 bc 0c 32 b5 bc b3 97 6b bc 60 f4 01 3c
       -0.011801992 -0.02211859 -0.01437943 0.007931799
0002d0 7f 71 2b 3d af 5b 0f bc 57 04 0b bc 1f c4 3d 3c
       0.041856285 -0.008749886 -0.008484921 0.011582403
0002e0 c5 44 40 3c a0 15 ba bc 5b c6 21 3c b1 62 e5 3c
       0.011735146 -0.02271539 0.009873952 0.028001161
0002f0 49 ab b9 3c 2d 44 b0 bc 35 72 b2 bb e6 01 43 bb
       0.022664683 -0.021516884 -0.0054457434 -0.002975577
000300 e6 ca bf bb 68 a5 0a bc d5 25 54 3c 52 bc b6 ba
       -0.005853045 -0.0084622875 0.012948473 -0.0013941622
000310 4a 44 c5 3b 03 8a 8e ba d8 a4 26 3d c7 d3 cf 3c
       0.0060201036 -0.0010874871 0.04068455 0.025369538
000320 58 b2 0d bd 35 ac 14 3c 7a ba 64 3c 24 c4 00 bd
       -0.03459391 0.0090742605 0.013960475 -0.031437054
000330 18 72 f4 3b a5 94 6d bc f7 7e 16 3b 56 88 3a bc
       0.00745989 -0.014500772 0.002296386 -0.011385044
000340 1a 25 2b 3d 89 33 2f 3c 65 12 19 bc e8 7b 0c ba
       0.04178343 0.010693439 -0.0093427645 -0.00053590396
000350 a1 fa 1a 3d 7c 20 ad bc 6f af bf 3c 5c 0b aa 3c
       0.037836675 -0.021133654 0.023399083 0.02075737
000360 88 0e 2a 3c d1 0d 7c bc 20 a4 bc bc 2a bc 51 3c
       0.010379441 -0.015384153 -0.02302748 0.012801209
000370 fc 04 24 bd 26 3d d8 bc 7b 8b d2 bb 15 0c 9b bc
       -0.040043816 -0.026396345 -0.006425319 -0.01892666
000380 ab ee 07 3b 45 f9 d0 bb b1 36 d4 bb d9 61 4d 3b
       0.0020741622 -0.0063773715 -0.0064762463 0.003133884
000390 93 21 e7 bc 36 fa 13 bd 1f ca 09 bc 4d 46 07 3b
       -0.028214252 -0.03612729 -0.008410006 0.0020641268
0003a0 97 e4 ef 3b c3 e1 b4 bc 11 6a a0 3c d0 02 6a 3c
       0.007320951 -0.022080308 0.019581826 0.014282897
0003b0 e4 d7 19 3d 79 4a 72 3c 60 1c 9a 3c 25 66 8c 3b
       0.037559405 0.0147882635 0.018812358 0.0042846375
0003c0 16 f6 3c bd 12 85 7a 39 a7 26 15 3c ad b1 52 3c
       -0.046133123 0.0002389143 0.009103454 0.012859744
0003d0 70 78 b5 bc b4 29 f2 3b b9 50 e0 3b 19 24 dd bc
       -0.022152156 0.0073902253 0.0068455604 -0.026994752
0003e0 dd e4 c8 bb 01 e7 9e 3b 0d 56 ea bc e9 e8 73 bc
       -0.0061307983 0.004849315 -0.028605485 -0.014887073
0003f0 60 27 87 3c 04 da 47 bb 5d 7d a6 bc b6 6a 7b bb
       0.016498268 -0.0030494938 -0.02032345 -0.0038363165

action_model._continuous_distribution.mu.bias f4 [2]
000000 86 b8 51 3a 19 a2 97 3a
       0.00080002134 0.0011568695

exp_avg f4 [128, 6]
000000 90 51 35 39 9f a0 7b 37 44 c8 2c b9 be b8 aa b8
       0.0001729189 1.4998163e-05 -0.00016477803 -8.1406426e-05
000010 9f a0 fb 38 08 a0 59 39 4e ae f6 b7 68 65 be 37
       0.00011998531 0.00020754349 -2.9406652e-05 2.2696986e-05
000020 00 e3 90 b9 fc 2e 19 39 68 65 3e 39 ee b3 a7 b8
       -0.00027634948 0.0001460872 0.00018157589 -7.996695e-05
000030 c6 f9 c4 b7 2e 1d dd b6 60 07 94 37 dc 55 0e 37
       -2.348133e-05 -6.58971e-06 1.764641e-05 8.48385e-06
000040 2e 1d 5d b8 00 b5 a3 38 22 12 87 b9 b1 0b 12 38
       -5.271768e-05 7.8061596e-05 -0.00025762717 3.482e-05
000050 79 51 b5 37 80 24 4b b7 b1 0b 92 39 7e 9e 78 b9
       2.161482e-05 -1.2108241e-05 0.00027856 -0.00023710166
000060 be 5c 0b b8 92 af a5 b7 00 bb 73 34 f0 7b 0d 38
       -3.3226555e-05 -1.9751289e-05 2.2699169e-07 3.3732445e-05
000070 92 af 25 b9 89 f5 9b 39 de a7 d4 b8 51 38 d1 37
       -0.00015801031 0.00029746842 -0.000101402155 2.4940966e-05
000080 5e 30 90 b9 16 cb 6c 39 51 38 51 39 72 90 5a b9
       -0.00027501857 0.0002258237 0.00019952773 -0.0002084391
000090 1e 3e 3a 39 78 a7 9c b8 d2 cc 8b b9 71 97 11 b9
       0.00017761483 -7.469853e-05 -0.0002666475 -0.00013884694
0000a0 78 a7 1c ba 58 9e 28 ba 21 11 5a 39 59 d6 ee 37
       -0.00059758825 -0.00064322865 0.00020796481 2.8471624e-05
0000b0 4e ca f1 b9 98 23 86 b9 59 d6 6e 39 4e 09 a8 39
       -0.0004611783 -0.0002558499 0.000227773 0.0003205039
0000c0 aa c4 f9 b8 57 ba c6 b6 a9 bd c1 38 0a 73 ba 38
       -0.00011909877 -5.9225526e-06 9.238284e-05 8.890599e-05
0000d0 57 ba 46 b8 3e a1 d5 b8 ca 2f 25 3a 6c fc 53 b8
       -4.738042e-05 -0.00010186665 0.00063013716 -5.0541406e-05
0000e0 13 a6 12 b8 93 94 60 b9 6c fc d3 b9 f9 16 54 b9
       -3.496378e-05 -0.00021417653 -0.00040433125 -0.00020226453
0000f0 ca d3 17 39 d6 f0 99 b6 b0 dd 4c b9 7e 27 c9 b8
       0.0001447938 -4.5877923e-06 -0.00019537541 -9.591783e-05
000100 d6 f0 19 b8 06 5d f2 38 40 49 1d b9 82 66 76 37
       -3.670234e-05 0.00011556786 -0.00014999975 1.468661e-05
000110 e7 87 1b b9 af ee a6 38 82 66 f6 38 03 ae e5 b8
       -0.0001483258 7.959955e-05 0.00011749288 -0.00010951983
000120 74 9b 54 3a a6 05 d4 b8 82 2a ed b9 9a a9 92 b9
       0.00081103225 -0.0001011 -0.00045235833 -0.00027973653
000130 a6 05 54 ba 03 ec 04 ba c0 90 4b b8 26 24 8e b8
       -0.0008088 -0.0005070569 -4.853378e-05 -6.777821e-05
000140 c8 f4 fc 39 db 51 d6 b7 26 24 0e ba b8 38 24 b9
       0.00048247562 -2.5548905e-05 -0.00054222567 -0.00015661388
000150 1f c6 0a b9 50 fc 7b 37 90 5a e6 b8 7f 35 93 b8
       -0.00013234511 1.5019512e-05 -0.00010984123 -7.019471e-05
000160 50 fc fb 38 42 6e 4b b9 c0 63 1e 37 c6 a9 c2 36
       0.000120156095 -0.00019400663 9.440759e-06 5.8014148e-06
000170 4c 48 f6 b9 81 4f 8a b8 c6 a9 42 38 30 70 0b b7
       -0.00046974642 -6.5951615e-05 4.6411318e-05 -8.311166e-06
000180 59 fc 26 38 2a 5e 50 b8 f9 b7 a5 39 00 59 8a b9
       3.98125e-05 -4.967876e-05 0.00031608323 -0.0002638772
000190 2a 5e d0 b9 cb 34 df 39 fd 59 92 39 e6 86 25 b8
       -0.0003974301 0.00042573208 0.00027914337 -3.94647e-05
0001a0 54 10 5e 39 87 d8 63 b9 e6 86 a5 b9 5c 0e 2a 39
       0.00021177653 -0.0002172907 -0.0003157176 0.00016217813
0001b0 78 d9 e1 b8 dc 91 22 b8 34 8b a4 38 d1 54 84 38
       -0.00010769343 -3.8759652e-05 7.846058e-05 6.310049e-05
0001c0 dc 91 a2 b9 a3 ac d1 b9 f4 bd 0c b9 2c 76 dc 37
       -0.00031007722 -0.0003999221 -0.00013422203 2.6281072e-05
0001d0 44 37 68 b9 7a 89 59 39 2c 76 5c 39 bd fa 9f b8
       -0.00022145832 0.00020745947 0.00021024857 -7.6284145e-05
0001e0 98 ad cc b9 fc 13 de 37 31 92 97 b7 c4 67 d9 38
       -0.0003903925 2.6473768e-05 -1.8068678e-05 0.00010366694
0001f0 fc 13 5e 39 22 14 d3 38 a5 66 00 b8 c9 ac 2b 38
       0.00021179015 0.00010065014 -3.0613173e-05 4.0930496e-05
000200 c2 0c 04 b9 ba a1 0e 38 c9 ac ab 39 1e 74 bf 38
       -0.00012593254 3.4006058e-05 0.00032744397 9.129218e-05
000210 d5 24 4d b9 b4 46 18 36 de 0a 86 b8 24 de b2 36
       -0.00019564044 2.269092e-06 -6.391642e-05 5.330674e-06
000220 b4 46 98 37 44 91 db b7 ea 21 12 38 b0 29 33 b7
       1.8152736e-05 -2.6174479e-05 3.4840697e-05 -1.06789375e-05
000230 1c 5b 66 b7 78 af c5 37 b0 29 b3 b8 51 5f 93 38
       -1.3730281e-05 2.3565939e-05 -8.54315e-05 7.02726e-05
000240 60 d3 bb b8 85 3e 48 37 46 9e 69 b8 45 06 41 38
       -8.9562265e-05 1.1935485e-05 -5.5698933e-05 4.6020625e-05
000250 85 3e c8 38 9c 4e ba b8 0d 02 b9 b9 60 53 65 35
       9.548388e-05 -8.883813e-05 -0.00035287478 8.5430474e-07
000260 5d 26 81 b9 bf 6c a5 38 60 53 e5 36 02 b6 20 b9
       -0.0002463338 7.888069e-05 6.834438e-06 -0.00015326592
000270 dc 62 da b9 69 e1 b1 37 3b e3 95 38 bc 08 3e 39
       -0.00041653856 2.1205009e-05 7.1471986e-05 0.00018123066
000280 69 e1 31 39 e6 21 94 39 7a bb 24 39 6b 27 60 b8
       0.00016964007 0.00028254016 0.00015710099 -5.3442473e-05
000290 c5 da 55 39 3e 59 bf b9 6b 27 e0 b9 ee 15 8a 38
       0.00020394761 -0.0003649685 -0.00042753978 6.5844375e-05
0002a0 8f 3d a1 39 ee 91 0c b8 b2 61 0f 38 c8 76 38 b9
       0.00030754178 -3.351451e-05 3.4184843e-05 -0.00017591857
0002b0 ee 91 8c b9 57 00 80 39 26 9d c1 b8 e5 3a e4 37
       -0.00026811607 0.00024414316 -9.232228e-05 2.7207143e-05
0002c0 56 5c e9 38 24 b9 b0 36 e5 3a 64 39 52 e0 ab b9
       0.00011127505 5.266762e-06 0.00021765714 -0.00032782793
0002d0 0a 18 f3 39 48 9b 84 b8 7e 84 01 b9 2c f5 8c b9
       0.00046366482 -6.323174e-05 -0.00012351756 -0.00026885548
0002e0 48 9b 04 ba 56 d2 1f b7 ee 4f 22 38 ef fe 27 36
       -0.0005058539 -9.526111e-06 3.869825e-05 2.503333e-06
0002f0 f1 ca 2a b8 e0 56 2a 37 ef fe a7 37 8e c7 bb 37
       -4.0720162e-05 1.0153017e-05 2.0026664e-05 2.2385062e-05
000300 04 36 be b7 43 10 51 37 41 70 58 b9 38 e1 84 b6
       -2.2674918e-05 1.2461157e-05 -0.00020641183 -3.9601255e-06
000310 43 10 d1 38 bc b2 d2 37 a6 69 e8 39 cd a5 91 37
       9.9689256e-05 2.511718e-05 0.00044329203 1.7362554e-05
000320 5c 89 24 ba ae 18 d9 b7 cd a5 11 39 18 a0 2e 39
       -0.00062765717 -2.5879908e-05 0.00013890043 0.00016653573
000330 4b d3 b4 b9 86 02 04 38 c4 2c d2 38 5e 50 81 38
       -0.000344897 3.1473603e-05 0.000100219186 6.166169e-05
000340 86 02 84 39 d5 72 9c 39 c6 a5 32 38 d1 3d cd 36
       0.00025178882 0.00029840195 4.2592896e-05 6.1166725e-06
000350 04 95 a7 38 f0 85 85 b7 d1 3d 4d 38 98 e2 97 b6
       7.990937e-05 -1.5917205e-05 4.893338e-05 -4.5265297e-06
000360 44 e4 15 37 04 f7 d4 b5 dc 2d 34 38 71 61 fd b6
       8.934239e-06 -1.5867122e-06 4.2958054e-05 -7.5513312e-06
000370 04 f7 54 b7 45 8b 20 38 06 67 2c 39 e5 da c4 b7
       -1.26936975e-05 3.8276678e-05 0.00016441577 -2.3466951e-05
000380 ed 2a 16 38 02 d6 91 b8 e5 da 44 b9 a3 e8 60 b9
       3.5802765e-05 -6.954001e-05 -0.00018773561 -0.00021448969
000390 06 8e 01 39 72 d7 8c 38 c9 c0 19 ba 72 33 0f 3a
       0.00012355307 6.71585e-05 -0.0005865214 0.0005462683
0003a0 72 d7 0c 3a 69 b4 18 b9 cf 45 75 38 a4 e9 d8 37
       0.000537268 -0.00014563058 5.8477566e-05 2.5858004e-05
0003b0 d0 95 33 b9 e8 d4 de 39 a4 e9 58 39 d7 84 93 b9
       -0.0001712658 0.00042501767 0.00020686403 -0.00028136998
0003c0 58 9a fd b9 32 c6 78 38 b0 5d 88 39 78 84 aa 38
       -0.00048370915 5.931239e-05 0.00026009744 8.130906e-05
0003d0 32 c6 f8 39 3c 89 1b b8 fa 5b ba 38 f4 48 c5 b6
       0.00047449913 -3.708269e-05 8.886303e-05 -5.8795504e-06
0003e0 a6 7e b0 37 2a df 5a 38 f4 48 45 b8 a5 10 4e 38
       2.103981e-05 5.2183088e-05 -4.7036403e-05 4.912973e-05
0003f0 4d 24 76 b9 ee 97 87 36 8b c0 b7 37 0c 03 03 38
       -0.00023473911 4.0410005e-06 2.190496e-05 3.123567e-05

exp_avg_sq f4 [128, 6]
000000 ec 8e 46 35 8a 43 01 32 ba ab a9 35 78 46 b1 34
       7.3968727e-07 7.524145e-09 1.264146e-06 3.3020092e-07
000010 be 76 06 35 3a 47 55 35 43 db 04 35 35 43 d2 31
       5.009168e-07 7.945233e-07 4.94929e-07 6.119445e-09
000020 85 aa 58 35 15 1e 07 35 07 1a db 34 05 ea 29 35
       8.071441e-07 5.0335194e-07 4.0810866e-07 6.329795e-07
000030 9c 2d e8 33 a8 80 b5 31 cb 91 51 35 cc 40 a7 34
       1.0811638e-07 5.28242e-09 7.8070724e-07 3.115332e-07
000040 ba 11 b6 34 bc b3 8f 35 b8 74 9c 35 5d 4f 2d 33
       3.391304e-07 1.070664e-06 1.1656875e-06 4.0351882e-08
000050 ec df 68 36 6f 9a 98 35 57 53 2f 36 af 4b 7b 36
       3.4701034e-06 1.1369829e-06 2.6125542e-06 3.7445968e-06
000060 68 b9 3d 36 63 bc 3e 33 c5 ad a8 36 2d d1 05 36
       2.8271115e-06 4.440916e-08 5.0270196e-06 1.99403e-06
000070 2f f7 47 36 85 56 0d 36 fc 21 c1 35 fa f5 99 32
       2.979719e-06 2.1060998e-06 1.4389511e-06 1.7923401e-08
000080 99 b4 0a 36 a4 c1 8e 35 b5 40 a2 35 46 e8 4f 35
       2.0668724e-06 1.0636181e-06 1.2088773e-06 7.745151e-07
000090 49 8f 0b 36 7e 17 d5 32 5b 53 3f 36 a4 15 af 35
       2.0796017e-06 2.4807147e-08 2.8509737e-06 1.3044814e-06
0000a0 06 f4 eb 35 ff 3f d0 35 ed 4e 5d 36 4b 65 fb 32
       1.7579885e-06 1.5515833e-06 3.2977507e-06 2.9266308e-08
0000b0 c7 f8 8f 36 23 da dc 35 ec 3c 0b 36 e5 6b 37 36
       4.2906936e-06 1.6454763e-06 2.0748075e-06 2.7331928e-06
0000c0 82 11 1d 35 f9 a4 a1 31 86 8c 1d 35 11 a7 ee 34
       5.8512535e-07 4.704472e-09 5.8691546e-07 4.445251e-07
0000d0 d8 0b bd 34 0d 3c 27 35 b7 83 f9 35 ca 0c 8b 32
       3.521261e-07 6.2299733e-07 1.859028e-06 1.6187546e-08
0000e0 3d 08 cf 35 d5 c4 7b 35 d3 18 98 35 cc 57 35 35
       1.54251e-06 9.3791215e-07 1.1332107e-06 6.7555516e-07
0000f0 c0 e3 8a 35 4c 79 3b 32 f2 4d 81 35 f7 e1 11 35
       1.0348085e-06 1.0912412e-08 9.633934e-07 5.434553e-07
000100 3c a6 3d 35 c9 07 87 35 73 41 22 35 6c e6 db 31
       7.064989e-07 1.006055e-06 6.0444944e-07 6.399935e-09
000110 0c 1d 5a 35 81 a4 a2 34 8d e6 e2 34 98 8e 2e 35
       8.12536e-07 3.0294544e-07 4.2263528e-07 6.502755e-07
000120 50 b9 1e 36 61 21 1f 33 f4 6d 45 36 47 ab ce 35
       2.36517e-06 3.705043e-08 2.9419289e-06 1.5398044e-06
000130 35 01 25 36 8e 53 06 36 d8 20 03 37 d7 16 94 33
       2.4587619e-06 2.0016191e-06 7.8158555e-06 6.8959416e-08
000140 af ba cf 36 7f b8 a2 36 1f 05 9f 36 1c 65 9a 36
       6.1908136e-06 4.8494544e-06 4.7391654e-06 4.6013283e-06
000150 8e a3 07 36 20 c0 b8 32 10 d5 2e 36 95 14 0c 36
       2.021177e-06 2.1507788e-08 2.605204e-06 2.0873606e-06
000160 3b ca cf 35 da 23 9b 35 7f e6 c8 35 f0 fd c7 32
       1.5481559e-06 1.1558834e-06 1.4968244e-06 2.3282126e-08
000170 4d 6b df 35 5e 8d 35 35 b0 c4 ca 35 e9 69 cf 35
       1.6646023e-06 6.763347e-07 1.5107416e-06 1.5453526e-06
000180 76 a9 04 36 ed 5e a2 32 ca 13 f4 35 80 ec df 35
       1.9768172e-06 1.890245e-08 1.8185176e-06 1.6683625e-06
000190 dd b1 aa 35 0a fd 09 36 1c 55 04 35 4b 98 b9 31
       1.2717752e-06 2.056188e-06 4.929768e-07 5.4015223e-09
0001a0 9f 2c 50 35 cb 88 fa 34 84 ed c4 34 8c 6d 2a 35
       7.755097e-07 4.666566e-07 3.668066e-07 6.3489347e-07
0001b0 87 05 5e 36 db c9 39 33 41 07 af 36 3b d2 55 36
       3.3083795e-06 4.3257256e-08 5.216251e-06 3.1861844e-06
0001c0 cc 77 46 36 15 e7 3a 36 c8 29 65 36 12 43 30 33
       2.957403e-06 2.7850667e-06 3.414798e-06 4.1039193e-08
0001d0 86 d0 7e 36 ad 3f 07 36 4d a0 37 36 8a 7f f4 35
       3.7970326e-06 2.0153632e-06 2.7362432e-06 1.8216535e-06
0001e0 a7 62 b7 35 4e 96 99 32 9b e0 b5 35 e6 80 75 35
       1.3663274e-06 1.7879895e-08 1.355092e-06 9.1457184e-07
0001f0 22 9e 9a 35 47 97 85 35 61 6a 23 36 82 e6 75 33
       1.1519917e-06 9.9533e-07 2.4350813e-06 5.7253153e-08
000200 0e b9 f2 36 ed 76 1d 36 11 90 77 36 0a a1 5c 36
       7.233705e-06 2.3464047e-06 3.6889726e-06 3.2876292e-06
000210 01 ac 32 36 f5 f7 ce 32 43 34 64 36 fd 13 92 35
       2.6624186e-06 2.4094314e-08 3.4005068e-06 1.0883665e-06
000220 ef 0f dd 35 b1 0f eb 35 94 0c 39 34 31 35 ec 31
       1.647042e-06 1.7513431e-06 1.7234044e-07 6.874551e-09
000230 58 61 66 35 dd 9f 72 34 b4 42 f0 34 e8 ec 2d 35
       8.582333e-07 2.2596164e-07 4.4752016e-07 6.4792266e-07
000240 db 6c 84 35 2a 69 f8 31 89 62 a1 35 40 98 da 34
       9.866447e-07 7.2297057e-09 1.2024112e-06 4.071644e-07
000250 3a 79 0a 35 5f de 34 35 08 2c 43 36 e0 f2 28 33
       5.1585414e-07 6.737882e-07 2.9082894e-06 3.933644e-08
000260 af 23 97 36 12 41 d8 35 44 01 2c 36 a5 5d 24 36
       4.504305e-06 1.6112192e-06 2.5630734e-06 2.4492413e-06
000270 c3 af b5 35 cc 66 49 32 83 f8 ac 35 5c 80 bf 35
       1.3536704e-06 1.1723113e-08 1.2887325e-06 1.4267966e-06
000280 31 05 67 35 20 10 a9 35 a2 50 04 35 ce 9e ec 31
       8.606176e-07 1.2596174e-06 4.929117e-07 6.886558e-09
000290 b2 f0 3a 35 a2 6b 62 35 79 32 fb 34 f1 f8 0f 35
       6.964066e-07 8.4348187e-07 4.6789117e-07 5.363391e-07
0002a0 73 ae 86 35 67 7d 3b 32 d3 a9 c9 35 75 77 13 35
       1.0034549e-06 1.0913346e-08 1.5025092e-06 5.49356e-07
0002b0 7d a4 40 35 e0 bb 66 35 a5 eb b2 35 f7 b0 e5 32
       7.1764936e-07 8.595507e-07 1.3330615e-06 2.6739583e-08
0002c0 b9 13 68 36 f9 db c2 35 5c 98 e6 35 23 64 dd 35
       3.4582174e-06 1.4518147e-06 1.7180678e-06 1.6494927e-06
0002d0 2d 11 48 36 fd 4b 7c 33 a6 18 d2 36 bb 18 44 36
       2.981232e-06 5.8742433e-08 6.261357e-06 2.922067e-06
0002e0 01 80 7f 36 0d 0b 90 36 50 e5 0e 33 80 1e a6 30
       3.807247e-06 4.292821e-06 3.327051e-08 1.2086758e-09
0002f0 09 6a 05 34 27 b6 76 33 4f 87 ae 33 51 fa 09 34
       1.2425166e-07 5.7442005e-08 8.127119e-08 1.2850184e-07
000300 17 50 1e 35 02 db 7d 31 24 11 6f 35 c5 4a c2 34
       5.897613e-07 3.6940837e-09 8.905938e-07 3.6189718e-07
000310 7b dc 9e 34 a6 2b b2 34 b3 4f 0e 36 f4 14 2f 33
       2.9590214e-07 3.3186842e-07 2.120604e-06 4.076442e-08
000320 71 53 a7 36 09 b3 03 36 ee 32 33 36 08 94 79 36
       4.9867017e-06 1.9624733e-06 2.6702724e-06 3.7190057e-06
000330 67 a8 6f 35 08 0b 8f 32 17 a7 c8 35 13 b4 5b 35
       8.9279496e-07 1.6652407e-08 1.4949791e-06 8.18459e-07
000340 d3 82 90 35 94 ea 52 35 33 32 4b 35 00 89 8d 32
       1.0766911e-06 7.857245e-07 7.569644e-07 1.647686e-08
000350 fe 0b 2c 36 b9 34 96 34 40 6e 92 35 4b 2f 35 35
       2.5636978e-06 2.7978038e-07 1.0909935e-06 6.7496575e-07
000360 85 9c 1e 34 f0 98 b3 31 7f 16 40 35 e2 84 4b 34
       1.4771838e-07 5.2269726e-09 7.155831e-07 1.8954191e-07
000370 62 99 b4 34 f9 2c 24 35 c0 a0 a6 35 4d 2c 37 32
       3.3639213e-07 6.1160205e-07 1.2414748e-06 1.0662075e-08
000380 bd 2d 63 35 9e ba 9a 35 17 20 3f 35 08 f5 38 35
       8.463065e-07 1.1528207e-06 7.119974e-07 6.890191e-07
000390 e7 25 e4 36 ba a4 05 34 82 0f 1b 37 6c c9 ab 36
       6.799342e-06 1.2446517e-07 9.242331e-06 5.1196457e-06
0003a0 3f 90 06 37 5f 3d e8 36 fd fc 2d 36 80 18 2e 33
       8.020607e-06 6.9212833e-06 2.5926267e-06 4.0534815e-08
0003b0 ff 9b 2d 36 9e 2e 22 36 17 ac 30 36 d8 39 30 36
       2.586981e-06 2.4167016e-06 2.6326213e-06 2.6259713e-06
0003c0 06 86 f3 35 c7 08 30 33 ef 18 84 36 75 53 89 35
       1.8143917e-06 4.0986176e-08 3.936809e-06 1.0231585e-06
0003d0 e1 42 32 36 3a 16 62 36 c3 34 bb 34 b1 47 ad 31
       2.6562996e-06 3.3689562e-06 3.4869853e-07 5.043113e-09
0003e0 dd cb 63 35 44 47 b0 34 34 e3 ad 34 c0 68 39 35
       8.486075e-07 3.2834407e-07 3.2389073e-07 6.90703e-07
0003f0 b4 fb cd 35 94 6b 85 32 b0 f4 02 36 e6 e7 87 35
       1.5346945e-06 1.5532159e-08 1.9513936e-06 1.0125775e-06

exp_avg f4 [128]
000000 82 a0 7b 37 6a 65 be 37 2f 1d dd b6 b2 0b 12 38
       1.4998137e-05 2.269699e-05 -6.5897107e-06 3.4820005e-05
000010 8e af a5 b7 52 38 d1 37 79 a7 9c b8 5a d6 ee 37
       -1.9751282e-05 2.4940968e-05 -7.469854e-05 2.8471626e-05
000020 66 ba c6 b6 6e fc 53 b8 a0 f0 99 b6 83 66 76 37
       -5.9225595e-06 -5.0541414e-05 -4.5877678e-06 1.46866105e-05
000030 a7 05 d4 b8 23 24 8e b8 42 fc 7b 37 c4 a9 c2 36
       -0.000101100006 -6.7778186e-05 1.5019499e-05 5.801414e-06
000040 2a 5e 50 b8 e5 86 25 b8 df 91 22 b8 2e 76 dc 37
       -4.967876e-05 -3.9464696e-05 -3.8759663e-05 2.6281075e-05
000050 fa 13 de 37 c9 ac 2b 38 0f 47 18 36 ab 29 33 b7
       2.6473765e-05 4.0930496e-05 2.2691127e-06 -1.0678933e-05
000060 84 3e 48 37 6a 52 65 35 6a e1 b1 37 6a 27 60 b8
       1.19354845e-05 8.5429076e-07 2.120501e-05 -5.344247e-05
000070 ef 91 0c b8 e3 3a e4 37 48 9b 84 b8 e4 fe 27 36
       -3.3514512e-05 2.720714e-05 -6.323174e-05 2.5033305e-06
000080 3f 10 51 37 d4 a5 91 37 85 02 04 38 d4 3d cd 36
       1.2461153e-05 1.7362567e-05 3.14736e-05 6.116674e-06
000090 06 f7 d4 b5 d9 da c4 b7 70 d7 8c 38 a1 e9 d8 37
       -1.5867124e-06 -2.346693e-05 6.7158486e-05 2.5857998e-05
0000a0 34 c6 78 38 f5 48 c5 b6 f9 97 87 36 69 87 7c b7
       5.93124e-05 -5.879551e-06 4.0410055e-06 -1.5051898e-05
0000b0 d0 3c 18 36 da df 0e b8 91 5e 04 b8 64 8a 3e b6
       2.2685163e-06 -3.4063916e-05 -3.1559324e-05 -2.839276e-06
0000c0 fd 8e f9 b6 b5 b2 e6 b7 27 6e 84 b7 9e 47 d0 b7
       -7.4374243e-06 -2.7501354e-05 -1.578692e-05 -2.4828882e-05
0000d0 c4 ee a9 35 40 c5 77 36 ba b5 81 b6 32 5c 54 b8
       1.2660971e-06 3.6920683e-06 -3.8656553e-06 -5.0630602e-05
0000e0 1d fa 59 36 3e d5 89 36 69 0d 8f b6 f6 be 74 37
       3.2481105e-06 4.107743e-06 -4.2632932e-06 1.4587995e-05
0000f0 c4 fa 51 36 0e 6c 3a 38 01 ce 0b 38 1b a9 2c 38
       3.1289392e-06 4.444649e-05 3.333204e-05 4.1165487e-05
000100 56 bb 83 38 bc da 84 b7 a0 c0 a1 b8 9f e1 8b 35
       6.281461e-05 -1.5837482e-05 -7.7129574e-05 1.0421971e-06
000110 ed 9b 00 38 78 16 df 38 ca 47 a0 37 b2 0f c2 36
       3.0662795e-05 0.00010637654 1.9106916e-05 5.7834777e-06
000120 54 96 3e b7 18 0c aa 36 d0 81 b4 b8 99 bb 52 38
       -1.13598835e-05 5.0678027e-06 -8.607248e-05 5.0242616e-05
000130 f1 11 ae b7 20 d0 4c 37 46 9d 90 b7 4f 60 a4 b7
       -2.0750771e-05 1.2207805e-05 -1.7239374e-05 -1.959517e-05
000140 02 46 b2 37 c5 34 40 37 f4 58 ba b6 6a 59 ef 37
       2.1251853e-05 1.1456378e-05 -5.5535875e-06 2.8532657e-05
000150 6c 4e a2 b7 ff 83 fa 37 72 a0 b8 36 e8 9f 1c b8
       -1.9348423e-05 2.9863788e-05 5.5023056e-06 -3.7342223e-05
000160 66 53 ce 36 62 a2 f7 37 62 32 71 37 44 3d f0 b6
       6.1489873e-06 2.952031e-05 1.437645e-05 -7.1596896e-06
000170 2a 93 a0 b7 06 5b 63 b5 7a f3 1a 38 22 86 55 36
       -1.9142015e-05 -8.4696546e-07 3.6943216e-05 3.181755e-06
000180 be f7 b4 36 e8 d6 1d b7 d8 eb d3 37 eb 9a 86 36
       5.393259e-06 -9.407966e-06 2.5262983e-05 4.011546e-06
000190 12 a0 3d b8 7a c7 15 b8 23 6f a0 b7 0e 10 24 b8
       -4.521019e-05 -3.5710145e-05 -1.9125238e-05 -3.91156e-05
0001a0 c0 f2 59 37 cf 4b 9f b6 7c 92 51 37 0b a7 42 b8
       1.2990728e-05 -4.7473945e-06 1.2491477e-05 -4.6408775e-05
0001b0 a3 6a 7d b7 f0 34 87 38 89 df 19 b8 0e 8a 4e b8
       -1.5104803e-05 6.447162e-05 -3.6686226e-05 -4.92428e-05
0001c0 92 90 39 37 a1 4e b3 37 ca b7 a4 37 10 71 07 37
       1.106052e-05 2.1375077e-05 1.9635907e-05 8.0729515e-06
0001d0 78 bc 47 b5 ac 9c 6b 35 3a fa 04 37 3c 13 79 b7
       -7.4407535e-07 8.777231e-07 7.9260735e-06 -1.4846035e-05
0001e0 c8 8e 68 37 d6 fb 24 b7 fd 4f 7e b7 20 d2 dc 37
       1.3861521e-05 -9.833797e-06 -1.51582035e-05 2.632389e-05
0001f0 7c 3e 95 b7 25 07 c2 b7 0b 2e b1 b7 78 93 c7 37
       -1.779128e-05 -2.312993e-05 -2.1121485e-05 2.379132e-05
