results/ppo/MoveToGoal/MoveToGoal-704.pt (torch, 149059 bytes, 12 tensors)

network_body._body_endoder.seq_layers.0.weight f4 [128, 6]
0	0x3e1cb83f	0.1530466
1	0x3f11437e	0.5674361
2	0x3f5ad19a	0.85476077
3	0xbe58000a	-0.21093765
4	0x3dbdb8b7	0.09263747
5	0xbd85111a	-0.064974025
6	0xbcc5991b	-0.024120858
7	0x3e05a266	0.13050231
8	0xbeb4d637	-0.35319683
9	0x3eb69a6f	0.35664698
10	0xbf180435	-0.5938142
11	0xbe91426e	-0.28370994
12	0x3ee170a4	0.4403125
13	0x3f0830cf	0.53199476
14	0x3f826101	1.0185853
15	0xbf0af134	-0.54274297
16	0x3d8b8993	0.068133496
17	0x3ef11f04	0.47093976
18	0x3f02fef8	0.511703
19	0x3f1030b9	0.56324345
20	0x3f02941c	0.51007247
21	0xbe0084ed	-0.12550707
22	0xbdffe69b	-0.124951564
23	0xbec64402	-0.3872376
24	0xbf167aa2	-0.5878087
25	0x3e0ccb87	0.13749515
26	0x3f1eeb24	0.62077546
27	0xbbca4c19	-0.0061736223
28	0x3ea9bfaa	0.3315404
29	0x3f14712f	0.57985204
30	0x3d0e1b24	0.034693852
31	0xbf1bf7cf	-0.60925
32	0xbee4e015	-0.4470221
33	0xbeb8c551	-0.3608804
34	0x3f94fd61	1.1639825
35	0xbe6633c6	-0.22480687
36	0x3f2b6587	0.66951793
37	0x3e4bcb08	0.19901669
38	0xbec28d54	-0.3799845
39	0xbe9a399c	-0.30122077
40	0xbf0414d6	-0.51594293
41	0x3f2480a4	0.6425879
42	0x3ec64dce	0.38731235
43	0x3f503715	0.8133405
44	0xbd8d5782	-0.069014564
45	0x3c541cfc	0.012946364
46	0xbd787e3c	-0.06066726
47	0x3e3a2aa9	0.18180336
48	0x3ebc96d5	0.36833826
49	0x3df7418f	0.12073051
50	0x3d77926b	0.06044237
51	0xbf3ed79c	-0.74547744
52	0xbe26e8db	-0.16299765
53	0x3f34e9f5	0.7066949
54	0x3f095cc6	0.53657186
55	0x3ebaa558	0.36454272
56	0xbeb28e8f	-0.3487439
57	0x3f6a145a	0.91437304
58	0x3f29669f	0.6617221
59	0x3ebd51b8	0.3697641
60	0x3ecb1f61	0.39672378
61	0xbc8a83fa	-0.016908634
62	0x3e708d3f	0.23491381
63	0xbf273f40	-0.65330887
64	0x3df531bd	0.119723774
65	0xbf000afc	-0.5001676
66	0x3e38683e	0.18008515
67	0xbe0f1c9d	-0.13975759
68	0xbf8c3785	-1.0954443
69	0xbe62a5dd	-0.22133584
70	0x3e8c81a1	0.2744265
71	0x3f6eefdb	0.9333474
72	0x3f3589eb	0.7091357
73	0x3e871f72	0.26391178
74	0x3ea92d2c	0.33042276
75	0xbf2ea94a	-0.68227065
76	0xbe371457	-0.17878853
77	0x3cd809cd	0.02637186
78	0xbe943653	-0.28947696
79	0xbdc1a1cf	-0.09454691
80	0x3e4e3462	0.2013717
81	0xbe884332	-0.26613766
82	0xbf2273e6	-0.63458097
83	0xbd7f493b	-0.062325697
84	0x3dcbc35e	0.09949373
85	0x3c69c43a	0.014267975
86	0xbf6b64fc	-0.91950965
87	0xbefa1df8	-0.4885099
88	0x3e005393	0.12531881
89	0x3ecf25bb	0.40458474
90	0x3dfc1402	0.12308504
91	0xbd1337db	-0.03594194
92	0xbf1c6320	-0.6108875
93	0x3eb2619d	0.34840098
94	0xbe1bf60e	-0.15230581
95	0xbeb4e1af	-0.35328433
96	0xbe779762	-0.24178842
97	0xbd4994e1	-0.049214248
98	0xbe6caf48	-0.2311374
99	0xbf0c9a3a	-0.5492283
100	0xbea74a68	-0.32673955
101	0x3ebda2db	0.3703831
102	0x3de1499d	0.11000369
103	0x3cdaf04c	0.02672591
104	0xbe6d1a77	-0.23154627
105	0x3d97267c	0.07380387
106	0xbf2e097e	-0.67983234
107	0x3f1cf5b9	0.61312443
108	0x3ec3a1fb	0.3820952
109	0x3eab2cd1	0.3343263
110	0x3e4b04ab	0.19826
111	0xbdaf0c69	-0.08547289
112	0xbeacd2d1	-0.3375459
113	0x3ea709ad	0.3262457
114	0x3dd4a758	0.10383481
115	0xbf18785f	-0.5955867
116	0x3ab2e3a9	0.001364817
117	0xbddd1543	-0.10795071
118	0x3f04acd0	0.5182619
119	0x3ea04499	0.31302336
120	0xbef8adfb	-0.48570237
121	0x3d0c871e	0.034308545
122	0xbf14268b	-0.5787131
123	0xbd366777	-0.044532266
124	0x3d2c7613	0.04210479
125	0xbdfd34e5	-0.123636045
126	0xbbf3311d	-0.0074216262
127	0xbf1ddd38	-0.6166568
128	0xbf378673	-0.7168953
129	0x3e22c61d	0.15895887
130	0xbd03c851	-0.03217346
131	0xbeb7ab1f	-0.35872743
132	0x3e6271a2	0.2211366
133	0xbf2e2d54	-0.68037915
134	0xbe0e9e78	-0.13927639
135	0x3e86278a	0.2620204
136	0xbce8dc26	-0.028425287
137	0xbebcb846	-0.3685934
138	0xbed0f91c	-0.40815055
139	0xbeedda98	-0.46455836
140	0x3f1a1757	0.60191864
141	0x3c717bd3	0.014738995
142	0xbe9f8075	-0.31152692
143	0x3e69feb7	0.22851072
144	0x3d9d9bda	0.07695742
145	0x3e997e1a	0.2997902
146	0x3e5a8641	0.21340276
147	0xbd0698cf	-0.032860573
148	0xbdb3d39a	-0.08780594
149	0x3f1883d2	0.5957614
150	0xbf3ead37	-0.74483055
151	0xbf0cfeb2	-0.55076134
152	0x3e9e8e00	0.30967712
153	0x3ee26ae2	0.4422217
154	0x3dfa16c0	0.122113705
155	0xbdee9294	-0.11649051
156	0xbe9ac0fa	-0.30225354
157	0x3f0fa4f6	0.56111085
158	0xbc0e564a	-0.008687565
159	0x3a005967	0.00048961345
160	0xbf0928c8	-0.5357785
161	0xbdd446c8	-0.10365063
162	0x3e24d037	0.16095053
163	0xbeed5d06	-0.46360034
164	0xbc3aa379	-0.011391514
165	0xbf130df9	-0.57443196
166	0xbde24884	-0.110489875
167	0x3e44dd2e	0.19224998
168	0xbf44c865	-0.7686828
169	0xbed531d1	-0.4163957
170	0xbea9a0f6	-0.33130616
171	0xbec920cc	-0.39282835
172	0xbea041bf	-0.3130016
173	0x3d14f36f	0.03636497
174	0x3e8b940e	0.27261394
175	0xbf53266c	-0.824805
176	0xbeb25a0f	-0.34834334
177	0xbd80ee1f	-0.06295418
178	0x3eb753a5	0.35806003
179	0xbf91cf92	-1.139147
180	0x3d892e1c	0.06698248
181	0xbeda87df	-0.42681786
182	0x3ed8f46c	0.4237398
183	0xbf814825	-1.0100142
184	0x3d2622b7	0.04056045
185	0x3f02bc59	0.51068646
186	0xbe9b9d22	-0.3039332
187	0x3ce4cc3a	0.027929414
188	0xbed6e9b1	-0.41975167
189	0xbf934c97	-1.1507748
190	0x3db6e01b	0.089294635
191	0xbd554f18	-0.052077383
192	0x3ea0cdfe	0.3140716
193	0x3e9f17c7	0.31072828
194	0x3f5023cb	0.81304616
195	0x3d27f8e0	0.04100883
196	0x3e66c1d6	0.2253488
197	0x3eca2a00	0.39485168
198	0x3ea3d677	0.3199956
199	0x3e0be17c	0.13660234
200	0xbea31478	-0.31851554
201	0xbf590806	-0.8477787
202	0xbf0fb307	-0.5613255
203	0x3ea9b6fb	0.33147416
204	0x3ea04306	0.31301135
205	0x3d8df1a2	0.069308534
206	0xbf00e342	-0.5034677
207	0x3eb463c9	0.3523238
208	0x3ced0048	0.028930798
209	0x3f4d97ec	0.8030994
210	0xbe825672	-0.25456578
211	0x3ee2b3c6	0.4427778
212	0x3e094d04	0.13408285
213	0xbc0fc9a3	-0.008776101
214	0x3f205cde	0.62641704
215	0x3c85ba64	0.01632423
216	0x3f14dcf9	0.5814968
217	0xbe3d659f	-0.18495797
218	0xbe550be3	-0.20805316
219	0x3d45a373	0.04825158
220	0x3ebaa5ec	0.36454713
221	0xbe784137	-0.24243627
222	0xbe82547c	-0.2545508
223	0x3e3c0d10	0.18364358
224	0xbe1b4799	-0.15164031
225	0xbe8b13e2	-0.27163607
226	0x3f294390	0.6611872
227	0xbd85a476	-0.06525509
228	0x3e81f5a0	0.2538271
229	0x3f667eae	0.9003705
230	0x3f17c309	0.59281975
231	0x3ded3691	0.11582673
232	0xbeb24795	-0.34820238
233	0x3e234483	0.15944104
234	0x3ee7e2c9	0.4529021
235	0xbf22e87b	-0.6363599
236	0x3dfc36f3	0.12315168
237	0x3e209b41	0.15684225
238	0xbe6202e0	-0.22071409
239	0xbe246c08	-0.16056836
240	0x3de7eb79	0.1132421
241	0xbe6d9d32	-0.23204497
242	0x3ea7084c	0.32623518
243	0xbf279dbf	-0.65475076
244	0x3ec787d2	0.3897081
245	0x3ef57dfb	0.47947678
246	0x3c89c7f0	0.01681897
247	0xbdc7c8d7	-0.09755104
248	0xbd7c2a90	-0.06156403
249	0xbf0ba359	-0.54546124
250	0xbf345696	-0.7044462
251	0xbdb6bb48	-0.0892244
252	0xbc15aeef	-0.009135946
253	0x3ea6859b	0.32523808
254	0x3ed0c669	0.40776375
255	0xbe2950ab	-0.16534679

network_body._body_endoder.seq_layers.0.bias f4 [128]
0	0x00000000	0.0
1	0x00000000	0.0
2	0x00000000	0.0
3	0x00000000	0.0
4	0x00000000	0.0
5	0x00000000	0.0
6	0x00000000	0.0
7	0x00000000	0.0
8	0x00000000	0.0
9	0x00000000	0.0
10	0x00000000	0.0
11	0x00000000	0.0
12	0x00000000	0.0
13	0x00000000	0.0
14	0x00000000	0.0
15	0x00000000	0.0
16	0x00000000	0.0
17	0x00000000	0.0
18	0x00000000	0.0
19	0x00000000	0.0
20	0x00000000	0.0
21	0x00000000	0.0
22	0x00000000	0.0
23	0x00000000	0.0
24	0x00000000	0.0
25	0x00000000	0.0
26	0x00000000	0.0
27	0x00000000	0.0
28	0x00000000	0.0
29	0x00000000	0.0
30	0x00000000	0.0
31	0x00000000	0.0
32	0x00000000	0.0
33	0x00000000	0.0
34	0x00000000	0.0
35	0x00000000	0.0
36	0x00000000	0.0
37	0x00000000	0.0
38	0x00000000	0.0
39	0x00000000	0.0
40	0x00000000	0.0
41	0x00000000	0.0
42	0x00000000	0.0
43	0x00000000	0.0
44	0x00000000	0.0
45	0x00000000	0.0
46	0x00000000	0.0
47	0x00000000	0.0
48	0x00000000	0.0
49	0x00000000	0.0
50	0x00000000	0.0
51	0x00000000	0.0
52	0x00000000	0.0
53	0x00000000	0.0
54	0x00000000	0.0
55	0x00000000	0.0
56	0x00000000	0.0
57	0x00000000	0.0
58	0x00000000	0.0
59	0x00000000	0.0
60	0x00000000	0.0
61	0x00000000	0.0
62	0x00000000	0.0
63	0x00000000	0.0
64	0x00000000	0.0
65	0x00000000	0.0
66	0x00000000	0.0
67	0x00000000	0.0
68	0x00000000	0.0
69	0x00000000	0.0
70	0x00000000	0.0
71	0x00000000	0.0
72	0x00000000	0.0
73	0x00000000	0.0
74	0x00000000	0.0
75	0x00000000	0.0
76	0x00000000	0.0
77	0x00000000	0.0
78	0x00000000	0.0
79	0x00000000	0.0
80	0x00000000	0.0
81	0x00000000	0.0
82	0x00000000	0.0
83	0x00000000	0.0
84	0x00000000	0.0
85	0x00000000	0.0
86	0x00000000	0.0
87	0x00000000	0.0
88	0x00000000	0.0
89	0x00000000	0.0
90	0x00000000	0.0
91	0x00000000	0.0
92	0x00000000	0.0
93	0x00000000	0.0
94	0x00000000	0.0
95	0x00000000	0.0
96	0x00000000	0.0
97	0x00000000	0.0
98	0x00000000	0.0
99	0x00000000	0.0
100	0x00000000	0.0
101	0x00000000	0.0
102	0x00000000	0.0
103	0x00000000	0.0
104	0x00000000	0.0
105	0x00000000	0.0
106	0x00000000	0.0
107	0x00000000	0.0
108	0x00000000	0.0
109	0x00000000	0.0
110	0x00000000	0.0
111	0x00000000	0.0
112	0x00000000	0.0
113	0x00000000	0.0
114	0x00000000	0.0
115	0x00000000	0.0
116	0x00000000	0.0
117	0x00000000	0.0
118	0x00000000	0.0
119	0x00000000	0.0
120	0x00000000	0.0
121	0x00000000	0.0
122	0x00000000	0.0
123	0x00000000	0.0
124	0x00000000	0.0
125	0x00000000	0.0
126	0x00000000	0.0
127	0x00000000	0.0

network_body._body_endoder.seq_layers.2.weight f4 [128, 128]
0	0x3d5872fc	0.052844033
1	0xbded1400	-0.1157608
2	0xbbe4db51	-0.0069841524
3	0xbb8adf3d	-0.004238038
4	0x3d731f50	0.059356034
5	0x3d5390be	0.05165171
6	0xbdd169bc	-0.10225245
7	0x3e093f75	0.13403113
8	0xbbd80e27	-0.006593484
9	0xbd666dc5	-0.056257028
10	0xbd253aac	-0.040339157
11	0x3dda443f	0.10657548
12	0x3d377964	0.0447935
13	0xbd080747	-0.033210065
14	0xbe10317b	-0.14081375
15	0xbe026e67	-0.12737428
16	0xbdb4b256	-0.088230774
17	0x3e467820	0.19381762
18	0x3c81d1b3	0.015847063
19	0xbb8fdca2	-0.004390315
20	0xbdff1f6a	-0.12457164
21	0x3b0dcc31	0.00216366
22	0xba82fc39	-0.0009993381
23	0x3cba1db9	0.022719251
24	0x3b2e01db	0.00265514
25	0xbcab9a52	-0.02094761
26	0x3da9df5b	0.08294555
27	0x3d11cbe9	0.035594855
28	0x3e31ca0b	0.1736223
29	0x3da87195	0.08224789
30	0x3d50e76a	0.051001944
31	0x3c9edd43	0.019392615
32	0xbd0bb905	-0.034111995
33	0xbd64e241	-0.055879835
34	0xbd27c3cc	-0.04095821
35	0x3cb70a3e	0.022343751
36	0xbcd1cfac	-0.025611721
37	0xbd056b2a	-0.032572903
38	0x3e50474e	0.203397
39	0x3ddfb57d	0.10923288
40	0xbe18efe3	-0.1493526
41	0xbd838b17	-0.06423014
42	0xbcaf335d	-0.021386797
43	0xbd166ec2	-0.03672672
44	0xbde81ea4	-0.11333969
45	0x3d28f9fe	0.041254036
46	0xbd9e669d	-0.07734416
47	0x3cffcd0f	0.03122571
48	0x3e11f617	0.14254032
49	0x3d2373ec	0.039905474
50	0x3ddd2a8b	0.1079913
51	0xbe154d41	-0.14580251
52	0x3d52955b	0.051411968
53	0xbcc453c9	-0.023965733
54	0x3d576cc2	0.052593954
55	0xbcc60ec2	-0.024176959
56	0x3d8082e1	0.06274963
57	0xbe192936	-0.14957127
58	0x3db4cc73	0.08828058
59	0xbe5a71ec	-0.2133252
60	0x3e0d23bd	0.13783164
61	0xbd81fe29	-0.06347305
62	0xbe06798a	-0.13132301
63	0x3da505a2	0.08057715
64	0x3df81bca	0.12114675
65	0x3e655e1a	0.22399178
66	0xbd3f2aca	-0.046671666
67	0xbcaff084	-0.021476991
68	0x3d250a38	0.04029295
69	0x3c49f2cc	0.012325954
70	0x3da50de6	0.080592915
71	0x3df4db64	0.11955908
72	0xbcfd34ed	-0.030909026
73	0x3e161bd9	0.1465906
74	0x3a14708a	0.00056625216
75	0x3e006c1f	0.12541245
76	0xb9f58091	-0.0004682583
77	0x3d10b30f	0.035327014
78	0x3ccc825e	0.024964508
79	0xbc81124e	-0.015755799
80	0x3c80251d	0.015642697
81	0xbdec7772	-0.1154622
82	0x3d568b74	0.052379087
83	0xbd3ef727	-0.04662242
84	0x3e1bde60	0.15221548
85	0x3e3141bb	0.1731023
86	0xbba2135d	-0.004946156
87	0x3e32f03e	0.17474458
88	0xbdb27ab9	-0.08714814
89	0x3cada30a	0.021195907
90	0x3c929d3d	0.017897243
91	0xbd8fe986	-0.07026963
92	0x3c8fcad0	0.017552763
93	0x3c8a5d8a	0.016890306
94	0xbd58bcab	-0.052914303
95	0x3df82faa	0.12118466
96	0xbcc0cc4d	-0.023534918
97	0x3d81652d	0.06318126
98	0x3c5b52e5	0.013386463
99	0x3d926528	0.071482
100	0x3c443a15	0.011976738
101	0x3c36470f	0.01112534
102	0x3d4c575e	0.049888007
103	0x3e0eacc6	0.13933095
104	0x3e03b8b7	0.12863432
105	0x3c45b268	0.012066461
106	0xbe251070	-0.16119552
107	0x3ba9d64e	0.005183018
108	0x3d61188b	0.054955047
109	0xbdda9990	-0.10673821
110	0xbd1a39ef	-0.037652906
111	0x3cef665d	0.029223615
112	0x3dfda76d	0.123854496
113	0x3e1731eb	0.14765136
114	0x3dcbabbe	0.099448666
115	0xbd44d994	-0.04805906
116	0xbe073d3c	-0.13206953
117	0x3de1b31f	0.11020493
118	0x3cb469c1	0.022023084
119	0xbe47f210	-0.19525933
120	0xbe2a4068	-0.16626132
121	0x3e1b63d2	0.15174797
122	0x3dbd6484	0.092476875
123	0x3d60eaf3	0.054911565
124	0x3dabbff1	0.08386219
125	0x3d5050f1	0.05085844
126	0xbdadd53f	-0.08487939
127	0xbc6d5e30	-0.014487788
128	0x3ce89a1e	0.028393801
129	0xbd9286d4	-0.07154623
130	0xbdef990f	-0.116991155
131	0xb9fe5dfe	-0.00048516685
132	0xbd3e5fca	-0.04647807
133	0xbd80bb52	-0.062857285
134	0xbcf632a7	-0.03005345
135	0xbe0f9c17	-0.14024387
136	0xbd54d042	-0.051956423
137	0xbc95f4d0	-0.018305212
138	0xbd8224e5	-0.06354693
139	0xbd669a53	-0.05629952
140	0x3a2a8844	0.00065052905
141	0x3d9ba68b	0.07600125
142	0x3d412f3c	0.047164187
143	0xbdf4594a	-0.11931093
144	0x3e10dbba	0.14146319
145	0x3d0a1584	0.033711925
146	0x3c389480	0.011265874
147	0xbb357cc1	-0.0027692767
148	0x3d619d92	0.05508191
149	0xbe637af0	-0.22214866
150	0x3dbe7054	0.09298769
151	0x3e01f671	0.12691666
152	0xbda2d224	-0.079502374
153	0x3d5d2fb6	0.05400058
154	0xbdbd8df7	-0.09255593
155	0xbbad743f	-0.0052933986
156	0xbd18bae2	-0.0372876
157	0x3e98697d	0.2976798
158	0x3dacb21e	0.08432411
159	0x3c9fde21	0.019515099
160	0xbd81f543	-0.06345608
161	0xbd2f6482	-0.04282046
162	0xbbc06221	-0.005871073
163	0x3a97865a	0.0011560426
164	0xbdb33909	-0.08751113
165	0xbd964128	-0.07336646
166	0x3d2855d9	0.041097496
167	0x3ddb5baa	0.10710843
168	0x3d67b304	0.056567207
169	0x3d164c23	0.036693703
170	0x3d5078a3	0.0508963
171	0x3d2b171a	0.04177008
172	0xbdad4b11	-0.084615834
173	0x3d95444f	0.072884195
174	0x3dbdf912	0.09276022
175	0xbde01ac2	-0.10942604
176	0x3d936b43	0.07198193
177	0xbdd9d160	-0.10635638
178	0xbc5f5a7e	-0.013632415
179	0xbd308670	-0.04309696
180	0x3d902f55	0.07040278
181	0xbdf60e48	-0.12014443
182	0xbd90af54	-0.07064691
183	0x3dd5baf3	0.10436048
184	0x3e4175b7	0.18892561
185	0x3da18cae	0.07888161
186	0x3db379e6	0.08763485
187	0xbc5bc278	-0.013413064
188	0x3d9c3d31	0.07628859
189	0x3cc31df8	0.023818001
190	0x3dfb5d50	0.12273657
191	0x3e6378e5	0.22214086
192	0xbdccfe28	-0.10009414
193	0xbd376af2	-0.044779725
194	0xbbf1444d	-0.0073628784
195	0xbdf9ad67	-0.12191277
196	0x3da64b86	0.08119874
197	0x3d87b117	0.06625574
198	0x3db303ad	0.087409355
199	0x3d403fb0	0.046935737
200	0xbc8e296a	-0.017353732
201	0xbd1784ec	-0.036992
202	0xb9170492	-0.00014402185
203	0xbd59a36b	-0.053134363
204	0x3cd3b1b5	0.025841573
205	0x3cf89732	0.030345533
206	0x3e0064c5	0.1253844
207	0x3e00f188	0.12592137
208	0x3d792e96	0.060835443
209	0xbe142c67	-0.14470063
210	0x3c78ee9a	0.015193606
211	0x3c98de36	0.018660646
212	0x3d15e8ce	0.036598973
213	0xbcabc578	-0.020968184
214	0xbc94e2ce	-0.018174555
215	0xbd65f86f	-0.056145128
216	0xbdbf395b	-0.093371116
217	0xbdb32b8f	-0.087485425
218	0xbd9769ac	-0.07393202
219	0x3d4efcbf	0.050534006
220	0xbd858d75	-0.065211214
221	0x3cc131ff	0.02358341
222	0xbd3a8de7	-0.045545485
223	0xbd1914f7	-0.03737351
224	0x3d073ede	0.03301894
225	0x3dabdea3	0.08392074
226	0xbe6e0bfe	-0.23246762
227	0x3db256a8	0.087079346
228	0xbe1eb5dd	-0.15499063
229	0xbd8fa796	-0.07014386
230	0x3dddddbe	0.108333096
231	0x3d32020d	0.043458987
232	0xbd8321a2	-0.06402899
233	0x3d9d7056	0.07687442
234	0x3dac776b	0.08421215
235	0x3dc7468a	0.09730251
236	0xbd4c6acc	-0.049906537
237	0xbda6ffe3	-0.08154275
238	0xbdb4cf00	-0.088285446
239	0x3e0a9784	0.13534361
240	0x3d6ab340	0.057299852
241	0x3c92b81a	0.017910052
242	0x3dc2f67f	0.09519672
243	0xbe5de06b	-0.2166764
244	0x3cc95e74	0.024581172
245	0xbd0cbe1f	-0.034361
246	0x3d00641b	0.031345468
247	0xbce898c1	-0.028393151
248	0xbd432c5c	-0.047649726
249	0xbddee534	-0.10883561
250	0xbdad27ee	-0.084548816
251	0xbdd2bd30	-0.10289991
252	0x3de8398f	0.113391034
253	0x3bd7d9e0	0.006587252
254	0xbd30b5a1	-0.043141965
255	0x3d93c4c7	0.07215267

network_body._body_endoder.seq_layers.2.bias f4 [128]
0	0x00000000	0.0
1	0x00000000	0.0
2	0x00000000	0.0
3	0x00000000	0.0
4	0x00000000	0.0
5	0x00000000	0.0
6	0x00000000	0.0
7	0x00000000	0.0
8	0x00000000	0.0
9	0x00000000	0.0
10	0x00000000	0.0
11	0x00000000	0.0
12	0x00000000	0.0
13	0x00000000	0.0
14	0x00000000	0.0
15	0x00000000	0.0
16	0x00000000	0.0
17	0x00000000	0.0
18	0x00000000	0.0
19	0x00000000	0.0
20	0x00000000	0.0
21	0x00000000	0.0
22	0x00000000	0.0
23	0x00000000	0.0
24	0x00000000	0.0
25	0x00000000	0.0
26	0x00000000	0.0
27	0x00000000	0.0
28	0x00000000	0.0
29	0x00000000	0.0
30	0x00000000	0.0
31	0x00000000	0.0
32	0x00000000	0.0
33	0x00000000	0.0
34	0x00000000	0.0
35	0x00000000	0.0
36	0x00000000	0.0
37	0x00000000	0.0
38	0x00000000	0.0
39	0x00000000	0.0
40	0x00000000	0.0
41	0x00000000	0.0
42	0x00000000	0.0
43	0x00000000	0.0
44	0x00000000	0.0
45	0x00000000	0.0
46	0x00000000	0.0
47	0x00000000	0.0
48	0x00000000	0.0
49	0x00000000	0.0
50	0x00000000	0.0
51	0x00000000	0.0
52	0x00000000	0.0
53	0x00000000	0.0
54	0x00000000	0.0
55	0x00000000	0.0
56	0x00000000	0.0
57	0x00000000	0.0
58	0x00000000	0.0
59	0x00000000	0.0
60	0x00000000	0.0
61	0x00000000	0.0
62	0x00000000	0.0
63	0x00000000	0.0
64	0x00000000	0.0
65	0x00000000	0.0
66	0x00000000	0.0
67	0x00000000	0.0
68	0x00000000	0.0
69	0x00000000	0.0
70	0x00000000	0.0
71	0x00000000	0.0
72	0x00000000	0.0
73	0x00000000	0.0
74	0x00000000	0.0
75	0x00000000	0.0
76	0x00000000	0.0
77	0x00000000	0.0
78	0x00000000	0.0
79	0x00000000	0.0
80	0x00000000	0.0
81	0x00000000	0.0
82	0x00000000	0.0
83	0x00000000	0.0
84	0x00000000	0.0
85	0x00000000	0.0
86	0x00000000	0.0
87	0x00000000	0.0
88	0x00000000	0.0
89	0x00000000	0.0
90	0x00000000	0.0
91	0x00000000	0.0
92	0x00000000	0.0
93	0x00000000	0.0
94	0x00000000	0.0
95	0x00000000	0.0
96	0x00000000	0.0
97	0x00000000	0.0
98	0x00000000	0.0
99	0x00000000	0.0
100	0x00000000	0.0
101	0x00000000	0.0
102	0x00000000	0.0
103	0x00000000	0.0
104	0x00000000	0.0
105	0x00000000	0.0
106	0x00000000	0.0
107	0x00000000	0.0
108	0x00000000	0.0
109	0x00000000	0.0
110	0x00000000	0.0
111	0x00000000	0.0
112	0x00000000	0.0
113	0x00000000	0.0
114	0x00000000	0.0
115	0x00000000	0.0
116	0x00000000	0.0
117	0x00000000	0.0
118	0x00000000	0.0
119	0x00000000	0.0
120	0x00000000	0.0
121	0x00000000	0.0
122	0x00000000	0.0
123	0x00000000	0.0
124	0x00000000	0.0
125	0x00000000	0.0
126	0x00000000	0.0
127	0x00000000	0.0

action_model._continuous_distribution.log_sigma f4 [1, 2]
0	0x00000000	0.0
1	0x00000000	0.0

action_model._continuous_distribution.mu.weight f4 [2, 128]
0	0x3c88b913	0.016689813
1	0x3c2ce465	0.0105525
2	0xbb89a18c	-0.004200166
3	0xbce32215	-0.027726213
4	0x3d0bd01a	0.034134008
5	0xbba76622	-0.0051086107
6	0x3c4fe8f2	0.012689816
7	0x3ca0bc13	0.01962093
8	0xbbcb63ef	-0.0062069814
9	0xbc2fdb66	-0.010733461
10	0xbd03f0a7	-0.032211926
11	0x3ca34ca3	0.019934004
12	0x3be4494d	0.006966746
13	0x3cc24390	0.023713857
14	0x3d01e2f3	0.031710576
15	0xbc5299b7	-0.012854031
16	0x3c03584a	0.008016655
17	0xbb78c5eb	-0.0037959765
18	0xbca47487	-0.020075096
19	0xbc34fd92	-0.011046784
20	0x3ca3d54b	0.019999167
21	0xbcbbe84c	-0.022937916
22	0x39ed5d83	0.00045273834
23	0xbc7f1a02	-0.015570166
24	0x3c19fa28	0.009398021
25	0x3bb6f68e	0.005583591
26	0xbcd796e7	-0.026317073
27	0xbbf0c0f2	-0.0073472196
28	0xbb3fe3a5	-0.0029279974
29	0x3ad8317f	0.0016494243
30	0xbc5b5def	-0.013389095
31	0xbbe199a7	-0.006884772
32	0x3c7512d7	0.014958105
33	0x3bc26614	0.005932579
34	0xbc0c9e07	-0.0085825985
35	0xbc174239	-0.009232097
36	0x3c9df97b	0.019284
37	0xbcdc3b02	-0.026883606
38	0x3c1ed209	0.009693631
39	0xbc49276b	-0.012277464
40	0x3baa5a90	0.005198784
41	0xbcd39b73	-0.02583096
42	0x3cc99751	0.024608286
43	0x3be2822f	0.0069124917
44	0xbc29f537	-0.010373405
45	0x3c1bc5a8	0.009507574
46	0xbc997805	-0.018733988
47	0xbce7ba4f	-0.028287081
48	0x3c20f803	0.009824756
49	0xbbfa36a5	-0.0076359087
50	0x3cd6be3b	0.026213756
51	0x3c5da792	0.013528721
52	0x3caa7cce	0.020811465
53	0x3b9d9c68	0.004809905
54	0xbd222e87	-0.039595153
55	0xbc8e86e5	-0.017398307
56	0x3b68aa65	0.0035501954
57	0xbc9c9ae5	-0.019116828
58	0x3c3153d9	0.0108232135
59	0xbbcd0822	-0.006257073
60	0x3cb05e1c	0.02152925
61	0xbc8e3be4	-0.017362542
62	0x3c8b267f	0.01698613
63	0xbcb4c7b5	-0.022067884
64	0x3ca02153	0.01954714
65	0x39f91f88	0.00047516474
66	0x3d25f54b	0.040517133
67	0x3d000492	0.03125436
68	0xbbe899e3	-0.007098423
69	0x3c434e73	0.011920559
70	0xbcb68916	-0.022282165
71	0x3ba33ba0	0.004981473
72	0x3d144e51	0.0362075
73	0xbc03c930	-0.008043572
74	0x3d185596	0.037190996
75	0x3ce8d08a	0.028419752
76	0x3ae98273	0.0017815366
77	0xbcd88ffb	-0.026435843
78	0x3d0b9de9	0.03408614
79	0x3b875c08	0.004130844
80	0xbc0331b7	-0.008007458
81	0x3caf54e7	0.02140279
82	0x3c849618	0.016184852
83	0x3c56bc8f	0.013106479
84	0xbc0603fa	-0.008179659
85	0x3c96623c	0.018357389
86	0xbbfb7ba5	-0.0076746517
87	0x3c88c795	0.01669673
88	0xbc0017fb	-0.007818217
89	0x3c01017e	0.007873891
90	0x3b5e10a3	0.0033884428
91	0xbbd47178	-0.006483253
92	0x3b8fefe5	0.0043926113
93	0x3c0a6e9e	0.008449225
94	0xbc703c82	-0.014662864
95	0xba8c4d0a	-0.0010704112
96	0xbc894921	-0.016758503
97	0xbc54358a	-0.012952218
98	0xbb14f803	-0.0022730834
99	0xbc49f6b3	-0.012326884
100	0x3ce0a735	0.02742348
101	0xbbe959c0	-0.0071212947
102	0xbd365967	-0.044518854
103	0xbb41a7b0	-0.0029549412
104	0x3c5183f8	0.012787811
105	0x3be141bf	0.0068742926
106	0x3af2bd13	0.0018519483
107	0xbbb8f798	-0.00564475
108	0x3c4e7c12	0.012602823
109	0xbcac5534	-0.021036722
110	0xbc1fe397	-0.0097588515
111	0x3bc193e2	0.0059075216
112	0x3caf5dab	0.021406969
113	0x3ca206f0	0.019778699
114	0x3c3c1829	0.01148037
115	0x3b304ba3	0.0026900552
116	0xbd303c8b	-0.04302649
117	0x3c47275d	0.012155381
118	0x3ceb5f22	0.028731886
119	0xbc189653	-0.009313184
120	0x3c33e580	0.01098001
121	0x3ce2cb10	0.027684718
122	0xbc4bad7c	-0.012431499
123	0x3c744705	0.0149095105
124	0x39d0906a	0.00039780448
125	0xbc43e584	-0.011956576
126	0x3c65c178	0.014023177
127	0x3ba947af	0.005166016
128	0xbca9412b	-0.020660957
129	0x3be76195	0.007061193
130	0xbac726ca	-0.0015194055
131	0xbcd07850	-0.025447994
132	0x3c672f3b	0.014110382
133	0x3d118ae8	0.035532862
134	0x3b83838a	0.0040134834
135	0xbc68ff60	-0.014221042
136	0x3c3cf05b	0.011531915
137	0x3c7df21b	0.015499617
138	0x3c8efb9b	0.01745396
139	0xbb0d14b9	-0.0021527244
140	0xbc04c927	-0.008104599
141	0xbbc4b319	-0.0060027954
142	0xbbf06d72	-0.0073372656
143	0x3bb54343	0.0055317
144	0xbce8f310	-0.028436214
145	0xbc0b16a3	-0.008489284
146	0xbaa6089b	-0.001266736
147	0x3b94633b	0.0045284308
148	0xbc9d29f5	-0.019185046
149	0xbcbcd99c	-0.023052983
150	0x3cc896eb	0.024486026
151	0x3b74973f	0.0037321595
152	0xbc2cc1e0	-0.01054427
153	0xbc3df037	-0.011592916
154	0x3ba15d06	0.0049244193
155	0xbc8ab537	-0.016932113
156	0x3cb801a4	0.02246172
157	0x3bad08ee	0.0052806055
158	0xbb96dd5c	-0.004604025
159	0x3b8f086e	0.0043650186
160	0x3cb62aef	0.02223727
161	0xbc8e3fdc	-0.017364435
162	0x3c353f58	0.011062466
163	0xbc177fbe	-0.009246765
164	0x3ba9bc82	0.0051799426
165	0xb9aebc9c	-0.0003332839
166	0xbc99eed0	-0.018790632
167	0xbcd77178	-0.026299223
168	0xbc2417e7	-0.010015464
169	0xbcb43045	-0.021995673
170	0x3c9c90f8	0.019112095
171	0x3c549bb5	0.012976577
172	0x3c5b036a	0.013367513
173	0xbd231172	-0.03981156
174	0xbc8b7227	-0.017022206
175	0xbcb221fd	-0.021744723
176	0xbd2ca27b	-0.04214714
177	0x3bc263c5	0.0059323036
178	0xbbf94b8f	-0.0076078842
179	0x3d30a3bc	0.0431249
180	0x3c13066a	0.008973697
181	0x3c6ea1bb	0.014564927
182	0x3c6e0d5f	0.014529555
183	0x3bf5927d	0.0074942694
184	0xbcbbeb6b	-0.022939404
185	0x3c997381	0.018731834
186	0x3c06d8c3	0.008230391
187	0x3b201d57	0.002443155
188	0xbd8a64fa	-0.06757541
189	0x3a0b1cea	0.0005306738
190	0x3c3454f0	0.011006579
191	0x3c663723	0.014051232
192	0xbc249f56	-0.010047754
193	0xbca22bdc	-0.019796304
194	0xbc9e48ab	-0.01932176
195	0xbbee58b3	-0.0072737574
196	0x3c574743	0.013139549
197	0xbbe36b5f	-0.00694029
198	0xbcc1c58f	-0.023653774
199	0x3ca6c0c1	0.020355584
200	0x3cbac02b	0.022796711
201	0xbcd4dd8d	-0.02598455
202	0x3a0c20b3	0.0005345449
203	0x3b4fbbbf	0.0031697599
204	0xbbf70ed0	-0.0075396076
205	0x3c97288b	0.01845195
206	0x3c59fc4f	0.013304784
207	0xbc1b9f39	-0.009498411
208	0xbb77794b	-0.0037761505
209	0xbcb34332	-0.021882627
210	0xbc9299be	-0.017895576
211	0x3bacdc98	0.0052753203
212	0x3b7798c3	0.0037780262
213	0x3d0efd1d	0.034909356
214	0x3c295dd6	0.010337314
215	0x3c90c31b	0.017671159
216	0x3cc351b4	0.02384267
217	0x3cc3a7df	0.023883758
218	0xbae31800	-0.0017325878
219	0xbcafa888	-0.021442667
220	0xbaf50343	-0.0018692989
221	0xbcaad147	-0.020851744
222	0x3b6cba8b	0.003612193
223	0xbaa2b83d	-0.0012414526
224	0xbbc1aa8b	-0.005910223
225	0x3b4b2173	0.003099528
226	0xbc2946f6	-0.01033186
227	0x3cd47df2	0.025938962
228	0xbd1d69a5	-0.03843083
229	0x3bc01eb5	0.0058630356
230	0x3bab2a5a	0.0052235546
231	0x3bc96d0f	0.006147034
232	0x3cfeb4df	0.031092105
233	0x3b49ff62	0.0030822386
234	0x3c50ba50	0.012739733
235	0xb957c5e3	-0.00020577716
236	0x3ca56a5b	0.020192316
237	0x3cab3c43	0.020902758
238	0x3c02dffb	0.007987971
239	0xbbf8dcda	-0.007594687
240	0xbc505e65	-0.012717818
241	0x3cd7c622	0.026339594
242	0x3d1cfe6b	0.03832857
243	0x3cfac5a8	0.030611828
244	0xbc52f3e2	-0.012875529
245	0xbc6a409d	-0.014297632
246	0xbc5a806d	-0.013336283
247	0x3cf18ba2	0.029485527
248	0xbc9c427d	-0.019074673
249	0xbc9f4711	-0.019443067
250	0x3c3ec9e0	0.01164481
251	0x3bf87f18	0.00758351
252	0xbcda45bf	-0.026644586
253	0xbc5c8e90	-0.013461724
254	0x3c2cb3f1	0.010540948
255	0xbc21cb9f	-0.009875207

action_model._continuous_distribution.mu.bias f4 [2]
0	0x00000000	0.0
1	0x00000000	0.0

network_body._body_endoder.seq_layers.0.weight f4 [128, 6]
0	0x3e9f7ea9	0.31151322
1	0x3f673429	0.90313965
2	0x3f56d1c0	0.83913803
3	0xbf60377b	-0.87584656
4	0xbf8b8aa9	-1.0901691
5	0x3ea08ad9	0.31355932
6	0xbccb6df8	-0.02483271
7	0xbde4776a	-0.11155589
8	0xbf9c0bc5	-1.2191092
9	0x3e8da8c1	0.27667812
10	0x3e5ef25f	0.21772145
11	0xbc1fa964	-0.009744976
12	0x3e4d955d	0.20076509
13	0x3e3416cb	0.1758682
14	0xbe944326	-0.2895748
15	0xbec35d4a	-0.3815711
16	0xbd8909a7	-0.06691294
17	0x3f0797e9	0.5296617
18	0x3d09ab61	0.033610705
19	0xbddc6e1f	-0.107631914
20	0xbec10af9	-0.37703684
21	0x3e1e8cd1	0.15483405
22	0x3ee99e8f	0.45628783
23	0xbecd548a	-0.4010356
24	0x3ea3a17b	0.31959137
25	0x3e66f979	0.22556104
26	0x3e1b67b9	0.15176286
27	0x3ee2bfb1	0.44286874
28	0x3c42f97c	0.011900302
29	0x3f1f84ee	0.6231221
30	0x3f2bd795	0.6712583
31	0xbe0f5952	-0.13998917
32	0x3e08dbcd	0.13365097
33	0xbecc79f5	-0.39936796
34	0x3e7befcb	0.24603193
35	0x3ebde99d	0.37092295
36	0xbeb7edcc	-0.35923612
37	0xbccc1330	-0.024911493
38	0x3e084d6e	0.13310787
39	0xbe18f88d	-0.14938565
40	0xbe32dbd5	-0.17466672
41	0x3e8b296a	0.27180034
42	0x3daabddc	0.08336994
43	0xbf03aafd	-0.5143278
44	0x3f3acda0	0.7297001
45	0xbedf41f4	-0.43605006
46	0xbeaecde4	-0.34141457
47	0xbd9b3edc	-0.07580349
48	0x3f02c68c	0.5108421
49	0xba20ffec	-0.0006141651
50	0x3e799abb	0.24375431
51	0xbee43862	-0.44574267
52	0x3da95f54	0.082701355
53	0x3d1fe5cb	0.039037507
54	0xbf67bab5	-0.9051927
55	0xbec0817c	-0.3759879
56	0x3ed8b49b	0.4232529
57	0x3df1be13	0.11803832
58	0xbed47583	-0.41495904
59	0xbee783f5	-0.45217863
60	0xbe035d3e	-0.12828538
61	0xbf08d5b9	-0.53451115
62	0x3e71e802	0.2362366
63	0xbe9952fa	-0.2994612
64	0x3e5117ab	0.20419185
65	0x3eeae7ff	0.45880124
66	0x3e98365c	0.29728973
67	0x3e786d49	0.24260439
68	0x3dd8ff9f	0.10595631
69	0xbe8da929	-0.2766812
70	0xbe82391c	-0.25434196
71	0xbdedb8c2	-0.116075054
72	0x3e4eb524	0.20186287
73	0x3c580c34	0.013186503
74	0xbf511d05	-0.81684905
75	0xbe7f9c52	-0.24961975
76	0x3c1f232f	0.009712978
77	0x3f65c06c	0.8974674
78	0x3ddfa99c	0.10921022
79	0x3d714414	0.058902815
80	0x3d4b2d3f	0.049603697
81	0xbe8cb07f	-0.27478406
82	0xbef63ed5	-0.48094812
83	0xbe4724e2	-0.19447663
84	0xbe1b594c	-0.15170783
85	0x3f8b9144	1.0903707
86	0xbdca2fc3	-0.09872391
87	0xbe870fe9	-0.26379326
88	0xbe8cbeea	-0.27489406
89	0x3f5de071	0.86670595
90	0xbe73e460	-0.23817587
91	0xbf09f30c	-0.53886485
92	0x3e46f81d	0.19430585
93	0x3ee9017e	0.4550895
94	0xbe24f00f	-0.161072
95	0xbe68074d	-0.22659035
96	0x3e6915a0	0.22762156
97	0xbe884b00	-0.2661972
98	0xbf31becb	-0.6943175
99	0x3ef1100a	0.4708255
100	0xbdcbc2cf	-0.09949266
101	0x3eeb2a54	0.4593073
102	0xbcbce913	-0.023060357
103	0x3e7fe661	0.24990226
104	0xbe997020	-0.29968357
105	0x3bb79822	0.0056028524
106	0xbf4d0741	-0.80089194
107	0xbd563885	-0.052299995
108	0xbc4bc47f	-0.012436985
109	0x3e9e0af3	0.3086773
110	0xbda0cfc6	-0.0785213
111	0xbf31b157	-0.69411224
112	0x3e93fdbd	0.28904524
113	0x3eafb4ef	0.3431773
114	0x3e8fc480	0.28079605
115	0xbe3c018f	-0.1835997
116	0x3e7ffd84	0.24999052
117	0xbeb8f9c7	-0.36128065
118	0xbe0df5e7	-0.13863336
119	0xbd2f9d6f	-0.04287475
120	0xbf37e407	-0.7183232
121	0xbec91699	-0.39275053
122	0xbf50ce87	-0.81565136
123	0xbee83bc2	-0.45358092
124	0x3f114ddc	0.5675943
125	0x3be6f44e	0.0070481664
126	0x3f01768b	0.5057151
127	0x3e86a643	0.26298723
128	0x3e6b64ed	0.22987719
129	0xbd99f006	-0.07516484
130	0xbed3c53a	-0.4136141
131	0xbdd162a8	-0.10223895
132	0x3d8df656	0.069317505
133	0xbef08918	-0.46979594
134	0x3e8bfe27	0.2734234
135	0x3eeb5c11	0.4596868
136	0x3e5a7573	0.21333866
137	0xbe8e1e05	-0.27757278
138	0xbd470ae3	-0.048594367
139	0x3f0debf5	0.55438167
140	0x3e7a65f3	0.24452953
141	0xbf69087c	-0.9102857
142	0xbf7cd068	-0.987555
143	0xbf21982d	-0.63122827
144	0x3f0e019a	0.55471194
145	0x3e2d6fde	0.16937205
146	0xbef8be82	-0.48582846
147	0xbc9397f4	-0.018016793
148	0xbf158ba4	-0.584162
149	0x3ee34935	0.4439179
150	0x3f7cf0f9	0.98805195
151	0x3e898cfe	0.2686538
152	0xbd2a9546	-0.041646264
153	0x3e361d14	0.1778453
154	0xbb2bb303	-0.0026199229
155	0xbdfd7715	-0.12376229
156	0xbeb9bfa6	-0.3627903
157	0x3eb0ff99	0.34570006
158	0x3f24eb79	0.644218
159	0xbf6a7e6d	-0.9159916
160	0xbe01d29c	-0.12677997
161	0xbe630172	-0.2216852
162	0x3eef1be4	0.46700966
163	0xbdf6bfdf	-0.12048315
164	0xbe8831ec	-0.26600587
165	0x3e7d87e9	0.24758877
166	0xbd302cb0	-0.043011367
167	0x3e3e909a	0.18609849
168	0xbf2a32ef	-0.6648397
169	0xbe572e4f	-0.21013759
170	0xbccc2418	-0.024919555
171	0xbd0349a7	-0.032052662
172	0xbe999706	-0.29998034
173	0x3f070495	0.52741367
174	0xbed7d3bd	-0.4215373
175	0xbe390dc9	-0.18071665
176	0x3e8e3380	0.27773666
177	0xbf2449d7	-0.6417517
178	0xbe0a9cf9	-0.13536443
179	0x3f153c60	0.5829525
180	0x3e7dc634	0.2478264
181	0x3e882470	0.265903
182	0x3f3cc599	0.7373901
183	0xbe747474	-0.23872548
184	0xbe82f900	-0.25580597
185	0x3e2a5d69	0.16637196
186	0x3ec3c726	0.38237876
187	0xbea5e787	-0.32403204
188	0x3e554381	0.20826532
189	0x3ee3d236	0.44496316
190	0xbd429552	-0.047505684
191	0xbe439b69	-0.19102253
192	0x3d69ee09	0.057111774
193	0x3d4c5df9	0.049894307
194	0xbe2553a2	-0.16145185
195	0x3df98a5d	0.12184594
196	0x3ef02514	0.46903288
197	0x3f06d59d	0.526697
198	0xbe2895cf	-0.16463397
199	0xbf517bc2	-0.81829464
200	0xbf1f23f4	-0.62164235
201	0xbf06ab4a	-0.52605116
202	0xbee389b7	-0.44441006
203	0x3ef872d4	0.48525107
204	0x3e9611c5	0.29310432
205	0xbe4680a2	-0.19385007
206	0x3da5d229	0.080967255
207	0x3da66381	0.081244476
208	0xbdf09737	-0.11747592
209	0xbeca5d52	-0.39524323
210	0x3f807844	1.0036702
211	0x3d090909	0.033455882
212	0xbeadf53f	-0.3397617
213	0xbefa81a9	-0.48927048
214	0xbe07f912	-0.13278607
215	0x3eeb36fe	0.45940393
216	0xbe981ef5	-0.29711118
217	0x3c103554	0.008801777
218	0xbe3d452c	-0.18483418
219	0x3c8a1bd1	0.016858967
220	0xbd1f7b20	-0.03893578
221	0x3e984bc5	0.29745308
222	0xbe9a6902	-0.3015824
223	0xbf230224	-0.6367514
224	0x3e35d9a1	0.177588
225	0xbe878f34	-0.26476443
226	0xbe7b3a09	-0.24533857
227	0xbc1313a2	-0.008976849
228	0x3f22570f	0.6341409
229	0xbea0a668	-0.31376958
230	0x3ec885ef	0.39164683
231	0x3d8508d8	0.064958274
232	0xbf372eb4	-0.7155564
233	0xbec0cdad	-0.37656918
234	0xbf3fca22	-0.74917805
235	0xbd69361e	-0.056936376
236	0xbd8fed32	-0.07027663
237	0x3eb1ec5d	0.34750643
238	0xbdf94b5f	-0.12172579
239	0xbf732792	-0.94982255
240	0xbeb2b748	-0.34905457
241	0x3e3dbe74	0.18529683
242	0x3ab5f2b8	0.001388154
243	0xbf49e18e	-0.78859794
244	0xbe703394	-0.23457175
245	0xbe681567	-0.22664414
246	0x3eb999c6	0.36250132
247	0xbea1aa76	-0.31575364
248	0xbe08c037	-0.13354574
249	0xbe998a2c	-0.2998823
250	0xbec52ee5	-0.3851234
251	0xbf048d8e	-0.51778495
252	0x3f5ba50c	0.85798717
253	0xbf2dd2fe	-0.67900074
254	0x3e3325f4	0.17494947
255	0xbe840798	-0.25787044

network_body._body_endoder.seq_layers.0.bias f4 [128]
0	0x00000000	0.0
1	0x00000000	0.0
2	0x00000000	0.0
3	0x00000000	0.0
4	0x00000000	0.0
5	0x00000000	0.0
6	0x00000000	0.0
7	0x00000000	0.0
8	0x00000000	0.0
9	0x00000000	0.0
10	0x00000000	0.0
11	0x00000000	0.0
12	0x00000000	0.0
13	0x00000000	0.0
14	0x00000000	0.0
15	0x00000000	0.0
16	0x00000000	0.0
17	0x00000000	0.0
18	0x00000000	0.0
19	0x00000000	0.0
20	0x00000000	0.0
21	0x00000000	0.0
22	0x00000000	0.0
23	0x00000000	0.0
24	0x00000000	0.0
25	0x00000000	0.0
26	0x00000000	0.0
27	0x00000000	0.0
28	0x00000000	0.0
29	0x00000000	0.0
30	0x00000000	0.0
31	0x00000000	0.0
32	0x00000000	0.0
33	0x00000000	0.0
34	0x00000000	0.0
35	0x00000000	0.0
36	0x00000000	0.0
37	0x00000000	0.0
38	0x00000000	0.0
39	0x00000000	0.0
40	0x00000000	0.0
41	0x00000000	0.0
42	0x00000000	0.0
43	0x00000000	0.0
44	0x00000000	0.0
45	0x00000000	0.0
46	0x00000000	0.0
47	0x00000000	0.0
48	0x00000000	0.0
49	0x00000000	0.0
50	0x00000000	0.0
51	0x00000000	0.0
52	0x00000000	0.0
53	0x00000000	0.0
54	0x00000000	0.0
55	0x00000000	0.0
56	0x00000000	0.0
57	0x00000000	0.0
58	0x00000000	0.0
59	0x00000000	0.0
60	0x00000000	0.0
61	0x00000000	0.0
62	0x00000000	0.0
63	0x00000000	0.0
64	0x00000000	0.0
65	0x00000000	0.0
66	0x00000000	0.0
67	0x00000000	0.0
68	0x00000000	0.0
69	0x00000000	0.0
70	0x00000000	0.0
71	0x00000000	0.0
72	0x00000000	0.0
73	0x00000000	0.0
74	0x00000000	0.0
75	0x00000000	0.0
76	0x00000000	0.0
77	0x00000000	0.0
78	0x00000000	0.0
79	0x00000000	0.0
80	0x00000000	0.0
81	0x00000000	0.0
82	0x00000000	0.0
83	0x00000000	0.0
84	0x00000000	0.0
85	0x00000000	0.0
86	0x00000000	0.0
87	0x00000000	0.0
88	0x00000000	0.0
89	0x00000000	0.0
90	0x00000000	0.0
91	0x00000000	0.0
92	0x00000000	0.0
93	0x00000000	0.0
94	0x00000000	0.0
95	0x00000000	0.0
96	0x00000000	0.0
97	0x00000000	0.0
98	0x00000000	0.0
99	0x00000000	0.0
100	0x00000000	0.0
101	0x00000000	0.0
102	0x00000000	0.0
103	0x00000000	0.0
104	0x00000000	0.0
105	0x00000000	0.0
106	0x00000000	0.0
107	0x00000000	0.0
108	0x00000000	0.0
109	0x00000000	0.0
110	0x00000000	0.0
111	0x00000000	0.0
112	0x00000000	0.0
113	0x00000000	0.0
114	0x00000000	0.0
115	0x00000000	0.0
116	0x00000000	0.0
117	0x00000000	0.0
118	0x00000000	0.0
119	0x00000000	0.0
120	0x00000000	0.0
121	0x00000000	0.0
122	0x00000000	0.0
123	0x00000000	0.0
124	0x00000000	0.0
125	0x00000000	0.0
126	0x00000000	0.0
127	0x00000000	0.0

network_body._body_endoder.seq_layers.2.weight f4 [128, 128]
0	0x3dd75878	0.10514921
1	0xbd0bdf25	-0.034148354
2	0x3da8335c	0.08212921
3	0x3d5f9a40	0.054590464
4	0xbd3b206f	-0.045685228
5	0xbd1555b0	-0.03645867
6	0xbdb0ee60	-0.086392164
7	0x3d66d211	0.05635268
8	0x3d99ff1e	0.07519363
9	0x3b504475	0.0031779085
10	0xb96781fc	-0.000220783
11	0xbe28b21e	-0.16474196
12	0x3d9182db	0.07105037
13	0x3d442417	0.04788598
14	0x3c012851	0.007883147
15	0xbd8d02a7	-0.068852715
16	0x3de7087d	0.11280916
17	0x3a6e2d74	0.00090857525
18	0xbe1b0095	-0.15136941
19	0xbd26f292	-0.040758677
20	0xbe0f6b52	-0.14005783
21	0xbdd626e3	-0.10456636
22	0x3d693887	0.056938674
23	0x3d5793f1	0.052631322
24	0xbdc2b4d6	-0.09507148
25	0x3b7761b5	0.0037747447
26	0xbe09aa73	-0.13443927
27	0xbca95e34	-0.020674802
28	0xbddbd1cb	-0.10733374
29	0x3c92fe75	0.0179436
30	0x3d213ee9	0.039366636
31	0xbdad5f46	-0.084654376
32	0x3bb28c84	0.0054488797
33	0x3d4c269d	0.049841512
34	0xbd83985c	-0.064255446
35	0x3dd2c1b3	0.102908514
36	0x3dcfc2cb	0.10144576
37	0x3e2910b2	0.16510275
38	0xbc813db5	-0.015776495
39	0xbcc2d0e9	-0.023781257
40	0xbd6bdfda	-0.05758653
41	0xbd39312b	-0.045212906
42	0x3ca5d4c0	0.020243049
43	0x3dcd7a90	0.100331426
44	0xbda966bb	-0.082715474
45	0x3d8ff905	0.070299186
46	0xbc6be299	-0.014397287
47	0x3d3d58e2	0.046227343
48	0x3d8dd023	0.069244646
49	0x3b6ab184	0.0035811374
50	0x3d9348e1	0.07191635
51	0xbdd17529	-0.10227425
52	0x3d53ba6d	0.05169146
53	0xbcefd74c	-0.029277466
54	0x3cf79c54	0.03022591
55	0xbd87c436	-0.06629221
56	0xbdc9c3b7	-0.09851783
57	0x3c86d3cd	0.016458416
58	0xbe0b727c	-0.13617891
59	0xbd5cf096	-0.053940378
60	0x3e0301f7	0.12793718
61	0xbe03d39b	-0.1287369
62	0xbd84fdca	-0.06493719
63	0x3d8574cf	0.0651642
64	0x3e34bf73	0.17651157
65	0x3ded367c	0.11582658
66	0xbdeff764	-0.11717108
67	0xbd20e032	-0.03927631
68	0x3d8d7350	0.0690676
69	0x3bb7253d	0.005589156
70	0x3d253c60	0.04034078
71	0xbdfff5bc	-0.12498042
72	0xbd515667	-0.05110779
73	0xbda3445c	-0.07972023
74	0xbd7e92a8	-0.06215158
75	0xbdfaa9cd	-0.12239418
76	0x3d0fc815	0.035102922
77	0xbcd94083	-0.02652002
78	0xbd04d983	-0.032433998
79	0x3df26da8	0.118373215
80	0xbd06f8f4	-0.032952264
81	0xbdc9814e	-0.09839116
82	0x3d7bc914	0.06147106
83	0x3d44574e	0.047934823
84	0xbd80264c	-0.062573045
85	0x3e390b25	0.18070658
86	0x3ce3ede6	0.0278234
87	0xbe1a88f8	-0.15091312
88	0x3e4b20cb	0.19836728
89	0x3d7e9dd3	0.06216223
90	0x3e021c59	0.12706126
91	0xbd4541fb	-0.048158627
92	0x3d64cfb0	0.05586213
93	0xbdf920e2	-0.12164475
94	0x3c8886ce	0.016665842
95	0xbd6d5c07	-0.057949092
96	0x3c8945a0	0.016756833
97	0x3dbe1b01	0.09282494
98	0xbccfec62	-0.02538127
99	0xbc35c25b	-0.011093701
100	0xbc890e3d	-0.016730422
101	0xbe1247c4	-0.14285189
102	0x3c7877e8	0.015165307
103	0xbb12408c	-0.0022316305
104	0x3cf55732	0.029948805
105	0x3cf64e7a	0.030066717
106	0x3c54c74d	0.01298697
107	0x3dee4388	0.11633974
108	0xbc6b7777	-0.014371744
109	0xbd508638	-0.05090925
110	0xbddeb561	-0.10874439
111	0xbd8d0146	-0.068850085
112	0x3da102a5	0.078618325
113	0xbdd19884	-0.10234168
114	0x3b4914dd	0.0030682602
115	0xbd95fecc	-0.07323989
116	0xbc997b0f	-0.018735437
117	0x3c74e462	0.014947029
118	0x3d2a4e46	0.041578554
119	0x3ce1d4d1	0.0275673
120	0x3cba64e7	0.022753192
121	0xbca6e511	-0.0203729
122	0x3d76fd51	0.060300175
123	0x3dd3f7f1	0.103500254
124	0xbd6f6089	-0.058441672
125	0x3d426ad9	0.04746518
126	0xbdcb2e9c	-0.099209994
127	0xbdfdd472	-0.12394036
128	0xbc6295a9	-0.013829627
129	0xbd85eb8b	-0.06539067
130	0xbd813c28	-0.06310302
131	0x3d26e9ba	0.040750243
132	0xbd433dfe	-0.047666542
133	0xbcafac6a	-0.021444518
134	0xbd27fd16	-0.041012846
135	0x3d18983b	0.037254553
136	0xbe24c5c4	-0.16091067
137	0x3d9c3888	0.0762797
138	0x3d9a9085	0.07547096
139	0x3d76bc54	0.060238197
140	0xbdef5521	-0.11686159
141	0x3c370f60	0.011173099
142	0xbcacb1de	-0.021080907
143	0x3b88cd81	0.0041748886
144	0xbe3d896e	-0.18509457
145	0xbd3af91b	-0.04564772
146	0xbd90e5bf	-0.070750706
147	0xbe0ae5de	-0.1356425
148	0x3d966ecb	0.07345351
149	0xbe1c949f	-0.1529107
150	0xbdc8e987	-0.09810167
151	0x3ce78fc8	0.028266802
152	0x3e471d1e	0.19444701
153	0x3c81b652	0.015834007
154	0xbe126346	-0.14295682
155	0xbcd2fb77	-0.025754673
156	0x3deb3cbd	0.11486194
157	0xbdbb3c1a	-0.09142323
158	0xbda44f4c	-0.08022937
159	0x3e28c617	0.16481815
160	0x3d6fa42f	0.058506187
161	0x3c2a0922	0.010378154
162	0xbdb143db	-0.086555205
163	0xbd11934a	-0.035540856
164	0xbc703d26	-0.014663016
165	0xbd2e6c6c	-0.042583868
166	0x3dd63c06	0.10460667
167	0x3bbea4d4	0.005817989
168	0x3e1cbca3	0.15306334
169	0xbd82275e	-0.06355165
170	0xbd4a873d	-0.04944538
171	0xbd000431	-0.031253997
172	0xbda5f831	-0.081039794
173	0xbe5c3ffa	-0.2150878
174	0xbe008e4c	-0.12554282
175	0xbd52a8e8	-0.051430613
176	0x3d82a865	0.06379775
177	0xbdc94be9	-0.09828932
178	0x3d0f8fda	0.035049297
179	0xbdc9a585	-0.098460235
180	0xbe219ac7	-0.15781699
181	0xbe127fd0	-0.14306569
182	0xbd07a61a	-0.03311739
183	0x3cf016c9	0.02930774
184	0xbe05c189	-0.13062109
185	0x3c8a4726	0.01687963
186	0xbcfd6afb	-0.030934801
187	0x3db5269f	0.08845257
188	0xbdea0239	-0.11426205
189	0x3dc2e165	0.09515647
190	0xbd89ba7c	-0.06725022
191	0x3d7944e9	0.060856733
192	0xbd430cea	-0.047619738
193	0xbdabcafa	-0.08388324
194	0x3c84ecd1	0.016226204
195	0xbd800d99	-0.062525935
196	0xbe22be93	-0.15893011
197	0xbd5b2cfa	-0.05350969
198	0xbb109b5c	-0.0022065258
199	0x3d01eb8d	0.03171878
200	0xbd2e4ca1	-0.042553548
201	0x3e52cfbf	0.20587061
202	0xbd90a7f5	-0.07063285
203	0x3df3af58	0.118986785
204	0xbd794a30	-0.060861766
205	0xbe41a846	-0.18911847
206	0xbc6d2a2e	-0.014475388
207	0xbe214c56	-0.15751776
208	0x3dc8765a	0.09788199
209	0xbd9b118b	-0.075717054
210	0xbc095d06	-0.008383995
211	0xbcca3386	-0.024682771
212	0x3d5aa12b	0.053376358
213	0xbda152a0	-0.078770876
214	0xbde04041	-0.109497555
215	0xbdf3a2bf	-0.11896276
216	0x3df561e8	0.11981565
217	0xbdb1b78e	-0.086775884
218	0xbdcf1226	-0.101108834
219	0x3e07a548	0.13246644
220	0x3ded5a5c	0.115895
221	0xbdcf46df	-0.101209395
222	0x3bb86826	0.00562765
223	0x3d650f33	0.0559227
224	0x3e05eb9e	0.13078162
225	0xbe333262	-0.17499688
226	0x3de9ce25	0.11416272
227	0x3ca9a516	0.020708602
228	0xbd12fcfc	-0.035885796
229	0x3b268456	0.0025408468
230	0xbd5095fe	-0.050924294
231	0xbd17fa81	-0.037104134
232	0x3bea4b71	0.0071501066
233	0xbe09be95	-0.13451608
234	0xbb97ff71	-0.0046386053
235	0xbdabfa88	-0.083973944
236	0xbd30e13e	-0.043183558
237	0x3d8b0295	0.06787602
238	0x3c93eb68	0.018056586
239	0xbda0f426	-0.078590676
240	0x3d51be9e	0.051207177
241	0x3d544f11	0.051833216
242	0xbd320ba8	-0.043468148
243	0x3dc5a415	0.09650437
244	0x3ce7d468	0.028299525
245	0xbe09b763	-0.13448863
246	0xbde5b852	-0.11216797
247	0x3e0b7ad6	0.13621077
248	0x3df4461d	0.119274355
249	0x3d052f41	0.032515768
250	0x3df35cec	0.11882958
251	0xbd0c964e	-0.03432303
252	0x3ca0bf2b	0.019622406
253	0xbdb8a9d9	-0.09016771
254	0xbd8f0c6e	-0.06984793
255	0xbd8b3016	-0.06796281

network_body._body_endoder.seq_layers.2.bias f4 [128]
0	0x00000000	0.0
1	0x00000000	0.0
2	0x00000000	0.0
3	0x00000000	0.0
4	0x00000000	0.0
5	0x00000000	0.0
6	0x00000000	0.0
7	0x00000000	0.0
8	0x00000000	0.0
9	0x00000000	0.0
10	0x00000000	0.0
11	0x00000000	0.0
12	0x00000000	0.0
13	0x00000000	0.0
14	0x00000000	0.0
15	0x00000000	0.0
16	0x00000000	0.0
17	0x00000000	0.0
18	0x00000000	0.0
19	0x00000000	0.0
20	0x00000000	0.0
21	0x00000000	0.0
22	0x00000000	0.0
23	0x00000000	0.0
24	0x00000000	0.0
25	0x00000000	0.0
26	0x00000000	0.0
27	0x00000000	0.0
28	0x00000000	0.0
29	0x00000000	0.0
30	0x00000000	0.0
31	0x00000000	0.0
32	0x00000000	0.0
33	0x00000000	0.0
34	0x00000000	0.0
35	0x00000000	0.0
36	0x00000000	0.0
37	0x00000000	0.0
38	0x00000000	0.0
39	0x00000000	0.0
40	0x00000000	0.0
41	0x00000000	0.0
42	0x00000000	0.0
43	0x00000000	0.0
44	0x00000000	0.0
45	0x00000000	0.0
46	0x00000000	0.0
47	0x00000000	0.0
48	0x00000000	0.0
49	0x00000000	0.0
50	0x00000000	0.0
51	0x00000000	0.0
52	0x00000000	0.0
53	0x00000000	0.0
54	0x00000000	0.0
55	0x00000000	0.0
56	0x00000000	0.0
57	0x00000000	0.0
58	0x00000000	0.0
59	0x00000000	0.0
60	0x00000000	0.0
61	0x00000000	0.0
62	0x00000000	0.0
63	0x00000000	0.0
64	0x00000000	0.0
65	0x00000000	0.0
66	0x00000000	0.0
67	0x00000000	0.0
68	0x00000000	0.0
69	0x00000000	0.0
70	0x00000000	0.0
71	0x00000000	0.0
72	0x00000000	0.0
73	0x00000000	0.0
74	0x00000000	0.0
75	0x00000000	0.0
76	0x00000000	0.0
77	0x00000000	0.0
78	0x00000000	0.0
79	0x00000000	0.0
80	0x00000000	0.0
81	0x00000000	0.0
82	0x00000000	0.0
83	0x00000000	0.0
84	0x00000000	0.0
85	0x00000000	0.0
86	0x00000000	0.0
87	0x00000000	0.0
88	0x00000000	0.0
89	0x00000000	0.0
90	0x00000000	0.0
91	0x00000000	0.0
92	0x00000000	0.0
93	0x00000000	0.0
94	0x00000000	0.0
95	0x00000000	0.0
96	0x00000000	0.0
97	0x00000000	0.0
98	0x00000000	0.0
99	0x00000000	0.0
100	0x00000000	0.0
101	0x00000000	0.0
102	0x00000000	0.0
103	0x00000000	0.0
104	0x00000000	0.0
105	0x00000000	0.0
106	0x00000000	0.0
107	0x00000000	0.0
108	0x00000000	0.0
109	0x00000000	0.0
110	0x00000000	0.0
111	0x00000000	0.0
112	0x00000000	0.0
113	0x00000000	0.0
114	0x00000000	0.0
115	0x00000000	0.0
116	0x00000000	0.0
117	0x00000000	0.0
118	0x00000000	0.0
119	0x00000000	0.0
120	0x00000000	0.0
121	0x00000000	0.0
122	0x00000000	0.0
123	0x00000000	0.0
124	0x00000000	0.0
125	0x00000000	0.0
126	0x00000000	0.0
127	0x00000000	0.0

value_heads.value_heads.extrinsic.weight f4 [1, 128]
0	0x3e579ae2	0.21055177
1	0x3d1712c0	0.036883116
2	0x3dcff804	0.10154727
3	0x3dcf817c	0.10132119
4	0xbe12e60c	-0.14345568
5	0x3e575cce	0.21031496
6	0xbe246b85	-0.1605664
7	0xbe34ebe5	-0.17668112
8	0x3d2c2958	0.042031616
9	0x3d5d7b80	0.054072857
10	0xbe516c47	-0.20451461
11	0x3dd55300	0.104162216
12	0xbdd2d239	-0.10294003
13	0x3da2a174	0.07940951
14	0x3e08deea	0.13366285
15	0xbc0109a0	-0.00787583
16	0xbdb9642c	-0.090523094
17	0xbd01b690	-0.031668246
18	0xbda229ec	-0.07918152
19	0x3c39cdb0	0.011340544
20	0xbd9f59c2	-0.07780792
21	0x3e525726	0.20541057
22	0x3de0333c	0.10947272
23	0x3d6170a0	0.05503905
24	0x3d4d6498	0.05014476
25	0x3bdac480	0.0066762567
26	0x3e391ff4	0.18078595
27	0x3e47a23c	0.19495481
28	0x3e03883a	0.12844935
29	0xbe10238a	-0.14076057
30	0x3db1cd70	0.08681762
31	0x3e4161ae	0.18884918
32	0x3bf716e0	0.0075405687
33	0x3e08b62a	0.1335074
34	0x3df5e79c	0.120070666
35	0xbe07e486	-0.13270769
36	0xbce97b58	-0.028501198
37	0xbdda61a2	-0.10663153
38	0xbe4ab57a	-0.1979579
39	0x3e15901c	0.14605755
40	0xbca02c00	-0.01955223
41	0xbe4dc23c	-0.20093626
42	0xbb569900	-0.0032745004
43	0x3df18bc0	0.11794233
44	0xbe2ea3bb	-0.17054646
45	0xbd5d6e80	-0.05406046
46	0x3d1e2040	0.038604975
47	0xbd895068	-0.067047894
48	0xbe176f80	-0.14788628
49	0x3d21c5f8	0.03949544
50	0xbe155dce	-0.14586565
51	0x3e20470a	0.15652099
52	0xbd4af87c	-0.04955338
53	0xbd5518c4	-0.05202557
54	0x3d697790	0.05699879
55	0xbe0445d8	-0.12917268
56	0x3cc7b648	0.02437891
57	0xb9959000	-0.00028526783
58	0xbe326fbc	-0.17425436
59	0x3e15eeba	0.14641848
60	0xbe077764	-0.13229138
61	0xbd178c68	-0.036999136
62	0x3cd89d70	0.02644226
63	0xbdf3d915	-0.119066395
64	0x3c0b1960	0.008489937
65	0xbd199f6c	-0.037505552
66	0xbe4edcf9	-0.20201482
67	0xbe3c9124	-0.18414742
68	0x3b5277c0	0.0032114834
69	0xbdb294c2	-0.087197796
70	0xbda592bc	-0.08084628
71	0x399a8a00	0.00029475987
72	0xbdd0f555	-0.10203043
73	0xbe0b83f8	-0.13624561
74	0xbd1c7b88	-0.038203746
75	0xbe05e3a2	-0.13075116
76	0x3cd90c20	0.02649504
77	0xbccf1b20	-0.025281489
78	0xbdb448bc	-0.088029355
79	0xbdb3f382	-0.0878668
80	0xbe00fae5	-0.12595709
81	0xbda3fd98	-0.080073535
82	0xbe43fc34	-0.19139177
83	0x3c8e8880	0.017399073
84	0xbcbfa008	-0.023391739
85	0x3dd1e694	0.102490574
86	0x3e4fd75a	0.20296994
87	0x3d86781c	0.06565878
88	0xbe1d55dc	-0.15364784
89	0x3be6aa20	0.0070393234
90	0x3dfe2a90	0.12410462
91	0x3dbac42c	0.09119448
92	0xbcfb9f68	-0.03071566
93	0x3d0ee008	0.03488162
94	0xbe07ff60	-0.13281012
95	0xbd745b68	-0.059657484
96	0x3e0e92e8	0.13923228
97	0xbd4a9770	-0.04946083
98	0x3e320d54	0.17387897
99	0xbdc80438	-0.0976643
100	0xbe1a9d06	-0.15098962
101	0x3dfe1fcc	0.124084085
102	0x3e24f4b6	0.16108975
103	0xbd6ac70c	-0.057318732
104	0x3ca390c0	0.019966483
105	0xbe3b0b0c	-0.18265933
106	0x3e434fa2	0.19073346
107	0x3ca53090	0.020164758
108	0x3e408f20	0.18804598
109	0x3e26447c	0.16237062
110	0x3e11efce	0.14251634
111	0x3c7e9e70	0.015540704
112	0xbd4f1be4	-0.050563708
113	0xbe0375ca	-0.12837902
114	0x3ddd933c	0.10819098
115	0x3e1ebeaa	0.1550242
116	0x3e2e44ec	0.17018479
117	0xbe046b80	-0.12931633
118	0x3d837444	0.0641866
119	0xbe0a74ff	-0.13521193
120	0x3df7b598	0.12095183
121	0xbe05109c	-0.12994617
122	0x3bf56420	0.0074887425
123	0x3e1a2438	0.15052879
124	0xbc84d338	-0.016213998
125	0xbe3dd69f	-0.18538903
126	0x3dacbc84	0.08434394
127	0x3e02b326	0.12763652
