results/ppo/MoveToGoal/MoveToGoal-28612.pt (torch, 441305 bytes, 36 tensors)

network_body._body_endoder.seq_layers.0.weight f4 [128, 6]
-0.3457659 0.35522407 -0.14027625 0.08623078 0.071741745 0.11493752 -0.16013761 -0.23044166
-0.30364734 0.453296 -0.21168025 0.3508573 -0.35267362 0.2921257 0.016104061 0.28935766
-0.13843948 0.7207118 -0.392902 -0.5180683 0.2934641 -0.8899837 0.16281798 0.63198984
0.26922345 -0.21271989 0.05687614 -0.09471196 -0.42404032 0.89465994 0.0527835 0.3180986
-0.2265401 1.0605861 0.40185735 -0.20760584 0.011415273 0.06878255 -0.2588985 0.120736614
0.3332163 -0.6367772 0.5644606 -0.12847678 -0.16652541 -0.44035962 -0.33857957 -0.00083472003
0.28163466 0.3526131 0.6681602 0.6710131 -0.6115262 -0.14734799 0.3568289 0.43765846
-0.31671312 -0.2113113 -0.6723623 0.11305994 0.26816756 0.16907822 -0.11149826 0.43347186
0.26822472 -0.17670815 0.3272548 -0.6547801 -0.32320082 0.08383273 -0.13821363 0.01432016
-0.51449525 -0.32740423 -0.37240195 -0.29160956 0.6905813 -0.35676813 -0.71995115 0.024739875
0.42645252 0.13083437 0.24193844 -0.30672532 0.23633024 0.71888745 1.1032022 -0.016381102
-0.09555426 -0.15361872 -0.6390348 -0.53482026 -0.4886216 0.34033117 -0.6412114 0.39310253
-0.0040551256 0.38269624 -0.061202813 0.21916346 -0.5018085 0.72428286 -0.123194516 -0.47023204
0.09460222 -0.90669566 -0.08999743 -0.21371058 0.48249745 -0.8488606 -0.08899556 0.4774081
-0.35192677 0.23903552 0.049906775 -0.009812759 0.2747332 -0.04430906 0.16902962 0.07916268
0.35743803 -0.52969426 -0.020085633 0.43722633 -0.14209881 0.0486009 0.125447 -0.26227275
-0.35660493 -0.07526096 0.426846 0.29341695 -0.47715485 -0.2854107 -0.10468652 0.59927636
0.21641552 0.21343106 -0.46516204 -0.08322606 0.072100535 0.093112364 0.004762637 0.41421854
0.05113827 0.49045283 0.068965845 -0.036275815 0.14346181 -0.6497694 0.1351502 -0.15183783
0.47156012 0.3581982 0.36631575 -0.21648392 0.1789541 -0.21088913 -0.057768393 0.06423896
-0.26312265 0.23297846 0.63955253 0.19085146 0.52100575 0.11562529 0.018333312 0.57917744
0.8202039 0.10461976 0.65358835 -0.5256751 -0.21828406 -1.0681113 0.66368014 0.43954635
-0.20238496 0.013156069 -0.8893054 -0.3746643 0.00094094034 -0.14281328 0.26641738 -0.24426728
-0.11625069 0.36386916 -0.14183234 0.031295422 0.22664116 0.29181227 -0.39611018 0.16551083
0.44286302 -0.23975754 -0.07956908 -0.476208 0.02598439 -0.53964055 -0.5583744 0.67804813
0.1541836 -0.6108248 0.7982119 -0.11906291 0.55854475 0.20081988 0.32036617 0.050985735
-0.03219142 -0.5150557 0.10336083 0.9996576 0.12623765 0.044250075 -0.26825902 -0.4474854
-0.4480845 0.18875042 -0.04413226 0.3066142 0.23447314 0.18820858 -0.6493199 -0.13111135
0.719427 0.6119876 -0.7352939 0.98439986 -0.32478678 0.041740462 0.32597756 0.10045361
-0.65824574 0.23948093 0.16577174 -0.24629089 0.0037051656 0.32544324 -0.11011553 0.55556893
0.084759615 -0.3353659 -0.3655042 -0.28734782 0.0582406 -0.73538876 -0.009199987 -0.4442573
-0.5433634 0.07929201 -0.1593329 0.7852152 -0.43829155 0.07765247 -0.0879451 0.03208906
00000000: 3a08 b1be eedf b53e 94a4 0fbe c399 b03d
00000010: 56ed 923d 5d64 eb3d 1dfb 23be e6f8 6bbe
00000020: aa77 9bbe 6a16 e83e b5c2 58be 91a3 b33e
00000030: a391 b4be 8091 953e aaec 833c b026 943e
00000040: 14c3 0dbe 9280 383f 732a c9be 20a0 04bf
00000050: ed40 963e f9d5 63bf c2b9 263e 16ca 213f
00000060: a8d7 893e 3ed3 59be f5f6 683d 58f8 c1bd
00000070: d01b d9be 6f08 653f 8333 583d d2dd a23e
00000080: 21fa 67be 49c1 873f 3fc0 cd3e a096 54be
00000090: 2007 3b3c dedd 8c3d 588e 84be c244 f73d
000000a0: 549b aa3e d503 23bf 7d80 103f 6b8f 03be
000000b0: a385 2abe d176 e1be 4d5a adbe 1dd1 5aba
000000c0: 6b32 903e b489 b43e 8c0c 2b3f 84c7 2b3f
000000d0: fb8c 1cbf 64e2 16be 47b2 b63e c514 e03e
000000e0: 3928 a2be fd61 58be f01f 2cbf f88b e73d
000000f0: 424d 893e d722 2d3e 3359 e4bd 06f0 dd3e
00000100: c054 893e fbf2 34be f18d a73e ab9f 27bf
00000110: 947a a5be 7fb0 ab3d e087 0dbe 1b9f 6a3c
00000120: f6b5 03bf 87a1 a7be 78ab bebe d94d 95be
00000130: f0c9 303f 50aa b6be b84e 38bf 47ab ca3c
00000140: fc57 da3e 72f9 053e b6be 773e 1a0b 9dbe
00000150: 8e00 723e 0209 383f bb35 8d3f a931 86bc
00000160: f4b1 c3bd 3a4e 1dbe c997 23bf fbe9 08bf
00000170: 9c2c fabe e33f ae3e 6e26 24bf bc44 c93e
00000180: dce0 84bb c3f0 c33e cdaf 7abd 636c 603e
00000190: 8676 00bf 9a6a 393f 684d fcbd 41c2 f0be
000001a0: cfbe c13d 351d 68bf 9350 b8bd f2d6 5abe
000001b0: e809 f73e ee4e 59bf 4e43 b6bd d66e f43e
000001c0: bf2f b4be bac5 743e 0c6b 4c3d b2c5 20bc
000001d0: d4a9 8c3e 6b7d 35bd 1a16 2d3e 0b20 a23d
000001e0: 1e02 b73e 0b9a 07bf a08a a4bc 21dc df3e
000001f0: 5a82 11be bd11 473d 2e75 003e 9d48 86be
00000200: ec94 b6be 6b22 9abd 8f8b da3e bf3a 963e
00000210: a44d f4be 5a21 92be e365 d6bd 2d6a 193f
00000220: 089c 5d3e ac8d 5a3e b829 eebe 6d72 aabd
00000230: 72a9 933d b2b1 be3d e50f 9c3b 7414 d43e
00000240: 5d76 513d a21c fb3e f73d 8d3d f395 14bd
00000250: a7e7 123e 4a57 26bf d064 0a3e 607b 1bbe
00000260: 5470 f13e c165 b73e bd8d bb3e f6ad 5dbe
00000270: be3f 373e 52f3 57be 8d9e 6cbd b78f 833d
00000280: 03b8 86be e891 6e3e b7b9 233f 916e 433e
00000290: a260 053f f4cc ec3d be2f 963c f944 143f
000002a0: e2f8 513f e242 d63d 9151 273f a592 06bf
000002b0: db85 5fbe dfb7 88bf f1e6 293f 380c e13e
000002c0: 013e 4fbe 8e8c 573c 85a9 63bf 00d4 bfbe
000002d0: 70a9 763a a53d 12be dc67 883e 3421 7abe
000002e0: d714 eebd 0f4d ba3e 7f3c 11be a12f 003d
000002f0: 9f14 683e 6b68 953e f4ce cabe ac7b 293e
00000300: f1be e23e 0083 75be 1df5 a2bd 89d1 f3be
00000310: 37dd d43c e225 0abf a0f1 0ebf 9094 2d3f
00000320: 4ee2 1d3e 045f 1cbf 9d57 4c3f 41d7 f3bd
00000330: cafc 0e3f baa3 4d3e 0907 a43e 6bd6 503d
00000340: 27db 03bd b1da 03bf d8ae d33d 8fe9 7f3f
00000350: 7144 013e 913f 353d 3f59 89be ce1c e5be
00000360: 556b e5be ca47 413e 07c4 34bd 89fc 9c3e
00000370: ba19 703e c0b9 403e d439 26bf 0e42 06be
00000380: 5e2c 383f 38ab 1c3f 393c 3cbf a101 7c3f
00000390: 744a a6be 0cf8 2a3d 88e6 a63e 9fba cd3d
000003a0: cb82 28bf 7d3a 753e 11c0 293e ae33 7cbe
000003b0: 5dd2 723b 7fa0 a63e 4084 e1bd c439 0e3f
000003c0: 7396 ad3d 14b5 abbe 5e23 bbbe 411f 93be
000003d0: b28d 6e3d 7042 3cbf 8bbb 16bc b175 e3be
000003e0: dd19 0bbf d963 a23d 2a28 23be dd03 493f
000003f0: c067 e0be 4208 9f3d 901c b4bd d16f 033d

network_body._body_endoder.seq_layers.0.bias f4 [128]
-0.00058503187 -0.0002318469 -0.00088994537 0.005077744 -0.00078352605 -0.0028261226 0.0021868043 0.00025584537
0.0012269978 0.0012614701 -0.0015259123 0.0016966665 0.00024183992 0.00086753274 0.00042717045 0.0010767288
-0.00071394234 -0.0020765923 0.0006038252 -0.000801508 0.00032951823 -0.0031278594 0.00076425535 0.00070518226
0.0015055536 9.262329e-05 -0.00041429588 0.00037893243 0.0016362122 -0.0041414914 -0.0035084959 0.00015140373
-0.00039773778 0.00035905556 -4.9561928e-05 0.0004064461 -0.00061803 0.0026389284 0.0007471545 0.0012489186
-0.0003857178 -0.0010852958 0.0001557251 -0.00093885115 -0.0007501224 0.0006798489 -0.00012363747 0.0023109964
-2.018133e-05 -0.00060053554 -0.0009847875 0.00016225035 -0.0012354759 0.0012417763 -0.0010393532 0.001539418
0.0015373656 -1.849603e-06 0.00022609715 -0.0028081192 0.0007800863 1.5301e-05 -0.0005276488 -3.091323e-05
-0.00069671404 0.0021565491 0.00060808053 -0.0027018376 -0.0018794951 -0.0025805563 0.0013409638 0.001635691
0.00024102826 0.00043281622 0.00031570802 -0.00083673885 0.00022359451 0.0024380686 3.2833283e-05 0.0021347976
-0.00062923983 0.0030735827 0.0011998919 -0.005313212 0.00032762074 -0.0027478668 0.0025480667 -0.0014741368
-0.00076136104 -0.002604607 -0.00035676456 0.0041388273 -0.0011371119 0.0041722283 -0.0042749243 -4.635054e-06
-0.0017594366 0.0031846103 -0.0008440202 -0.0013917765 -0.0012793711 -0.0005486703 0.00083573157 -0.0012259318
-0.00052676257 0.0003390821 0.00013282834 0.0011172739 -0.0026050182 0.00036787576 0.0004977151 0.0029216695
0.0022856614 0.0016394833 -0.0018526519 -0.00013193005 0.00068047986 7.0159775e-05 -0.0014982795 0.0024262741
-0.0015504588 -0.0015756605 0.00026328335 -0.0018324597 -0.00038123384 -0.001208304 -0.0011674389 3.953537e-05
00000000: d35c 19ba ee1b 73b9 394b 69ba 3463 a63b
00000010: 8b65 4dba 7836 39bb 7d50 0f3b fc22 8639
00000020: 37d3 a03a ea57 a53a 1f01 c8ba ae62 de3a
00000030: 6996 7d39 236b 633a d9f5 df39 0621 8d3a
00000040: dc27 3bba 7017 08bb 064a 1e3a 4b1c 52ba
00000050: 30c3 ac39 c6fc 4cbb 4f58 483a fbdb 383a
00000060: ff55 c53a c03e c238 da35 d9b9 73ab c639
00000070: 2c76 d63a 59b5 87bb cbee 65bb 21c2 1e39
00000080: 7687 d0b9 9f3f bc39 b7e0 4fb8 4618 d539
00000090: 4b03 22ba dff1 2c3b b1dc 433a c1b2 a33a
000000a0: 2b3a cab9 7c40 8eba 234a 2339 3c1d 76ba
000000b0: dda3 44ba e337 323a aea4 01b9 1674 173b
000000c0: 134b a9b7 426d 1dba fc13 81ba bf21 2a39
000000d0: b1ef a1ba 19c3 a23a e83a 88ba 4cc6 c93a
000000e0: 6e81 c93a e03f f8b5 7e14 6d39 6c08 38bb
000000f0: b57e 4c3a a65a 8037 e951 0aba d4a8 01b8
00000100: b0a3 36ba e454 0d3b 9867 1f3a 5011 31bb
00000110: 6459 f6ba 8d1e 29bb 47c3 af3a af64 d63a
00000120: 88bc 7c39 9ceb e239 9d85 a539 9858 5bba
00000130: b274 6a39 01c8 1f3b 78b6 0938 f6e7 0b3b
00000140: 92f3 24ba 296e 493b b145 9d3a 741a aebb
00000150: 83c4 ab39 8e15 34bb 77fd 263b d337 c1ba
00000160: 1396 47ba 0eb2 2abb 210c bbb9 009f 873b
00000170: 250b 95ba 30b7 883b aa14 8cbb d086 9bb6
00000180: e59c e6ba e5b4 503b 3d41 5dba 456c b6ba
00000190: 92b0 a7ba a4d4 0fba ff14 5b3a 72af a0ba
000001a0: 7016 0aba d4c6 b139 d647 0b39 7e71 923a
000001b0: f4b8 2abb 73df c039 1879 023a 7b79 3f3b
000001c0: 09cb 153b eee3 d63a afd4 f2ba b456 0ab9
000001d0: 3b62 323a be22 9338 eb61 c4ba 2002 1f3b
000001e0: c438 cbba 6586 ceba 4b09 8a39 252f f0ba
000001f0: 57e0 c7b9 f45f 9eba c004 99ba c8d2 2538

network_body._body_endoder.seq_layers.2.weight f4 [128, 128]
-0.066462636 -0.067611836 0.041479807 0.06011069 0.06401005 0.15915482 0.0611356 0.06420434
0.12499829 0.108086176 0.042643342 -0.16726868 0.111549504 -0.026432268 0.17834106 -0.02751739
-0.21405391 -0.06335097 0.046079855 0.031229803 0.017498806 0.08145299 0.04308385 0.039032873
0.122766696 0.024357982 -0.10505947 0.09001469 -0.05639987 0.1647177 0.1398312 0.06682
0.049070735 -0.0670854 0.18069471 0.032427616 -0.07812229 -0.055441063 -0.05384328 -0.01921375
-0.14377747 -0.01778594 0.0574834 -0.005972351 0.068649694 0.005562099 0.14529653 0.010598121
-0.067195944 -0.14090158 -0.17862947 -0.044168003 -0.09929777 -0.038205255 -0.096684724 0.15829745
-0.15542941 -0.16434933 -0.079667404 -0.1446103 0.002146711 0.104305446 -0.03495271 -0.04116621
-0.031909205 0.111118995 -0.077765845 0.05345492 0.020901784 0.028851217 -0.08583412 -0.037195753
0.007466443 -0.056886386 0.060277928 0.04195182 -0.04179417 0.0030494276 -0.027555496 0.07074726
-0.033634298 0.14352806 0.04065053 0.05153521 0.03718222 -0.081890866 0.060696527 -0.09279677
-0.08190155 0.046573136 0.08970318 0.1227095 0.03231732 -0.043219905 -0.051046904 -0.035513245
-0.104086824 -0.042446505 0.070410155 0.005328465 -0.07483955 -0.116457626 -0.099294394 0.07713964
-0.03142072 0.13865213 0.026386725 0.16574128 -0.027264956 0.0069748936 -0.08050114 -0.07389675
-0.088167556 0.1266531 0.03179456 0.16861726 0.03579263 0.08823245 0.03632788 5.1323637e-05
0.0015798962 0.004086303 -0.06308434 0.024349215 0.017298644 0.038917806 -0.0710037 0.0038905155
-0.10312998 -0.08910946 0.03210876 -0.108141094 0.05420232 0.074972294 0.018808268 0.09108558
-0.012580492 0.040946633 0.20837529 -0.17210223 -0.03231311 -0.08557723 -0.022761283 -0.003674817
-0.24178544 -0.0012589082 0.10209832 -0.060359158 -0.11710772 0.06210846 -0.08521944 -0.045623746
0.020932997 -0.21995087 -0.070509136 -0.06220238 0.02773028 -0.031569302 0.13680269 -0.02752162
0.14618798 0.06824396 0.0127378395 -0.019756978 0.14530614 -0.0063472297 0.03211841 0.024553012
0.043291874 -0.08658022 -0.051638786 -0.023674006 0.16763882 0.07084202 0.059762325 0.015240157
-0.041454837 0.08019631 -0.005008249 0.039879374 -0.03372808 0.017586615 0.13468105 -0.15835702
-0.14237037 0.050968204 0.15516236 -0.20669967 -0.055172447 0.08537905 -0.10518103 -0.17774963
0.0062288456 -0.00551321 -0.046872005 0.10928802 -0.10055691 -0.07554611 -0.03113447 -0.0011299276
0.07567085 0.03983298 0.084926985 0.1187669 -0.02381286 0.025923168 -0.00078442437 -0.08942537
0.06922578 -0.34304547 0.022802405 0.021144498 0.14284176 0.08992695 0.081472486 -0.022039367
-0.045358967 0.13308087 0.040845796 0.021513151 -0.018376805 -0.015530212 0.06652084 0.23671533
0.17676236 -0.053517215 -0.047439482 -0.0966123 0.17711732 0.00055745925 0.025590012 0.2185262
0.07681135 0.08369644 0.039730582 -0.12731819 -0.027181389 0.016787497 -0.004481074 -0.16363144
-0.019157125 -0.15902723 -0.04089101 -0.1528334 0.098557316 0.018961959 0.049900353 0.15186727
0.050762977 0.0741684 0.037641402 0.064899206 -0.018382376 0.015717875 0.011993949 0.030616863
00000000: 901d 88bd 1378 8abd bbe6 293d a036 763d
00000010: b317 833d 7bf9 223e 5369 7a3d 917d 833d
00000020: 1aff ff3d 495c dd3d c9aa 2e3d 7b48 2bbe
00000030: 1174 e43d 7c88 d8bc 0a9f 363e 266c e1bc
00000040: f330 5bbe 27be 81bd 3bbe 3c3d a5d5 ff3c
00000050: a859 8f3c d3d0 a63d b178 303d efe0 1f3d
00000060: 1b6d fb3d 648a c73c 6b29 d7bd 9f59 b83d
00000070: 8d03 67bd c2ab 283e e92f 0f3e edd8 883d
00000080: 65fe 483d 1264 89bd 0908 393e d2d2 043d
00000090: 94fe 9fbd 2b16 63bd c58a 5cbd 2766 9dbc
000000a0: 673a 13be d2b3 91bc b773 6b3d b6b3 c3bb
000000b0: 3698 8c3d 4542 b63b 9dc8 143e bea3 2d3c
000000c0: 079e 89bd 8148 10be a5ea 36be 82e9 34bd
000000d0: a15c cbbd 1d7d 1cbd a402 c6bd ba18 223e
000000e0: e328 1fbe 314b 28be aa28 a3bd b914 14be
000000f0: d6af 0c3b 189e d53d 932a 0fbd e69d 28bd
00000100: 3ab3 02bd 5b92 e33d b343 9fbd 8cf3 5a3d
00000110: 383a ab3c 6359 ec3c cdc9 afbd 935a 18bd
00000120: 10a9 f43b b301 69bd fde5 763d acd5 2b3d
00000130: 5d30 2bbd e8d8 473b 10bc e1bc f0e3 903d
00000140: 1ec4 09bd 05f9 123e 2c81 263d 9616 533d
00000150: 624c 183d 66b6 a7bd ec9c 783d 3c0c bebd
00000160: 00bc a7bd 79c3 3e3d 4db6 b73d 1e4f fb3d
00000170: 2b5f 043d 5b07 31bd 8f16 51bd 5676 11bd
00000180: 792b d5bd 63dc 2dbd 3333 903d 679a ae3b
00000190: 7a45 99bd 5681 eebd dc5a cbbd 63fb 9d3d
000001a0: 03b3 00bd d3fa 0d3e f928 d83c 15b8 293e
000001b0: c25a dfbc a68d e43b c8dd a4bd 2e57 97bd
000001c0: 3191 b4bd 5ab1 013e 033b 023d 01aa 2c3e
000001d0: 4b9b 123d 37b3 b43d 8bcc 143d 5644 5738
000001e0: 8514 cf3a 65e6 853b 5d32 81bd 0178 c73c
000001f0: e3b5 8d3c 4768 1f3d 636a 91bd 05f8 7e3b
00000200: d035 d3bd 057f b6bd 7a84 033d 1479 ddbd
00000210: 4003 5e3d 138b 993d cc13 9a3c 148b ba3d
00000220: 681e 4ebc a8b7 273d 5560 553e 913b 30be
00000230: c05a 04bd 1d43 afbd df75 babc 33d5 70bb
00000240: 9a96 77be f301 a5ba ed18 d13d 2a3b 77bd
00000250: 2cd6 efbd 7165 7e3d 8887 aebd f7df 3abd
00000260: ad7b ab3c cd3a 61be 1867 90bd ecc7 7ebd
00000270: 9d2a e33c d04e 01bd 0116 0c3e 0575 e1bc
00000280: 4db2 153e 7dc3 8b3d 5fb2 503c 63d9 a1bc
00000290: 22cb 143e 6cfc cfbb 988e 033d 6623 c93c
000002a0: d252 313d f850 b1bd 3183 53bd fdef c1bc
000002b0: 83a9 2b3e 9f15 913d 57c9 743d dab1 793c
000002c0: 8ccc 29bd f73d a43d 3d1c a4bb 8e58 233d
000002d0: 7526 0abd ce11 903c d4e9 093e 5828 22be
000002e0: 8ac9 11be 09c4 503d e2e2 1e3e 14a9 53be
000002f0: 81fc 61bd 36db ae3d 2769 d7bd 0004 36be
00000300: 581b cc3b 28a8 b4bb dcfc 3fbd 66d2 df3d
00000310: c8f0 cdbd ebb7 9abd b70d ffbc 141a 94ba
00000320: 52f9 9a3d e827 233d 33ee ad3d 0f3c f33d
00000330: 3013 c3bc d35c d43c d4a1 4dba a624 b7bd
00000340: 3fc6 8d3d a8a3 afbe 1ccc ba3c 3a37 ad3c
00000350: 1c45 123e 9f2b b83d 0cdb a63d e78b b4bc
00000360: 53ca 39bd 5a46 083e ec4d 273d 593c b03c
00000370: f48a 96bc 6e72 7ebc 143c 883d 8165 723e
00000380: 3101 353e de34 5bbd e74f 42bd abdc c5bd
00000390: 3e5e 353e 7522 123a 25a2 d13c 55c5 5f3e
000003a0: 454f 9d3d 0a69 ab3d 89bc 223d b35f 02be
000003b0: 81ab debc ef85 893c f9d5 92bb 008f 27be
000003c0: 67ef 9cbc 09d8 22be 557d 27bd 5c80 1cbe
000003d0: 6bd8 c93d 1c56 9b3c 5064 4c3d 1883 1b3e
000003e0: d7ec 4f3d 9ae5 973d df2d 1a3d e0e9 843d
000003f0: a396 96bc c6c2 803c 4582 443c 37d0 fa3c

network_body._body_endoder.seq_layers.2.bias f4 [128]
0.0006784109 -0.0014803524 -0.0014629983 7.228934e-05 -0.0019069742 0.0009199501 -0.0007468227 0.00043349474
0.00017902155 -0.001969992 0.0014412287 -0.00083860307 -0.003071637 0.0007689007 -7.170773e-05 0.00046015932
-0.0007287217 0.0020834072 -0.0011148384 -0.00073626573 4.0850435e-05 0.0019928096 0.0015987573 -0.0023469971
0.0010106086 0.00034312508 0.0023092981 0.0017557386 -0.0012182569 0.0018046374 -0.00091155584 -0.00086006714
-0.00046681505 -0.0022735312 -0.0006038242 0.00018157563 0.0012396744 -0.002200186 0.00054560555 0.00080215815
-0.0016552464 -0.000997249 -0.0006294696 0.0012523293 0.0003918063 -0.001054901 -0.0015638629 0.0005273286
-0.0037781717 -0.0003782147 0.001087059 0.0020179206 -0.00044076485 -0.0015409328 0.00035969968 -0.002308703
0.00034870085 0.0034318585 7.9677135e-05 -0.0009204482 0.0012000628 -0.0010199778 0.00069614046 -0.00025779795
-0.00057705597 -0.00023220935 -0.0021739507 -0.0011987536 0.0019201894 0.0005065396 -0.0005276607 -0.00032695645
-0.0005145036 0.00015749154 -0.0012541504 -0.0008343312 -0.0006143566 0.00094538357 -0.00040651948 -0.0048204735
-0.0012352463 0.00068645796 7.301074e-05 0.0013310987 0.0007697715 0.00011053321 -0.00016582155 -0.0009974311
-0.00029212466 -3.1971373e-05 0.0006918179 0.0020920986 -0.004338325 -0.00092055905 -4.430683e-05 -0.0007730573
0.0013483802 -0.0009163597 -0.00045188898 -0.00096452923 -0.00017084749 -0.0019931283 -0.0007485875 -0.0004961655
-0.0011321842 0.00047045448 0.00044843997 -0.0010078115 -0.00059385813 0.001792392 -0.0014716493 -0.0005045426
-0.0016479885 0.00014783826 0.0008457518 -0.0001905153 0.0006145459 0.0002287429 0.00068125414 0.0005572508
-0.00073335326 0.00019211957 0.0007426063 -0.0038442134 -0.0017273128 -0.0010860461 0.0003172183 -0.00023151845
00000000: 63d7 313a 6208 c2ba 14c2 bfba 0b9a 9738
00000010: 70f3 f9ba ce28 713a 6cc6 43ba ae46 e339
00000020: bbb7 3b39 fb1a 01bb 9ce7 bc3a b3d5 5bba
00000030: 844d 49bb 0d90 493a cb61 96b8 8a41 f139
00000040: af07 3fba c689 083b c51f 92ba f501 41ba
00000050: d256 2b38 cc99 023b 658d d13a 14d0 19bb
00000060: 6676 843a 78e5 b339 9857 173b d020 e63a
00000070: ebad 9fba 9589 ec3a 7af5 6eba 2176 61ba
00000080: dbbe f4b9 86ff 14bb f549 1eba 5665 3e39
00000090: 927c a23a ff30 10bb f806 0f3a ec47 523a
000000a0: daf4 d8ba 20b6 82ba fd02 25ba 3325 a43a
000000b0: 5a6b cd39 9b44 8aba 88fa ccba 6c3c 0a3a
000000c0: 349b 77bb 1e4b c6b9 a67b 8e3a 173f 043b
000000d0: 7516 e7b9 20f9 c9ba 1396 bc39 9c4d 17bb
000000e0: d6d1 b639 08e9 603b 5618 a738 3c4a 71ba
000000f0: 6d4b 9d3a c7b0 85ba 327d 363a 0e29 87b9
00000100: 9245 17ba 397d 73b9 d778 0ebb 7f1f 9dba
00000110: ddae fb3a 4cc9 043a b652 0aba 5a6b abb9
00000120: c1df 06ba 5024 2539 4e62 a4ba 05b7 5aba
00000130: c60c 21ba 9ed3 773a 1f22 d5b9 10f5 9dbb
00000140: fde7 a1ba 6af3 333a 581d 9938 4378 ae3a
00000150: 7eca 493a 11ce e738 62e0 2db9 3cbc 82ba
00000160: 4f28 99b9 0019 06b8 1d5b 353a 971b 093b
00000170: 8228 8ebb ac51 71ba 19d6 39b8 ffa6 4aba
00000180: 22bc b03a dc37 70ba 83eb ecb9 76d8 7cba
00000190: 8625 33b9 259f 02bb db3c 44ba 1a11 02ba
000001a0: cc65 94ba 55a7 f639 981c eb39 8b18 84ba
000001b0: 25ad 1bba b2ee ea3a 5be4 c0ba 4843 04ba
000001c0: 5101 d8ba 0805 1b39 71b5 5d3a 10c5 47b9
000001d0: 7a19 213a b4da 6f39 3196 323a 7814 123a
000001e0: 813e 40ba b473 4939 77ab 423a 33ef 7bbb
000001f0: 0067 e2ba a959 8eba 5250 a639 c3c3 72b9

action_model._continuous_distribution.log_sigma f4 [1, 2]
0.0010792975 0.006002168
00000000: 3777 8d3a d6ad c43b

action_model._continuous_distribution.mu.weight f4 [2, 128]
-0.042652696 0.02252448 0.0074326303 -0.0043598968 -0.009653458 -0.002709666 0.0073723868 -0.004960153
-0.00010313619 0.017225802 -0.006299464 0.029170664 0.001367667 -0.031274606 -0.019072266 0.02968234
-0.005459848 -0.0074681696 -0.030233843 0.008044366 -0.011969157 0.011109303 0.017307993 0.013109203
-0.004605388 0.018659672 0.009201053 -0.014134425 0.0021861943 -0.015754381 0.010658205 -0.02775615
0.0062847366 0.03888398 0.024427943 -0.0024739862 -0.015427016 0.020323196 0.0028100365 -0.016134877
-0.009295085 0.0074779917 0.046245508 0.036606207 0.022921555 -0.01046376 0.005013869 -0.0044364952
-0.007979915 -9.565557e-05 -0.021792972 0.020733956 -0.0012540921 -0.0010962548 -0.009188028 0.003665963
0.004820114 0.0003377454 -0.0069305943 0.016099416 -0.019497475 0.002020292 -0.004360951 0.0045196093
0.01169346 -0.0031238687 -0.001054398 0.004066015 -0.024101947 -0.016911805 -0.005923854 0.008431144
-0.017416878 0.016764382 0.018787831 0.013021886 0.020568883 0.025354752 -0.0054996074 -0.006892611
0.0058526136 0.0005086442 -0.009901162 0.021010231 0.03977086 -0.0054274155 -0.0022969008 0.04195175
0.010154818 -0.005191839 -0.013176743 0.006477022 -0.015898153 -0.017768802 -0.004006063 0.017535064
-0.00035619538 0.030382538 0.007460804 0.014085337 0.003557633 -0.0012273092 0.012887897 -0.02319103
-0.004279461 -0.017195644 -0.016984642 0.00018655676 -0.0028369739 -0.03546535 -0.022194982 -0.008911689
0.03071005 0.00064505124 -0.01378846 0.0020853262 -0.0408134 -0.017933369 -0.031180736 -0.009121967
0.011874676 -0.0035784903 -0.01955122 1.145764e-05 -0.02112651 0.0070823515 -0.018796999 0.007294415
0.025547503 -0.00697398 0.009014729 -0.016692711 0.0010151487 0.0164713 0.009946631 -0.017154707
0.03262671 0.0035700484 0.0077571976 -0.01923502 -0.0033916265 0.013243834 0.0031658208 0.004667934
0.015867425 0.0010921743 0.0025626917 -0.00837401 -0.015351769 0.036431685 0.012831556 -0.005493246
-0.011202557 -0.0051103923 -0.02062992 -0.01847788 -0.0015824866 -0.007502724 -0.018678932 0.028206652
-0.02516274 -0.0034468526 0.0044595995 -0.022059953 0.0060295155 -0.0011640884 -0.010944209 -0.016012091
-0.0009768173 0.0033785824 -0.010228325 -0.010500412 0.020004481 0.02057074 0.011146893 0.010082707
-0.03128145 0.008405315 -0.029631212 -0.031125955 0.0033161587 -0.03425949 -0.004974674 0.0004171675
0.006499602 0.01865172 -0.024023576 -0.006514688 0.014879212 -0.012195977 0.025897771 -0.039670605
-0.021740807 -0.026436914 0.006655106 0.0076727537 -0.010558697 0.017378522 -0.005723721 0.01022094
-0.0048443493 0.02594796 -0.015405954 -0.013788074 -0.0020864801 -0.0058619427 -0.037017353 0.015132283
0.004065283 0.018837428 -0.01602123 0.0010637739 0.009661496 0.012516821 -0.0150195025 0.0076352432
-0.012289538 -0.022831915 0.02355722 0.010075572 -0.0022903532 -0.029835531 0.03545189 0.022658348
-0.0068788687 -0.019632973 0.014553239 -0.0023151063 0.010238805 0.012346798 -0.034896027 -0.020879649
-0.013140199 0.046116754 0.008263725 0.0386814 0.01793182 0.011268629 -0.047442995 0.024048474
-0.0047095767 0.012965446 -0.0022883331 0.022976426 0.0026637882 -0.028647413 0.0065737297 0.0037683109
0.012597457 -0.024128323 0.056125935 -0.022193955 -0.021858921 0.003167162 0.04060921 -0.0021904225
00000000: 98b4 2ebd 4285 b83c 6c8d f33b 77dd 8ebb
00000010: 8a29 1ebc a794 31bb 1094 f13b c788 a2bb
00000020: d24a d8b8 201d 8d3c bc6b cebb 51f7 ee3c
00000030: 4a43 b33a cd19 00bd 713d 9cbc 6128 f33c
00000040: 86e8 b2bb 8cb7 f4bb f7ac f7bc 84cc 033c
00000050: 481a 44bc cb03 363c 7ec9 8d3c fcc7 563c
00000060: cbe8 96bb 2bdc 983c 03c0 163c 1394 67bc
00000070: 4146 0f3b 550f 81bc c09f 2e3c de60 e3bc
00000080: 31f0 cd3b cf44 1f3d 1c1d c83c 9a22 22bb
00000090: 98c1 7cbc d57c a63c 9728 383b 4a2d 84bc
000000a0: 6a4a 18bc f109 f53b ee6b 3d3d 64f0 153d
000000b0: fcc5 bb3c 3170 2bbc 624b a43b 0560 91bb
000000c0: 30be 02bc b19a c8b8 2d87 b2bc 42da a93c
000000d0: 5960 a4ba 35b0 8fba 6289 16bc a740 703b
000000e0: 0cf2 9d3b 6c13 b139 0a1a e3bb ece2 833c
000000f0: 2bb9 9fbc e066 043b 4fe6 8ebb 3b19 943b
00000100: ed95 3f3c d2b9 4cbb ba33 8aba 353c 853b
00000110: 7271 c5bc a08a 8abc e41c c2bb c822 0a3c
00000120: d7ad 8ebc 7555 893c f0e8 993c c059 553c
00000130: 1380 a83c c5b4 cf3c 0d36 b4bb 69db e1bb
00000140: 48c7 bf3b 8956 053a 7c38 22bc a61d ac3c
00000150: c5e6 223d 76d8 b1bb 9a87 16bb 99d5 2b3d
00000160: 6560 263c 4d20 aabb 44e3 57bc 333d d43b
00000170: d83c 82bc e18f 91bc 4b45 83bb b2a5 8f3c
00000180: bcbf bab9 cde4 f83c c379 f43b 2fc6 663c
00000190: 2d27 693b aadd a0ba c227 533c 1dfb bdbc
000001a0: b93a 8cbb e1dd 8cbc 6023 8bbc 739e 4339
000001b0: 86ec 39bb 1d44 11bd 40d2 b5bc 5502 12bc
000001c0: a593 fb3c a818 293a fee8 61bc f8a9 083b
000001d0: f42b 27bd 00e9 92bc be6e ffbc 4d74 15bc
000001e0: 008e 423c 1b85 6abb e129 a0bc 303a 4037
000001f0: 8111 adbc 1213 e83b 2afc 99bc fd05 ef3b
00000200: ff48 d13c fc85 e4bb 84b2 133c 27bf 88bc
00000210: bd0e 853a d2ee 863c 32f7 223c 0788 8cbc
00000220: 96a3 053d 79f7 693b 1730 fe3b c392 9dbc
00000230: 0d46 5ebb aafc 583c a979 4f3b 78f5 983b
00000240: 67fc 813c 4a27 8f3a d5f2 273b 2533 09bc
00000250: fc85 7bbc 6439 153d 723b 523c b000 b4bb
00000260: ee8a 37bc 1475 a7bb 1400 a9bc ec5e 97bc
00000270: 706b cfba 69d9 f5bb 8f04 99bc a311 e73c
00000280: 1722 cebc 97e4 61bb d521 923b 13b7 b4bc
00000290: 3e93 c53b 5394 98ba 574f 33bc ca2b 83bc
000002a0: 8d08 80ba 356b 5d3b b494 27bc ec09 2cbc
000002b0: 70e0 a33c f883 a83c 75a1 363c f031 253c
000002c0: fa20 00bd 72b6 093c 28bd f2bc dcfb febc
000002d0: e953 593b ae53 0cbd 9702 a3bb 46b7 da39
000002e0: 9dfa d43b 7ecb 983c 17cd c4bc 2a79 d5bb
000002f0: f0c7 733c a3d1 47bc 9027 d43c a57d 22bd
00000300: c719 b2bc 3a92 d8bc 1313 da3b b96b fb3b
00000310: 63fe 2cbc 675d 8e3c 0d8e bbbb bb75 273c
00000320: 59bd 9ebb d190 d43c 4169 7cbc 60e7 61bc
00000330: 54bd 08bb 8a15 c0bb 829f 17bd 65ed 773c
00000340: 1136 853b f350 9a3c f43e 83bc 546e 8b3a
00000350: 404b 1e3c 5a13 4d3c 5c14 76bc 1031 fa3b
00000360: 0f5a 49bc ff09 bbbc 12fb c03c 0314 253c
00000370: c019 16bb a569 f4bc 0036 113d 009e b93c
00000380: 2268 e1bb 54d5 a0bc b570 6e3c 0ab9 17bb
00000390: a9c0 273c 394a 4a3c 23ef 0ebd cc0b abbc
000003a0: fd49 57bc ece4 3c3d 9364 073c 6370 1e3d
000003b0: c1e5 923c 0ea0 383c 9653 42bd 4e01 c53c
000003c0: cb52 9abb 066d 543c dcf7 15bb 0f39 bc3c
000003d0: f392 2e3b fbad eabc 7168 d73b c4f5 763b
000003e0: 9065 4e3c c3a8 c5bc 4fe4 653d 19d0 b5bc
000003f0: 7b11 b3bc 2990 4f3b d855 263d 318d 0fbb

action_model._continuous_distribution.mu.bias f4 [2]
-0.0007788653 0.00017725093
00000000: c42c 4cba 6fdc 3939

exp_avg f4 [128, 6]
0.00016222571 0.0 4.2473184e-05 4.491215e-05 -7.255629e-05 6.401855e-05 4.364831e-05 0.0
2.5406756e-05 0.00013556477 -1.7492723e-05 -0.00014088806 8.635199e-05 0.0 2.586706e-05 1.7521863e-05
-2.9753024e-05 8.62346e-06 -3.8970975e-05 0.0 0.0001361357 4.2198044e-05 -2.7117618e-05 1.4752599e-05
-5.3589712e-05 0.0 0.000126557 0.00013247224 -4.173455e-05 -1.4571657e-05 -0.00017351449 0.0
-5.963084e-06 -0.00016381934 0.00012680168 5.2797113e-05 0.0006065185 0.0 0.00024617056 -0.0001441687
-0.00032285048 0.00023646539 9.888527e-05 0.0 -0.0001512562 0.00020610003 0.00015444064 -0.00016288574
0.00014811721 0.0 9.017886e-05 4.6265493e-05 8.410824e-05 0.00036919297 -0.00026668675 0.0
-8.816876e-05 0.00010683287 -0.0002442804 -0.00022930032 2.5918904e-05 0.0 0.00017353712 0.00011447254
0.00010371351 4.0731386e-05 4.706948e-06 0.0 0.00016656522 0.00010121736 -7.816831e-05 -0.00036011817
0.000606767 0.0 -0.00031076674 3.5044082e-05 -7.618949e-05 2.0713705e-06 -3.0693147e-05 0.0
2.2609209e-05 9.980709e-05 8.788357e-05 -0.00015222453 -0.00012467353 0.0 -9.218042e-06 -0.00033603172
4.563529e-05 -0.0002601 0.00018898526 0.0 0.00010800865 0.00012714646 -0.000112825684 0.00011039844
7.072877e-05 0.0 0.00019268283 -0.000102320664 2.7436043e-05 3.5571422e-05 0.00020310613 0.0
0.00029041944 -2.3485e-06 -0.00020444948 0.00024580513 -8.3477105e-05 0.0 0.0001848236 0.00017050683
-1.2013315e-05 8.3339386e-05 -0.00020740993 0.0 -6.6286775e-05 -2.0376327e-05 -0.00012464801 6.318196e-05
-1.5922778e-05 0.0 0.0003579671 0.00036951198 -6.2086605e-05 0.00013139268 -0.00035431364 0.0
-0.00036733478 7.9053294e-05 0.00024124746 -0.00021225895 0.00022814539 0.0 0.0002195751 0.00010549443
-0.0003172165 0.00013969731 -0.00034753708 0.0 -3.148621e-05 0.00013686575 9.4572926e-05 -0.0004055931
0.0001716822 0.0 -5.269806e-05 -0.00010129169 4.832092e-05 -3.4845085e-05 0.00011939144 0.0
0.00013147673 -6.405042e-05 -0.00010133157 7.834818e-05 0.0004900909 0.0 -0.000295554 -0.000107283544
0.00025079737 -5.5847413e-06 -0.00017470917 0.0 0.00037351312 0.0004169898 -9.182977e-05 -0.00029907393
-2.4781766e-05 0.0 9.6602715e-05 -0.00013797478 -0.000100602876 0.00018886273 -3.829811e-05 0.0
8.2990664e-05 7.3799325e-05 -1.4998164e-05 -2.0640255e-06 5.215057e-06 0.0 -0.0001670548 9.116049e-05
6.207225e-06 -0.00010220028 -9.931278e-06 0.0 -2.6212356e-06 1.8187852e-06 -4.515659e-06 -1.3260374e-05
-0.00023866969 0.0 -0.0005518588 0.00020175274 0.0003303974 -0.0007600919 -4.455453e-05 0.0
-3.1388536e-05 1.2066688e-05 -7.776108e-05 -3.0118626e-05 -5.745642e-05 0.0 0.00027484098 0.0005003913
-0.00028925098 0.00039440382 0.0003143633 0.0 0.00022578871 -0.00029529774 -0.00031849928 0.0005924675
0.0005312082 0.0 0.00020824441 0.00014181246 -0.00015669277 0.00016319824 2.767828e-05 0.0
9.275298e-06 1.4803879e-06 -1.4577128e-05 -4.93015e-06 6.9163843e-06 0.0 4.8458223e-06 -2.4854508e-06
-3.604746e-06 -3.4363254e-06 2.7787355e-06 0.0 1.5315854e-06 -9.112137e-05 -5.6933826e-05 1.789009e-05
4.3988985e-06 0.0 0.00044021747 0.00029798297 -0.00020251896 2.8609006e-06 0.00042474482 0.0
-0.00018514312 -0.00025794804 0.00018737992 5.7463832e-05 0.000286213 0.0 0.00014409928 -5.8781123e-05
00000000: 221b 2a39 0000 0000 3c25 3238 0e60 3c38
00000010: 5d29 98b8 b341 8638 0413 3738 0000 0000
00000020: 9820 d537 6426 0e39 56bd 92b7 5abb 13b9
00000030: df17 b538 0000 0000 17fd d837 eafb 9237
00000040: 2296 f9b7 7bad 1037 c474 23b8 0000 0000
00000050: a6bf 0e39 cefd 3038 a47a e3b7 ee81 7737
00000060: 84c5 60b8 0000 0000 63b4 0439 3fe8 0a39
00000070: 220c 2fb8 ca78 74b7 71f1 35b9 0000 0000
00000080: 8016 c8b6 ebc6 2bb9 11f6 0439 7872 5d38
00000090: c4fe 1e3a 0000 0000 7410 8139 fe2b 17b9
000000a0: 4244 a9b9 b2f3 7739 a060 cf38 0000 0000
000000b0: 879a 1eb9 8e1c 5839 58f1 2139 4fcc 2ab9
000000c0: e94f 1b39 0000 0000 681e bd38 320d 4238
000000d0: 4463 b038 3e90 c139 17d2 8bb9 0000 0000
000000e0: 3ee7 b8b8 760b e038 c312 80b9 5670 70b9
000000f0: 6c6c d937 0000 0000 84f7 3539 fa10 f038
00000100: c480 d938 fed6 2a38 60f0 9d36 0000 0000
00000110: 03a8 2e39 a844 d438 4bee a3b8 3ece bcb9
00000120: 720f 1f3a 0000 0000 68ee a2b9 4cfc 1238
00000130: ecc7 9fb8 e001 0b36 84bc 00b8 0000 0000
00000140: e8a8 bd37 864f d138 224e b838 769e 1fb9
00000150: ccba 02b9 0000 0000 30a7 1ab7 6a2d b0b9
00000160: 8568 3f38 085e 88b9 582a 4639 0000 0000
00000170: b482 e238 9e52 0539 d49c ecb8 b685 e738
00000180: 3854 9438 0000 0000 e70a 4a39 fd94 d6b8
00000190: 7426 e637 8632 1538 e3f8 5439 0000 0000
000001a0: 7043 9839 ec9a 1db6 7d61 56b9 68df 8039
000001b0: 6e10 afb8 0000 0000 35cd 4139 14ca 3239
000001c0: cc8c 49b7 7ec6 ae38 2e7c 59b9 0000 0000
000001d0: 7103 8bb8 d4ed aab7 f2b3 02b9 8e80 8438
000001e0: e891 85b7 0000 0000 88ad bb39 0fbb c139
000001f0: 7e34 82b8 74c6 0939 2cc3 b9b9 0000 0000
00000200: d796 c0b9 6ac9 a538 5ff7 7c39 d491 5eb9
00000210: 503a 6f39 0000 0000 be3d 6639 e43c dd38
00000220: 1450 a6b9 b67b 1239 a335 b6b9 0000 0000
00000230: 1010 04b8 9f83 0f39 7455 c638 c9a5 d4b9
00000240: 9705 3439 0000 0000 1c08 5db8 906c d4b8
00000250: 31ac 4a38 a026 12b8 cb61 fa38 0000 0000
00000260: 04dd 0939 cf52 86b8 f981 d4b8 dc4e a438
00000270: 7279 003a 0000 0000 96f4 9ab9 6afd e0b8
00000280: 747d 8339 9064 bbb6 2332 37b9 0000 0000
00000290: 15d4 c339 6c9f da39 bb94 c0b8 06cd 9cb9
000002a0: 70e2 cfb7 0000 0000 3097 ca38 53ad 10b9
000002b0: c2fa d2b8 7409 4639 48a2 20b8 0000 0000
000002c0: 460b ae38 b6c4 9a38 a0a0 7bb7 b083 0ab6
000002d0: 00fd ae36 0000 0000 6e2b 2fb9 6a2d bf38
000002e0: a847 d036 5c54 d6b8 849e 26b7 0000 0000
000002f0: 7ce8 2fb6 fc1c f435 3785 97b6 df78 5eb7
00000300: 6843 7ab9 0000 0000 9eaa 10ba 978d 5339
00000310: 3039 ad39 e740 47ba 10e0 3ab8 0000 0000
00000320: 2fa7 03b8 0872 4a37 a913 a3b8 42a7 fcb7
00000330: 5cfd 70b8 0000 0000 8818 9039 b12c 033a
00000340: 9ca6 97b9 fcc7 ce39 21d1 a439 0000 0000
00000350: b2c1 6c39 31d2 9ab9 40fc a6b9 d24f 1b3a
00000360: c740 0b3a 0000 0000 2f5c 5a39 7eb3 1439
00000370: e54d 24b9 3220 2b39 a72e e837 0000 0000
00000380: 1a9d 1b37 beb1 c635 4a90 74b7 ab6d a5b6
00000390: 4a13 e836 0000 0000 4c99 a236 b8cb 26b6
000003a0: 11e9 71b6 9f9b 66b6 507a 3a36 0000 0000
000003b0: e090 cd35 6a18 bfb8 3bcc 6eb8 ad12 9637
000003c0: 409a 9336 0000 0000 fdcc e639 993a 9c39
000003d0: 455b 54b9 e6fd 3f36 49b0 de39 0000 0000
000003e0: fa22 42b9 333d 87b9 6a7b 4439 5205 7138
000003f0: dc0e 9639 0000 0000 5b19 1739 c08b 76b8

exp_avg_sq f4 [128, 6]
1.7490193e-07 0.0 1.2629698e-07 3.153761e-07 1.9453705e-07 3.1212093e-07 3.870354e-08 0.0
7.923651e-08 1.5375939e-07 6.93471e-08 4.9888623e-08 1.1460009e-08 0.0 1.7044686e-08 4.9820677e-08
2.7442642e-08 1.6424256e-08 2.4333334e-08 0.0 1.4290501e-08 1.1890574e-08 1.3520273e-08 1.0573659e-08
3.6388357e-08 0.0 3.7874326e-08 4.6462763e-08 3.0625138e-08 3.4651354e-08 9.025761e-08 0.0
6.1140945e-08 4.6529514e-08 1.2313049e-07 3.358681e-07 2.408541e-07 0.0 9.8738845e-08 1.8135817e-07
2.4874024e-07 2.7580015e-07 1.056107e-07 0.0 1.5309267e-07 5.6228185e-08 4.96496e-08 5.40513e-08
6.958785e-08 0.0 1.0611296e-08 1.3516477e-07 6.457251e-08 5.6734656e-08 1.0162816e-07 0.0
9.298596e-08 3.9788862e-08 3.4783167e-08 3.2702417e-08 1.03284954e-07 0.0 1.13016874e-07 7.282571e-08
1.0163666e-07 1.4419162e-07 1.5454049e-07 0.0 1.7755457e-07 2.9537148e-07 1.509243e-07 7.630833e-08
3.9990638e-07 0.0 2.9257595e-07 1.9813201e-07 1.977328e-07 3.8588652e-07 3.3184924e-07 0.0
5.2306472e-08 1.3060902e-07 2.3872522e-07 5.880197e-07 1.0986273e-07 0.0 7.3436266e-09 1.9153337e-08
1.2948163e-07 3.8771938e-07 6.373546e-08 0.0 6.498759e-08 1.2073106e-07 6.6853254e-08 5.987264e-08
2.5348172e-07 0.0 3.3068562e-07 2.7571397e-07 2.2584555e-07 2.6957503e-07 2.269787e-07 0.0
5.9586476e-08 4.3483368e-08 1.1554297e-07 1.9854454e-07 5.3857114e-08 0.0 7.929687e-08 1.5276964e-07
6.7837405e-08 6.138551e-08 2.3684182e-08 0.0 5.8887486e-09 3.5869622e-08 3.3507302e-08 6.651287e-08
2.9541832e-07 0.0 3.4990617e-07 5.0809456e-07 2.6273753e-07 2.268376e-07 1.3647004e-07 0.0
2.1194103e-07 1.3472867e-07 1.1954477e-07 6.3180934e-08 4.952228e-07 0.0 2.220149e-07 3.046206e-07
2.7304668e-07 5.1578604e-07 3.537673e-07 0.0 1.2168134e-07 3.383963e-07 2.2160874e-07 3.1039423e-07
2.0007167e-07 0.0 4.623016e-08 4.230168e-08 8.806925e-08 1.5346451e-07 4.2675573e-08 0.0
4.7090495e-08 1.5035693e-07 7.7775404e-08 5.5508398e-08 3.5581607e-07 0.0 5.287161e-07 2.3662996e-07
1.9732073e-07 1.8579992e-07 3.3732445e-07 0.0 3.0823892e-07 2.1459046e-07 1.5481547e-07 1.344842e-07
1.4557213e-07 0.0 1.8953736e-08 2.2479481e-08 1.2191589e-07 3.2105245e-07 3.0420484e-08 0.0
2.8266479e-08 9.93168e-09 1.06827756e-08 5.668569e-09 1.0550626e-07 0.0 4.571137e-08 4.9044523e-08
4.9811078e-08 6.980363e-08 8.6820173e-10 0.0 9.469565e-10 6.9694663e-09 3.0343064e-09 3.4283787e-09
4.961301e-07 0.0 1.9901552e-07 1.7320815e-07 4.3291766e-07 1.0869635e-06 1.16065124e-07 0.0
3.4395175e-08 2.2550894e-08 6.1690436e-08 2.0680035e-07 3.697495e-07 0.0 8.756763e-08 3.2378304e-07
4.3998492e-07 9.348392e-07 3.4873406e-07 0.0 2.9943273e-08 8.153117e-08 2.2679545e-07 7.2194575e-07
5.1901577e-07 0.0 8.119731e-08 1.8708502e-07 3.8272745e-07 9.3189044e-07 3.782277e-09 0.0
2.8806317e-09 9.216747e-09 6.0269048e-09 7.0785915e-09 1.3048444e-10 0.0 1.5114993e-11 5.1804564e-11
6.8862686e-11 6.9305686e-11 1.220824e-07 0.0 1.8575979e-07 2.7972888e-07 1.5730178e-07 1.0550179e-07
6.681174e-08 0.0 8.521811e-08 5.2960836e-08 5.4035795e-08 8.419773e-08 3.558497e-07 0.0
5.0294e-07 5.3444796e-07 3.1510976e-07 2.3019521e-07 3.554411e-07 0.0 5.968667e-08 1.2903143e-07
00000000: adcc 3b34 0000 0000 409c 0734 f650 a934
00000010: f0e1 5034 9391 a734 fe3a 2633 0000 0000
00000020: bb28 aa33 0f19 2534 f9eb 9433 1f45 5633
00000030: a7e1 4432 0000 0000 a969 9232 6afa 5533
00000040: 02bb eb32 5215 8d32 9105 d132 0000 0000
00000050: 4a82 7532 4c47 4c32 ca46 6832 72a7 3532
00000060: 6c49 1c33 0000 0000 43ab 2233 598e 4733
00000070: b288 0333 91d3 1433 a5d3 c133 0000 0000
00000080: 974c 8333 bed7 4733 da35 0434 5c51 b434
00000090: bc4e 8134 0000 0000 410a d433 5bbb 4234
000000a0: 998a 8534 af11 9434 19cc e233 0000 0000
000000b0: cb61 2434 8b7f 7133 503e 5533 0826 6833
000000c0: 5370 9533 0000 0000 f94c 3632 cf21 1134
000000d0: 1dab 8a33 6aac 7333 ac3e da33 0000 0000
000000e0: 92af c733 51e4 2a33 7f64 1533 b074 0c33
000000f0: 81cd dd33 0000 0000 afb3 f233 5c64 9c33
00000100: 5843 da33 17d3 1a34 c4ef 2534 0000 0000
00000110: d4a5 3e34 8c93 9e34 c10d 2234 f3de a333
00000120: b7b2 d634 0000 0000 5513 9d34 1dbe 5434
00000130: 6150 5434 d72b cf34 0329 b234 0000 0000
00000140: 93a7 6033 893d 0c34 252a 8034 68d8 1d35
00000150: aded eb33 0000 0000 3953 fc31 a286 a432
00000160: a407 0b34 bf27 d034 f1de 8833 0000 0000
00000170: 4e8f 8b33 4da2 0134 f790 8f33 5593 8033
00000180: 4316 8834 0000 0000 1689 b134 d705 9434
00000190: f47f 7234 1cba 9034 6eb7 7334 0000 0000
000001a0: 06ec 7f33 78c2 3a33 6b20 f833 822f 5534
000001b0: 8650 6733 0000 0000 ea49 aa33 0009 2434
000001c0: 02ae 9133 0ad3 8333 1172 cb32 0000 0000
000001d0: fb55 ca31 110f 1a33 abe9 0f33 d6d5 8e33
000001e0: fc99 9e34 0000 0000 bdda bb34 fe63 0835
000001f0: 5f0e 8d34 a590 7334 9988 1234 0000 0000
00000200: e891 6334 efa9 1034 375c 0034 16ae 8733
00000210: 74ef 0435 0000 0000 fe62 6e34 bd8a a334
00000220: 4097 9234 8c74 0a35 68ed bd34 0000 0000
00000230: 83a7 0234 d5ac b534 59f3 6d34 42a4 a634
00000240: 48d3 5634 0000 0000 998e 4633 30af 3533
00000250: 9520 bd33 01c8 2434 4a4a 3733 0000 0000
00000260: 8c40 4a33 cc71 2134 7b05 a733 2168 6e33
00000270: fd06 bf34 0000 0000 18ed 0d35 5914 7e34
00000280: 1cdf 5334 4b80 4734 8519 b534 0000 0000
00000290: 097c a534 2d6a 6634 5a3b 2634 bc66 1034
000002a0: 904e 1c34 0000 0000 b5cf a232 e718 c132
000002b0: fce7 0234 1d5d ac34 ada7 0233 0000 0000
000002c0: a5ce f232 fe9f 2a32 5887 3732 43c5 c231
000002d0: ae92 e233 0000 0000 2f54 4433 06a5 5233
000002e0: dcef 5533 f4e6 9533 44a6 6e30 0000 0000
000002f0: 1226 8230 1378 ef31 1584 5031 ad98 6b31
00000300: cd2d 0535 0000 0000 f8b0 5534 18fb 3934
00000310: c06b e834 c8e3 9135 7a3f f933 0000 0000
00000320: e5b9 1333 f1b5 c132 ad7a 8433 d90c 5e34
00000330: fc81 c634 0000 0000 d00c bc33 67d4 ad34
00000340: 1137 ec34 a9f1 7a35 a539 bb34 0000 0000
00000350: fa9a 0033 3c16 af33 0f85 7334 bccb 4135
00000360: 7e52 0b35 0000 0000 b15e ae33 8ae1 4834
00000370: a979 cd34 0627 7a35 43f5 8131 0000 0000
00000380: 9cf4 4531 af57 1e32 3715 cf31 f337 f331
00000390: 1b78 0f2f 0000 0000 f0f3 842d c1d6 632e
000003a0: 3f6e 972e a267 982e c115 0334 0000 0000
000003b0: 4375 4734 a52d 9634 c9e6 2834 3990 e233
000003c0: 247a 8f33 0000 0000 2701 b733 0e77 6333
000003d0: fc14 6833 31d0 b433 9c0b bf34 0000 0000
000003e0: c601 0735 fc76 0f35 5b2c a934 942b 7734
000003f0: 74d3 be34 0000 0000 182d 8033 e48b 0a34

exp_avg f4 [128]
-9.069531e-06 -2.1866e-06 -3.7191292e-06 -3.3897081e-06 -5.2168093e-06 1.5850197e-05 -4.035629e-05 1.9305058e-05
1.0513517e-05 -3.0535062e-05 1.2964192e-05 -9.771063e-06 -9.52369e-06 1.0985449e-05 5.7044244e-06 -1.4103208e-05
3.429508e-06 -2.5556219e-05 -1.5016622e-06 -1.5581001e-05 -7.76083e-06 3.0155943e-05 -3.965207e-05 1.1821621e-05
6.040116e-06 -1.2666455e-05 3.1349675e-05 -1.147872e-05 -1.2575368e-05 -1.8747769e-06 7.7590585e-07 -5.6445674e-07
4.1299696e-05 -9.720148e-06 -3.615637e-05 -3.9812418e-05 -1.9586616e-05 -1.8221409e-06 -4.505932e-07 -7.1167483e-06
-2.5314883e-05 2.3422472e-05 -1.369529e-05 2.9233224e-05 -2.4028725e-05 -1.4956917e-05 2.539607e-05 -2.2383287e-05
-2.2648699e-05 -3.1344312e-05 -1.1939971e-05 1.8122893e-05 1.7232676e-05 -1.4898676e-05 -2.5943167e-05 4.1588726e-05
-1.8057406e-05 -3.9791445e-05 -1.834784e-05 5.051452e-06 -2.5152713e-05 4.8800566e-06 2.4805853e-05 1.4696928e-05
-4.095144e-05 -2.5901936e-05 2.184565e-05 2.7219266e-05 -1.7525714e-05 7.1643066e-05 -3.6997478e-06 -1.2028088e-05
7.4488606e-05 -1.2946719e-05 1.2498895e-05 1.8709008e-05 2.4286328e-07 -9.151734e-06 7.114997e-05 1.4002431e-05
-5.8174257e-05 6.114191e-06 -2.588461e-05 -1.9626183e-05 -1.9282752e-06 -5.5723678e-05 1.4378654e-05 -7.245737e-06
9.338453e-06 -1.7905186e-05 2.9566252e-05 2.3032442e-05 7.0992774e-06 1.06210355e-05 6.155085e-05 -0.00016692857
-3.334884e-05 8.965016e-06 -1.6774604e-05 8.719885e-07 1.661879e-05 -2.7355218e-06 4.122244e-05 -1.0087748e-05
5.0996478e-06 3.0550564e-05 3.5866215e-06 -4.9348273e-06 4.204048e-05 -1.256023e-06 -2.494501e-05 4.0414125e-06
-1.6202102e-07 -2.875359e-05 8.882584e-06 2.3464203e-05 -3.9255505e-05 8.6751395e-05 6.1525876e-05 5.1703642e-05
1.6694148e-06 3.434675e-05 1.3149176e-05 -2.3349454e-05 3.0985386e-05 4.4830767e-07 1.3365185e-05 3.4979867e-06
00000000: 5729 18b7 81bd 12b6 2796 79b6 be7a 63b6
00000010: 0d0c afb6 0af6 8437 3d44 29b8 4cf1 a137
00000020: 3663 3037 c612 00b8 c880 5937 65ee 23b7
00000030: f0c7 1fb7 254e 3837 a268 bf36 d19c 6cb7
00000040: 8026 6636 9061 d6b7 b88c c9b5 f2b3 82b7
00000050: 8334 02b7 65f7 fc37 1650 26b8 7a55 4637
00000060: 34ac ca36 0382 54b7 757d 0338 ba94 40b7
00000070: cbfa 52b7 d8a0 fbb5 d847 5035 2c85 17b5
00000080: 3639 2d38 b813 23b7 9ba6 17b8 42fc 26b8
00000090: f04d a4b7 4990 f4b5 0fe9 f1b4 67cc eeb6
000000a0: 4c5b d4b7 607b c437 d3c4 65b7 df39 f537
000000b0: 4b91 c9b7 78ef 7ab7 a509 d537 bec3 bbb7
000000c0: b6fd bdb7 b377 03b8 c951 48b7 9e06 9837
000000d0: e48e 9037 54f5 79b7 87a0 d9b7 8e6f 2e38
000000e0: fc79 97b7 bde5 26b8 b0e9 99b7 a47f a936
000000f0: 0aff d2b7 5ebf a336 2a16 d037 d392 7637
00000100: 46c3 2bb8 fc47 d9b7 2d41 b737 ee54 e437
00000110: 2f04 93b7 143f 9638 2f49 78b6 3fcc 49b7
00000120: c436 9c38 bc35 59b7 58b2 5137 4af1 9c37
00000130: e062 8234 668a 19b7 5936 9538 fceb 6a37
00000140: 2200 74b8 8028 cd36 c722 d9b7 e8a2 a4b7
00000150: 8467 01b6 d8b8 69b8 d93b 7137 6820 f3b6
00000160: 5aac 1c37 1833 96b7 0b05 f837 cb35 c137
00000170: 5436 ee36 0031 3237 dc14 8138 8c09 2fb9
00000180: 0be0 0bb8 7368 1637 30b7 8cb7 9812 6a35
00000190: 9468 8b37 e893 37b6 42e6 2c38 8c3e 29b7
000001a0: a41d ab36 6b23 0038 b0b1 7036 d895 a5b6
000001b0: 9f54 3038 9f94 a8b5 0041 d1b7 789b 8736
000001c0: 00f8 2db4 dd33 f1b7 6806 1537 fed4 c437
000001d0: 47a6 24b8 4dee b538 7407 8138 5ddc 5838
000001e0: a810 e035 8b0f 1038 489b 5c37 92de c3b7
000001f0: 4ef6 0138 f0ae f034 083b 6037 f4be 6a36

exp_avg_sq f4 [128]
3.0396414e-09 1.0835484e-09 4.287913e-10 2.112543e-10 4.785178e-10 1.923914e-09 3.886566e-09 7.7577506e-10
1.0089455e-09 5.4348703e-10 1.5880727e-09 2.3581928e-09 3.089575e-09 3.730081e-09 2.0231505e-09 1.0445821e-09
3.528836e-09 1.8053595e-09 1.0599597e-09 5.235515e-10 4.1052743e-09 1.8678872e-09 4.2663544e-09 3.4626355e-09
1.376082e-09 1.2152407e-09 3.0831364e-09 2.4189917e-09 1.904936e-09 1.6691837e-10 7.7829804e-10 4.741104e-11
6.764339e-09 9.63913e-10 6.874764e-09 3.5436785e-09 5.9801164e-09 9.41704e-11 1.0759795e-12 2.4578408e-09
8.4430934e-10 4.923589e-09 3.4652952e-09 5.4169367e-09 1.0520551e-08 6.588547e-10 3.9668926e-09 1.0022105e-09
1.0205658e-08 1.6557179e-09 1.0401465e-10 5.5783795e-09 3.847452e-09 2.8824743e-09 8.935485e-09 7.0381754e-09
1.952702e-09 7.255783e-09 6.055254e-09 2.3661285e-11 8.123025e-09 1.0733348e-09 2.263993e-09 3.799623e-09
1.150318e-08 1.7355781e-09 2.8528213e-09 2.2013893e-09 3.056917e-10 3.3645358e-09 1.5999188e-10 6.0593386e-10
1.0237748e-08 4.3059525e-09 6.8711686e-10 5.6703636e-10 3.806842e-09 4.0372125e-10 2.6335942e-09 5.9001903e-10
1.1600438e-08 1.6892739e-09 4.917776e-09 2.5640873e-10 2.651523e-09 9.434209e-10 1.1429062e-09 1.4110544e-09
4.173459e-09 6.3369447e-09 7.329166e-10 1.6337461e-09 2.9500038e-09 1.8364821e-09 2.3118314e-09 2.1518309e-08
2.9669323e-09 3.7188358e-10 6.115787e-10 1.9933624e-09 1.3878481e-09 7.2120027e-10 4.1991357e-09 6.6257966e-10
2.5271936e-09 1.5282922e-08 1.5302885e-09 6.7566526e-09 1.5713006e-09 4.7988254e-12 1.4715739e-09 5.9972133e-10
7.677773e-09 9.772659e-10 7.489629e-10 2.6347027e-09 1.7542918e-09 2.427214e-09 8.345008e-09 6.5504753e-09
2.1696862e-09 8.4086677e-10 2.3478492e-09 9.451597e-10 3.176069e-09 4.5653422e-11 2.9058258e-09 5.7568367e-10
00000000: f0e1 5031 f8eb 9430 03bb eb2f cd46 682f
00000010: b288 0330 da35 0431 998a 8531 513e 5530
00000020: 1dab 8a30 8064 1530 5743 da30 c40d 2231
00000030: 6150 5431 242a 8031 a407 0b31 f790 8f30
00000040: f07f 7231 7120 f830 04ae 9130 a9e9 0f30
00000050: 600e 8d31 385c 0031 4097 9231 54f3 6d31
00000060: 9520 bd30 7b05 a730 1cdf 5331 5a3b 2631
00000070: fde7 0231 5887 372f dbef 5530 1684 502e
00000080: c16b e831 ac7a 8430 1037 ec31 0d85 7331
00000090: a979 cd31 3915 cf2e 3f6e 972b cbe6 2831
000000a0: fd14 6830 592c a931 1e22 6e31 e11f ba31
000000b0: dfbd 3432 c71a 3530 284d 8831 26be 8930
000000c0: f554 2f32 658f e330 0bbb e42e f2ab bf31
000000d0: 8c32 8431 0615 4631 ae82 1932 72d4 f131
000000e0: 4c30 0631 8b4e f931 940e d031 7a20 d02d
000000f0: 718d 0b32 9c84 9330 9694 1b31 d68d 8231
00000100: 859f 4532 3a89 ee30 5d0b 4431 4047 1731
00000110: 480e a82f 8a35 6731 b6e9 2f2f ce8e 2630
00000120: 18e2 2f32 8ff3 9331 8ddf 3c30 a3dd 1b30
00000130: 56cd 8231 b7f2 dd2f aefa 3431 e62e 2230
00000140: 444b 4732 0b2c e830 37f9 a831 52f6 8c2f
00000150: 1636 3631 aca9 8130 7014 9d30 10ef c130
00000160: 2266 8f31 5bbc d931 6c76 4930 558a e030
00000170: 04b9 4a31 7867 fc30 2bde 1e31 43d7 b832
00000180: d3e2 4b31 f671 cc2f 061c 2830 9afb 0831
00000190: 90be be30 f53d 4630 fd47 9031 e620 3630
000001a0: dcaa 2d31 8047 8332 3d52 d230 2528 e831
000001b0: 3af5 d730 fad7 a82c 6740 ca30 a3d9 2430
000001c0: 34e7 0332 7d50 8630 94df 4d30 2e0e 3531
000001d0: a81b f130 00cc 2631 bc5d 0f32 9712 e131
000001e0: 8619 1531 bd22 6730 cd57 2131 dae6 8130
000001f0: ff41 5a31 2fc9 482e d4af 4731 233e 1e30
