results/ppo/MoveToGoal/MoveToGoal-264405.pt (torch, 441366 bytes, 36 tensors)

network_body._body_endoder.seq_layers.0.weight f4 [128, 6]
00000000: dea1 f43e 22ea bc3e 6581 c33d f460 b7bd
00000010: 7e02 cf3a 9f52 06bf adc5 313e a2c5 01bc
00000020: dfc8 8abd f651 143e b068 a0be 62cf 6ebf
00000030: fa82 b73e fddd 62bf 3fa4 b6be 6c1b 8a3e
00000040: e387 2f3f aafd 073f 22d9 3b3e cb91 e33e
00000050: ac63 d53e 3488 1cbf cdf5 00bf aafc d1be
00000060: 1c7c 73be 37af 403e 77c1 a73e 0173 e5bd
00000070: 7c0a 5a3e 0a92 f5bd f2d5 753e 9ef3 353e
00000080: 3d88 ec3e 138f 453f f01e 823e 21e3 3fbe
00000090: bf8a 05be d2e6 a8be ffa1 09bf 5a6d abbe
000000a0: 561e 913f 9a57 fc3e 93b0 b7be 25e9 89be
000000b0: f882 383e 50be 123e 3433 153f 4eb4 3cbd
000000c0: 066b 423e 988b c9be ff07 993d 96a3 c3be
000000d0: d9c0 b13e d588 45bf 207f 873e 8538 003f
000000e0: 6448 6dbd da40 1b3e b5b3 2b3f 566b afbd
000000f0: a801 b63e 6e12 a93e 1739 cabe cb8c c9be
00000100: f297 57bf 259e 21bf aeea dc3c 6591 97be
00000110: f2de 0b3e 6e56 183f dddf 93be 1a34 783d
00000120: 4888 783e 0879 dcbe 8dea 69be 4750 8f3b
00000130: b7a1 aebe a8e7 58be 72f0 9bbe 990c 9a3b
00000140: 6fe1 71bf a332 653e 457d 07bf c8f8 2a3e
00000150: caae 023f 927f a1be 0671 08bc ed7d 2c3f
00000160: c654 25bf 8a52 213f 8304 23be 5190 83be
00000170: 4fad 203d 43b4 073e df4c 0dbf 777c 193f
00000180: 7323 a23f 3acd febd 61f9 1d3f 86a4 ebbd
00000190: cc2c 4fbe bed1 c53d 15fe edbe 55c2 06bd
000001a0: 3fe1 90be a76b b83d 74d8 ecbe 0f8b 2ebf
000001b0: 7c46 4e3b 7016 1b3e e124 00bf a90d 3d3f
000001c0: bc77 58be da64 333e 2b10 3c3f 5192 c2bc
000001d0: b549 963c 13d5 dfbe d8ec 1e3e e2b2 55be
000001e0: 3b95 0abe 03c0 4b3e e92e fb3e 2754 48bf
000001f0: 00f3 d0be e433 b5be d92b 013e 8dd3 debe
00000200: 8b8b 09bf 552b f43c 151b 873e 695b e0be
00000210: cddb 13be 16b5 093d d630 1a3f 064c e9bd
00000220: 263e b83d 2df9 e0be bb8b 79be 10ea d4be
00000230: 212b 813d b9e3 dfbd d75d 20bf 58ff 97bc
00000240: 58a0 6a3f 2788 c0be 29f0 8a3e 6f82 0dbf
00000250: 154d 153f 19e2 933e 13da 933f 1410 a0be
00000260: 50c2 b7bd 2e84 883e 5b2d e23c 577e 0abf
00000270: 425d 91bf 88b8 6c3c 6075 ea3e 2e88 6dbe
00000280: 1705 8abe 8262 583f c818 4dbf 70d6 ae3e
00000290: 4a9b bbbd 0518 423e abed e6be b56e 60bf
000002a0: 676a 3abe 2155 12bf 09e4 b33d e9d6 59bf
000002b0: 10fa 45bf 01a5 6b3e 8555 4dbe 5c7a 1cbd
000002c0: 1ee1 973e fbb5 a03e 8845 d2be 1642 103e
000002d0: ebe4 3f3e 8256 e63c 3ab1 93bd 324f b1be
000002e0: 4676 b4be 89e7 d43e 7e57 06bd 130f f73e
000002f0: b4bf 03bf 2832 043f c52e 35be 8f84 6dbf
00000300: 7abe ffbd 8fb6 21bf 7243 13bf 0b6a 8abe
00000310: e4c9 533e 73db d63e cfae 08bd 46e7 a6be
00000320: 8d28 fabb 3eef aabd 4e63 3cbd 6a62 b83e
00000330: be02 913e a6c4 0d3e 2038 a0be c40b 6bbe
00000340: 4cdb 023f 6e05 f03e e61b a3bd 931e 2cbf
00000350: bba5 73bd 3d16 143f 3395 9f3e 2a0f 943e
00000360: b45b 2bbe d87a 0d3f 1a2b 113f eba8 4f3e
00000370: dee6 793d 7439 b03e 9b4c 48bf fa74 22be
00000380: dd47 993e 4371 b1be 190d 443e 4865 2f3f
00000390: 0dac 38bf 327d 043f ea49 093f 42cb 43be
000003a0: 83ba e63e e6b7 84be 0150 03bf 72b3 67bd
000003b0: 6618 50bf 53e9 a73d 14cc adbc aa25 19bf
000003c0: 8d16 943e d616 66bc 592a 92bd 671a db3e
000003d0: 1dea 05be 477c c7be 96bd 4a3f 9a3e d9be
000003e0: 74e9 4ebb 9778 81be 848b d2be aa05 92bc
000003f0: fb1d e43e 413b d1be 89ba f23e e514 1b3f
0.47779745 0.3689738 0.095461644 -0.08954039 0.0015793589 -0.5246982 0.17360564 -0.0079206545
-0.06776594 0.1448439 -0.3132987 -0.9328519 0.35842115 -0.8861998 -0.35672185 0.26974046
0.6856672 0.53121436 0.18344548 0.4444717 0.41677606 -0.6114533 -0.5037506 -0.4101308
-0.23777813 0.18816839 0.3276479 -0.11203576 0.21293062 -0.11990745 0.24007395 0.17768714
0.46197692 0.7717144 0.25414228 -0.18738987 -0.13041209 -0.32988602 -0.5376281 -0.33481866
1.1337383 0.49285585 -0.35876903 -0.26935688 0.1801871 0.14330411 0.58281255 -0.04607039
0.18986139 -0.39364314 0.07472228 -0.38210744 0.34717444 -0.77161914 0.26464176 0.5008624
-0.057930365 0.15161458 0.67071086 -0.085653946 0.3554814 0.33021873 -0.3949668 -0.3936523
-0.84216225 -0.63131934 0.026967373 -0.29603115 0.13659266 0.5950688 -0.28881732 0.060596563
0.24270737 -0.4306109 -0.2284338 0.0043735835 -0.34107754 -0.2118212 -0.30456883 0.004701209
-0.9448461 0.22382598 -0.5292552 0.16696465 0.51047957 -0.3154264 -0.008327728 0.6737965
-0.6458248 0.6301657 -0.1591969 -0.25696042 0.03922778 0.13252358 -0.5519542 0.59955543
1.2667068 -0.124414876 0.61708647 -0.1150599 -0.20231932 0.09659146 -0.46482912 -0.032900173
-0.2829685 0.09004908 -0.4625889 -0.68180937 0.0031475117 0.15145278 -0.5005627 0.7384897
-0.21139425 0.1751894 0.7346217 -0.02375141 0.018345693 -0.4371725 0.15520036 -0.2086902
-0.1353349 0.19897465 0.49059227 -0.78253406 -0.40810394 -0.35391152 0.12614383 -0.43520775
-0.5372855 0.029805819 0.2638785 -0.4381974 -0.14439316 0.033619963 0.6023077 -0.113914534
0.08996229 -0.43940106 -0.24369709 -0.41584826 0.06307054 -0.109321065 -0.6264319 -0.018554375
0.91650915 -0.37603876 0.27136353 -0.5527715 0.5832074 0.28883436 1.1550926 -0.31262267
-0.08972609 0.26663345 0.027609518 -0.5409903 -1.1356585 0.014448293 0.45792675 -0.2319648
-0.26957008 0.8452531 -0.8011594 0.34147978 -0.091604784 0.18954475 -0.451032 -0.87668926
-0.18204652 -0.57161146 0.08783729 -0.8509355 -0.7733469 0.23012163 -0.20052154 -0.03820263
0.29663938 0.3138884 -0.41068673 0.1408771 0.18739669 0.028117422 -0.07211538 -0.34630734
-0.35246485 0.41582897 -0.032798283 0.48253688 -0.5146439 0.5163903 -0.17693622 -0.92780393
-0.124875024 -0.6316919 -0.5752479 -0.2703403 0.20682484 0.419643 -0.033369835 -0.32598323
-0.0076342286 -0.08346413 -0.04599314 0.36012584 0.28322405 0.13844547 -0.3129282 -0.22953707
0.5111587 0.46879143 -0.079643056 -0.6723415 -0.059484225 0.5784643 0.31168517 0.2891782
-0.167342 0.5526557 0.5670639 0.20279281 0.061011188 0.34418833 -0.7824189 -0.15864936
0.2993764 -0.34656724 0.19145621 0.6851392 -0.7213753 0.5175353 0.5362841 -0.19120505
0.45064172 -0.25921553 -0.5129395 -0.056567617 -0.8128723 0.081988 -0.021215476 -0.59823096
0.28923455 -0.01404353 -0.071369834 0.4279358 -0.13077588 -0.38962004 0.79195535 -0.42430574
-0.0031572254 -0.25287315 -0.41122067 -0.017824966 0.44554123 -0.4086552 0.4740794 0.6057876

network_body._body_endoder.seq_layers.0.bias f4 [128]
00000000: 01ac bb3b 412a 2c3c 8195 0fba 1055 803b
00000010: d52f 0f3b 1311 913a fada 4e3a f855 453c
00000020: 333d 4ebc b712 2abc 65d7 7b3c 1601 aaba
00000030: 8571 6dba d96e 2dbc 9f0d 0fbb 40f1 25bc
00000040: 915e a6bb 85fb c9ba 5997 11bc f350 d33a
00000050: 8e19 bb3b 39bd 1cbb 0956 753b 7685 fdbb
00000060: 42b9 41bc 767b 54bc 7de5 24bb 0a93 793b
00000070: 6327 f13b afaf 733c 9aab c8bb afd8 46bb
00000080: c2a7 22bb 6fcd 6cbb 3840 0c3c eabf 063c
00000090: 2972 95bb 9621 a5bb f1dd 9c3c ecfe 45bb
000000a0: 413d 093c 85ad bd3b cfa6 5b3a f3fc 54ba
000000b0: 68f1 fc3a 7a1e 8838 e8bd 113c b6af 0dbc
000000c0: eb82 44bb 7bba 1a3b 6004 e1bb a84e 3d3b
000000d0: 57ef ae3b 69bd 903b 27a7 913b 5895 2bbc
000000e0: 2e00 da3b 2c76 a5bb 638c dd3b 07a3 0c3c
000000f0: 28ce 8138 a361 813b 99c0 9b3a 294d bcbb
00000100: 8afc e23a a8bb 9bbb 6d1e 353b af01 44b9
00000110: 7a9e 463c 6185 0e3b 428d 0bbc c1ef cfba
00000120: 347b a3bb f4af 10bb 6ea5 633b e6d0 15bc
00000130: 25b5 08bc fa7e e439 6438 98bc 121b bcb9
00000140: 062d c4ba 97a2 1a3c 144d 4f3c b1c7 6cbb
00000150: 8fac 5dba 5691 463b 19a0 e43a b809 86bb
00000160: 0dbe 97bb 37ca 9cba b895 293c 95b4 003c
00000170: ffdf 8fbb e565 13ba 2811 1b3b 5b10 b6bb
00000180: 6e61 09bc 6dba ecbb 4884 21ba 52a5 45bb
00000190: 6863 b23a be24 38b9 236e ebbb 68d7 a6b8
000001a0: 1bbf e4bb 9fae 693b d488 fdba 3c11 7bbb
000001b0: f48e adbb 9a4f 1b3b 3828 813c 3603 5b3c
000001c0: ce5a ebba 3571 2fbc afe6 883b 4d6b 88bc
000001d0: 8f33 9737 055d 013c ba1b 68bb 4099 01bc
000001e0: 5f9d 263c 33dc 38bb ff2d 83bb 415b a73b
000001f0: 3675 c7bb b04e 2fbc d8b6 22bc 4558 463c
0.0057272916 0.010508121 -0.0005477295 0.0039163902 0.0021848578 0.0011067711 0.00078909064 0.012044422
-0.012587833 -0.0103804385 0.015371178 -0.0012970294 -0.0009057748 -0.01058551 -0.0021828187 -0.010128319
-0.005077191 -0.0015410042 -0.008886182 0.0016122147 0.0057098335 -0.0023916496 0.0037435314 -0.007736857
-0.011823954 -0.0129688885 -0.00251612 0.0038082027 0.0073594316 0.014873429 -0.006123972 -0.0030341556
-0.002481923 -0.003613319 0.008560233 0.008224467 -0.004560728 -0.005039404 0.019148799 -0.003021176
0.0083764205 0.0057885074 0.00083790434 -0.00081248506 0.0019298019 6.490662e-05 0.008895375 -0.00864785
-0.002998526 0.0023609686 -0.0068669766 0.0028885994 0.00533859 0.0044171107 0.004444975 -0.010472618
0.0066528535 -0.0050494876 0.00676112 0.008583791 6.189599e-05 0.003948407 0.001188296 -0.005746503
0.0017317694 -0.004752595 0.0027636543 -0.00018692644 0.012122745 0.002174698 -0.008517565 -0.0015864299
-0.004989052 -0.0022077532 0.0034736055 -0.009144044 -0.0083439695 0.00043582154 -0.018581577 -0.00035878323
-0.0014967031 0.0094381785 0.012652654 -0.0036129768 -0.0008456194 0.003029903 0.0017442732 -0.004090514
-0.00463081 -0.001196212 0.010350637 0.007855554 -0.004390716 -0.00056227884 0.002366135 -0.005556149
-0.008385045 -0.007224372 -0.0006161374 -0.0030158353 0.0013609948 -0.00017561295 -0.00718476 -7.9556194e-05
-0.0069807894 0.003565706 -0.0019343146 -0.0038309833 -0.0052965824 0.002369857 0.015766248 0.013367465
-0.0017956139 -0.010708143 0.0041778903 -0.016652727 1.8024612e-05 0.007895713 -0.0035416917 -0.007910073
0.010169356 -0.002820742 -0.004003286 0.005107314 -0.0060869707 -0.010699913 -0.009931289 0.012106006

network_body._body_endoder.seq_layers.2.weight f4 [128, 128]
00000000: 8589 dabc bab8 183e 5448 88bd b7ae 5bbb
00000010: 490d fa3d 6062 ac3d a7b3 26bd 77cf 3b3d
00000020: f428 4fbd 2c53 ea3d 8989 183e 5dc9 203d
00000030: 24ae d83c 17af 8e3d 6b66 54bd 9c98 97bd
00000040: 530c 543d 289a f83b d719 eb3c 718e 4f3c
00000050: da5b 2f3d 8a1e ba3d db50 06be 9d23 15bd
00000060: efc1 123d 33ba b3bd 1683 33bd 6a74 4e3e
00000070: 3164 6ebc 6a03 1b3e 3e29 a2bd 7493 e03b
00000080: 385a 023e c781 793c 26bb 5c3d 9e9c 463d
00000090: fd90 22bc 8a05 b3bc de12 98bd 0587 3f3d
000000a0: 210d 02be 0bcc 263d 6991 13be 3b71 953d
000000b0: ab2b 103d a06b 70bd 2b93 4d3d fe0f 9ebd
000000c0: 5b8a 483d afe6 3a3e 7fc4 173d 965a 853e
000000d0: 0ecb 9dbd 99ff d93d 29a1 893d 6dff b23d
000000e0: 24a8 62bd 6f61 f6bc a12c 0cbe 5359 403d
000000f0: d862 dfbc 7ff3 39ba 35af 0b3e 9ff7 53bb
00000100: 81ce 993d 09a8 ec3c 1889 103c c5e3 bdbc
00000110: 7650 253d e361 653d 37a4 f13d 8819 24be
00000120: c525 79bd 86e7 80bd 47bd 723e ba53 9abd
00000130: ee52 f4bd 7bf4 ab3d 7c67 fbbd dbda acbc
00000140: c821 ec3b 6e0d 03be dcd7 923d 3e7b 1ebd
00000150: 1ce2 14bc dee2 65ba d0f4 4f3c ed89 5c3d
00000160: a550 aebb 8bcb b6bd a9bb b83d 02b0 84be
00000170: 5aea 4dbd 9a1b acbd c515 00ba 775c b83d
00000180: 7bd0 2f3e 7223 ab3d d850 dbbb 2f36 d5bd
00000190: a1f5 c6bb 07dc 543d 5fcc d6bd 89a7 883d
000001a0: 9cc4 313d 988d 8dbd df74 e8bc 21e9 383e
000001b0: cd20 5bbe ea82 693c 1bb5 f9bd b9c4 bdbc
000001c0: 8c77 733d b783 373d c59f 78be 8b63 283d
000001d0: b356 b2bd 7173 25bd a587 073e b029 e63d
000001e0: ec5b 71bd 8ba6 37be f8a8 c53d 936c 94bd
000001f0: f444 6e3c d0d3 0d3d 2d25 babd af6f 18bd
00000200: cc8a 343e 0813 393e 68f3 33bd e6c6 b23c
00000210: 2c73 c23d 68e0 0a3d 311b e63c fd13 a8bd
00000220: 085b 73be 38ac 953c 8699 d0bb 7e09 803d
00000230: 048d fdbc da12 323e 46cf dcbd f91d 15be
00000240: 9662 2c3e 082f 603d 59ab 0c3e 6c92 e53c
00000250: 22d3 96bc 3bd4 8e3d 82a3 aebd 24c3 1e3d
00000260: fb59 ac3d 92fb 89bd 59e6 4cbd c5b9 193e
00000270: 0039 ddbb 37f6 8bbd 03a0 5e3d 2fbf d63d
00000280: b405 14bd fc6f 883d 4518 9dbd 61fc 703d
00000290: 7498 cdbd 729b afbb c841 25bc 4fcb 583e
000002a0: ca65 3a3d 1084 f6bd 77a0 9bbc 110a 983d
000002b0: 7dfb f7bc 508c 4b3d 4d3e 003e fe65 e03d
000002c0: ff7e 1cbe 643f d5bc 1faa 37bd 1a44 e7bc
000002d0: 2040 d8bc 9b84 39be 997f 3b3d dba2 fb3d
000002e0: ed25 83bc 4c5f a53c 1d64 1d3e ef7b 07bd
000002f0: 2d02 61bc 0128 303d c2fb 673d 23de 1dbd
00000300: 79c0 853d 7b2f af3d 4506 623d d753 cf3d
00000310: ceeb 04be a7d8 c9bd 2bf8 08bd f5c6 e3bd
00000320: 7c76 1fbd 3192 ba3d c64b ebbd bf33 d7bb
00000330: e086 f0bc 0748 413d f927 d8bd 77fd 683d
00000340: c595 263e f835 0dbd 3d6d cebd 7e6d ae3d
00000350: 2618 dc3c 6eaa 18be b158 77bb 0d3d 423d
00000360: 0ae1 363e 6a3b 6fbe c9d6 42bd 604a 2e3d
00000370: f8c7 c5bb 9076 11bd 2dc8 193d c911 dc3b
00000380: 1acf f83b 6849 e83d 3a75 563c 0ff9 72bd
00000390: 04d2 d93d a96d bfbd 51f6 003e 0fb0 89bd
000003a0: 8334 3cbe a12c 583d 0a72 51bc b3ff 54bd
000003b0: d139 dfbc a826 323d c407 2d3e cd58 603c
000003c0: e82e 793d 9aaa d33d f33a 77bc 1ca3 da3d
000003d0: 350d f43d 4a6a d6bd bed6 3a3d 8eac 7bbd
000003e0: 7c9e 81bc 2700 6bbc 8b54 053d 2fac 09bd
000003f0: cb41 58bd fafb b43d 23e3 babc 1c9e e4bd
-0.026676903 0.14914218 -0.066544205 -0.0033520886 0.12209565 0.08417201 -0.040698674 0.04585215
-0.050576165 0.11441645 0.14896215 0.039254535 0.026450224 0.069669895 -0.051855486 -0.07402155
0.051769566 0.007586736 0.028698845 0.012668238 0.042812206 0.09087856 -0.13116781 -0.036410917
0.03582948 -0.08775749 -0.043826185 0.20161596 -0.014550255 0.15138021 -0.079180226 0.0068535153
0.12729728 0.015228695 0.053889416 0.048489206 -0.009922263 -0.021853227 -0.07425474 0.046759624
-0.12700321 0.040721934 -0.14410938 0.072969876 0.035197895 -0.05869639 0.05018918 -0.07717894
0.04896007 0.18252061 0.037052628 0.26045674 -0.07704745 0.106444545 0.06720192 0.08740125
-0.055336133 -0.030075757 -0.136889 0.046960186 -0.027268812 -0.00070934737 0.13641055 -0.0032343639
0.075100906 0.02888872 0.008821748 -0.023179898 0.040359937 0.056001555 0.117988996 -0.16025364
-0.060827035 -0.062941596 0.23705016 -0.07535501 -0.1192988 0.0839624 -0.122755975 -0.021100452
0.0072061755 -0.12798092 0.07170078 -0.03869175 -0.009087112 -0.00087694626 0.012692645 0.053842474
-0.005319672 -0.089255415 0.09020168 -0.25915533 -0.050272323 -0.08403702 -0.00048860564 0.09002011
0.17169373 0.0835637 -0.006692987 -0.10410725 -0.0060717617 0.051967647 -0.104881994 0.0667258
0.043400392 -0.069117725 -0.028376041 0.18057682 -0.21399231 0.014252404 -0.12192746 -0.023165094
0.05944018 0.044803347 -0.24279697 0.041110557 -0.08707943 -0.040393297 0.13235338 0.1123842
-0.058925554 -0.17934625 0.09651369 -0.072472714 0.014542807 0.03462583 -0.09089122 -0.037215885
0.17631072 0.18073666 -0.043933302 0.021823358 0.094946235 0.033905417 0.028089138 -0.082069375
-0.23765194 0.018270597 -0.0063659577 0.062518105 -0.03095103 0.17390004 -0.10781722 -0.14562215
0.16834483 0.054732352 0.13737239 0.028023921 -0.018411223 0.069740735 -0.085272804 0.03876032
0.084156 -0.06737436 -0.050024364 0.15012272 -0.0067511797 -0.06834071 0.054351818 0.10485684
-0.03613825 0.06661984 -0.07670645 0.058834437 -0.10038844 -0.0053591067 -0.010086484 0.21171306
0.04550723 -0.12036908 -0.018997414 0.07423795 -0.030271286 0.04969436 0.12523766 0.109569535
-0.1528282 -0.026031204 -0.044839974 -0.028230716 -0.026397765 -0.18116991 0.045775983 0.122869216
-0.016009295 0.020187043 0.15370221 -0.033077177 -0.013733429 0.0430069 0.05663658 -0.038541924
0.06530852 0.08553978 0.05518176 0.10123413 -0.12980577 -0.09855776 -0.033439796 -0.111219324
-0.038931355 0.09109915 -0.11489062 -0.006567448 -0.029361188 0.04718783 -0.10554499 0.056882348
0.1626807 -0.034475297 -0.10079429 0.08516978 0.026866984 -0.14908764 -0.0037742073 0.047421504
0.17859283 -0.23362508 -0.047568116 0.0425514 -0.006035801 -0.03551346 0.037544418 0.0067159873
0.007593048 0.11342126 0.013089472 -0.059319552 0.106357604 -0.09347088 0.12593962 -0.06723034
-0.18379407 0.052776936 -0.012783537 -0.052001666 -0.027249249 0.043493897 0.16897494 0.013693047
0.06083575 0.10335274 -0.015089738 0.10675642 0.119165815 -0.10469492 0.04561495 -0.061443858
-0.015822642 -0.014343298 0.03255133 -0.033611473 -0.05279712 0.08837123 -0.022813385 -0.111629695

network_body._body_endoder.seq_layers.2.bias f4 [128]
00000000: d0f0 5bba 5af6 043a 45b1 8739 b7a4 89bb
00000010: 9c58 01bb dc2c 39bc ea4f 143b e700 a4bb
00000020: 2179 1abb a389 8abb c572 a4bb 9839 0dbb
00000030: 3f50 0bbc 45e1 233b 53ec 673b 11c5 c23b
00000040: f33d de3a 24c2 d0ba 22b3 9dbb 7021 a7bb
00000050: f6f5 3cbc 7705 e9bb 75a6 213a f6a4 ddba
00000060: 719a 303b 1b5b 503c b071 63ba 6e3d 3c3b
00000070: f860 0bbb 83ea 933b 1d78 22bb b36c 3139
00000080: 6b63 d43b 3e97 3e3b 4601 b4bb aefe cdba
00000090: 593a 363a 6e1a 00b9 f5b0 abba 6d38 e1b9
000000a0: 815c 79ba 953a c4b9 aabd 57bb 7cff bfbb
000000b0: 643f 273a 714d 91b9 d8a6 18bb 666f d53a
000000c0: cffb 893b 1b62 283a db6b d73a c006 453c
000000d0: 43ba 783b abab 083b dc5b 563a ec4d ea39
000000e0: 4033 05bb ba7a 94bb cc72 f6bb 6759 c43b
000000f0: e5c3 8e3a 00f9 e6b9 871d 4e3b b25e 80bb
00000100: b95c a2ba a47a 49bb 37d9 c3bb ce58 77bc
00000110: 08e8 e1bb 55f7 15bb 6859 073b c4a4 163a
00000120: e6bd 25bc b840 753b b142 8bba f6ee 60bb
00000130: 57c6 05bb f1f2 2a3c a9a0 c93b c9e3 0f3c
00000140: fe08 82bb 4e98 2e39 eaf0 53bb c4cb 573b
00000150: b440 733b f91e 4a3c 7bc0 3abc 567f a8ba
00000160: 64b3 18bb bd43 0e3b 7a34 91bb fcd3 ec3a
00000170: eb54 31bc d997 1d3b 56d2 b5bb 58a8 13bb
00000180: 2ac7 e5ba 2484 4a3c 7fb4 ee3a 71dd 9e38
00000190: d9c5 63bb d408 c239 bf7f bbba e532 abbb
000001a0: 7d89 7fbb d299 9bba d63c edba bad8 9fbb
000001b0: e7a7 87bb ad57 d0bb 6523 24bb 97e9 7abb
000001c0: 13d6 0ebb 1942 1dbc 12fd 9dbb 1e27 f6ba
000001d0: af52 f4ba fae4 f8ba be18 4cbb 324b 19bc
000001e0: 4d4c f83a 5b98 4c3b 236c 7abb 3d88 b23a
000001f0: f433 f6bb 0d1c 183b 896c 323c f3cc 283b
-0.0008390071 0.00050721096 0.00025881283 -0.0042005437 -0.0019736653 -0.011302199 0.002263064 -0.0050049904
-0.0023570734 -0.0042278334 -0.0050185644 -0.002154922 -0.008503019 0.0025006097 0.0035388663 0.0059439023
0.0016955718 -0.0015926999 -0.004812614 -0.0051004216 -0.011533251 -0.007111247 0.00061664666 -0.0016910124
0.0026947523 0.012717034 -0.00086763036 0.0028723138 -0.0021267515 0.00451404 -0.0024790831 0.00016920529
0.006481578 0.0029081847 -0.005493316 -0.0015716159 0.00069514435 -0.00012216877 -0.0013099002 -0.00042957385
-0.00095123803 -0.0003742768 -0.0032919445 -0.0058593135 0.00063799904 -0.00027714254 -0.0023292806 0.001628381
0.004210926 0.000642331 0.0016435342 0.012025535 0.0037952818 0.0020854275 0.000817714 0.00044690014
-0.0020324737 -0.0045312317 -0.007521009 0.005992103 0.0010892121 -0.00044054538 0.0031450705 -0.0039175386
-0.0012387253 -0.0030743266 -0.0059768218 -0.015096856 -0.0068941154 -0.0022883017 0.0020652656 0.0005746598
-0.010116076 0.0037422609 -0.0010624734 -0.003432212 -0.002041241 0.010433898 0.0061531854 0.008782336
-0.003968357 0.00016650671 -0.003233964 0.003292785 0.0037117423 0.012336486 -0.01139843 -0.0012855332
-0.0023300285 0.0021707856 -0.0044313045 0.0018068547 -0.010823469 0.0024046807 -0.0055487556 -0.002253076
-0.0017530669 0.012360606 0.0018211751 7.575274e-05 -0.0034755378 0.0003700914 -0.0014305039 -0.005224573
-0.0038991862 -0.0011871404 -0.0018099796 -0.0048781307 -0.0041398886 -0.006358108 -0.002504551 -0.0038286203
-0.0021795079 -0.009598278 -0.004821428 -0.0018779968 -0.0018640364 -0.0018989139 -0.0031142677 -0.009356307
0.0018943638 0.003121874 -0.0038211427 0.0013620924 -0.0075135175 0.002321008 0.010890135 0.0025756925

action_model._continuous_distribution.log_sigma f4 [1, 2]
00000000: 4ac5 be3a d7c5 093c
0.0014554646 0.008408985

action_model._continuous_distribution.mu.weight f4 [2, 128]
00000000: 73c0 90bb 1b6c 87bc 9fe1 87bc 49e2 a2bb
00000010: a6d2 e1bc 9607 883c 06c8 043c 3db1 74bc
00000020: c210 553c 6d2a f6bb 85e9 a93c 0141 76bc
00000030: 11a3 fbba fddc 46bc 0ff4 86bc 5d32 e83c
00000040: 4bd0 01bc c1e7 25bc 42fc 893c 9235 993c
00000050: d40d 923a 3d22 2b3c 9f0e 933c c952 2d3c
00000060: ed44 e7bb 73ec 9cbc 5b74 0f3c 2597 40bc
00000070: 90ae a43c 7bc0 04bd a942 183d ba4c edba
00000080: 5406 8cbc 3c4c 6bbb d6b4 033c 64fd 83bc
00000090: 294f bf3c 0071 eabb a118 403d 2fc7 8d3c
000000a0: 7021 6cbb 01fd 6abc 3840 d93c 8490 60bc
000000b0: 8e8c c83c 8d65 e4bb 7b5e e73b db24 213c
000000c0: e896 f1bc 7dbf 3fbd b08e e13b d16c 823c
000000d0: 1bfa 163c 31f1 89bc ca12 1c3c 1650 53bc
000000e0: 3e35 5f3c 579a 1f39 a18c ac3c c149 0b3d
000000f0: 2057 f83b e3ae c4bc fcd2 3cbc 1e89 4b3b
00000100: 0402 c8bb 10ef 9e3c 89c6 d53c dbc4 d9bc
00000110: fef1 c63b 7e7a 85bb ecc3 093c 403a f53c
00000120: 04fa 023c cab7 03ba b55c 8dbc 2c6d b23c
00000130: 5725 193b aa67 9a3c b2a8 75bc e273 d53b
00000140: a8dd 083c 8fb6 ca3b fc6e ba3c 8686 2ebd
00000150: a1fe b0bc 4dac 26bd 6f45 803c 0ab1 dbba
00000160: 864a 033c 68c9 02bd db0c 083d 5120 c03a
00000170: c838 74bc b605 643c 5739 403b 69ee 39ba
00000180: b423 bdb9 1b9d 67bc b22e c5bc b2a0 94b9
00000190: c9bd 073d 313e c239 4aae 1c3d 1f70 dabc
000001a0: 1df0 acbb 1cc7 923c f573 8c3c bada 09bc
000001b0: 093b 48ba 9d98 8eba 990f ac3c 1c51 d03c
000001c0: aecf f9bc 942a 013b 81e2 a4bb 090f 2abb
000001d0: 8d7e c1bc c5f6 b43c 4ed1 273c 9721 5d3c
000001e0: 99f0 88bc b17c b63b b941 22bc 526e 6dbc
000001f0: 13bb 6ebb 491a 08bd 7989 9ebc c25e ef3c
00000200: 530d 84bc 9146 cf3c 81b3 8dbc a63f 80bc
00000210: be9c ae3c 73f6 a0bb 8d4d 11bb b294 d23b
00000220: 0780 a43c 7a53 3cbb a9ef 4fbc 1db6 54bc
00000230: dabf c53b 07f2 ae3b 9d6c ffbb a7ba a4bc
00000240: bbae b7bc 5781 b4bb f192 14bc c23a bcbb
00000250: 7cb6 8ebc acc2 dfbc cb91 8cbc 97b8 373c
00000260: 11d9 203b 4539 7f3a 9ace 5cbc af75 813c
00000270: 973d 1ebc 123e aabc facc 75bc c7d0 92bc
00000280: ee63 9abb 20b4 b4bc 9463 ddbc ac4c 30bb
00000290: ea60 6f3c 40de cabb 32f8 18bc 7233 ebbb
000002a0: e64c 74bb c77e f73b 1575 823b f715 61bb
000002b0: a175 b6bc 0dc1 903c 2b80 9cbc 52c1 fc3c
000002c0: 35c1 e13b 7df6 463b 89ea bebc bbcc 10bd
000002d0: 64ba 203c 39c5 14bc b88f ce3c c806 6ebc
000002e0: 8ca5 343c aef4 e63a 16fd 88bc bcea 313c
000002f0: 1269 48bc fb66 043b 7ec7 58bc a418 663c
00000300: edf6 7fbc 7f14 023a 53bc cebc 88aa 34bc
00000310: b134 043c df74 d3bb d38c 85bc 0896 98bc
00000320: c8e5 273b 3a21 41bc b5fa 3abc 2757 833b
00000330: c2c2 0e3c 2f20 01bd 0aab aa3b 4931 f5ba
00000340: 5af8 b9bc cfc3 2cbc c97e e13b 9928 9a3c
00000350: c460 4d3c b523 2f3c a045 b43c c493 dbbc
00000360: 5117 0a3c 8202 2ebc b3be 4abc 3f1c 40bc
00000370: 37b9 79bb 3b79 dbbc a1a2 b33c 04d4 f4bb
00000380: f2d7 9cbc f2e0 cf3b 999f b73b 4c32 7f3c
00000390: b8b5 36bc 59bb fbbb 8adc 833c 8313 46bb
000003a0: 0bbf a93c 3be6 353c cb95 c1bb bb28 99bc
000003b0: e24e 84bc 3d8d 583c 3611 91bc 502f ab3b
000003c0: a30f 9d3a a2af 653a 2c80 a73b 902d 833b
000003d0: e96c 143c 1761 823c 7419 3e3c 005b 8abb
000003e0: 3f32 1d3c 9778 ddbb 23d3 dabc 0f99 703c
000003f0: 32eb 313c 6d8a 53bc 4d8f 923b e60e b4bc
-0.004417473 -0.01653104 -0.016587077 -0.004970823 -0.027566265 0.01660518 0.00810433 -0.014934835
0.013004484 -0.0075123818 0.020741234 -0.015030147 -0.0019198378 -0.012137649 -0.016473798 0.028344328
-0.007923196 -0.010126055 0.016843919 0.018702302 0.0011143037 0.010445175 0.017951308 0.01057882
-0.007057777 -0.019155717 0.008755769 -0.011754786 0.02010277 -0.032410126 0.037172947 -0.0018104531
-0.017092861 -0.0035903594 0.00803872 -0.016112037 0.023353176 -0.007154584 0.046898488 0.017306892
-0.0036030672 -0.014342547 0.02651988 -0.01370633 0.024481084 -0.0069701136 0.0070608235 0.009835447
-0.029490903 -0.046813477 0.0068834648 0.015921028 0.009214903 -0.016838642 0.009525964 -0.012897512
0.013623534 0.00015220918 0.02106315 0.034005884 0.0075787455 -0.024009174 -0.011524912 0.003105707
-0.006103756 0.019401103 0.026095646 -0.026583126 0.006071328 -0.00407344 0.008408528 0.029935002
0.007994179 -0.000502464 -0.01725612 0.021780573 0.0023368204 0.018848259 -0.014993833 0.0065140584
0.008353628 0.0061863135 0.022758 -0.04260876 -0.021605792 -0.040691663 0.015658109 -0.0016761136
0.008013373 -0.031930357 0.033215385 0.0014658069 -0.014906116 0.013917377 0.0029331052 -0.0007092716
-0.0003607549 -0.014136578 -0.024070118 -0.00028348487 0.033139978 0.000370489 0.038252153 -0.026664792
-0.005277647 0.017917208 0.017145136 -0.008413965 -0.00076381915 -0.0010879223 0.021003531 0.025429301
-0.030494537 0.0019709216 -0.005031884 -0.0025948903 -0.023619914 0.022090325 0.010242773 0.013496778
-0.016716288 0.0055690636 -0.009903365 -0.014491634 -0.0036427423 -0.033228192 -0.019352661 0.029219989
-0.016119635 0.025302203 -0.017297508 -0.01565535 0.021314975 -0.0049121915 -0.0022171468 0.0064264173
0.02008058 -0.002873628 -0.012691417 -0.012982872 0.0060348334 0.0053389105 -0.00779493 -0.020108534
-0.022422185 -0.0055085826 -0.009068237 -0.005744309 -0.017421 -0.027314506 -0.017159363 0.011213443
0.0024543444 0.0009736012 -0.013476992 0.015803186 -0.009658239 -0.02078155 -0.0150024835 -0.017921818
-0.0047116196 -0.022058547 -0.027025022 -0.0026901169 0.014610508 -0.006191045 -0.009336518 -0.0071777636
-0.003727728 0.007552955 0.0039812424 -0.0034345367 -0.022272887 0.017670179 -0.019104084 0.030853901
0.006889487 0.003035932 -0.023305194 -0.035351496 0.009810064 -0.009080225 0.025215015 -0.014527984
0.011025798 0.0017620528 -0.016722243 0.010859188 -0.012232082 0.0020202983 -0.013231156 0.014043961
-0.015622837 0.00049621606 -0.025236284 -0.011026986 0.008069203 -0.006453141 -0.016302502 -0.018626228
0.0025619138 -0.011787707 -0.011412312 0.004008192 0.008713426 -0.031524833 0.0052083777 -0.0018706705
-0.022701431 -0.010544731 0.006881569 0.018818187 0.012535278 0.010689666 0.022005856 -0.026803859
0.008428411 -0.010620715 -0.012374568 -0.011725484 -0.0038104781 -0.026791206 0.021928133 -0.0074715633
-0.01914594 0.0063439542 0.0056037423 0.015575957 -0.011151724 -0.0076822457 0.016096372 -0.0030224032
0.02072098 0.0111022545 -0.0059077493 -0.01869618 -0.016150896 0.013217268 -0.017708402 0.005224146
0.001198281 0.0008761828 0.005111715 0.004003234 0.009059169 0.015915437 0.011602748 -0.004222274
0.009594499 -0.00675876 -0.026712006 0.0146849295 0.010859298 -0.012911421 0.004472649 -0.02197976

action_model._continuous_distribution.mu.bias f4 [2]
00000000: 637e f3ba b9c8 243a
-0.0018577095 0.00062860135

exp_avg f4 [128, 6]
00000000: 7219 c239 f700 56b8 c8e4 46b9 d1d8 ae39
00000010: f700 d6b9 661d ba39 6462 e139 d5ba c0b7
00000020: 2c50 a1b9 6b24 e539 d5ba 40b9 6f2e c639
00000030: 7419 b139 67a4 49b8 680f 41b9 90cb ceb6
00000040: 67a4 c9b9 9646 84b8 b28d feb9 5393 4b38
00000050: 347d 083a 3384 2ab9 5393 cb39 608a 31ba
00000060: de42 f7b8 cfa9 b537 6491 50b9 a071 c137
00000070: cfa9 3539 e4ea 6338 7fb4 01ba 7270 32b7
00000080: 4276 9a39 e2aa a0b8 7270 b2b8 c84a 89b8
00000090: 8c9e 9b39 9c9b 0538 4266 c7b8 440d 9238
000000a0: 9c9b 8539 e39c a2b8 10cf e539 9409 68b7
000000b0: bc02 48ba 0016 70b8 9409 e8b8 7949 553a
000000c0: 3742 79b9 3478 64b5 6f8a 7839 26ec 8e38
000000d0: 3478 e4b6 660e deb7 3c8c dc39 77fd eab6
000000e0: e61c aab9 78a6 013a 77fd 6ab8 d05b ac39
000000f0: 7022 e336 c0e4 e5b4 4c16 bbb9 6ada 4c38
00000100: c0e4 65b6 b0bf 2739 c9a2 deb9 e279 a7b8
00000110: bd10 4eb9 e383 26ba e279 27ba 4a9a 2039
00000120: 0ca9 ca39 c662 f837 99e9 04b9 e202 9e39
00000130: c662 7839 52f5 e437 0440 96b8 e72f 9d37
00000140: de1f 00b9 e873 ebb8 e72f 1d39 6843 b437
00000150: d4b8 95b9 b58b 93b7 e05f 7539 f255 50b9
00000160: b58b 13b9 f500 03b9 74e9 77b6 9a2e 8cb7
00000170: 4e91 b338 6bfd 16b9 9a2e 0cb9 f327 40b9
00000180: ec70 c4b8 063d 0937 a727 ef38 f8c0 6437
00000190: 063d 8938 e7cf 45b8 8b71 d0b9 b48e 1b38
000001a0: e8ca 8939 361b 26b8 b48e 9b39 70e7 99b9
000001b0: 00e5 7bb5 768b b837 58c8 b2b8 b67e 5239
000001c0: 768b 3839 55d0 8838 09aa 41b9 8c53 84b7
000001d0: 0011 fab6 ed5e 51b8 8c53 04b9 fc3d 6d39
000001e0: 76bb 1aba cd83 5e38 e444 1f3a 9d54 b0b8
000001f0: cd83 de39 503e 85ba bc03 a9b9 2685 8437
00000200: a7cf 2bb9 c8a0 3036 2685 0439 f0a7 d5b6
00000210: d930 2bb9 1057 0ab7 82b0 0f39 e4a2 5db8
00000220: 1057 8ab8 0663 98b8 1233 8d37 254c 19b6
00000230: 943a e9b6 ca72 f5b5 254c 99b7 7a04 5236
00000240: a826 7037 22a2 aa37 372e 48b9 40fe 76b8
00000250: 22a2 2a39 7607 e437 acc4 01b8 461b e737
00000260: 46d9 3a39 80c1 3d36 461b 6739 40c3 1538
00000270: 08f8 6938 92f4 9c37 a0d5 2d39 6e28 e538
00000280: 92f4 1c39 1207 d337 781e c1b9 f1a4 a137
00000290: a239 4db8 1bf3 afb9 f1a4 2139 c467 17b9
000002a0: b82d ccb7 2ff7 83b7 b814 1639 cdbc 1f39
000002b0: 2ff7 03b9 29c6 85b9 fc59 5239 f51d 8ab7
000002c0: 3eec 10b9 f8da 4ab8 f51d 0ab9 1a15 d4b7
000002d0: 644c aeb7 77cd 2735 76dc a137 e492 b5b8
000002e0: 77cd a736 30fa deb7 e86c 1e39 4aba 9237
000002f0: f954 1bba 9251 a1b8 4aba 1239 0588 6439
00000300: 0cc5 5eb7 7ba4 0536 c598 c9b8 da8e eeb7
00000310: 7ba4 8537 9e7f deb8 3be6 1438 f439 14b8
00000320: b044 80b8 cc35 ea37 f439 94b9 cdff a7b9
00000330: 2168 bd39 ee6f 11b8 a41b 46b9 7250 a039
00000340: ee6f 91b9 b7fe c639 9d7e 0eba 06dd 32b7
00000350: e867 eb39 4d1d aab9 06dd b2b8 365b 0f37
00000360: 1079 7fb9 2e3e bbb7 0136 4139 5025 4cb7
00000370: 2e3e 3bb9 e603 15ba 5316 c039 716c 6538
00000380: 3a98 c3b9 fa9e b339 716c e539 68aa 4d3a
00000390: f8a9 ff38 7232 1238 d380 ddb9 eae5 04b9
000003a0: 7232 9239 cc00 af39 5c4a 1339 0029 13b4
000003b0: d6dc e1b8 cb7c 5c39 0029 93b5 f3fd f538
000003c0: 6872 b9b9 36eb 7db7 80b2 2139 ba91 6fb9
000003d0: 36eb fdb8 bd94 f538 0c23 59b9 9fde 9db7
000003e0: 5745 1a38 cf5e 2fb9 9fde 1db9 224b c438
000003f0: 54fe 2c3a 4ce5 1db8 0012 5bba 7d9b 4139
0.00037021522 -5.1022475e-05 -0.00018967979 0.00033349407 -0.0004081798 0.00035498588 0.0004298865 -2.2975184e-05
-0.00030768046 0.00043705417 -0.00018380147 0.000378001 0.00033779035 -4.8075246e-05 -0.00018411654 -6.162976e-06
-0.00038460197 -6.307398e-05 -0.00048552227 4.8536178e-05 0.0005206645 -0.00016261711 0.00038828942 -0.00067726336
-0.00011790333 2.1655955e-05 -0.00019890588 2.3060304e-05 0.00017324764 5.4339776e-05 -0.00049478555 -1.06358075e-05
0.00029461278 -7.661224e-05 -8.508646e-05 -6.546598e-05 0.0002968203 3.1854594e-05 -9.5081065e-05 6.9642934e-05
0.00025483675 -7.7539844e-05 0.00043832557 -1.3830508e-05 -0.0007629802 -5.7240948e-05 -0.00011064406 0.00081362535
-0.00023771157 -8.511154e-07 0.00023702694 6.815074e-05 -6.808923e-06 -2.6471167e-05 0.00042066153 -7.0032506e-06
-0.00032446458 0.0004945765 -5.6026005e-05 0.00032874802 6.7691362e-06 -4.2821011e-07 -0.00035684032 4.8840804e-05
-3.425681e-06 0.0001599777 -0.00042464424 -7.985883e-05 -0.00019651926 -0.000635205 -0.00063887064 0.00015316266
0.00038654392 2.9609899e-05 -0.00012675523 0.00030138256 0.00023687919 2.7293954e-05 -7.164481e-05 1.8738165e-05
-0.00012218903 -0.000112272624 0.00014990532 2.148906e-05 -0.00028557202 -1.7588822e-05 0.00023400737 -0.00019868443
-0.00014071057 -0.0001249349 -3.6941756e-06 -1.6711001e-05 8.56245e-05 -0.0001439952 -0.00013368801 -0.00018325429
-9.367042e-05 8.1800445e-06 0.00011403794 1.3634788e-05 6.5440356e-05 -4.7162084e-05 -0.00039757448 3.7087782e-05
0.00026281853 -3.9602826e-05 0.00029670226 -0.00029354868 -9.3838025e-07 2.199945e-05 -8.525018e-05 0.00020074364
0.0001759956 6.52379e-05 -0.00018469257 -1.577453e-05 -7.4525597e-06 -4.991789e-05 -0.00012619625 0.00022625172
-0.00059025676 5.3051674e-05 0.0006075634 -8.4080944e-05 0.0004244134 -0.0010165665 -0.00032236974 1.5797628e-05
-0.00016385187 2.631963e-06 0.00012638103 -6.367445e-06 -0.00016326028 -8.245712e-06 0.00013703297 -5.284221e-05
-6.5965694e-05 -7.266369e-05 1.6832291e-05 -2.2843099e-06 -6.9507605e-06 -1.828733e-06 -1.8274479e-05 3.1295044e-06
1.4314115e-05 2.0341078e-05 -0.00019090703 -5.888776e-05 0.00016272863 2.7183192e-05 -3.093916e-05 2.7550046e-05
0.00017819283 2.8275826e-06 0.00022040037 3.570621e-05 5.5782526e-05 1.8710536e-05 0.00016578147 0.000109271015
0.00014968429 2.5156452e-05 -0.0003683453 1.9269502e-05 -4.8929483e-05 -0.0003355973 0.00015415602 -0.00014439138
-2.4339985e-05 -1.573152e-05 0.00014312833 0.00015233755 -0.00012585217 -0.00025515378 0.00020060682 -1.6464832e-05
-0.00013820917 -4.8364484e-05 -0.00013171865 -2.5282196e-05 -2.0777989e-05 6.251134e-07 1.9295356e-05 -8.658113e-05
5.000907e-06 -2.6580965e-05 0.00015108625 1.7491304e-05 -0.00059254427 -7.692272e-05 0.00013993043 0.00021794446
-1.327811e-05 1.9914285e-06 -9.6128824e-05 -2.8438331e-05 1.5931428e-05 -0.000106095555 3.550037e-05 -3.5339923e-05
-6.11631e-05 2.7920025e-05 -0.00028271938 -0.0003204331 0.0003612647 -3.4674937e-05 -0.00018893048 0.00030577515
-0.0002773995 0.0003795528 -0.0005435737 -1.0661088e-05 0.0004490011 -0.00032446758 -8.52887e-05 8.544701e-06
-0.00024363794 -2.2321092e-05 0.00018426032 -1.2168035e-05 -0.00017856873 -0.000568448 0.00036637727 5.469885e-05
-0.00037306716 0.00034259987 0.0004375908 0.0007845522 0.00012191007 3.4856093e-05 -0.00042248386 -0.0001267415
0.00027884875 0.00033379195 0.00014046713 -1.3705358e-07 -0.0001076997 0.00021027324 -1.0964286e-06 0.00011729812
-0.0003537119 -1.5134739e-05 0.00015420653 -0.00022847104 -0.000121077916 0.00011710215 -0.00020707789 -1.8819524e-05
3.678104e-05 -0.0001672462 -0.0001505562 9.360003e-05 0.0006599177 -3.7645266e-05 -0.0008356869 0.00018463838

exp_avg_sq f4 [128, 6]
00000000: 83a1 7736 a5a2 6533 01b4 8736 7a4a 6536
00000010: adb8 6736 a1c1 b936 140a 8636 6c2e 4f33
00000020: cb61 6936 3481 0f36 a59f 5036 68f8 ca36
00000030: 36ff 0636 a0c2 cb32 83d2 0c36 2462 dd35
00000040: 3e72 d535 3bd1 5235 d213 0636 314d bb32
00000050: b2a7 0336 20f4 4b35 2b3f bd35 e69c 4a36
00000060: ff3f ff35 3468 bc32 6f62 a835 7ac3 6635
00000070: 51db c035 bf2e 3336 33c8 1137 202b 0034
00000080: a2c2 3437 8915 4137 7fa3 0737 acd9 2637
00000090: e4e6 1b36 af10 c732 0d7a 2c36 da29 3036
000000a0: efef d135 adb8 b435 ed18 2b36 f34b 2533
000000b0: 1bd1 3036 b2b6 2036 48bf 2736 93c2 4636
000000c0: 8d4d 7735 ac39 3732 6f75 9a35 d52a 2c35
000000d0: 1555 3d35 6f9c 9235 b211 7a36 7b92 3b33
000000e0: 7e6d 7e36 3eaa 1036 a60c 4036 6f45 8836
000000f0: ea8a d435 d201 c932 e7e5 ec35 738a c135
00000100: 0eca cd35 17e6 3836 9c37 f635 c8e9 d032
00000110: 25d2 e535 457a 4d36 c534 d635 19f2 8235
00000120: 4f37 e535 3d3f 4732 fba1 cf35 2d98 e935
00000130: 4ff3 5635 6801 1335 6f15 0a35 f871 a631
00000140: 813f 4435 4362 c934 ba9a aa34 d857 7334
00000150: 377c 9e34 cfb8 9a31 7d10 1b35 fa54 1435
00000160: 4660 a634 0e4a 9f34 b766 2134 dffd 1e31
00000170: 76d3 7b34 3a80 4534 f71d 2034 7c9e 6934
00000180: fe0b 4434 af42 0d31 cddd 3f34 dd1f 9634
00000190: 2770 1534 f1e1 0a34 8314 fb35 b4ec b832
000001a0: 83e8 0536 b620 6535 cc37 bc35 bf4e 3936
000001b0: a664 7135 f3b6 4d32 9dd9 9735 439b ab35
000001c0: b11f 5335 7de5 1635 5fc1 c434 8756 aa31
000001d0: 0a7c 8234 5f66 d934 cca5 ad34 70d8 1635
000001e0: 3c81 8336 47bd 5633 cd2e ac36 f931 ad35
000001f0: 6af7 5836 0770 ea36 d14e 9036 e635 5f33
00000200: 94cb b636 2ea4 7236 ad3f 6e36 9441 9136
00000210: 343a d635 03a2 ba32 bb46 d435 fe8c 2f35
00000220: 2714 be35 6de0 6836 038b 8b32 6daf 1b2f
00000230: c9c4 7032 4bb3 b031 f0f1 2032 ffdc 8732
00000240: 07f1 7034 4da6 9531 2f65 7134 5d07 b734
00000250: 4ca7 9b34 6ec1 8a34 9aa6 2136 8b14 dc32
00000260: 71a6 5236 d720 6336 3708 f435 8703 ed35
00000270: 7513 9735 f38d 3a32 1ce6 5135 fbe2 cc34
00000280: c361 3c35 2578 5935 b7bb a435 85a7 5832
00000290: 226d b135 bb87 1e35 7cd1 5935 ae46 ab35
000002a0: 2e5e 8c35 dd50 0c32 6f05 ea34 2edd 3e35
000002b0: a71e 0e35 719d 0e35 160b b235 149b 8732
000002c0: bf3a 1636 dd59 8b35 cab6 8735 9a2f 0f36
000002d0: 4020 9033 d00f 6330 414c 1134 eb2e 8933
000002e0: b36e 7933 ad41 ba33 de28 e736 ab1e b533
000002f0: 023a 0437 74f0 6a36 d9e0 b936 5615 0537
00000300: 218b 6d35 d863 1432 555f 6d35 ee86 4435
00000310: 147c 1e35 f702 fe34 d2e6 7f35 cc58 3932
00000320: 9553 b035 ddd7 5835 30c4 4235 1960 4335
00000330: 2fbf 1436 4747 c332 a2a7 0236 6971 1d36
00000340: bdc4 cc35 3917 9135 0c4a 6935 4087 3432
00000350: fd10 8f35 2833 3635 e7d4 3935 edc9 3935
00000360: b5ce 2b35 6a09 3b32 b63b 6b35 f3a2 6835
00000370: d03a 3c35 42fa 8f35 6aa0 c136 168f 7133
00000380: e318 c236 3ee2 1f36 31ef 7436 0b4b 9a36
00000390: b824 2836 a0f0 0c33 8b82 f135 8ff0 b135
000003a0: b0a6 0d36 a416 6b36 7deb 4135 a658 ff31
000003b0: 9df6 8535 4080 2935 d2e6 0335 e18b 3a35
000003c0: b642 0636 9505 a732 e532 5636 b569 1e36
000003d0: 2d56 b135 bc26 eb35 485c 1435 cd18 6431
000003e0: fe9a da34 8e63 ec34 c1c9 7f34 79e4 8834
000003f0: 9fff 1037 8a62 0434 52d2 6537 f7a3 6637
3.689988e-06 5.346614e-08 4.0442687e-06 3.416701e-06 3.4529178e-06 5.535971e-06 3.9946844e-06 4.8238164e-08
3.4776629e-06 2.1383867e-06 3.108734e-06 6.0489874e-06 2.0116108e-06 2.3720816e-08 2.098416e-06 1.6494346e-06
1.5902986e-06 7.8535567e-07 1.9979093e-06 2.1804768e-08 1.9618133e-06 7.597864e-07 1.4099982e-06 3.0191673e-06
1.9017606e-06 2.1933467e-08 1.2545623e-06 8.596613e-07 1.4368944e-06 2.6700288e-06 8.689286e-06 1.1936618e-07
1.07741525e-05 1.15087105e-05 8.084694e-06 9.945052e-06 2.3231196e-06 2.3174236e-08 2.570104e-06 2.6250405e-06
1.5641543e-06 1.3464793e-06 2.5495494e-06 3.848613e-08 2.634776e-06 2.39482e-06 2.499628e-06 2.9617556e-06
9.212752e-07 1.0665115e-08 1.1508072e-06 6.413732e-07 7.05318e-07 1.0923376e-06 3.7263203e-06 4.3672554e-08
3.7912682e-06 2.1556766e-06 2.8617592e-06 4.061199e-06 1.583566e-06 2.3400307e-08 1.7650281e-06 1.4419915e-06
1.5332496e-06 2.7552067e-06 1.8344613e-06 2.4320698e-08 1.712299e-06 3.061855e-06 1.59596e-06 9.756214e-07
1.7077926e-06 1.1597703e-08 1.5469844e-06 1.7404142e-06 8.0075273e-07 5.4763814e-07 5.1440196e-07 4.8441926e-09
7.31081e-07 3.7510662e-07 3.1777546e-07 2.2663096e-07 2.9520172e-07 4.503e-09 5.7765993e-07 5.5257954e-07
3.0989958e-07 2.966994e-07 1.5031661e-07 2.3136335e-09 2.3453126e-07 1.8393703e-07 1.4912062e-07 2.1757472e-07
1.8258285e-07 2.0556106e-09 1.7868952e-07 2.796286e-07 1.3917507e-07 1.2934449e-07 1.8706927e-06 2.152806e-08
1.9953884e-06 8.535675e-07 1.402333e-06 2.7612984e-06 8.992596e-07 1.1974168e-08 1.131371e-06 1.278568e-06
7.864974e-07 5.6213304e-07 3.664854e-07 4.957488e-09 2.4304637e-07 4.0493885e-07 3.2344394e-07 5.619431e-07
3.919149e-06 4.9997904e-08 5.131448e-06 1.2904048e-06 3.2330522e-06 6.986785e-06 4.30071e-06 5.1970254e-08
5.4477223e-06 3.6156375e-06 3.5501828e-06 4.328971e-06 1.5961182e-06 2.1726924e-08 1.5815816e-06 6.539775e-07
1.4161968e-06 3.4701327e-06 1.6244945e-08 1.4159492e-10 1.4014582e-08 5.1426574e-09 9.368236e-09 1.5816566e-08
2.2439427e-07 4.355377e-09 2.2481684e-07 3.4091764e-07 2.8992724e-07 2.5845242e-07 2.4087844e-06 2.5620713e-08
3.138932e-06 3.3844751e-06 1.8181807e-06 1.7658903e-06 1.125604e-06 1.08589004e-08 7.819342e-07 3.816311e-07
7.017772e-07 8.101363e-07 1.2273584e-06 1.2610944e-08 1.321929e-06 5.90571e-07 8.114364e-07 1.2761063e-06
1.0458223e-06 8.167459e-09 4.358985e-07 7.1102374e-07 5.294373e-07 5.312823e-07 1.326526e-06 1.578659e-08
2.2385937e-06 1.0382461e-06 1.0111482e-06 2.1336368e-06 6.711389e-08 8.260459e-10 1.3531918e-07 6.388094e-08
5.807551e-08 8.673246e-08 6.889094e-06 8.434048e-08 7.881319e-06 3.500868e-06 5.5396054e-06 7.932385e-06
8.849184e-07 8.637436e-09 8.8428106e-07 7.321204e-07 5.9040144e-07 4.7313344e-07 9.533079e-07 1.0788607e-08
1.3137347e-06 8.0780393e-07 7.255612e-07 7.2783e-07 2.2165002e-06 2.2733401e-08 1.9469085e-06 2.3460836e-06
1.5256443e-06 1.08101e-06 8.6907016e-07 1.0508131e-08 1.0659274e-06 6.7874726e-07 6.9227684e-07 6.921171e-07
6.400326e-07 1.0886973e-08 8.7631213e-07 8.666386e-07 7.012104e-07 1.0727165e-06 5.770523e-06 5.624232e-08
5.7845477e-06 2.3824537e-06 3.649806e-06 4.598294e-06 2.5055324e-06 3.2815137e-08 1.7993892e-06 1.3257539e-06
2.1107662e-06 3.5030907e-06 7.2240783e-07 7.431555e-09 9.981046e-07 6.3144034e-07 4.913719e-07 6.949395e-07
2.0006387e-06 1.9443897e-08 3.191811e-06 2.3605364e-06 1.3212608e-06 1.7520138e-06 5.5268583e-07 3.3192464e-09
4.0718436e-07 4.403086e-07 2.3822123e-07 2.549821e-07 8.642585e-06 1.2329306e-07 1.3698433e-05 1.3747244e-05

exp_avg f4 [128]
00000000: f200 56b8 daba c0b7 69a4 49b8 5593 4b38
00000010: d2a9 b537 9870 32b7 9e9b 0538 7c09 68b7
00000020: d477 64b5 7dfd eab6 40e3 e5b4 df79 a7b8
00000030: cd62 f837 e32f 9d37 af8b 93b7 9b2e 8cb7
00000040: 0a3d 0937 b58e 1b38 708b b837 9653 84b7
00000050: cb83 5e38 1e85 8437 2057 0ab7 274c 19b6
00000060: 18a2 aa37 461b e737 8af4 9c37 eea4 a137
00000070: 2ff7 83b7 f31d 8ab7 96cd 2735 4dba 9237
00000080: 7da4 0536 f639 14b8 f46f 11b8 02dd 32b7
00000090: 373e bbb7 726c 6538 7732 1238 0028 13b4
000000a0: 3ceb 7db7 a5de 9db7 5ce5 1db8 7485 c335
000000b0: c12a 35b7 18a0 dc37 6cfb 1bb6 94b5 ec36
000000c0: 2a4a ae37 ab04 15b8 e82f 7a37 90ed efb6
000000d0: 87a5 dfb6 eee4 0738 f4cd e0b5 0d17 7a37
000000e0: b6f2 9037 80b4 4135 6fb2 fdb4 de66 7db8
000000f0: 9273 02b8 e44f 8fb7 0a83 38b7 4009 60b4
00000100: eaa2 7a36 33e3 0bb7 646a dc36 eafb 2536
00000110: 5f10 5fb7 438a 9eb7 b273 4738 e1b0 16b7
00000120: ccce 1f36 2cd9 ae36 7d98 9cb7 503b 8334
00000130: 816b 2438 3a4e 9737 706a 90b7 0df0 8137
00000140: e0ea ca35 8df5 c1b6 f856 82b6 37a4 d236
00000150: 6dd9 02b7 c437 87b7 7a9a 84b7 0a8d e136
00000160: 821b 58b8 1f52 6837 f6dc d1b7 1431 a537
00000170: 7e09 acb5 3acf 3cb6 2352 3bb6 65c3 0038
00000180: 4a0f cdb6 7587 85b8 05bf b137 beb0 c436
00000190: 34e3 6c37 a857 cdb7 0505 f437 809f 4134
000001a0: a580 99b7 40d6 c436 29f4 ca37 50c0 acb6
000001b0: 8003 6834 ac6e 9336 1e12 3fb8 e823 feb6
000001c0: 4773 9637 54fb b937 fad9 bc37 140c 1138
000001d0: bf4f 65b8 44a2 9ab7 40c7 1e38 00b0 f637
000001e0: bc3c 1b36 7fad ceb6 543f 96b7 0964 af36
000001f0: a6be 3137 8ba5 0638 799e 5bb7 e66c 04b7
-5.1022456e-05 -2.2975193e-05 -4.8075253e-05 4.8536185e-05 2.165596e-05 -1.0635842e-05 3.18546e-05 -1.3830486e-05
-8.511099e-07 -7.0032534e-06 -4.281992e-07 -7.985881e-05 2.9609912e-05 1.8738157e-05 -1.758881e-05 -1.6711003e-05
8.180048e-06 3.7087786e-05 2.199944e-05 -1.5774549e-05 5.3051666e-05 1.5797614e-05 -8.245726e-06 -2.2843103e-06
2.034106e-05 2.7550046e-05 1.8710522e-05 1.9269497e-05 -1.573152e-05 -1.6464828e-05 6.2511515e-07 1.749131e-05
1.991429e-06 -3.533993e-05 -3.467496e-05 -1.0661084e-05 -2.2321108e-05 5.4698852e-05 3.485611e-05 -1.3704994e-07
-1.5134745e-05 -1.8819535e-05 -3.7645324e-05 1.4567472e-06 -1.0798395e-05 2.6300593e-05 -2.3243147e-06 7.0544866e-06
2.0776952e-05 -3.5528716e-05 1.4912315e-05 -7.150411e-06 -6.665188e-06 3.2399716e-05 -1.6749241e-06 1.4906528e-05
1.7279159e-05 7.2160765e-07 -4.725475e-07 -6.0415703e-05 -3.110205e-05 -1.708413e-05 -1.0997765e-05 -2.0864991e-07
3.7347731e-06 -8.337945e-06 6.5688964e-06 2.473355e-06 -1.32956475e-05 -1.889945e-05 4.7553047e-05 -8.98188e-06
2.3813218e-06 5.2108862e-06 -1.8667657e-05 2.4443807e-07 3.9200768e-05 1.803703e-05 -1.7215702e-05 1.548978e-05
1.511853e-06 -5.780434e-06 -3.8844264e-06 6.277605e-06 -7.799227e-06 -1.6119222e-05 -1.580756e-05 6.7219416e-06
-5.152403e-05 1.3847398e-05 -2.5017634e-05 1.9692387e-05 -1.2817761e-06 -2.8134805e-06 -2.7912981e-06 3.0699553e-05
-6.111256e-06 -6.367165e-05 2.1188995e-05 5.8618307e-06 1.4119596e-05 -2.4478722e-05 2.9089404e-05 1.8032551e-07
-1.8298926e-05 5.866197e-06 2.4193972e-05 -5.1483876e-06 2.1607957e-07 4.3938253e-06 -4.555482e-05 -7.57397e-06
1.7935074e-05 2.2170752e-05 2.251285e-05 3.4581943e-05 -5.4672124e-05 -1.8433791e-05 3.78557e-05 2.9407442e-05
2.3132152e-06 -6.159476e-06 -1.7910883e-05 5.227052e-06 1.0594411e-05 3.2102264e-05 -1.30903145e-05 -7.893168e-06

exp_avg_sq f4 [128]
00000000: afb8 6733 a59f 5033 3b72 d532 2a3f bd32
00000010: 52db c032 80a3 0734 f1ef d132 49bf 2733
00000020: 1555 3d32 a60c 4033 0fca cd32 c634 d632
00000030: 50f3 5632 ba9a aa31 4560 a631 f61d 2031
00000040: 2770 1531 cb37 bc32 b31f 5332 cca5 ad31
00000050: 6cf7 5833 ac3f 6e33 2714 be32 f0f1 202f
00000060: 4da7 9b31 3808 f432 c361 3c32 7bd1 5932
00000070: a91e 0e32 cbb6 8732 b36e 7930 d7e0 b933
00000080: 147c 1e32 33c4 4232 bfc4 cc32 e8d4 3932
00000090: d23a 3c32 2eef 7433 aea6 0d33 d1e6 0332
000000a0: 2b56 b132 c3c9 7f31 eda7 0c34 ba72 bd32
000000b0: ed80 2632 6c4a 9832 fb27 e832 c876 be32
000000c0: 6a97 2c33 7fb7 0732 1f69 d432 f0e1 0432
000000d0: 1814 0433 485a 2032 2f51 f732 4c7f fc32
000000e0: 8d8f bf32 e60c 9932 0ff4 8a32 6215 2f33
000000f0: 7162 d032 8409 e530 07be 3b33 97e1 0033
00000100: 4b41 1231 d70d 0b33 4c4d 3732 5851 1a31
00000110: d924 3432 5509 5a32 de71 6432 109a 6633
00000120: ff39 9f32 2d83 4a32 2d90 f932 44d9 fb31
00000130: a83f f430 e3cb e131 bdff 0533 b7fe 0233
00000140: 7265 b333 d2a2 6731 0715 ce30 a594 6532
00000150: 1cd8 f331 38c3 5532 b495 3e31 fe33 1833
00000160: 317e 3f33 b718 9a32 bdb8 2433 6a57 ad32
00000170: 8760 8e30 3032 de30 54ea 1532 ce26 2033
00000180: 2f67 5132 7fb3 bd32 6c51 0b33 390a 1231
00000190: ded9 1733 1598 aa32 3cb2 0d32 8206 0332
000001a0: 3a8f 7233 fac0 5532 c304 b232 793f 5832
000001b0: e315 e332 31d3 5033 4614 6c32 cf75 8d32
000001c0: 1b40 6832 e130 3f31 e24b 2832 731e 1b32
000001d0: 10d7 3f33 c7a7 6133 5d5a 7d32 1f77 0d32
000001e0: e26a 2332 cb3f 0033 bb24 4832 b3bf d632
000001f0: ed43 9131 65a4 3133 364b 5932 b7cd b12f
5.3951847e-08 4.857397e-08 2.484841e-08 2.203122e-08 2.2451477e-08 1.2632336e-07 2.4439915e-08 3.905669e-08
1.1020593e-08 4.4714987e-08 2.3957027e-08 2.4936877e-08 1.2511762e-08 4.9652416e-09 4.8421804e-09 2.3300095e-09
2.1746105e-09 2.1911452e-08 1.2289024e-08 5.0538116e-09 5.0516448e-08 5.5471602e-08 2.2128075e-08 1.4637869e-10
4.5301136e-09 2.8409076e-08 1.0965269e-08 1.2678693e-08 8.272459e-09 1.5799193e-08 9.0742985e-10 8.655632e-08
9.2250225e-09 1.1336897e-08 2.3838195e-08 1.08168265e-08 1.0956414e-08 5.702821e-08 3.2980715e-08 7.677685e-09
2.0644697e-08 3.7222072e-09 1.3099607e-07 2.2054667e-08 9.691786e-09 1.7728972e-08 2.7026536e-08 2.2172927e-08
4.018458e-08 7.899756e-09 2.4727852e-08 7.7347835e-09 3.075192e-08 9.333753e-09 2.8791503e-08 2.9394549e-08
2.2300606e-08 1.781741e-08 1.61763e-08 4.076481e-08 2.4259153e-08 1.6664647e-09 4.371216e-08 3.0007495e-08
2.128291e-09 3.2376047e-08 1.0669577e-08 2.2456188e-09 1.0485757e-08 1.2691392e-08 1.3297237e-08 5.3691167e-08
1.853641e-08 1.1787773e-08 2.9052979e-08 7.3297617e-09 1.7771429e-09 6.571541e-09 3.1199068e-08 3.0499645e-08
8.35379e-08 3.3707477e-09 1.4994449e-09 1.3363352e-08 7.0967996e-09 1.2442619e-08 2.7733735e-09 3.5437544e-08
4.4585423e-08 1.7939199e-08 3.8352244e-08 2.0179602e-08 1.0359295e-09 1.616689e-09 8.7262215e-09 3.7288196e-08
1.2188862e-08 2.2084121e-08 3.2437512e-08 2.1251607e-09 3.5355576e-08 1.9859764e-08 8.247806e-09 7.626683e-09
5.647528e-08 1.244211e-08 2.0724093e-08 1.2587287e-08 2.6436231e-08 4.862085e-08 1.3741618e-08 1.6468134e-08
1.3518753e-08 2.7821943e-09 9.796141e-09 9.029111e-09 4.466625e-08 5.2539487e-08 1.4747084e-08 8.234365e-09
9.512151e-09 2.986034e-08 1.1649884e-08 2.5000054e-08 4.2277777e-09 4.136054e-08 1.2648163e-08 3.2342282e-10
