results/SantaMoveToGoal/MoveToGoal/MoveToGoal-34771.onnx (onnx, 75061 bytes, 7 tensors)

network_body._body_endoder.seq_layers.0.weight f4 [128, 6]
000000 d2 51 65 3e d5 10 9e be f3 34 25 3e 8e 08 a2 3e
       0.22394493 -0.30872217 0.1613348 0.31647152
000010 c3 7d 22 3f 9a a0 16 bf bd f5 83 3e 34 d5 af 3e
       0.6347315 -0.5883881 0.2577342 0.3434235
000020 cf 08 1f 3f f8 da 38 be 29 1a 63 3c 53 c0 83 3e
       0.62122816 -0.1805228 0.013861218 0.2573267
000030 a1 48 9b bf ea dc 89 3f aa c2 8b be 9f 60 9b be
       -1.213154 1.0770543 -0.27296954 -0.30347154
000040 91 3a 9e be 9a b9 4a bf c2 c4 52 be 87 58 1e 3f
       -0.30904058 -0.79189456 -0.2058287 0.6185383
000050 b5 a3 b0 3e a1 93 46 be 58 ce 1a bf 5a 4e a3 be
       0.344999 -0.19392253 -0.60471106 -0.31895715
000060 13 82 72 be 57 ab 8b 3e 53 36 14 3e 48 b3 8b 3e
       -0.23682432 0.2727916 0.14473848 0.27285218
000070 1e 24 b7 bd 67 c2 d4 be f7 42 40 3e 8f f7 28 3e
       -0.08942436 -0.41554567 0.18775545 0.16500686
000080 f3 43 d0 be dc 80 7e be 7f ce 1e bf ab c8 20 bf
       -0.4067684 -0.24853843 -0.6203384 -0.62806195
000090 78 31 94 be 72 e0 84 be 6a eb 27 bf fc 0e cd bd
       -0.28943992 -0.25952488 -0.6559359 -0.10012624
0000a0 a5 a3 a3 bd 23 41 e6 bd 38 12 f2 3e 68 af 95 be
       -0.07990197 -0.112428926 0.47279525 -0.29235387
0000b0 ac 28 cf be 0d 35 57 be 19 ab 38 3e 32 a6 e4 3d
       -0.40460718 -0.21016331 0.18034019 0.11164512
0000c0 55 1d 2e bf f6 38 85 3e 5e d8 27 3d ca da d4 3d
       -0.6801351 0.2602002 0.04097783 0.10393293
0000d0 81 dd 46 be 9c c9 11 3f c7 b7 c3 be 29 d2 3c be
       -0.19420435 0.56948256 -0.38226148 -0.18439545
0000e0 a0 c1 55 be 23 7f fa 3d 3e c0 99 be fd f9 59 be
       -0.20874643 0.12231281 -0.30029482 -0.21286769
0000f0 34 b8 77 bd dd a1 c0 3e f2 57 fc 3e dd 29 d3 bd
       -0.060478404 0.37623492 0.49285847 -0.10310719
000100 a0 ee a5 3e 9f 99 8f be e8 7f 5e 3c 59 e1 34 bf
       0.3240862 -0.2804689 0.0135803 -0.70656353
000110 6f f3 00 bf f2 9b e2 3e 91 79 0b bf 3b 8a 28 bc
       -0.5037145 0.44259602 -0.5448237 -0.010286863
000120 c7 88 4e be 2c 61 a2 bd c8 7c c7 3e 86 c0 1a bf
       -0.20169364 -0.0792869 0.38962388 -0.6045002
000130 95 74 27 3e 34 0a 06 be b7 ad 0d be 3b 6c 10 3e
       0.16353066 -0.1308983 -0.13835798 0.14103787
000140 14 19 4f 3e 10 4a b1 3d 9b 70 f6 be 85 db 3a bd
       0.2022441 0.086567044 -0.48132786 -0.045619506
000150 21 92 b8 bd 34 65 cf bd c8 13 df be 1f 21 7c 3e
       -0.09012247 -0.10126725 -0.4356978 0.2462201
000160 b8 d7 08 bf df e2 3b be 66 ac 20 be 17 04 93 be
       -0.5345416 -0.18348263 -0.15690765 -0.28714058
000170 d9 ab 0b 3f b2 ed 05 bf 72 00 98 be 2f 49 dd bd
       0.54559094 -0.5231582 -0.2968784 -0.10804974
000180 aa d5 22 3e b0 92 df be bc d0 0b 3f a7 b2 1f 3f
       0.15901819 -0.436666 0.5461538 0.62381977
000190 48 88 3e 3e 30 82 03 3e 03 59 48 3f 14 ad 2d be
       0.18606675 0.12842631 0.7826082 -0.16960555
0001a0 47 f5 5f 3f b8 d2 28 3b 21 74 b8 be 11 46 b8 3e
       0.8748364 0.0025760364 -0.360261 0.35990956
0001b0 4b 22 03 be 25 d7 80 be 65 2f cb 3e fd e3 51 3f
       -0.1280605 -0.25164142 0.39684597 0.8198851
0001c0 62 bc 20 3e 00 87 0d 3e 24 25 a8 3e 14 87 16 3f
       0.15696862 0.1382103 0.32840836 0.5879986
0001d0 f7 83 91 3f 78 a3 17 3e 67 62 df 3e 65 66 91 bf
       1.1368397 0.14808452 0.43629763 -1.1359373
0001e0 ce e9 74 bf 43 d8 49 bd df 31 d9 be 77 62 63 be
       -0.9566926 -0.04927851 -0.4242086 -0.2220553
0001f0 ba d9 a3 be c1 c8 16 3f 30 ed a6 be 21 69 5d bf
       -0.3200205 0.58900076 -0.32602835 -0.8648854
000200 a4 a5 30 3f 13 f9 58 3f 14 07 3a be 07 c0 fa 3e
       0.6900275 0.8475506 -0.18166763 0.4897463
000210 93 b3 9b ba b1 87 03 bd f0 f8 74 3d 1e 35 4b be
       -0.0011879079 -0.032111827 0.059807718 -0.19844481
000220 49 bf 93 3e 3f fd 0e be 98 2a fa bd f5 83 8a 3d
       0.28856876 -0.13963793 -0.12215155 0.0676345
000230 12 38 41 be c4 3a 2e 3e a1 81 39 bf c7 23 7f 3e
       -0.18869045 0.17014605 -0.72463423 0.24915992
000240 37 96 df 3d 25 2e 86 3e 52 21 7d bf 4a da 89 bd
       0.10917323 0.2620708 -0.9887897 -0.067310885
000250 f9 f7 79 3d 05 f1 bf 3e af 21 8a be c0 b7 86 be
       0.0610275 0.3748857 -0.26978824 -0.26312065
000260 8d 86 ba bd f2 07 05 bf 49 8b 86 3d d3 7b 4f 3f
       -0.09107695 -0.5196525 0.06569535 0.81048316
000270 69 c6 30 3f 62 75 37 bf 3a f4 c5 be be 37 b3 be
       0.6905275 -0.71663487 -0.38662893 -0.35003465
000280 8e 83 dd be 88 74 cb 3e 4b fc f5 3e d0 03 12 3f
       -0.4326443 0.39737344 0.48044047 0.5703707
000290 7d 81 79 be a1 94 db be 44 b3 a9 3e 96 e8 00 3f
       -0.24365802 -0.42886832 0.3314458 0.503549
0002a0 e7 c3 da 3d 42 a4 95 bd 2d b0 84 3f a6 91 34 bf
       0.10681897 -0.0730672 1.0366265 -0.7053474
0002b0 36 d4 0a 3f 93 de 13 bf 91 15 9a be c4 2c 7c be
       0.5423006 -0.57761496 -0.3009458 -0.24626452
0002c0 13 9f 7f 3e c4 a3 be 3e 29 03 8c be cc 60 5e 3e
       0.24963026 0.37234318 -0.2734616 0.21716613
0002d0 66 4c a3 be 63 4a c0 3e f0 9a c1 be ae 00 11 3f
       -0.31894225 0.37556753 -0.3781352 0.5664166
0002e0 59 19 27 bd 46 6b 8e 3e 22 df 26 be 8f 7a 86 bb
       -0.040795658 0.27816218 -0.16296056 -0.0041039656
0002f0 fa 15 9e 3c 27 f7 24 3f f0 51 0e bf 96 d9 82 3d
       0.019297589 0.64439625 -0.55593777 0.063891575
000300 ba 00 ba be d2 74 5d 3f de 43 84 3e 5c 50 9c 3b
       -0.3632868 0.8650638 0.2583303 0.004770322
000310 9e a8 72 3f 11 cc 6b 3d a5 fe bb 3e a3 0f 00 be
       0.9478854 0.05756766 0.36717716 -0.12505965
000320 d7 5f 3e be 80 c0 1d 3f 51 2d 2b 3e 7d 99 fe be
       -0.18591247 0.61621857 0.16716506 -0.49726477
000330 07 ff 81 3f cd 05 d5 3e 87 f6 87 be 72 bd 9a bc
       1.0155953 0.41605988 -0.26555273 -0.018889163
000340 71 6f 32 3f 14 5e f1 3d 78 34 5a be 0c 18 dc bd
       0.69701296 0.11785522 -0.21309078 -0.10746774
000350 60 db ac bd f7 ca 6b 3f 16 e4 b9 3d b1 32 f4 3d
       -0.0844028 0.92106575 0.09076707 0.11923731
000360 48 04 a1 3d 31 8a 75 3c bb a3 ff bc ac df b7 be
       0.07862145 0.014986561 -0.031206002 -0.35912836
000370 c0 69 63 3f 03 b9 c4 3d e9 49 81 be 79 28 30 3e
       0.88833237 0.09605601 -0.252517 0.17202939
000380 80 d8 82 be 88 f7 dd 3e b7 ae 0a bf b7 ab 8c 3e
       -0.255558 0.43352914 -0.54172844 0.27474758
000390 b3 e7 c3 3e af 14 52 bd 1c 15 47 3e 8c a9 58 bf
       0.3826271 -0.051289257 0.19441646 -0.8463371
0003a0 59 c7 1b be e7 07 bf 3e 55 58 8d 3e 5b fa a1 3e
       -0.15212764 0.37310717 0.27606454 0.3163632
0003b0 94 f6 0b bf 1e 33 61 3c ba d7 f3 be 94 25 26 3f
       -0.54673123 0.013745097 -0.47625524 0.6490109
0003c0 9f 02 60 bd 81 3c f9 3c 83 98 ac 3e 0f 75 ad be
       -0.05469 0.030424358 0.33710107 -0.3387837
0003d0 b1 b1 76 be ff 6d 2f 3e e5 3a 9b 3d 90 42 c1 be
       -0.24091221 0.17131804 0.075795926 -0.37746096
0003e0 64 01 77 bf 71 c6 cb 3e 16 15 5b 3e 71 6f 72 3e
       -0.96486497 0.39799836 0.21394762 0.23675324
0003f0 c6 0f 7f 3e 54 84 5a 3e db 80 66 3e 66 80 9c be
       0.24908361 0.21339542 0.22510092 -0.3056671

network_body._body_endoder.seq_layers.0.bias f4 [128]
000000 61 39 86 bc d8 13 49 bb d1 bb 1e bd 47 f2 4a bd
       -0.016384782 -0.0030681994 -0.038753334 -0.04954746
000010 68 28 f3 bc b4 64 c2 bb ed 59 26 bc 63 81 29 bc
       -0.029682353 -0.005932415 -0.010153276 -0.01034579
000020 ad d6 3f 3d 4c 6e a5 bc c2 ff af bb e2 08 7b bd
       0.04683559 -0.020194195 -0.005371065 -0.06128777
000030 5b 77 f4 bc 32 43 8e bd 96 3a cd bc 97 46 0b bd
       -0.02984207 -0.0694641 -0.02505235 -0.034002867
000040 db 41 6c bd a7 9b f6 bc 72 9c a2 bd 9e a4 80 3d
       -0.057679992 -0.030103518 -0.07939996 0.06281398
000050 54 7d 99 ba ad 4b 03 bd 4b 1d 7a 3c 15 c2 da 3b
       -0.0011710324 -0.032054592 0.015265773 0.0066759684
000060 31 32 b3 bc 06 f2 05 3c 3b c6 4b bd 58 ef 18 3c
       -0.021874519 0.008175379 -0.049749594 0.009334408
000070 4d 88 b9 3c 23 2f 80 bc d8 c0 d3 3c 12 48 09 3c
       0.022648001 -0.015647477 0.025848791 0.008378999
000080 60 69 58 bd 37 f2 8a bb ab c7 45 bd ae 3d 56 bd
       -0.05283487 -0.0042403 -0.04828612 -0.052304916
000090 a6 6f 38 bd d4 3e c4 39 53 4c 51 bc 64 1c 82 3d
       -0.04502835 0.00037430844 -0.012774545 0.06353071
0000a0 39 d1 8f bb 20 57 a9 bd 3d 9f 8c 3c eb 25 6a bd
       -0.004388955 -0.08268571 0.017165774 -0.057165068
0000b0 89 48 f3 3c 42 15 25 3d 39 87 35 bc c9 77 a9 bb
       0.029697673 0.040303476 -0.011079603 -0.00517175
0000c0 6c 40 14 3d b0 28 95 3c ae 8d 8b bd d5 7d 3a 3c
       0.03619425 0.018207878 -0.06814133 0.01138254
0000d0 83 94 dc bb 35 31 e7 3b 35 c6 0e bd 1c 74 8b bc
       -0.006731571 0.0070554265 -0.034856994 -0.017023139
0000e0 e2 49 56 bd 67 9f 78 bd 38 ef b1 bc 40 83 bc bb
       -0.052316554 -0.060698893 -0.021720514 -0.005752951
0000f0 cc e0 7a bb 83 f3 0b bd 8a 49 07 bd b2 dd 22 3c
       -0.0038280962 -0.034167778 -0.033029117 0.009940552
000100 1a 3d aa bc 7a a3 a2 bc 27 21 4d 3c 0d 3a 95 3c
       -0.020781089 -0.019853342 0.012520111 0.018216157
000110 ed 82 23 bc 97 ff 28 bd 43 fe 1b bc c7 e2 1c 3d
       -0.009979946 -0.041259374 -0.00952107 0.03830221
000120 8c 15 8c 3b bd 3a aa bb af 77 12 3c e2 20 85 37
       0.0042750295 -0.0051949904 0.008939668 1.5870148e-05
000130 ef f1 f4 bc b2 35 62 3c eb b0 9e bc ef a8 11 3d
       -0.02990052 0.013806747 -0.01937147 0.0355615
000140 6c f0 33 3d 92 ca b4 3c 8d 94 f1 3c 4a e5 8d bd
       0.043930456 0.02206925 0.02948978 -0.06928499
000150 af 75 81 bd 43 7b f1 bb 7b a3 a8 3a 21 0b 9c 3c
       -0.063212745 -0.0073694303 0.0012866104 0.019048275
000160 e4 80 11 3d e0 51 2d bd e9 45 e4 3b 1e 94 8d 3c
       0.03552331 -0.04231441 0.0069663418 0.017282542
000170 7b 9e 81 bd 0e 6f 7c bc 81 41 df bc 4a 30 2b 3c
       -0.06329056 -0.015407337 -0.027252914 0.010448525
000180 12 57 63 bd 22 b2 1a bd ec fb 19 bd e3 58 1f bd
       -0.05550296 -0.037767537 -0.037593767 -0.03890313
000190 6e 0b 64 3b e0 06 01 bb 8b fb 7c b9 d6 2e 02 3d
       0.0034796852 -0.0019687936 -0.000241263 0.031782947
0001a0 a2 2d 70 3c db 1d 3f bd f5 85 71 3b bd 00 8a 3a
       0.014659317 -0.04665933 0.0036853526 0.0010528784
0001b0 87 72 94 bd c5 84 73 3c 30 80 1a bd 04 e0 d5 3c
       -0.07248407 0.014863198 -0.037719905 0.026107796
0001c0 a4 e9 f3 3c 8d 9a 82 bd 27 0d 85 bb cf 00 4d bc
       0.029774494 -0.063771345 -0.004060406 -0.0125124
0001d0 35 dc 75 ba 4a b3 c3 bc 09 93 d6 3c 6f 55 e3 3a
       -0.00093788217 -0.023889203 0.026193159 0.0017344187
0001e0 f3 9b 24 3d f5 2e 06 3d c5 a3 e4 bb d1 03 3c bc
       0.040187787 0.032759625 -0.0069775307 -0.011475519
0001f0 5e fc 41 bd 2b 72 c6 bb 2e c4 1c bd 4f 5d 30 bc
       -0.047359817 -0.0060560904 -0.03827303 -0.010764434

network_body._body_endoder.seq_layers.2.weight f4 [128, 128]
000000 31 54 08 be 07 4a 3d 3b 00 2e 5b bd de f0 d0 3c
       -0.13313366 0.0028883235 -0.053510666 0.02550548
000010 8c aa e0 bd 30 30 3c 3d 7e 0b 81 3e 22 aa 1a bd
       -0.10970029 0.045944393 0.2520408 -0.037759908
000020 df 59 7e 3e 82 a2 f4 bc cb 69 b6 bc a1 50 0a 3d
       0.2483897 -0.029862646 -0.022267243 0.0337683
000030 80 aa 84 bd ff 2c d2 bd 10 47 88 bd 1e b3 f2 bc
       -0.06477833 -0.102624886 -0.06654179 -0.029626425
000040 25 de 45 be 40 a8 e4 3c 9c 36 9f 3b 1a fa 59 bc
       -0.19323023 0.02791226 0.004858805 -0.013304258
000050 58 d8 f8 3d 79 f4 cf 3b d7 45 72 be a4 b3 1d 3e
       0.12150639 0.006346282 -0.23659454 0.15400559
000060 bd 19 8a be d6 5c 17 3d 25 e2 e7 bc f6 60 bf bd
       -0.26972762 0.03695377 -0.028306076 -0.09344666
000070 63 c4 0c 3d c1 1a a5 bd bb cd 0b 3e a9 60 21 bd
       0.034366976 -0.080617435 0.13652699 -0.039398823
000080 4a d4 c4 3d c0 f3 11 3d a1 ce c1 bd da 0c 16 be
       0.096108034 0.03563285 -0.094632395 -0.1465334
000090 dc 16 a2 bb 91 91 80 bc 3a 85 b3 3d 36 8c 0b 3e
       -0.0049465727 -0.015694411 0.08765645 0.13627705
0000a0 a8 a8 94 3c 0d fa 5d 3d 92 ef c1 bc 2a 18 4f bd
       0.018146828 0.054193545 -0.023673806 -0.050560154
0000b0 10 5f a6 bd 0d 8e 94 bd d3 3c 2a 3c e3 2a 86 3c
       -0.081236005 -0.072536565 0.010390478 0.016377872
0000c0 b6 65 14 3d c8 1d fd 3d 6e 06 7c 3d 55 16 5b ba
       0.03622981 0.12359196 0.06152957 -0.0008357515
0000d0 a5 78 82 3d 17 19 7a 3e 0f 74 27 be f3 6d 71 3d
       0.06370667 0.24423634 -0.16352867 0.058942746
0000e0 43 48 b4 3c 67 8b 39 be 1b 83 d3 3d d0 52 0e be
       0.022007113 -0.18119584 0.10327741 -0.13898778
0000f0 e9 4f ca 3d f5 b9 58 3d d3 0e 9f bd df 52 3f 3e
       0.09878523 0.052911717 -0.07766499 0.18683957
000100 f2 fe 33 3a 54 e3 2b 3d 99 04 19 bd ae 33 3f bd
       0.0006866298 0.041964844 -0.0373579 -0.046680145
000110 15 4c e8 3d 0b 7c 68 3e d4 f9 10 3c 80 cc d9 bd
       0.113426365 0.22703569 0.008848626 -0.106347084
000120 9a 84 22 be 83 be 16 be 77 87 88 3d 81 78 b6 bd
       -0.15870896 -0.14721112 0.06666463 -0.08909703
000130 07 a1 29 bc fc 19 1b bd 21 6f 5c 3d ab 6f 40 3e
       -0.010353333 -0.037866578 0.05381692 0.18792598
000140 31 ec 36 3e 1a 52 fa bd bf 13 ea 3d 75 7c a7 bc
       0.17863537 -0.12222691 0.114295475 -0.020445088
000150 ff 63 9a bc 1a f0 ad 3d 20 4c 85 3d 98 c6 71 bd
       -0.01884651 0.08493061 0.0650866 -0.059027284
000160 91 a8 f0 3d 34 0a 92 bd 0f 69 a6 3d 8b 0f c6 bd
       0.117509015 -0.07130852 0.08125507 -0.09670933
000170 19 9e d4 bd 96 c4 b3 bd a3 48 95 bd 79 9a 3e be
       -0.10381717 -0.0877773 -0.07289245 -0.18613614
000180 21 6f c7 3c fc 74 6b 3d f6 8b df bd 7a 47 98 3d
       0.024344983 0.057484612 -0.10915367 0.07435508
000190 24 c2 c2 3d 90 4c 88 bc d4 c9 36 be d5 b7 d5 bd
       0.09509686 -0.01663807 -0.17850429 -0.10435454
0001a0 b4 50 a6 bb 6d d3 bf 3b 2b be af 3c 07 ea fb 3c
       -0.0050755385 0.0058540613 0.021452984 0.030751241
0001b0 4c 40 7b 3d 07 cd 18 3d 3b 66 0f be 16 94 f9 3d
       0.061340615 0.037304904 -0.14003842 0.12186448
0001c0 af 9c 0a 3e 3d 64 28 bd ed ba 8a 3d 51 21 b2 bc
       0.13536333 -0.04111122 0.067739345 -0.021744402
0001d0 10 eb c0 bd cb 14 53 3c 48 31 28 be 88 b8 bd 3d
       -0.094198346 0.012883375 -0.1642505 0.09263712
0001e0 ea 34 d1 bd 1d e9 52 bd ca 3b eb bc fa 39 25 bc
       -0.10215171 -0.051491845 -0.028715033 -0.0100846235
0001f0 0f c3 dc 3d 59 c6 fe 3c 43 ce b9 bd 6d f7 9c bd
       0.10779392 0.031100439 -0.090725444 -0.0766438
000200 77 5c 55 3d 30 6a 87 3c 2b c4 6c 3d 88 32 de bc
       0.052090134 0.016530126 0.057804268 -0.027123705
000210 aa 2e 87 bd 78 fd a0 3d a7 12 bb bd 9e 76 e7 3d
       -0.06600697 0.07860845 -0.09134417 0.11301921
000220 09 01 bf bd 0c af af 3d 52 ec 69 3d 7e 26 7b 3d
       -0.09326369 0.085783094 0.05711014 0.061316006
000230 26 bf 0d 3c 9a 48 03 3e 87 f9 78 3c 0e ed f2 bc
       0.00865153 0.12820664 0.015196211 -0.029654052
000240 23 17 fe 3d 71 ea d0 3d 43 8b 48 3e b3 05 36 3d
       0.12406757 0.10200966 0.19584374 0.04443903
000250 cb 46 56 3d 19 b9 b6 bd d5 0d 11 3e ff 3e ec 3d
       0.052313607 -0.08922023 0.14165433 0.11535453
000260 29 a7 c1 3d d2 3d f8 3c fd 16 03 3e b2 5b e2 bc
       0.094557114 0.030302916 0.12801738 -0.027631614
000270 77 85 8e bd 24 d9 0f bc b8 a2 84 3d a1 46 76 bd
       -0.0695905 -0.008779798 0.06476349 -0.06012595
000280 62 df e5 3c 80 a7 2f bd 3b 6b 62 3d cf 82 e1 bd
       0.028060619 -0.04288435 0.055278044 -0.11011278
000290 52 a7 b8 bd b8 30 1f bd 72 9e de bd 7f 74 7b 3d
       -0.09016289 -0.03886482 -0.10870065 0.061390396
0002a0 94 37 31 be fc 0a 62 3c fb 80 96 bc 84 91 75 bd
       -0.17306358 0.013796564 -0.01837205 -0.059953228
0002b0 e5 81 5e bc a6 d9 14 3e b3 d5 2d 3c 94 45 76 bc
       -0.013580774 0.14536151 0.010610032 -0.015031237
0002c0 e0 ab 8a 3d e9 86 40 bd 33 70 30 bd 23 06 ab bd
       0.06771064 -0.04700366 -0.04307575 -0.0835078
0002d0 61 41 00 be d0 1d c7 bd a0 90 77 3d f4 17 9e bb
       -0.1252494 -0.09722483 0.06044066 -0.004824633
0002e0 a2 b0 45 3b 06 d3 ec bc de f8 19 bc fa 2f 17 3e
       0.0030165096 -0.028909218 -0.0093977135 0.14764395
0002f0 26 54 30 be c2 20 0a 3e 69 df 8e 3c 7b 22 2b 3d
       -0.172196 0.13489059 0.017440515 0.04178093
000300 34 35 23 3d 57 a8 7d 3d 78 2f 04 bd 07 c2 93 bc
       0.03984566 0.06192812 -0.032271832 -0.018036855
000310 97 c3 81 bd e5 3e 34 bc eb e7 bf bc a4 25 db 3d
       -0.06336134 -0.011001323 -0.023426017 0.10700539
000320 ec ae f4 3c 21 29 99 3d a3 f9 b5 bd 14 b5 4e 3e
       0.029868565 0.07478548 -0.08885505 0.20186263
000330 04 df 1e bc 5f 0b 1b 3d f9 31 88 bd e0 62 f2 bd
       -0.009696726 0.03785264 -0.066501565 -0.11835265
000340 11 94 5c bd 90 77 5b 3d 60 e4 a2 bd 8a 63 b4 bc
       -0.053852145 0.05358082 -0.07953715 -0.02202012
000350 18 cd a3 bd fc 3f 36 be 0a 90 2d bd 0f 00 3c bc
       -0.07998103 -0.17797846 -0.042373694 -0.011474623
000360 8c bf 1a be 26 d8 9c bd 99 d7 d5 bd f7 b0 2f 3e
       -0.15112132 -0.076584145 -0.104415126 0.1715735
000370 7f 35 83 3d a9 d5 8b bd 8c 92 19 bd 99 dc ea bd
       0.06406688 -0.06827862 -0.037493274 -0.11467857
000380 57 08 6c 3d 80 41 97 bd 9f 05 62 be 85 b6 5e bd
       0.05762514 -0.0738554 -0.22072457 -0.054373283
000390 af 3f 21 3e 25 f0 e5 bd 7d 0c 28 3e 54 58 cc 3d
       0.1574695 -0.112274446 0.16411014 0.09977785
0003a0 7b e6 1c bd 5c 2f 81 bd 5e c2 36 bd fa d1 f7 bd
       -0.03830574 -0.06307861 -0.044618957 -0.12100597
0003b0 0a 78 bf bb 0c 86 63 bb ae d2 86 3d ff 85 a3 3d
       -0.005843167 -0.003471735 0.06583153 0.07984542
0003c0 19 2c f0 3d e4 60 5f 3d b2 13 46 bc b9 63 82 bd
       0.11727161 0.05453576 -0.012089657 -0.06366677
0003d0 3d 12 11 be 07 95 dc bd 16 36 ab bd 96 87 0d be
       -0.14167114 -0.10770612 -0.083599254 -0.13821253
0003e0 42 03 f8 bd 95 42 c1 3d 8f 51 60 bd b8 23 59 bd
       -0.121099964 0.09436528 -0.05476528 -0.05301258
0003f0 97 6c af 3c 1a 11 c4 b8 35 0b 3e bd a9 c7 03 3e
       0.021414084 -9.349194e-05 -0.046397407 0.12869133

network_body._body_endoder.seq_layers.2.bias f4 [128]
000000 6b 39 90 bb 33 ca 5c bc ae 76 3b bd ba b3 97 3c
       -0.004401376 -0.013475942 -0.04576748 0.018518317
000010 73 80 b2 3c 7d 39 be ba 0e 04 73 bd 62 a9 08 bd
       0.021789765 -0.0014512982 -0.05933004 -0.03336466
000020 11 c8 08 bd 26 e8 4f bc 8c 0c 52 bd 50 3c 89 bc
       -0.033393923 -0.012689626 -0.051281497 -0.016752392
000030 4f 1a 14 bb 97 91 90 bc 9e 5a 68 3d 9c 65 20 bd
       -0.002259869 -0.017647548 0.056727044 -0.039159402
000040 87 fc f1 bc ec 69 c8 bb a5 ed 0b bc cf b3 e0 bc
       -0.02953936 -0.0061161425 -0.008540546 -0.02742949
000050 6d d0 3a bc d3 68 1c bc 32 c0 87 3c 6b 72 88 bc
       -0.011402232 -0.009546476 0.016571138 -0.016656121
000060 9a b3 af bc d1 b7 0a bb 85 83 ec bb 2f f1 9b b7
       -0.021447945 -0.0021166692 -0.007217827 -1.858975e-05
000070 bd fa 01 bd 7b 49 2e bd fd e6 a9 bb 57 e3 0a bd
       -0.031733263 -0.042550545 -0.0051850067 -0.033908214
000080 fe 42 29 3d 7c a7 cd bc 17 7e b9 bc 41 da 22 bb
       0.041323654 -0.025104277 -0.022643132 -0.0024849328
000090 32 64 fb bc 72 6b 85 bd 49 0e 83 3b 2f de cf bc
       -0.030687425 -0.06514634 0.0039995057 -0.0253745
0000a0 c0 53 82 ba f0 1a 85 bc 73 30 f2 3a 01 73 83 bd
       -0.0009943172 -0.016248196 0.0018477574 -0.0641842
0000b0 f1 d5 0b bc 25 44 ed bc 09 e4 b0 bc 6b 9a 4b 3b
       -0.008534894 -0.028963158 -0.02159311 0.0031067382
0000c0 17 5c b0 bc 9c e2 ff bb c2 e4 6d bb e7 7c a7 bc
       -0.021528287 -0.0078089964 -0.003629968 -0.0204453
0000d0 62 eb c9 bc 87 23 82 bd 88 ee c8 bc d2 52 de bc
       -0.024648372 -0.063544326 -0.024527803 -0.027139101
0000e0 c3 6b a2 bc e0 5b 75 3b 00 d3 03 bc 54 37 60 3c
       -0.019826775 0.0037438795 -0.008045912 0.013685066
0000f0 1c 7d aa bc 3e 93 60 bc 70 7a 91 bc 60 c4 a6 bc
       -0.02081161 -0.01370698 -0.017758578 -0.02035731
000100 89 cc 11 3c 1c 56 ed bc 82 92 9b bc b3 86 5f bc
       0.008898863 -0.028971724 -0.018990759 -0.013642955
000110 20 08 70 bd 33 db d9 bc 71 4b 11 bb 17 b9 44 bd
       -0.0586015 -0.02659378 -0.002217021 -0.048028078
000120 1d 2d 43 3a 29 ef e7 bc 7a be 28 bd f1 7b 24 3b
       0.0007445382 -0.028312283 -0.041197278 0.002509829
000130 34 80 0f bd 2a 36 05 3d be 4b 3a bc 1a a1 93 bb
       -0.035034373 0.032522358 -0.011370597 -0.004505289
000140 43 bc 70 bd d4 b0 15 bd a9 84 52 3a 61 ab bb bc
       -0.05877329 -0.03654559 0.0008030632 -0.022908868
000150 13 13 28 3c a6 19 9a 3c 48 d5 c3 bc dd 98 57 3c
       0.010258454 0.018811058 -0.023905411 0.013159004
000160 95 ea b9 bc 39 54 ad 3b 87 0d 2a 3c b4 aa 3c 3b
       -0.022694865 0.005289581 0.010379202 0.002878827
000170 0e 32 66 bc df 71 8a bc b9 89 18 bc 8f a9 b4 bb
       -0.01405002 -0.016900001 -0.009310179 -0.005513377
000180 49 26 cf 3c 27 3d 44 bd 23 97 a2 3c f6 8a eb bc
       0.02528681 -0.047909882 0.019847458 -0.028752785
000190 e4 fb 0b bb 6e 6a 8c bc bd 91 22 bd aa bb c8 3b
       -0.0021359855 -0.017140593 -0.039689768 0.006125887
0001a0 6e 15 5b bc 83 31 1b bd b3 c4 23 bc 87 2c 4b bc
       -0.013371808 -0.037889015 -0.009995627 -0.012400753
0001b0 ab 80 a9 bc 21 1a 15 bd bc 5e d1 3c aa 2c 19 bd
       -0.020691236 -0.03640187 0.025557868 -0.03739611
0001c0 bf da cc bb 15 fa 78 3c 81 5d 90 bb 7c 0d 9c bc
       -0.0062516625 0.015196343 -0.004405678 -0.019049399
0001d0 d0 47 0b bd 15 98 ec 3c ed cd 29 bc 1e 02 13 bd
       -0.034004033 0.028881112 -0.010364038 -0.03589069
0001e0 f7 af 7e bd 7a b1 a1 bc c7 c2 98 ba 2b 37 24 bd
       -0.062179532 -0.019737948 -0.0011654728 -0.040091675
0001f0 e2 d8 4b bb 2d 05 df bc 55 da 00 bd d8 11 88 bc
       -0.0031104614 -0.027224148 -0.031458218 -0.016610071

action_model._continuous_distribution.log_sigma f4 [1, 2]
000000 99 11 ba 3d af 05 1a 3e
       0.09085388 0.1504123

action_model._continuous_distribution.mu.weight f4 [2, 128]
000000 a3 ed a0 3c 21 ff b7 bc 96 48 27 3b 86 b9 f2 3b
       0.019644564 -0.022460522 0.0025525442 0.00740737
000010 a5 aa f6 3c 0b 06 40 bd 50 5b 20 bb 88 f6 68 3c
       0.030110667 -0.046880763 -0.002446849 0.014218934
000020 85 00 86 bb 83 6d 41 3b 3d 4f 74 bc 99 39 02 bd
       -0.0040894174 0.0029514737 -0.01491147 -0.03179321
000030 33 37 f9 3c de cf 06 3c b1 ca e1 3c 53 d6 41 bb
       0.030421829 0.00822827 0.027562471 -0.002957721
000040 25 b2 4e 3b b7 35 a2 3b 9a 7c 22 bc 65 e2 f9 bb
       0.0031539288 0.004950251 -0.009917403 -0.0076258653
000050 25 b2 00 ba 42 b1 0c bc 40 bd 84 bb 88 fa b4 bb
       -0.0004909358 -0.008587183 -0.0040508807 -0.0055230297
000060 e4 39 fb 3c 5f 1e 0e 3d fd 29 33 bb e2 81 49 3c
       0.030667253 0.034696933 -0.002733826 0.012299033
000070 6f 76 0c bc 34 ec 79 38 92 cd 18 bc e4 95 34 3b
       -0.008573159 5.9586207e-05 -0.0093263555 0.0027555162
000080 96 cd 98 3c f0 ea 1e b9 3a 97 cb bb a3 f6 b5 3d
       0.018652719 -0.00015155575 -0.006213096 0.08884933
000090 ff cb 1f 3b 51 88 6e 3b 6f 26 b6 bc a7 c9 ca 3b
       0.0024383066 0.003639717 -0.022235123 0.0061885896
0000a0 98 a2 d4 3c ad d8 6c bc 9b 17 1d bd ce 15 19 bb
       0.025956437 -0.014455956 -0.03835259 -0.0023358944
0000b0 6a 57 ed bc dd 92 16 3c 86 19 e4 ba 4c c2 87 3c
       -0.028972346 0.009190288 -0.0017402626 0.01657214
0000c0 bc d8 0c b9 94 e2 7a 3c 79 f7 99 3c 56 35 05 3d
       -0.0001343218 0.0153128095 0.018794762 0.03252157
0000d0 cd 19 9d bb 38 40 79 3a 0a 35 7d 3c 83 37 09 3c
       -0.0047943355 0.00095081655 0.01545454 0.008375051
0000e0 07 60 58 3c 96 92 f6 bc a4 96 92 bb f6 31 f9 bb
       0.013206488 -0.030099194 -0.004473524 -0.0076048328
0000f0 da ea e7 3c f0 59 e1 3b 14 31 6d 3b d6 82 48 3b
       0.028310228 0.0068771765 0.0036192583 0.0030595562
000100 a1 f0 98 3c b8 6b 67 ba c3 28 30 bc 22 cc fa 3b
       0.018669428 -0.0008828002 -0.010751906 0.007653729
000110 c7 c1 f8 b9 e9 78 f8 ba 2d 0b fe 3c 97 6f 5f 3a
       -0.00047446621 -0.0018956932 0.031011188 0.0008523403
000120 40 ed 3e bb de e6 f8 bb 21 29 b0 3b a2 22 03 3c
       -0.0029133111 -0.007595881 0.0053759967 0.008003863
000130 75 57 47 3c 40 c4 39 3d c6 65 0e bd ec 04 96 3c
       0.0121668475 0.045353174 -0.034765027 0.018312894
000140 c2 b6 f9 38 1d 25 56 3c 98 a0 c7 bc d7 62 e7 3c
       0.000119072865 0.013070372 -0.02436857 0.028245373
000150 82 03 01 b9 70 df 00 bc 8a 03 4a 3c 39 58 3c 3d
       -0.00012303705 -0.007865772 0.012329945 0.045982573
000160 bb 4e 29 3a 1e fd 0f 3c 26 44 44 3d fb f1 72 3c
       0.000645857 0.008788375 0.047916554 0.0148282
000170 e2 b9 2f bb e4 05 1f bb 6a b7 83 3a 1b 82 f9 3a
       -0.0026813676 -0.0024264986 0.0010049168 0.0019035967
000180 a6 3b 18 3d bb 85 41 3c ac 99 02 3b b1 48 81 bc
       0.03716626 0.011811669 0.0019928021 -0.015781732
000190 7e d5 6a 3c 6e 2e 20 3c 45 9a 47 bc 4f b8 c8 bc
       0.014333127 0.009776695 -0.012182777 -0.024501948
0001a0 f7 a4 5c bc 8f df c9 3b 64 14 db b9 2d 8c 7b bb
       -0.013467065 0.0061606835 -0.00041786127 -0.0038383112
0001b0 80 ce 4c bc 01 00 02 bb 4b 32 66 3c d4 39 e7 3c
       -0.012500405 -0.0019836428 0.014050077 0.028225817
0001c0 0d ef 3c 3c ff e5 0c bd ce f6 b9 bc af 58 41 bb
       0.0115316035 -0.03439903 -0.022700693 -0.0029502322
0001d0 98 74 50 3b 21 92 ff bc c7 a6 f4 bc 73 76 48 bc
       0.0031807777 -0.03119761 -0.029864682 -0.012235272
0001e0 2f aa 0e 3a 5d 3a b7 bc 0a 96 3c 3b 0a 07 f4 bb
       0.00054422294 -0.022366697 0.0028775954 -0.007447128
0001f0 5e 5b bd 3a 0a 88 34 3b 36 5d 33 bb fc c2 fc 3c
       0.0014446785 0.0027546906 -0.002736879 0.030854695
000200 2c 8e 30 3c f2 51 a7 3b 63 8d bb 3b 3d 87 07 bd
       0.010776084 0.005106204 0.0057236417 -0.033087958
000210 68 41 4b 3d d1 2d 15 bb 6d bc d2 bb 22 c1 4e 3c
       0.049622923 -0.0022762904 -0.0064311535 0.012619289
000220 52 61 72 3b 37 1a 07 3b 3f c5 e3 3b c8 9f 40 3c
       0.0036984277 0.002061499 0.006951004 0.011756845
000230 73 4e 19 3d 9e 06 42 3c f1 c6 d9 bc 38 da 86 3b
       0.03742833 0.011842398 -0.02658412 0.004115369
000240 ae ca ee bb 29 b8 8c 3c 46 94 f0 3c 34 9a 68 bb
       -0.007287345 0.017177658 0.029367577 -0.0035492303
000250 6c 86 4b 3a ea c8 29 3c 00 ce dc bc b5 84 b4 bb
       0.0007763866 0.010362843 -0.026953697 -0.005508984
000260 56 07 af 3d d5 68 f7 bc 6c 2a b6 bb 28 de 83 3b
       0.08546321 -0.030201355 -0.0055592563 0.004024286
000270 bd b3 f3 bb aa 18 1f 3c b0 0a 22 3c a5 02 59 3c
       -0.007437198 0.00971047 0.009890243 0.013245259
000280 ab 32 87 3d 3b 4c 1e ba 30 6d c0 bc 1b 9b 1c 3d
       0.06601461 -0.0006038581 -0.023489565 0.038233858
000290 88 3f 61 3c 07 6a 0b b8 ed 04 41 bb c2 db 94 3a
       0.013748057 -3.3238928e-05 -0.00294524 0.0011356997
0002a0 e8 d5 39 bc 8d 15 c9 bb 60 26 a0 3b 61 b2 05 3c
       -0.011342503 -0.0061366023 0.004887387 0.008160205
0002b0 62 dc c3 ba 9b db 87 3c 7f e1 1a 3c 84 62 04 bd
       -0.0014942999 0.016584208 0.0094531765 -0.032320514
0002c0 7a 70 a2 bb d8 f0 b5 bb bf 82 87 3c 5f 69 9c 3c
       -0.004957256 -0.0055523925 0.016541837 0.019093214
0002d0 bd fa 82 3b 97 36 e4 3b 1c fc 51 3c 82 06 b2 3c
       0.0039971755 0.0069645154 0.012816455 0.021731619
0002e0 4a 8a d9 bb 97 36 74 3a a3 2c 84 39 ef be 5c 3b
       -0.0066388 0.0009315996 0.0002521026 0.0033683141
0002f0 df 29 fa 3c e7 31 1f bc da ff c2 3c 25 dd 1d bb
       0.030537544 -0.0097164875 0.02380364 -0.0024088111
000300 14 30 53 3d 87 27 6f bb 56 75 57 bc 2d b1 08 3b
       0.051559523 -0.0036492066 -0.013150534 0.0020857558
000310 1e ee 71 3b 79 3d 0e bb b9 c5 94 bc 7d c2 56 3a
       0.003691561 -0.002170412 -0.018160688 0.0008192433
000320 b6 f9 4b bc d5 9b e3 3b aa f8 04 3c 26 8a 3f 3c
       -0.012449672 0.006946067 0.008115927 0.011690652
000330 7a be 19 3c e3 10 18 bc 4c 93 a3 3c 65 5c 32 3c
       0.009383792 -0.00928137 0.019967698 0.010886286
000340 08 d6 34 ba af d0 46 3c e9 9a dd bc 5a 76 6a 3d
       -0.0006898348 0.012134715 -0.027051406 0.057241775
000350 cc ae cb bc d9 e5 6d 3d 29 6a 94 3c 37 75 25 3c
       -0.024863623 0.058080528 0.018117027 0.010098747
000360 d7 ed 15 bc 72 60 ae bc 82 f7 f0 3c a7 8f 12 3d
       -0.009150944 -0.021286223 0.029414896 0.03578153
000370 17 e3 ae bc 81 ce 6a bb 88 c3 93 bb dd 7e b7 bc
       -0.02134852 -0.0035828652 -0.004509393 -0.02239936
000380 a0 65 6d 3d 1a b4 16 3c 33 8b 91 bc db 0c 9c 3b
       0.057958245 0.009198213 -0.01776657 0.0047622747
000390 38 83 f5 ba 34 a0 08 3d c5 ae 65 bc d0 50 1d bc
       -0.0018731123 0.033355907 -0.014018719 -0.009601787
0003a0 52 f7 64 bb 19 fa d0 3b 89 c6 a8 bb 95 ea e2 3c
       -0.0034937453 0.00637747 -0.0051506204 0.027699748
0003b0 66 de 31 39 f8 d5 03 3c 11 cc 0d bd 77 e5 e2 3c
       0.00016962885 0.00804662 -0.03461844 0.027697308
0003c0 28 29 86 bc 37 cc c4 3a bd 28 83 3c 04 22 64 bc
       -0.016377047 0.0015014474 0.016010636 -0.013924126
0003d0 31 4c 01 bb 17 43 cb bc a9 db 8a 3c e3 46 f7 ba
       -0.0019729252 -0.024812264 0.016950445 -0.001886573
0003e0 4a 9d 3a 3a b2 07 a2 bb 4e 7b 31 3d ab b2 79 bc
       0.0007118775 -0.004944765 0.043330483 -0.015240352
0003f0 4e a1 41 3a e5 9e 07 3c c8 79 78 3c f3 5b 13 bd
       0.0007386402 0.0082776295 0.015165754 -0.03597636

action_model._continuous_distribution.mu.bias f4 [2]
000000 47 3a b8 3a 2b 4c 8f bc
       0.0014055454 -0.017492374
