Assets/BossScene/MoveToGoal.onnx (onnx, 75061 bytes, 7 tensors)

network_body._body_endoder.seq_layers.0.weight f4 [128, 6]
0	0x3e4e34d3	0.20137338
1	0xbe94fe7b	-0.29100403
2	0x3de467e4	0.11152628
3	0x3eac05b6	0.33598107
4	0x3f241fd1	0.6411105
5	0xbf274b0a	-0.65348876
6	0x3ea456db	0.32097515
7	0x3eaf013b	0.34180626
8	0x3f259cde	0.64692485
9	0xbe1c9cec	-0.15294236
10	0x3d43ba6b	0.047785204
11	0x3e7f043c	0.24903959
12	0xbf9fc149	-1.2480861
13	0x3f8e962e	1.1139581
14	0xbeaea863	-0.34112844
15	0xbe94abab	-0.29037222
16	0xbe8598c6	-0.2609312
17	0xbf572f8b	-0.8405692
18	0xbe4fe6ff	-0.20302962
19	0x3f277c3f	0.6542396
20	0x3ec19c51	0.37814572
21	0xbe47a217	-0.19495426
22	0xbf0ae767	-0.5425934
23	0xbea1ed57	-0.31626388
24	0xbe4e1c01	-0.2012787
25	0x3e8a8d8d	0.2706112
26	0x3dced65e	0.10099481
27	0x3e9d5298	0.30727077
28	0xbd5d81d3	-0.05407889
29	0xbee4aa8f	-0.44661376
30	0x3e14002b	0.14453189
31	0x3e36cd2c	0.17851704
32	0xbee05d69	-0.43821266
33	0xbe8cfd46	-0.27536982
34	0xbf1b6646	-0.6070293
35	0xbf23c6d8	-0.63975286
36	0xbe940d2a	-0.28916293
37	0xbe8946e7	-0.26811907
38	0xbf3031cf	-0.68826
39	0xbdd54619	-0.10413761
40	0xbd443bbf	-0.04790854
41	0xbe19cf12	-0.15020397
42	0x3ef51338	0.47866225
43	0xbea4f521	-0.3221827
44	0xbed4534e	-0.41469806
45	0xbe591c09	-0.21202101
46	0x3e45bdda	0.19310704
47	0x3dc3de60	0.09563899
48	0xbf295147	-0.66139644
49	0x3e805b23	0.25069532
50	0x3c0dfc7a	0.008666152
51	0x3de177eb	0.11009201
52	0xbe674ab5	-0.22587092
53	0x3f083e59	0.53220135
54	0xbeb80839	-0.35943773
55	0xbe4b5771	-0.19857575
56	0xbe5a6fd6	-0.21331725
57	0x3e02ae46	0.12761793
58	0xbe92038d	-0.28518334
59	0xbe6b358f	-0.2296965
60	0xbdcf741b	-0.10129567
61	0x3ec8762c	0.39152658
62	0x3ef727cb	0.48272547
63	0xbdd436ec	-0.10362038
64	0x3eae0008	0.339844
65	0xbe90df2a	-0.2829526
66	0x3e0a7def	0.13524602
67	0xbf33c3c7	-0.7022061
68	0xbf20d14d	-0.6281937
69	0x3f011da5	0.5043586
70	0xbeecf914	-0.46283782
71	0xbda8edf2	-0.082485095
72	0xbe535d62	-0.20641091
73	0xbdbad845	-0.091232814
74	0x3ec57a2a	0.38569766
75	0xbf2918a8	-0.6605325
76	0x3e574c19	0.21025123
77	0xbe05972e	-0.13045952
78	0xbdef0bb3	-0.11672153
79	0x3e3dfb0b	0.18552797
80	0x3e54ca67	0.20780335
81	0x3daada3d	0.08342407
82	0xbee13dfd	-0.43992606
83	0xbd1df55e	-0.03856408
84	0xbd34e36e	-0.044162206
85	0xbdec73b2	-0.11545505
86	0xbee3d207	-0.44496176
87	0x3e85f094	0.2616011
88	0xbf0534f9	-0.52033955
89	0xbe413e17	-0.18871342
90	0xbe1b36c4	-0.1515761
91	0xbe9ad94b	-0.30243906
92	0x3f044c4a	0.5167891
93	0xbf0af662	-0.542822
94	0xbe906f8b	-0.282101
95	0xbddf5eb4	-0.10906735
96	0x3e3150af	0.17315935
97	0xbed25cc2	-0.41086394
98	0x3f063ae1	0.5243359
99	0x3f28120f	0.65652555
100	0x3e6f6cde	0.23381373
101	0x3e01a366	0.12659988
102	0x3f522e32	0.8210174
103	0xbe32ccb6	-0.17460904
104	0x3f6d1ca9	0.92621857
105	0x3b51192f	0.003190588
106	0xbeaffd97	-0.3437316
107	0x3ec47d00	0.38376617
108	0xbcb89594	-0.022532262
109	0xbe6c5a90	-0.23081422
110	0x3ec2c7cf	0.38043067
111	0x3f5fd28b	0.8743064
112	0x3e7512d5	0.23932965
113	0x3de6b019	0.11264057
114	0x3e8def22	0.27721506
115	0x3f168da7	0.58809894
116	0x3f8fff0c	1.1249709
117	0x3e05a2f2	0.1305044
118	0x3ece3940	0.40278053
119	0xbf94bb4b	-1.1619657
120	0xbf784dae	-0.9699353
121	0xbdc56d17	-0.09639948
122	0xbeda6202	-0.426529
123	0xbe802765	-0.25030056
124	0xbe969c7d	-0.29416266
125	0x3f15b1b6	0.5847429
126	0xbe8b6001	-0.27221683
127	0xbf5abd46	-0.8544506
128	0x3f4022c6	0.7505306
129	0x3f5d9f01	0.86570746
130	0xbe12ed23	-0.14348273
131	0x3f0d28ca	0.55140364
132	0xbd8593f2	-0.06522359
133	0xbd0d985f	-0.03456914
134	0x3dc116ea	0.09428199
135	0xbe58ceae	-0.21172592
136	0x3e93220f	0.28736922
137	0xbdfe9cb2	-0.12432231
138	0xbe2653e9	-0.16242947
139	0x3da68290	0.081303716
140	0xbe5811cd	-0.2110054
141	0x3e3acda2	0.18242505
142	0xbf3141a6	-0.69240797
143	0x3e700ab9	0.2344159
144	0x3e13a0ed	0.14416857
145	0x3e8c4d78	0.27402854
146	0xbf83e105	-1.0303046
147	0xbd4a182f	-0.04933947
148	0x3defd1c3	0.11709931
149	0x3ea3fd79	0.32029322
150	0xbe849069	-0.25891426
151	0xbe8d7114	-0.27625334
152	0xbde16bef	-0.11006915
153	0xbf0b4c44	-0.5441325
154	0x3d8b050a	0.067880705
155	0x3f44ace0	0.76826286
156	0x3f2cd374	0.6751015
157	0xbf3d72d5	-0.74003345
158	0xbeccc4ca	-0.39993888
159	0xbecccf1e	-0.40001768
160	0xbec79ea3	-0.38988218
161	0x3ed4dd01	0.41574863
162	0x3f04b690	0.5184107
163	0x3f118db3	0.5685684
164	0xbe6ed1d7	-0.23322235
165	0xbed8bb84	-0.42330563
166	0x3eb2070d	0.34771004
167	0x3f00f2c4	0.5037043
168	0x3d88501d	0.066559054
169	0xbdae26e9	-0.08503515
170	0x3f845cf5	1.0340868
171	0xbf38c04a	-0.7216841
172	0x3f0776d3	0.52915686
173	0xbf159671	-0.5843268
174	0xbe73b9c9	-0.2380134
175	0xbe895918	-0.26825786
176	0x3e9d878a	0.3076747
177	0x3ed16dff	0.40904233
178	0xbe7a5769	-0.24447407
179	0x3e879283	0.26478967
180	0xbe89254f	-0.26786277
181	0x3eba1827	0.36346552
182	0xbece3394	-0.40273726
183	0x3f1372da	0.57597125
184	0xbca5b3fc	-0.020227425
185	0x3e883ea7	0.266103
186	0xbdf82aaf	-0.12117516
187	0xbc86292f	-0.01637706
188	0xbcb3c9ce	-0.021946814
189	0x3f298ee3	0.6623365
190	0xbf0a51a1	-0.54030806
191	0x3d64bbf6	0.055843316
192	0xbea94570	-0.3306079
193	0x3f6752a2	0.9036046
194	0x3e717a16	0.23581728
195	0x3ce92a69	0.028462606
196	0x3f81eee1	1.0151025
197	0x3d48e048	0.049042016
198	0x3ec4f76b	0.38470015
199	0xbe291fd7	-0.16516052
200	0xbe7b6988	-0.24551976
201	0x3f22d9ab	0.63613385
202	0x3e395787	0.18099795
203	0xbf08688b	-0.5328452
204	0x3f7fb61b	0.99887246
205	0x3ee2fb41	0.44332317
206	0xbe84efd9	-0.2596424
207	0xbc58ad35	-0.0132248895
208	0x3f36f6d9	0.7147041
209	0x3de4f167	0.11178856
210	0xbe3e5497	-0.18586956
211	0xbe09c9ad	-0.1345584
212	0xbe0c2f24	-0.13689858
213	0x3f72ca90	0.94840336
214	0x3dfa16f9	0.12211413
215	0x3dd8cc48	0.105858386
216	0x3d849ac1	0.064748295
217	0x3d759333	0.059954833
218	0xbd08a84c	-0.033363625
219	0xbeb91f2d	-0.36156598
220	0x3f71c290	0.94437504
221	0x3dcbb62e	0.099468574
222	0xbe8b1967	-0.27167818
223	0x3e388c2b	0.1802222
224	0xbe8529ad	-0.2600836
225	0x3ee2f964	0.44330895
226	0xbf087ad6	-0.5331243
227	0x3e87933c	0.26479518
228	0x3ec510f8	0.3848951
229	0xbcb27a00	-0.02178669
230	0x3e64a5bb	0.22328846
231	0xbf5f2efb	-0.8718106
232	0xbdead8d8	-0.11467141
233	0x3ed1b63b	0.40959343
234	0x3e90e5f1	0.2830043
235	0x3eacdff3	0.3376461
236	0xbf0d78b2	-0.5526229
237	0xbc27d478	-0.010243528
238	0xbefd35ed	-0.49455205
239	0x3f20e71e	0.62852657
240	0xbd656fd5	-0.056014854
241	0x3cc928aa	0.024555523
242	0x3e886c76	0.2664525
243	0xbead782b	-0.33880743
244	0xbe7e4a10	-0.2483294
245	0x3de0a30c	0.10968599
246	0x3e26ea14	0.16300231
247	0xbec6cd90	-0.38828707
248	0xbf85cc37	-1.0452946
249	0x3eedaefe	0.4642257
250	0x3e8ea638	0.2786119
251	0x3e38dc80	0.18052864
252	0x3e7aab8f	0.24479507
253	0x3e59dbaa	0.21275201
254	0x3e5e6123	0.21716742
255	0xbe97d76d	-0.29656544

network_body._body_endoder.seq_layers.0.bias f4 [128]
0	0xbc23fb5d	-0.01000866
1	0x3ce4a972	0.02791283
2	0x3bfb7a52	0.007674494
3	0x3c3fc950	0.0117057115
4	0xbb85eeaf	-0.004087291
5	0x3bf7741d	0.0075516836
6	0x3ca5cd04	0.02023936
7	0x3b683e78	0.0035437625
8	0x3cb00438	0.021486387
9	0xbbec453c	-0.007210402
10	0x3c08cdb2	0.008349823
11	0x3c84b5d4	0.016199984
12	0x3c94db59	0.018171
13	0xbcf8793e	-0.03033125
14	0xbc4f5feb	-0.012657146
15	0xbc7a0c33	-0.015261698
16	0xbc1e99f7	-0.009680263
17	0xbbd5cdf3	-0.006524795
18	0x3ad211bb	0.0016027013
19	0x3d131465	0.03590812
20	0x3c920148	0.017822877
21	0x3b87fce5	0.0041500204
22	0x3c6cf828	0.014463462
23	0x3ce055f0	0.027384728
24	0x3d035c1c	0.032070264
25	0x3c80bc97	0.015714927
26	0xbc4b35ee	-0.012402995
27	0x3ce5f422	0.028070513
28	0x3c3f0a0e	0.011660112
29	0x3c629b41	0.013830961
30	0x3d40c3e3	0.047061812
31	0x3cd0650a	0.025438804
32	0x3c39be59	0.011336886
33	0x3c038e69	0.008029559
34	0xbcf2621b	-0.029587796
35	0xbcb8414d	-0.022492075
36	0x3c42522a	0.01186041
37	0x3c09c005	0.008407597
38	0x3cb97264	0.022637554
39	0x3d520dc3	0.051282655
40	0xbbe28549	-0.0069128615
41	0xbca4220b	-0.020035764
42	0x3cc10d1a	0.023565818
43	0x3b4f3d40	0.0031622201
44	0x3c9368ee	0.01799437
45	0x3c93cdeb	0.018042525
46	0x3c735740	0.014852345
47	0x3d142749	0.036170278
48	0x3d07ab97	0.033122625
49	0x3cf69c8b	0.030103942
50	0xbc7077dd	-0.014677015
51	0x3bfc87ca	0.007706617
52	0xba311a14	-0.00067559
53	0x3ca7f0dc	0.020500593
54	0x3b2b041e	0.0026094983
55	0x3b06ed51	0.002058823
56	0x394d9081	0.00019604155
57	0x3ab4e901	0.0013802351
58	0xbc405464	-0.01173887
59	0xbc830110	-0.015991718
60	0xbaeb19bd	-0.0017936748
61	0xbcd86024	-0.02641303
62	0xbbc97af3	-0.00614869
63	0x3d0ab971	0.033868257
64	0x3cb109f7	0.021611197
65	0xbc0b25da	-0.008492911
66	0x3b8cb427	0.004293937
67	0x3bb9bb9b	0.0056681163
68	0x3be3a3bb	0.0069470084
69	0x3bdd8986	0.006760779
70	0x3bf73cff	0.007545113
71	0x3d1a9662	0.037741072
72	0x3cb1e34e	0.021714833
73	0x3c9fb21a	0.019494105
74	0x3d2a656d	0.041600633
75	0xbc0c98e1	-0.008581371
76	0xbb80fd75	-0.0039364644
77	0x3bec19c0	0.007205218
78	0xbbd13452	-0.006384411
79	0x3d68b382	0.056811817
80	0x3d2b1360	0.041766524
81	0x3c27c1c8	0.010239072
82	0x3c29d8df	0.0103666475
83	0xbc7ed2be	-0.015553175
84	0xbc4eb75a	-0.012616957
85	0x3b69a80e	0.0035653147
86	0x3c81cdf3	0.015845275
87	0x3c4ca024	0.012489352
88	0x3d2b2d44	0.041791216
89	0xbc95ae8c	-0.018271707
90	0x3ba58d24	0.0050522257
91	0x3c10700d	0.0088157775
92	0x3c06157a	0.008183831
93	0x3bbd6fb1	0.005781137
94	0x3cf8e447	0.030382289
95	0x3d0a40d9	0.03375325
96	0xbbac8c4b	-0.0052657477
97	0x3b19593f	0.0023399142
98	0x37e97d85	2.7834214e-05
99	0xbd091e33	-0.033476066
100	0x3c4693e2	0.012120219
101	0x3d1e4496	0.038639627
102	0x3cef0a18	0.029179618
103	0x3d3e8468	0.04651299
104	0x3c8f23ca	0.01747312
105	0x3b29076b	0.0025791775
106	0x3cb11e36	0.021620851
107	0xbcb10015	-0.021606484
108	0xbbdfa2b9	-0.006824818
109	0x3cd7e1ef	0.02635285
110	0x3bb8c811	0.005639084
111	0x3cc548af	0.02408251
112	0x3d075193	0.03303678
113	0x3c439ee0	0.011939734
114	0x3c002c76	0.0078231
115	0x3c180b15	0.009279986
116	0x3bd01fd4	0.0063514505
117	0x3cb262e6	0.021775674
118	0x3c8bb238	0.017052755
119	0x3c88c3af	0.016694872
120	0x3d221603	0.039571773
121	0x3cc0a505	0.023516187
122	0x3c89361f	0.01674944
123	0xbc24dc8c	-0.010062348
124	0xbb96c705	-0.0046013617
125	0x3bf6241a	0.007511628
126	0xbc8f9c99	-0.017530726
127	0xbb19f8e2	-0.0023494293

network_body._body_endoder.seq_layers.2.weight f4 [128, 128]
0	0xbdd1b6ec	-0.10239968
1	0xbbd4b39c	-0.0064911377
2	0xbcc08050	-0.023498684
3	0x3c4e053e	0.012574492
4	0xbd9e28b5	-0.07722608
5	0x3db7bac9	0.08971173
6	0x3e902edd	0.28160754
7	0xbb8744a2	-0.0041280547
8	0x3e55fb50	0.2089665
9	0xbbc565d1	-0.0060241004
10	0xbc06316c	-0.008190494
11	0x3d878975	0.06618015
12	0xbd883fa8	-0.066527665
13	0xbdc8edc6	-0.09810977
14	0xbc8f09f5	-0.017460803
15	0xbd384b06	-0.044993423
16	0xbe39db6c	-0.18150109
17	0x3d157a51	0.036493603
18	0x3c7e59dd	0.015524355
19	0x3c784190	0.01515235
20	0x3dc62d6e	0.09676634
21	0x3b79449c	0.003803528
22	0xbe67d892	-0.22641209
23	0x3e1ec3a2	0.15504315
24	0xbe71ebf2	-0.23625162
25	0x3c314c96	0.010821482
26	0xbd15f73a	-0.036612727
27	0xbdb88cc5	-0.09011225
28	0x3d2d2f36	0.042281352
29	0xbda61a4e	-0.08110486
30	0x3e1dde8d	0.15416928
31	0xbd278598	-0.04089889
32	0x3dd45219	0.103672214
33	0x3d937922	0.072008386
34	0xbd72ab63	-0.05924548
35	0xbe09b2fb	-0.13447182
36	0x3bc6a3c9	0.006062005
37	0xbd05662d	-0.032568146
38	0x3d989004	0.07449344
39	0x3e01eee4	0.12688786
40	0xbc172622	-0.0092254
41	0x3daa1fb5	0.08306829
42	0x3c0a8464	0.008454416
43	0xbd9dab05	-0.07698635
44	0xbdb99e48	-0.09063393
45	0xbd735a9c	-0.059412584
46	0x3c11acdd	0.0088913115
47	0x3ce0452c	0.027376734
48	0x3d2c43ac	0.042056724
49	0x3dce137d	0.10062311
50	0x3dba08c3	0.090837024
51	0x3b87057a	0.004120526
52	0x3dab95ba	0.083781675
53	0x3e691328	0.22761214
54	0xbe14a2f5	-0.14515288
55	0x3daadd25	0.08342961
56	0x3cdafd2d	0.026732052
57	0xbe2c9d36	-0.16856846
58	0x3dce87b9	0.10084481
59	0xbdb69f72	-0.089171305
60	0x3e00f929	0.12595047
61	0x3dae3c6b	0.085076176
62	0xbd286add	-0.041117538
63	0x3e2d6f86	0.16937074
64	0x3d12d901	0.035851482
65	0x3ce6e336	0.028184514
66	0xbd50eb29	-0.051005516
67	0xbcdd7863	-0.027034944
68	0x3e006f71	0.12542512
69	0x3e6901d6	0.22754607
70	0xbbb7d99e	-0.005610659
71	0xbdfc9292	-0.123326436
72	0xbe1a0906	-0.15042505
73	0xbe28f667	-0.16500245
74	0x3da3490c	0.07972917
75	0xbd0df995	-0.034661848
76	0xbcede321	-0.029038968
77	0xbcd173e1	-0.02556795
78	0x3dae3f0b	0.08508118
79	0x3e2eb443	0.17060952
80	0x3e0ebcc6	0.13939199
81	0xbd9c43fc	-0.076301545
82	0x3dc636d3	0.09678426
83	0x3c389879	0.011266821
84	0x3cab0a76	0.020879012
85	0x3dd40fbb	0.10354563
86	0x3d0d11ab	0.034440678
87	0xbcd4bcbe	-0.025968906
88	0x3e059e1f	0.130486
89	0xbd476ab6	-0.04868575
90	0x3da348d7	0.079728775
91	0xbdcde853	-0.10054078
92	0xbdb0aafb	-0.08626362
93	0xbddf8d22	-0.10915591
94	0xbd7cc73f	-0.061713453
95	0xbe365602	-0.17806247
96	0x3d00baa4	0.031427994
97	0x3d2d554c	0.042317674
98	0xbdcca96b	-0.099932514
99	0x3d90986c	0.07060322
100	0x3df71008	0.120636046
101	0xbb3e769e	-0.00290624
102	0xbe2f784f	-0.17135738
103	0xbd99b19f	-0.07504582
104	0x3c301a99	0.010748529
105	0x3d04f4c1	0.032459978
106	0x3d004086	0.031311534
107	0x3c16b3d9	0.009198152
108	0x3d80148c	0.06253919
109	0x3d27e4b4	0.040989593
110	0xbdd1c09d	-0.10241816
111	0x3e180c49	0.14848436
112	0x3e114687	0.1418706
113	0xbce2fdd0	-0.027708918
114	0x3d64d789	0.055869613
115	0x3ca373cb	0.019952675
116	0xbdaff8dd	-0.08592389
117	0x3d23ea1c	0.040018186
118	0xbe2bdab1	-0.16782643
119	0x3dc283e7	0.094978146
120	0xbd8dd8f6	-0.06926148
121	0xbd39cb9c	-0.045360193
122	0xbcad436c	-0.021150313
123	0x3ca9a1cd	0.020707035
124	0x3de1b26d	0.1102036
125	0x3c31657d	0.010827419
126	0xbd6949d4	-0.056955174
127	0xbd8ad381	-0.067786224
128	0x3da13644	0.078716785
129	0x3cac60c6	0.021042239
130	0x3d86eae8	0.065877736
131	0x3bb3b99f	0.0054847742
132	0xbd0cd626	-0.034383915
133	0x3d9dd3cc	0.07706413
134	0xbdb59df7	-0.0886802
135	0x3dde5c1b	0.108574115
136	0xbd5fac52	-0.054607697
137	0x3dac39a5	0.08409432
138	0x3dbd7ec3	0.092526935
139	0x3d8d7fba	0.069091275
140	0x3cd7d9e6	0.02634902
141	0x3dd5c7d4	0.10438505
142	0x3bb9c84f	0.0056696306
143	0xbcb2cb3c	-0.021825425
144	0x3dfe26b7	0.12409728
145	0x3dc6db5d	0.09709809
146	0x3e4e3561	0.2013755
147	0x3da7c0a8	0.08191043
148	0x3db286e5	0.08717135
149	0xbdcd553a	-0.10026021
150	0x3e2dc16d	0.16968317
151	0x3dc08e2a	0.09402116
152	0x3dc01a04	0.09379962
153	0x3d63f3e1	0.055652503
154	0x3e0edf52	0.13952377
155	0xbd5d2f44	-0.054000154
156	0xbd0008b2	-0.031258292
157	0xbbc2c0f4	-0.005943412
158	0x3da310d2	0.079621926
159	0xbd94787e	-0.072495446
160	0x3d6b1323	0.057391297
161	0xbc99e62d	-0.018786514
162	0x3d8a885e	0.06764291
163	0xbda174b4	-0.078835875
164	0xbd916c96	-0.07100789
165	0xbc193823	-0.009351763
166	0xbde684f5	-0.11255828
167	0x3dab5aaa	0.08366902
168	0xbe0e47ee	-0.13894626
169	0x3cb868e6	0.022510957
170	0x3c1e8d42	0.009677233
171	0xbd1719bf	-0.036889788
172	0x3caaea1f	0.02086359
173	0x3e0ed89f	0.13949822
174	0x3d4a5913	0.049401354
175	0x3bb37fca	0.00547788
176	0x3d2ccad2	0.042185612
177	0xbd0d3bca	-0.034480847
178	0xbd1650ab	-0.036698025
179	0xbd1be508	-0.038060218
180	0xbde3dfec	-0.11126694
181	0xbd994e10	-0.07485592
182	0x3d9917a6	0.07475214
183	0x3b34c450	0.0027582832
184	0x3accfb51	0.0015638863
185	0xbd4253f5	-0.04744335
186	0x3c4a72cf	0.012356474
187	0x3e267264	0.16254574
188	0xbe0da151	-0.13831069
189	0x3e1390b2	0.14410666
190	0x3cfef421	0.03112227
191	0x3cdf3766	0.027248096
192	0x3d82649d	0.06366847
193	0x3d880890	0.06642258
194	0xbb275841	-0.002553478
195	0x3cc87980	0.024471998
196	0xbd6de15c	-0.058076248
197	0xbcdc71ac	-0.026909672
198	0x3c0a01a3	0.008423242
199	0x3e0a5f98	0.13513029
200	0x3d7dff3f	0.062011
201	0x3d8fc6e8	0.0702036
202	0xbd8394ac	-0.06424841
203	0x3e35c6ae	0.17751572
204	0x3c06e36f	0.008232935
205	0x3d977f03	0.073972724
206	0xbda53b1c	-0.08067915
207	0xbdbde629	-0.09272415
208	0xbcddc196	-0.027069848
209	0x3dba46e8	0.090955555
210	0xbd8ed223	-0.06973674
211	0x3bd1bcba	0.006400672
212	0xbd879371	-0.06619919
213	0xbe2f623d	-0.17127319
214	0xbb978b42	-0.004624755
215	0x3c9514db	0.018198421
216	0xbdf6eb8f	-0.12056648
217	0xbda74114	-0.081667095
218	0xbdacc2ed	-0.08435617
219	0x3e25e448	0.16200364
220	0x3d27797e	0.04088735
221	0xbd5e0403	-0.054203045
222	0xbc235181	-0.0099681625
223	0xbde370e4	-0.111055166
224	0x3d323b02	0.043513305
225	0xbd8a346c	-0.0674828
226	0xbe65d326	-0.22443828
227	0xbd6b51b0	-0.05745095
228	0x3e17a591	0.14809252
229	0xbde64ea2	-0.11245467
230	0x3e2aff63	0.16698985
231	0x3dd0a0b2	0.101869
232	0xbd4a9e52	-0.049467392
233	0xbd082832	-0.03324146
234	0xbd05b20e	-0.03264051
235	0xbdd6619f	-0.104678385
236	0x3c6dcbad	0.014513892
237	0x3c5219e7	0.012823558
238	0x3da191d8	0.078891456
239	0x3dd8808c	0.10571393
240	0x3e06d009	0.13165297
241	0x3d3e7005	0.04649355
242	0x3caa5c5f	0.020796
243	0xbd3fa998	-0.046792597
244	0xbe03a5bd	-0.12856193
245	0xbdc484f2	-0.0959567
246	0xbdbe7876	-0.0930032
247	0xbde60aed	-0.11232553
248	0xbdf109cb	-0.11769446
249	0x3e005083	0.12530713
250	0xbcadf38b	-0.021234294
251	0xbccdadec	-0.025107346
252	0x3b68dd5d	0.0035532333
253	0x3d1e0ad5	0.03858455
254	0xbcbdace4	-0.02315373
255	0x3deac8df	0.11464094

network_body._body_endoder.seq_layers.2.bias f4 [128]
0	0x3c452917	0.012033722
1	0x3c2e3e0f	0.010634913
2	0x3a469f05	0.00075767963
3	0x3cb2db82	0.021833185
4	0x3d0456a8	0.032309204
5	0x3c73a7e9	0.014871576
6	0xba0c4822	-0.0005351325
7	0xbb8c22c2	-0.0042766044
8	0x3bab87e7	0.0052347067
9	0x3c41ae8d	0.011821401
10	0xbb21d24d	-0.0024692
11	0x3c5aaa64	0.013346288
12	0x3cb1a92b	0.02168711
13	0x3c3a922b	0.011387388
14	0x3d4ee928	0.050515324
15	0x3b1947fd	0.0023388856
16	0x3c0629d8	0.008188687
17	0x3b255257	0.002522608
18	0x3b437ca6	0.0029828935
19	0x3bd82516	0.006596218
20	0x3c967d73	0.018370366
21	0x3c1239ba	0.008924896
22	0x3cc2d572	0.02378342
23	0x3b4cad61	0.0031231272
24	0x3c84b847	0.016201152
25	0x3c0df249	0.008663722
26	0x3cdc39c0	0.026883006
27	0x3c9a6f36	0.018851858
28	0x3a8fd241	0.0010972695
29	0xbb4d1c1c	-0.0031297272
30	0x3c7bd7bb	0.015371258
31	0xbc24d707	-0.010061032
32	0x3d30daa6	0.04317727
33	0x3c676fd7	0.014125786
34	0xba9e3c81	-0.0012072475
35	0x3cb00c85	0.021490345
36	0x3b55576e	0.0032553333
37	0xbc99ffd2	-0.018798742
38	0x3cc30255	0.023804823
39	0xbbb2399a	-0.0054389955
40	0x3cabfa4a	0.02099337
41	0x3c377f27	0.011199749
42	0x3ca5b98b	0.020230075
43	0xbc04ec99	-0.00811305
44	0xbbc9d6f6	-0.0061596585
45	0x3a96cfab	0.0011505982
46	0xb960375c	-0.00021382928
47	0x3c673916	0.014112731
48	0x3c78d7bb	0.015188153
49	0x3c722fca	0.014781902
50	0x3c769542	0.015050234
51	0x3acb8267	0.0015526534
52	0x3baca4fb	0.0052686906
53	0xbc1f4b2f	-0.009722515
54	0x3bb2a6ad	0.005451998
55	0x3af85607	0.0018946537
56	0x3b6c292e	0.0036035287
57	0x3c8f9a84	0.017529733
58	0x3c5e461e	0.013566522
59	0x3cab51e8	0.02091308
60	0x3c5a25ae	0.013314648
61	0x3cad5639	0.021159278
62	0x3b8596f8	0.004076835
63	0x3b4b42d8	0.0031015184
64	0x3ca40cea	0.02002569
65	0x3baf6fad	0.005353889
66	0x3c45f062	0.0120812375
67	0x3c2533fb	0.010083194
68	0xbc031e86	-0.008002883
69	0xbaa78a7d	-0.0012782362
70	0x3c1bac63	0.009501549
71	0xbb7f4db0	-0.0038956217
72	0x3c323522	0.010876926
73	0x3bf9dd0e	0.0076252287
74	0xbb5316fc	-0.0032209745
75	0x3c9f1c35	0.01942263
76	0xbbddde67	-0.006770897
77	0x3d3c57e0	0.04598224
78	0x3c7235a8	0.0147833
79	0x3ca4b708	0.020106807
80	0x39c11ad0	0.00036831805
81	0xbbcaa288	-0.006183926
82	0x3bbf568c	0.0058391746
83	0xbc1ba82c	-0.0095005445
84	0x3be38b2c	0.006944081
85	0x3d2d8d86	0.042371295
86	0xbb84b5c0	-0.0040499866
87	0x3c91f25d	0.017815763
88	0x3bea3744	0.0071477015
89	0x3cc2b15f	0.023766218
90	0x3cd9f9dd	0.026608402
91	0x38b86698	8.792913e-05
92	0x3c4eefbf	0.012630402
93	0x3c0dc1b2	0.008652138
94	0x3ca4cc04	0.020116813
95	0x3cc02b9f	0.0234583
96	0x3d046802	0.032325752
97	0xbc38adfa	-0.011271948
98	0x3cd700ef	0.026245562
99	0x3c9da444	0.019243367
100	0x3ca999d7	0.02070324
101	0x3b648f31	0.0034875388
102	0xbd0425b7	-0.03226253
103	0x3c842488	0.0161307
104	0x3bc1458b	0.0058981827
105	0xbb32e673	-0.0027298003
106	0x3c70bf24	0.014694009
107	0x3c18ff79	0.009338253
108	0x39bd4f0f	0.00036107792
109	0x3b50ea85	0.0031878066
110	0x3c5cf332	0.013485717
111	0xbba2bb34	-0.004966164
112	0x3bdaaf37	0.0066737193
113	0x3c65aa38	0.014017634
114	0x3c622a64	0.013804052
115	0x3c4483c2	0.011994304
116	0x3b9f20c9	0.004856203
117	0x3d03f7b5	0.032218654
118	0x3b6f8fe7	0.0036554278
119	0xbc28df71	-0.010307179
120	0xbc14d0e7	-0.009083009
121	0x3c54a4c0	0.012978733
122	0x3b61402b	0.0034370522
123	0x3b3516c5	0.002763198
124	0x3cece6db	0.028918674
125	0x3bf74d9e	0.0075470945
126	0x3b24e940	0.0025163442
127	0x3c397195	0.011318584

action_model._continuous_distribution.log_sigma f4 [1, 2]
0	0x3c9a3cb5	0.018827775
1	0x3cc44de0	0.023962915

action_model._continuous_distribution.mu.weight f4 [2, 128]
0	0x3ce6a6ce	0.02815571
1	0xbd004256	-0.031313263
2	0x3b45f1c7	0.0030203925
3	0x3c9faa03	0.019490248
4	0x3d003632	0.031301685
5	0xbd8369bf	-0.06416654
6	0x3bde816d	0.006790331
7	0xbbba1f7c	-0.0056800228
8	0xbd0abaf6	-0.033869706
9	0xbc14eeda	-0.00909015
10	0xbc957ad4	-0.018247046
11	0xbd2b3781	-0.04180098
12	0x3cb1cea1	0.021704974
13	0x3ce82628	0.028338507
14	0x3d2a8d04	0.04163839
15	0x3cf233f9	0.029565798
16	0x3c224095	0.009903093
17	0x3c9bf6d2	0.019038592
18	0xbcb8ecdc	-0.02257388
19	0xbcac766e	-0.021052565
20	0x3cef1647	0.029185427
21	0xbcab8d16	-0.020941298
22	0xbd06bbb2	-0.032893844
23	0xbcb38cdc	-0.021917753
24	0x3b88a341	0.004169852
25	0x3d4d0896	0.050057016
26	0x3cc9da62	0.024640266
27	0x3d1d8494	0.038456514
28	0x3c3b6849	0.011438438
29	0x3b8a30c1	0.0042172377
30	0xbd0a29f7	-0.033731427
31	0xbc453751	-0.012037114
32	0xbc82f74e	-0.015987065
33	0x3ca81543	0.02051795
34	0x3c959e83	0.01826406
35	0x3d83737b	0.064185105
36	0xbc30d3cc	-0.010792684
37	0xbc9d1d73	-0.019179082
38	0xbd8f8825	-0.070083894
39	0x3c6ba1ac	0.014381807
40	0x3d041497	0.0322462
41	0xbd1aaacb	-0.037760537
42	0xbd28dad0	-0.0412243
43	0x3bcc2d53	0.006230989
44	0xbd08d67b	-0.03340767
45	0xbaf63873	-0.0018785134
46	0xbc668e30	-0.014071986
47	0x3b9c6e98	0.004773926
48	0x3ceced69	0.0289218
49	0x3d0d1417	0.034442987
50	0x3d2e9647	0.042623784
51	0x3cc2d1df	0.023781715
52	0xbcbfc2b2	-0.023408268
53	0xba4fef74	-0.00079321046
54	0x3cca822c	0.024720274
55	0x3cc38c7c	0.0238707
56	0x3d00eb0c	0.03147416
57	0xbd3ad46a	-0.04561273
58	0xbcee8df7	-0.029120428
59	0xbd2efb93	-0.04272039
60	0x3b6ebb11	0.0036427418
61	0xbcaa23b6	-0.020768981
62	0xbc8cd5a3	-0.017191714
63	0xbcf727e1	-0.030170383
64	0x3bd46755	0.0064820447
65	0x3be57417	0.0070023644
66	0x3c931705	0.017955313
67	0x3c6c7d75	0.014434208
68	0xbb29ea4b	-0.0025927003
69	0xbc99971d	-0.018748814
70	0x3d604362	0.05475176
71	0x3b254837	0.0025220045
72	0xbc8a2473	-0.016863083
73	0xbc87fbdc	-0.016599588
74	0x3cef624f	0.029221682
75	0x3a764546	0.0009394478
76	0x3bafc6a8	0.005364258
77	0x3d5c61ff	0.053804394
78	0xbd2239f6	-0.039606057
79	0x3c7b388b	0.015333305
80	0x3bb72740	0.0055893958
81	0x3c9014c8	0.017588034
82	0xbd374a14	-0.04474838
83	0xbc9096e3	-0.017650073
84	0x3bc97c4b	0.00614885
85	0xbd392c75	-0.045208413
86	0x39ab39ac	0.0003265863
87	0x3d6526fe	0.05594539
88	0x3c0bd940	0.008535683
89	0x3c839e53	0.016066706
90	0x3d98267b	0.074292146
91	0xbc36fec2	-0.011169137
92	0xbb2c6427	-0.0026304813
93	0xbd17563b	-0.03694747
94	0xbc23f43c	-0.0100069605
95	0xbc1a65c4	-0.009423677
96	0xbc3e1483	-0.01160157
97	0x3c2c24f0	0.010506853
98	0x3cd86473	0.026415085
99	0xbd192945	-0.037392873
100	0x3cff0f88	0.031135336
101	0x3b47260d	0.003038767
102	0xbc8895f4	-0.016673066
103	0xbd44e2e8	-0.048067957
104	0xbccf8505	-0.025331983
105	0x3d0a38dc	0.03374563
106	0xbce91794	-0.028453626
107	0xbc88e6fd	-0.016711706
108	0xbcf901cc	-0.030396365
109	0x39ab352c	0.00032655278
110	0x3ceed48f	0.02915409
111	0x3ccf0834	0.025272466
112	0x3caa3b38	0.02078019
113	0xbd3fd8d0	-0.046837628
114	0xbd0ca8d5	-0.0343407
115	0xbcb23512	-0.021753822
116	0xbbbd5d1d	-0.0057789222
117	0xbd719dcd	-0.05898838
118	0xbcdb7a92	-0.026791845
119	0xbcbb3197	-0.022850795
120	0xbc64932e	-0.013951106
121	0xbd710456	-0.058842026
122	0x3c118d31	0.00888376
123	0xbc822449	-0.015886443
124	0x3c345845	0.011007373
125	0xbc128829	-0.008943596
126	0xbcb5b453	-0.022180712
127	0x3d6c6286	0.057711147
128	0x3c6f1639	0.014592701
129	0x3c2f6fa4	0.01070777
130	0x3ce5cb8a	0.028051157
131	0xbd46eda2	-0.048566468
132	0x3d9da6cb	0.07697829
133	0x3c2038c9	0.009779164
134	0xbc22af37	-0.00992947
135	0x3c972020	0.018447936
136	0xbcd6bd77	-0.02621339
137	0xbd026fe3	-0.031844985
138	0x3b53f974	0.003234473
139	0xbc1822fa	-0.009285683
140	0x3d2589cb	0.040414613
141	0x3d08238b	0.03323702
142	0xbc594f23	-0.013263497
143	0xbb4914b4	-0.0030682506
144	0xbd39da39	-0.04537413
145	0x3bc221d0	0.005924441
146	0x3d36324d	0.044481564
147	0x3bcd7c12	0.006270894
148	0xbcf9e596	-0.030504983
149	0xbb92dbee	-0.004481784
150	0xbd32bfcc	-0.043639943
151	0xbc2242b4	-0.009903599
152	0x3d8edc5b	0.06975623
153	0xbd6164d9	-0.055027816
154	0xbd1e2141	-0.038605932
155	0xbaeb4c42	-0.0017951804
156	0xbc1032b7	-0.008801154
157	0x3cf1e202	0.029526714
158	0x3be13936	0.006873275
159	0x3c281656	0.010259232
160	0x3d8f9266	0.07010345
161	0xbcc48b38	-0.023992166
162	0x3c6f6aaa	0.014612833
163	0x3cd7da55	0.026349226
164	0x3c90acb0	0.017660469
165	0x3c424a69	0.011858561
166	0xbcbe8e0a	-0.023261089
167	0x3bb092f3	0.0053886115
168	0xbc06088b	-0.008180748
169	0xbd072f22	-0.033003934
170	0x3c04c927	0.008104599
171	0x3cb55a4a	0.02213778
172	0xbbf057d5	-0.007334689
173	0x3c5aefa1	0.013362796
174	0x3d1313a7	0.035907414
175	0xbd705f22	-0.058684476
176	0xbc96a92d	-0.018391216
177	0x3b8d35f7	0.0043094116
178	0x3c91a1b3	0.0177773
179	0x3ca02733	0.019549942
180	0x3c553d16	0.013015052
181	0x3b430743	0.0029758967
182	0x3c8929be	0.016743537
183	0xbc2372ee	-0.009976132
184	0xbcb3c755	-0.021945635
185	0xbb56bba2	-0.0032765646
186	0xbcacefe3	-0.02111048
187	0x3ce8f196	0.02843551
188	0x3d24ba8b	0.040216964
189	0xbcfee1b8	-0.03111349
190	0x3d151483	0.036396515
191	0xbc3f3f64	-0.011672828
192	0x3d535f9b	0.05160485
193	0x3c8b0af6	0.016973
194	0x3a8a1299	0.0010534107
195	0x3cdc790a	0.026913185
196	0x3cd0738b	0.02544572
197	0xbc3514f0	-0.011052355
198	0xbc2ebf9e	-0.010665802
199	0xbc0804a7	-0.00830189
200	0xbcd9eddf	-0.026602684
201	0xbb7130bc	-0.003680273
202	0x3c3289a9	0.010897079
203	0xbd11704a	-0.035507478
204	0x3cbda42c	0.023149572
205	0xb8b30adc	-8.537408e-05
206	0x3bdf9ef1	0.006824367
207	0x3c9e0640	0.01929009
208	0x3c8064fa	0.01567315
209	0x3c09b852	0.008405762
210	0xbce8f223	-0.028435772
211	0x3b17312f	0.0023070087
212	0xbcaed6cb	-0.021342656
213	0x3d8480a7	0.06469851
214	0x3bfaa967	0.007649589
215	0x3b9fd943	0.0048781945
216	0xbc8aec80	-0.016958475
217	0xbd018107	-0.03161719
218	0x3d1b11a7	0.03785863
219	0x3ceeffd2	0.029174719
220	0xbcf4aab2	-0.02986655
221	0xbcea585a	-0.028606582
222	0xbce70334	-0.02819977
223	0xbd3e815a	-0.046510078
224	0x3d464191	0.048402373
225	0x3c5e5b48	0.013571568
226	0xbd49f981	-0.04931021
227	0xbbef205f	-0.00729756
228	0x3ba42d81	0.0050103073
229	0x3c75df92	0.015006917
230	0xbb930c4a	-0.004487549
231	0xbc4a557c	-0.012349483
232	0x3c8145bd	0.015780324
233	0x3d0ad6bd	0.033896197
234	0xbd2358c0	-0.03987956
235	0x3d48596c	0.048913404
236	0x3b7cf28f	0.0038596725
237	0xbcac2940	-0.021015763
238	0xbd07cd0e	-0.03315454
239	0x3ceef9cc	0.029171847
240	0xbc35c685	-0.011094694
241	0xbb42b46b	-0.0029709588
242	0x3cd703b3	0.026246881
243	0xbcbc1134	-0.022957422
244	0xbc943789	-0.018092887
245	0xbd04af01	-0.03239346
246	0x3c20bb25	0.009810244
247	0x3c904d44	0.017614968
248	0x3bc49028	0.00599863
249	0xbc2be609	-0.010491856
250	0x3cd79cf4	0.026319958
251	0xbc146f2e	-0.00905971
252	0xbd318861	-0.04334295
253	0xbc2a89cc	-0.01040883
254	0x3d0a5cb4	0.033779815
255	0xbd009433	-0.031391334

action_model._continuous_distribution.mu.bias f4 [2]
0	0x3907874d	0.00012925007
1	0xbbce2aaa	-0.006291707
